WARNING: Logging before InitGoogleLogging() is written to STDERR
I0107 20:41:01.507542 14973 net.cpp:46] Initializing net from parameters: 
name: "BN-Inception"
input: "data"
input_dim: 1
input_dim: 3
input_dim: 224
input_dim: 224
state {
  phase: TEST
}
layer {
  name: "conv1/7x7_s2"
  type: "Convolution"
  bottom: "data"
  top: "conv1/7x7_s2"
  param {
    lr_mult: 1
    decay_mult: 1
  }
  param {
    lr_mult: 2
    decay_mult: 0
  }
  convolution_param {
    num_output: 64
    pad: 3
    kernel_size: 7
    stride: 2
    weight_filler {
      type: "xavier"
    }
    bias_filler {
      type: "constant"
      value: 0.2
    }
  }
}
layer {
  name: "conv1/7x7_s2_bn"
  type: "BN"
  bottom: "conv1/7x7_s2"
  top: "conv1/7x7_s2_bn"
  param {
    lr_mult: 1
    decay_mult: 0
  }
  param {
    lr_mult: 1
    decay_mult: 0
  }
  bn_param {
    slope_filler {
      type: "constant"
      value: 1
    }
    bias_filler {
      type: "constant"
      value: 0
    }
    frozen: true
  }
}
layer {
  name: "conv1/relu_7x7"
  type: "ReLU"
  bottom: "conv1/7x7_s2_bn"
  top: "conv1/7x7_s2_bn"
}
layer {
  name: "pool1/3x3_s2"
  type: "Pooling"
  bottom: "conv1/7x7_s2_bn"
  top: "pool1/3x3_s2"
  pooling_param {
    pool: MAX
    kernel_size: 3
    stride: 2
  }
}
layer {
  name: "conv2/3x3_reduce"
  type: "Convolution"
  bottom: "pool1/3x3_s2"
  top: "conv2/3x3_reduce"
  param {
    lr_mult: 1
    decay_mult: 1
  }
  param {
    lr_mult: 2
    decay_mult: 0
  }
  convolution_param {
    num_output: 64
    kernel_size: 1
    weight_filler {
      type: "xavier"
    }
    bias_filler {
      type: "constant"
      value: 0.2
    }
  }
}
layer {
  name: "conv2/3x3_reduce_bn"
  type: "BN"
  bottom: "conv2/3x3_reduce"
  top: "conv2/3x3_reduce_bn"
  param {
    lr_mult: 1
    decay_mult: 0
  }
  param {
    lr_mult: 1
    decay_mult: 0
  }
  bn_param {
    slope_filler {
      type: "constant"
      value: 1
    }
    bias_filler {
      type: "constant"
      value: 0
    }
    frozen: true
  }
}
layer {
  name: "conv2/relu_3x3_reduce"
  type: "ReLU"
  bottom: "conv2/3x3_reduce_bn"
  top: "conv2/3x3_reduce_bn"
}
layer {
  name: "conv2/3x3"
  type: "Convolution"
  bottom: "conv2/3x3_reduce_bn"
  top: "conv2/3x3"
  param {
    lr_mult: 1
    decay_mult: 1
  }
  param {
    lr_mult: 2
    decay_mult: 0
  }
  convolution_param {
    num_output: 192
    pad: 1
    kernel_size: 3
    weight_filler {
      type: "xavier"
    }
    bias_filler {
      type: "constant"
      value: 0.2
    }
  }
}
layer {
  name: "conv2/3x3_bn"
  type: "BN"
  bottom: "conv2/3x3"
  top: "conv2/3x3_bn"
  param {
    lr_mult: 1
    decay_mult: 0
  }
  param {
    lr_mult: 1
    decay_mult: 0
  }
  bn_param {
    slope_filler {
      type: "constant"
      value: 1
    }
    bias_filler {
      type: "constant"
      value: 0
    }
    frozen: true
  }
}
layer {
  name: "conv2/relu_3x3"
  type: "ReLU"
  bottom: "conv2/3x3_bn"
  top: "conv2/3x3_bn"
}
layer {
  name: "pool2/3x3_s2"
  type: "Pooling"
  bottom: "conv2/3x3_bn"
  top: "pool2/3x3_s2"
  pooling_param {
    pool: MAX
    kernel_size: 3
    stride: 2
  }
}
layer {
  name: "inception_3a/1x1"
  type: "Convolution"
  bottom: "pool2/3x3_s2"
  top: "inception_3a/1x1"
  param {
    lr_mult: 1
    decay_mult: 1
  }
  param {
    lr_mult: 2
    decay_mult: 0
  }
  convolution_param {
    num_output: 64
    kernel_size: 1
    weight_filler {
      type: "xavier"
    }
    bias_filler {
      type: "constant"
      value: 0.2
    }
  }
}
layer {
  name: "inception_3a/1x1_bn"
  type: "BN"
  bottom: "inception_3a/1x1"
  top: "inception_3a/1x1_bn"
  param {
    lr_mult: 1
    decay_mult: 0
  }
  param {
    lr_mult: 1
    decay_mult: 0
  }
  bn_param {
    slope_filler {
      type: "constant"
      value: 1
    }
    bias_filler {
      type: "constant"
      value: 0
    }
    frozen: true
  }
}
layer {
  name: "inception_3a/relu_1x1"
  type: "ReLU"
  bottom: "inception_3a/1x1_bn"
  top: "inception_3a/1x1_bn"
}
layer {
  name: "inception_3a/3x3_reduce"
  type: "Convolution"
  bottom: "pool2/3x3_s2"
  top: "inception_3a/3x3_reduce"
  param {
    lr_mult: 1
    decay_mult: 1
  }
  param {
    lr_mult: 2
    decay_mult: 0
  }
  convolution_param {
    num_output: 64
    kernel_size: 1
    weight_filler {
      type: "xavier"
    }
    bias_filler {
      type: "constant"
      value: 0.2
    }
  }
}
layer {
  name: "inception_3a/3x3_reduce_bn"
  type: "BN"
  bottom: "inception_3a/3x3_reduce"
  top: "inception_3a/3x3_reduce_bn"
  param {
    lr_mult: 1
    decay_mult: 0
  }
  param {
    lr_mult: 1
    decay_mult: 0
  }
  bn_param {
    slope_filler {
      type: "constant"
      value: 1
    }
    bias_filler {
      type: "constant"
      value: 0
    }
    frozen: true
  }
}
layer {
  name: "inception_3a/relu_3x3_reduce"
  type: "ReLU"
  bottom: "inception_3a/3x3_reduce_bn"
  top: "inception_3a/3x3_reduce_bn"
}
layer {
  name: "inception_3a/3x3"
  type: "Convolution"
  bottom: "inception_3a/3x3_reduce_bn"
  top: "inception_3a/3x3"
  param {
    lr_mult: 1
    decay_mult: 1
  }
  param {
    lr_mult: 2
    decay_mult: 0
  }
  convolution_param {
    num_output: 64
    pad: 1
    kernel_size: 3
    weight_filler {
      type: "xavier"
    }
    bias_filler {
      type: "constant"
      value: 0.2
    }
  }
}
layer {
  name: "inception_3a/3x3_bn"
  type: "BN"
  bottom: "inception_3a/3x3"
  top: "inception_3a/3x3_bn"
  param {
    lr_mult: 1
    decay_mult: 0
  }
  param {
    lr_mult: 1
    decay_mult: 0
  }
  bn_param {
    slope_filler {
      type: "constant"
      value: 1
    }
    bias_filler {
      type: "constant"
      value: 0
    }
    frozen: true
  }
}
layer {
  name: "inception_3a/relu_3x3"
  type: "ReLU"
  bottom: "inception_3a/3x3_bn"
  top: "inception_3a/3x3_bn"
}
layer {
  name: "inception_3a/double_3x3_reduce"
  type: "Convolution"
  bottom: "pool2/3x3_s2"
  top: "inception_3a/double_3x3_reduce"
  param {
    lr_mult: 1
    decay_mult: 1
  }
  param {
    lr_mult: 2
    decay_mult: 0
  }
  convolution_param {
    num_output: 64
    kernel_size: 1
    weight_filler {
      type: "xavier"
    }
    bias_filler {
      type: "constant"
      value: 0.2
    }
  }
}
layer {
  name: "inception_3a/double_3x3_reduce_bn"
  type: "BN"
  bottom: "inception_3a/double_3x3_reduce"
  top: "inception_3a/double_3x3_reduce_bn"
  param {
    lr_mult: 1
    decay_mult: 0
  }
  param {
    lr_mult: 1
    decay_mult: 0
  }
  bn_param {
    slope_filler {
      type: "constant"
      value: 1
    }
    bias_filler {
      type: "constant"
      value: 0
    }
    frozen: true
  }
}
layer {
  name: "inception_3a/relu_double_3x3_reduce"
  type: "ReLU"
  bottom: "inception_3a/double_3x3_reduce_bn"
  top: "inception_3a/double_3x3_reduce_bn"
}
layer {
  name: "inception_3a/double_3x3_1"
  type: "Convolution"
  bottom: "inception_3a/double_3x3_reduce_bn"
  top: "inception_3a/double_3x3_1"
  param {
    lr_mult: 1
    decay_mult: 1
  }
  param {
    lr_mult: 2
    decay_mult: 0
  }
  convolution_param {
    num_output: 96
    pad: 1
    kernel_size: 3
    weight_filler {
      type: "xavier"
    }
    bias_filler {
      type: "constant"
      value: 0.2
    }
  }
}
layer {
  name: "inception_3a/double_3x3_1_bn"
  type: "BN"
  bottom: "inception_3a/double_3x3_1"
  top: "inception_3a/double_3x3_1_bn"
  param {
    lr_mult: 1
    decay_mult: 0
  }
  param {
    lr_mult: 1
    decay_mult: 0
  }
  bn_param {
    slope_filler {
      type: "constant"
      value: 1
    }
    bias_filler {
      type: "constant"
      value: 0
    }
    frozen: true
  }
}
layer {
  name: "inception_3a/relu_double_3x3_1"
  type: "ReLU"
  bottom: "inception_3a/double_3x3_1_bn"
  top: "inception_3a/double_3x3_1_bn"
}
layer {
  name: "inception_3a/double_3x3_2"
  type: "Convolution"
  bottom: "inception_3a/double_3x3_1_bn"
  top: "inception_3a/double_3x3_2"
  param {
    lr_mult: 1
    decay_mult: 1
  }
  param {
    lr_mult: 2
    decay_mult: 0
  }
  convolution_param {
    num_output: 96
    pad: 1
    kernel_size: 3
    weight_filler {
      type: "xavier"
    }
    bias_filler {
      type: "constant"
      value: 0.2
    }
  }
}
layer {
  name: "inception_3a/double_3x3_2_bn"
  type: "BN"
  bottom: "inception_3a/double_3x3_2"
  top: "inception_3a/double_3x3_2_bn"
  param {
    lr_mult: 1
    decay_mult: 0
  }
  param {
    lr_mult: 1
    decay_mult: 0
  }
  bn_param {
    slope_filler {
      type: "constant"
      value: 1
    }
    bias_filler {
      type: "constant"
      value: 0
    }
    frozen: true
  }
}
layer {
  name: "inception_3a/relu_double_3x3_2"
  type: "ReLU"
  bottom: "inception_3a/double_3x3_2_bn"
  top: "inception_3a/double_3x3_2_bn"
}
layer {
  name: "inception_3a/pool"
  type: "Pooling"
  bottom: "pool2/3x3_s2"
  top: "inception_3a/pool"
  pooling_param {
    pool: AVE
    kernel_size: 3
    stride: 1
    pad: 1
  }
}
layer {
  name: "inception_3a/pool_proj"
  type: "Convolution"
  bottom: "inception_3a/pool"
  top: "inception_3a/pool_proj"
  param {
    lr_mult: 1
    decay_mult: 1
  }
  param {
    lr_mult: 2
    decay_mult: 0
  }
  convolution_param {
    num_output: 32
    kernel_size: 1
    weight_filler {
      type: "xavier"
    }
    bias_filler {
      type: "constant"
      value: 0.2
    }
  }
}
layer {
  name: "inception_3a/pool_proj_bn"
  type: "BN"
  bottom: "inception_3a/pool_proj"
  top: "inception_3a/pool_proj_bn"
  param {
    lr_mult: 1
    decay_mult: 0
  }
  param {
    lr_mult: 1
    decay_mult: 0
  }
  bn_param {
    slope_filler {
      type: "constant"
      value: 1
    }
    bias_filler {
      type: "constant"
      value: 0
    }
    frozen: true
  }
}
layer {
  name: "inception_3a/relu_pool_proj"
  type: "ReLU"
  bottom: "inception_3a/pool_proj_bn"
  top: "inception_3a/pool_proj_bn"
}
layer {
  name: "inception_3a/output"
  type: "Concat"
  bottom: "inception_3a/1x1_bn"
  bottom: "inception_3a/3x3_bn"
  bottom: "inception_3a/double_3x3_2_bn"
  bottom: "inception_3a/pool_proj_bn"
  top: "inception_3a/output"
}
layer {
  name: "inception_3b/1x1"
  type: "Convolution"
  bottom: "inception_3a/output"
  top: "inception_3b/1x1"
  param {
    lr_mult: 1
    decay_mult: 1
  }
  param {
    lr_mult: 2
    decay_mult: 0
  }
  convolution_param {
    num_output: 64
    kernel_size: 1
    weight_filler {
      type: "xavier"
    }
    bias_filler {
      type: "constant"
      value: 0.2
    }
  }
}
layer {
  name: "inception_3b/1x1_bn"
  type: "BN"
  bottom: "inception_3b/1x1"
  top: "inception_3b/1x1_bn"
  param {
    lr_mult: 1
    decay_mult: 0
  }
  param {
    lr_mult: 1
    decay_mult: 0
  }
  bn_param {
    slope_filler {
      type: "constant"
      value: 1
    }
    bias_filler {
      type: "constant"
      value: 0
    }
    frozen: true
  }
}
layer {
  name: "inception_3b/relu_1x1"
  type: "ReLU"
  bottom: "inception_3b/1x1_bn"
  top: "inception_3b/1x1_bn"
}
layer {
  name: "inception_3b/3x3_reduce"
  type: "Convolution"
  bottom: "inception_3a/output"
  top: "inception_3b/3x3_reduce"
  param {
    lr_mult: 1
    decay_mult: 1
  }
  param {
    lr_mult: 2
    decay_mult: 0
  }
  convolution_param {
    num_output: 64
    kernel_size: 1
    weight_filler {
      type: "xavier"
    }
    bias_filler {
      type: "constant"
      value: 0.2
    }
  }
}
layer {
  name: "inception_3b/3x3_reduce_bn"
  type: "BN"
  bottom: "inception_3b/3x3_reduce"
  top: "inception_3b/3x3_reduce_bn"
  param {
    lr_mult: 1
    decay_mult: 0
  }
  param {
    lr_mult: 1
    decay_mult: 0
  }
  bn_param {
    slope_filler {
      type: "constant"
      value: 1
    }
    bias_filler {
      type: "constant"
      value: 0
    }
    frozen: true
  }
}
layer {
  name: "inception_3b/relu_3x3_reduce"
  type: "ReLU"
  bottom: "inception_3b/3x3_reduce_bn"
  top: "inception_3b/3x3_reduce_bn"
}
layer {
  name: "inception_3b/3x3"
  type: "Convolution"
  bottom: "inception_3b/3x3_reduce_bn"
  top: "inception_3b/3x3"
  param {
    lr_mult: 1
    decay_mult: 1
  }
  param {
    lr_mult: 2
    decay_mult: 0
  }
  convolution_param {
    num_output: 96
    pad: 1
    kernel_size: 3
    weight_filler {
      type: "xavier"
    }
    bias_filler {
      type: "constant"
      value: 0.2
    }
  }
}
layer {
  name: "inception_3b/3x3_bn"
  type: "BN"
  bottom: "inception_3b/3x3"
  top: "inception_3b/3x3_bn"
  param {
    lr_mult: 1
    decay_mult: 0
  }
  param {
    lr_mult: 1
    decay_mult: 0
  }
  bn_param {
    slope_filler {
      type: "constant"
      value: 1
    }
    bias_filler {
      type: "constant"
      value: 0
    }
    frozen: true
  }
}
layer {
  name: "inception_3b/relu_3x3"
  type: "ReLU"
  bottom: "inception_3b/3x3_bn"
  top: "inception_3b/3x3_bn"
}
layer {
  name: "inception_3b/double_3x3_reduce"
  type: "Convolution"
  bottom: "inception_3a/output"
  top: "inception_3b/double_3x3_reduce"
  param {
    lr_mult: 1
    decay_mult: 1
  }
  param {
    lr_mult: 2
    decay_mult: 0
  }
  convolution_param {
    num_output: 64
    kernel_size: 1
    weight_filler {
      type: "xavier"
    }
    bias_filler {
      type: "constant"
      value: 0.2
    }
  }
}
layer {
  name: "inception_3b/double_3x3_reduce_bn"
  type: "BN"
  bottom: "inception_3b/double_3x3_reduce"
  top: "inception_3b/double_3x3_reduce_bn"
  param {
    lr_mult: 1
    decay_mult: 0
  }
  param {
    lr_mult: 1
    decay_mult: 0
  }
  bn_param {
    slope_filler {
      type: "constant"
      value: 1
    }
    bias_filler {
      type: "constant"
      value: 0
    }
    frozen: true
  }
}
layer {
  name: "inception_3b/relu_double_3x3_reduce"
  type: "ReLU"
  bottom: "inception_3b/double_3x3_reduce_bn"
  top: "inception_3b/double_3x3_reduce_bn"
}
layer {
  name: "inception_3b/double_3x3_1"
  type: "Convolution"
  bottom: "inception_3b/double_3x3_reduce_bn"
  top: "inception_3b/double_3x3_1"
  param {
    lr_mult: 1
    decay_mult: 1
  }
  param {
    lr_mult: 2
    decay_mult: 0
  }
  convolution_param {
    num_output: 96
    pad: 1
    kernel_size: 3
    weight_filler {
      type: "xavier"
    }
    bias_filler {
      type: "constant"
      value: 0.2
    }
  }
}
layer {
  name: "inception_3b/double_3x3_1_bn"
  type: "BN"
  bottom: "inception_3b/double_3x3_1"
  top: "inception_3b/double_3x3_1_bn"
  param {
    lr_mult: 1
    decay_mult: 0
  }
  param {
    lr_mult: 1
    decay_mult: 0
  }
  bn_param {
    slope_filler {
      type: "constant"
      value: 1
    }
    bias_filler {
      type: "constant"
      value: 0
    }
    frozen: true
  }
}
layer {
  name: "inception_3b/relu_double_3x3_1"
  type: "ReLU"
  bottom: "inception_3b/double_3x3_1_bn"
  top: "inception_3b/double_3x3_1_bn"
}
layer {
  name: "inception_3b/double_3x3_2"
  type: "Convolution"
  bottom: "inception_3b/double_3x3_1_bn"
  top: "inception_3b/double_3x3_2"
  param {
    lr_mult: 1
    decay_mult: 1
  }
  param {
    lr_mult: 2
    decay_mult: 0
  }
  convolution_param {
    num_output: 96
    pad: 1
    kernel_size: 3
    weight_filler {
      type: "xavier"
    }
    bias_filler {
      type: "constant"
      value: 0.2
    }
  }
}
layer {
  name: "inception_3b/double_3x3_2_bn"
  type: "BN"
  bottom: "inception_3b/double_3x3_2"
  top: "inception_3b/double_3x3_2_bn"
  param {
    lr_mult: 1
    decay_mult: 0
  }
  param {
    lr_mult: 1
    decay_mult: 0
  }
  bn_param {
    slope_filler {
      type: "constant"
      value: 1
    }
    bias_filler {
      type: "constant"
      value: 0
    }
    frozen: true
  }
}
layer {
  name: "inception_3b/relu_double_3x3_2"
  type: "ReLU"
  bottom: "inception_3b/double_3x3_2_bn"
  top: "inception_3b/double_3x3_2_bn"
}
layer {
  name: "inception_3b/pool"
  type: "Pooling"
  bottom: "inception_3a/output"
  top: "inception_3b/pool"
  pooling_param {
    pool: AVE
    kernel_size: 3
    stride: 1
    pad: 1
  }
}
layer {
  name: "inception_3b/pool_proj"
  type: "Convolution"
  bottom: "inception_3b/pool"
  top: "inception_3b/pool_proj"
  param {
    lr_mult: 1
    decay_mult: 1
  }
  param {
    lr_mult: 2
    decay_mult: 0
  }
  convolution_param {
    num_output: 64
    kernel_size: 1
    weight_filler {
      type: "xavier"
    }
    bias_filler {
      type: "constant"
      value: 0.2
    }
  }
}
layer {
  name: "inception_3b/pool_proj_bn"
  type: "BN"
  bottom: "inception_3b/pool_proj"
  top: "inception_3b/pool_proj_bn"
  param {
    lr_mult: 1
    decay_mult: 0
  }
  param {
    lr_mult: 1
    decay_mult: 0
  }
  bn_param {
    slope_filler {
      type: "constant"
      value: 1
    }
    bias_filler {
      type: "constant"
      value: 0
    }
    frozen: true
  }
}
layer {
  name: "inception_3b/relu_pool_proj"
  type: "ReLU"
  bottom: "inception_3b/pool_proj_bn"
  top: "inception_3b/pool_proj_bn"
}
layer {
  name: "inception_3b/output"
  type: "Concat"
  bottom: "inception_3b/1x1_bn"
  bottom: "inception_3b/3x3_bn"
  bottom: "inception_3b/double_3x3_2_bn"
  bottom: "inception_3b/pool_proj_bn"
  top: "inception_3b/output"
}
layer {
  name: "inception_3c/3x3_reduce"
  type: "Convolution"
  bottom: "inception_3b/output"
  top: "inception_3c/3x3_reduce"
  param {
    lr_mult: 1
    decay_mult: 1
  }
  param {
    lr_mult: 2
    decay_mult: 0
  }
  convolution_param {
    num_output: 128
    kernel_size: 1
    weight_filler {
      type: "xavier"
    }
    bias_filler {
      type: "constant"
      value: 0.2
    }
  }
}
layer {
  name: "inception_3c/3x3_reduce_bn"
  type: "BN"
  bottom: "inception_3c/3x3_reduce"
  top: "inception_3c/3x3_reduce_bn"
  param {
    lr_mult: 1
    decay_mult: 0
  }
  param {
    lr_mult: 1
    decay_mult: 0
  }
  bn_param {
    slope_filler {
      type: "constant"
      value: 1
    }
    bias_filler {
      type: "constant"
      value: 0
    }
    frozen: true
  }
}
layer {
  name: "inception_3c/relu_3x3_reduce"
  type: "ReLU"
  bottom: "inception_3c/3x3_reduce_bn"
  top: "inception_3c/3x3_reduce_bn"
}
layer {
  name: "inception_3c/3x3"
  type: "Convolution"
  bottom: "inception_3c/3x3_reduce_bn"
  top: "inception_3c/3x3"
  param {
    lr_mult: 1
    decay_mult: 1
  }
  param {
    lr_mult: 2
    decay_mult: 0
  }
  convolution_param {
    num_output: 160
    pad: 1
    kernel_size: 3
    stride: 2
    weight_filler {
      type: "xavier"
    }
    bias_filler {
      type: "constant"
      value: 0.2
    }
  }
}
layer {
  name: "inception_3c/3x3_bn"
  type: "BN"
  bottom: "inception_3c/3x3"
  top: "inception_3c/3x3_bn"
  param {
    lr_mult: 1
    decay_mult: 0
  }
  param {
    lr_mult: 1
    decay_mult: 0
  }
  bn_param {
    slope_filler {
      type: "constant"
      value: 1
    }
    bias_filler {
      type: "constant"
      value: 0
    }
    frozen: true
  }
}
layer {
  name: "inception_3c/relu_3x3"
  type: "ReLU"
  bottom: "inception_3c/3x3_bn"
  top: "inception_3c/3x3_bn"
}
layer {
  name: "inception_3c/double_3x3_reduce"
  type: "Convolution"
  bottom: "inception_3b/output"
  top: "inception_3c/double_3x3_reduce"
  param {
    lr_mult: 1
    decay_mult: 1
  }
  param {
    lr_mult: 2
    decay_mult: 0
  }
  convolution_param {
    num_output: 64
    kernel_size: 1
    weight_filler {
      type: "xavier"
    }
    bias_filler {
      type: "constant"
      value: 0.2
    }
  }
}
layer {
  name: "inception_3c/double_3x3_reduce_bn"
  type: "BN"
  bottom: "inception_3c/double_3x3_reduce"
  top: "inception_3c/double_3x3_reduce_bn"
  param {
    lr_mult: 1
    decay_mult: 0
  }
  param {
    lr_mult: 1
    decay_mult: 0
  }
  bn_param {
    slope_filler {
      type: "constant"
      value: 1
    }
    bias_filler {
      type: "constant"
      value: 0
    }
    frozen: true
  }
}
layer {
  name: "inception_3c/relu_double_3x3_reduce"
  type: "ReLU"
  bottom: "inception_3c/double_3x3_reduce_bn"
  top: "inception_3c/double_3x3_reduce_bn"
}
layer {
  name: "inception_3c/double_3x3_1"
  type: "Convolution"
  bottom: "inception_3c/double_3x3_reduce_bn"
  top: "inception_3c/double_3x3_1"
  param {
    lr_mult: 1
    decay_mult: 1
  }
  param {
    lr_mult: 2
    decay_mult: 0
  }
  convolution_param {
    num_output: 96
    pad: 1
    kernel_size: 3
    weight_filler {
      type: "xavier"
    }
    bias_filler {
      type: "constant"
      value: 0.2
    }
  }
}
layer {
  name: "inception_3c/double_3x3_1_bn"
  type: "BN"
  bottom: "inception_3c/double_3x3_1"
  top: "inception_3c/double_3x3_1_bn"
  param {
    lr_mult: 1
    decay_mult: 0
  }
  param {
    lr_mult: 1
    decay_mult: 0
  }
  bn_param {
    slope_filler {
      type: "constant"
      value: 1
    }
    bias_filler {
      type: "constant"
      value: 0
    }
    frozen: true
  }
}
layer {
  name: "inception_3c/relu_double_3x3_1"
  type: "ReLU"
  bottom: "inception_3c/double_3x3_1_bn"
  top: "inception_3c/double_3x3_1_bn"
}
layer {
  name: "inception_3c/double_3x3_2"
  type: "Convolution"
  bottom: "inception_3c/double_3x3_1_bn"
  top: "inception_3c/double_3x3_2"
  param {
    lr_mult: 1
    decay_mult: 1
  }
  param {
    lr_mult: 2
    decay_mult: 0
  }
  convolution_param {
    num_output: 96
    pad: 1
    kernel_size: 3
    stride: 2
    weight_filler {
      type: "xavier"
    }
    bias_filler {
      type: "constant"
      value: 0.2
    }
  }
}
layer {
  name: "inception_3c/double_3x3_2_bn"
  type: "BN"
  bottom: "inception_3c/double_3x3_2"
  top: "inception_3c/double_3x3_2_bn"
  param {
    lr_mult: 1
    decay_mult: 0
  }
  param {
    lr_mult: 1
    decay_mult: 0
  }
  bn_param {
    slope_filler {
      type: "constant"
      value: 1
    }
    bias_filler {
      type: "constant"
      value: 0
    }
    frozen: true
  }
}
layer {
  name: "inception_3c/relu_double_3x3_2"
  type: "ReLU"
  bottom: "inception_3c/double_3x3_2_bn"
  top: "inception_3c/double_3x3_2_bn"
}
layer {
  name: "inception_3c/pool"
  type: "Pooling"
  bottom: "inception_3b/output"
  top: "inception_3c/pool"
  pooling_param {
    pool: MAX
    kernel_size: 3
    stride: 2
  }
}
layer {
  name: "inception_3c/output"
  type: "Concat"
  bottom: "inception_3c/3x3_bn"
  bottom: "inception_3c/double_3x3_2_bn"
  bottom: "inception_3c/pool"
  top: "inception_3c/output"
}
layer {
  name: "inception_4a/1x1"
  type: "Convolution"
  bottom: "inception_3c/output"
  top: "inception_4a/1x1"
  param {
    lr_mult: 1
    decay_mult: 1
  }
  param {
    lr_mult: 2
    decay_mult: 0
  }
  convolution_param {
    num_output: 224
    kernel_size: 1
    weight_filler {
      type: "xavier"
    }
    bias_filler {
      type: "constant"
      value: 0.2
    }
  }
}
layer {
  name: "inception_4a/1x1_bn"
  type: "BN"
  bottom: "inception_4a/1x1"
  top: "inception_4a/1x1_bn"
  param {
    lr_mult: 1
    decay_mult: 0
  }
  param {
    lr_mult: 1
    decay_mult: 0
  }
  bn_param {
    slope_filler {
      type: "constant"
      value: 1
    }
    bias_filler {
      type: "constant"
      value: 0
    }
    frozen: true
  }
}
layer {
  name: "inception_4a/relu_1x1"
  type: "ReLU"
  bottom: "inception_4a/1x1_bn"
  top: "inception_4a/1x1_bn"
}
layer {
  name: "inception_4a/3x3_reduce"
  type: "Convolution"
  bottom: "inception_3c/output"
  top: "inception_4a/3x3_reduce"
  param {
    lr_mult: 1
    decay_mult: 1
  }
  param {
    lr_mult: 2
    decay_mult: 0
  }
  convolution_param {
    num_output: 64
    kernel_size: 1
    weight_filler {
      type: "xavier"
    }
    bias_filler {
      type: "constant"
      value: 0.2
    }
  }
}
layer {
  name: "inception_4a/3x3_reduce_bn"
  type: "BN"
  bottom: "inception_4a/3x3_reduce"
  top: "inception_4a/3x3_reduce_bn"
  param {
    lr_mult: 1
    decay_mult: 0
  }
  param {
    lr_mult: 1
    decay_mult: 0
  }
  bn_param {
    slope_filler {
      type: "constant"
      value: 1
    }
    bias_filler {
      type: "constant"
      value: 0
    }
    frozen: true
  }
}
layer {
  name: "inception_4a/relu_3x3_reduce"
  type: "ReLU"
  bottom: "inception_4a/3x3_reduce_bn"
  top: "inception_4a/3x3_reduce_bn"
}
layer {
  name: "inception_4a/3x3"
  type: "Convolution"
  bottom: "inception_4a/3x3_reduce_bn"
  top: "inception_4a/3x3"
  param {
    lr_mult: 1
    decay_mult: 1
  }
  param {
    lr_mult: 2
    decay_mult: 0
  }
  convolution_param {
    num_output: 96
    pad: 1
    kernel_size: 3
    weight_filler {
      type: "xavier"
    }
    bias_filler {
      type: "constant"
      value: 0.2
    }
  }
}
layer {
  name: "inception_4a/3x3_bn"
  type: "BN"
  bottom: "inception_4a/3x3"
  top: "inception_4a/3x3_bn"
  param {
    lr_mult: 1
    decay_mult: 0
  }
  param {
    lr_mult: 1
    decay_mult: 0
  }
  bn_param {
    slope_filler {
      type: "constant"
      value: 1
    }
    bias_filler {
      type: "constant"
      value: 0
    }
    frozen: true
  }
}
layer {
  name: "inception_4a/relu_3x3"
  type: "ReLU"
  bottom: "inception_4a/3x3_bn"
  top: "inception_4a/3x3_bn"
}
layer {
  name: "inception_4a/double_3x3_reduce"
  type: "Convolution"
  bottom: "inception_3c/output"
  top: "inception_4a/double_3x3_reduce"
  param {
    lr_mult: 1
    decay_mult: 1
  }
  param {
    lr_mult: 2
    decay_mult: 0
  }
  convolution_param {
    num_output: 96
    kernel_size: 1
    weight_filler {
      type: "xavier"
    }
    bias_filler {
      type: "constant"
      value: 0.2
    }
  }
}
layer {
  name: "inception_4a/double_3x3_reduce_bn"
  type: "BN"
  bottom: "inception_4a/double_3x3_reduce"
  top: "inception_4a/double_3x3_reduce_bn"
  param {
    lr_mult: 1
    decay_mult: 0
  }
  param {
    lr_mult: 1
    decay_mult: 0
  }
  bn_param {
    slope_filler {
      type: "constant"
      value: 1
    }
    bias_filler {
      type: "constant"
      value: 0
    }
    frozen: true
  }
}
layer {
  name: "inception_4a/relu_double_3x3_reduce"
  type: "ReLU"
  bottom: "inception_4a/double_3x3_reduce_bn"
  top: "inception_4a/double_3x3_reduce_bn"
}
layer {
  name: "inception_4a/double_3x3_1"
  type: "Convolution"
  bottom: "inception_4a/double_3x3_reduce_bn"
  top: "inception_4a/double_3x3_1"
  param {
    lr_mult: 1
    decay_mult: 1
  }
  param {
    lr_mult: 2
    decay_mult: 0
  }
  convolution_param {
    num_output: 128
    pad: 1
    kernel_size: 3
    weight_filler {
      type: "xavier"
    }
    bias_filler {
      type: "constant"
      value: 0.2
    }
  }
}
layer {
  name: "inception_4a/double_3x3_1_bn"
  type: "BN"
  bottom: "inception_4a/double_3x3_1"
  top: "inception_4a/double_3x3_1_bn"
  param {
    lr_mult: 1
    decay_mult: 0
  }
  param {
    lr_mult: 1
    decay_mult: 0
  }
  bn_param {
    slope_filler {
      type: "constant"
      value: 1
    }
    bias_filler {
      type: "constant"
      value: 0
    }
    frozen: true
  }
}
layer {
  name: "inception_4a/relu_double_3x3_1"
  type: "ReLU"
  bottom: "inception_4a/double_3x3_1_bn"
  top: "inception_4a/double_3x3_1_bn"
}
layer {
  name: "inception_4a/double_3x3_2"
  type: "Convolution"
  bottom: "inception_4a/double_3x3_1_bn"
  top: "inception_4a/double_3x3_2"
  param {
    lr_mult: 1
    decay_mult: 1
  }
  param {
    lr_mult: 2
    decay_mult: 0
  }
  convolution_param {
    num_output: 128
    pad: 1
    kernel_size: 3
    weight_filler {
      type: "xavier"
    }
    bias_filler {
      type: "constant"
      value: 0.2
    }
  }
}
layer {
  name: "inception_4a/double_3x3_2_bn"
  type: "BN"
  bottom: "inception_4a/double_3x3_2"
  top: "inception_4a/double_3x3_2_bn"
  param {
    lr_mult: 1
    decay_mult: 0
  }
  param {
    lr_mult: 1
    decay_mult: 0
  }
  bn_param {
    slope_filler {
      type: "constant"
      value: 1
    }
    bias_filler {
      type: "constant"
      value: 0
    }
    frozen: true
  }
}
layer {
  name: "inception_4a/relu_double_3x3_2"
  type: "ReLU"
  bottom: "inception_4a/double_3x3_2_bn"
  top: "inception_4a/double_3x3_2_bn"
}
layer {
  name: "inception_4a/pool"
  type: "Pooling"
  bottom: "inception_3c/output"
  top: "inception_4a/pool"
  pooling_param {
    pool: AVE
    kernel_size: 3
    stride: 1
    pad: 1
  }
}
layer {
  name: "inception_4a/pool_proj"
  type: "Convolution"
  bottom: "inception_4a/pool"
  top: "inception_4a/pool_proj"
  param {
    lr_mult: 1
    decay_mult: 1
  }
  param {
    lr_mult: 2
    decay_mult: 0
  }
  convolution_param {
    num_output: 128
    kernel_size: 1
    weight_filler {
      type: "xavier"
    }
    bias_filler {
      type: "constant"
      value: 0.2
    }
  }
}
layer {
  name: "inception_4a/pool_proj_bn"
  type: "BN"
  bottom: "inception_4a/pool_proj"
  top: "inception_4a/pool_proj_bn"
  param {
    lr_mult: 1
    decay_mult: 0
  }
  param {
    lr_mult: 1
    decay_mult: 0
  }
  bn_param {
    slope_filler {
      type: "constant"
      value: 1
    }
    bias_filler {
      type: "constant"
      value: 0
    }
    frozen: true
  }
}
layer {
  name: "inception_4a/relu_pool_proj"
  type: "ReLU"
  bottom: "inception_4a/pool_proj_bn"
  top: "inception_4a/pool_proj_bn"
}
layer {
  name: "inception_4a/output"
  type: "Concat"
  bottom: "inception_4a/1x1_bn"
  bottom: "inception_4a/3x3_bn"
  bottom: "inception_4a/double_3x3_2_bn"
  bottom: "inception_4a/pool_proj_bn"
  top: "inception_4a/output"
}
layer {
  name: "inception_4b/1x1"
  type: "Convolution"
  bottom: "inception_4a/output"
  top: "inception_4b/1x1"
  param {
    lr_mult: 1
    decay_mult: 1
  }
  param {
    lr_mult: 2
    decay_mult: 0
  }
  convolution_param {
    num_output: 192
    kernel_size: 1
    weight_filler {
      type: "xavier"
    }
    bias_filler {
      type: "constant"
      value: 0.2
    }
  }
}
layer {
  name: "inception_4b/1x1_bn"
  type: "BN"
  bottom: "inception_4b/1x1"
  top: "inception_4b/1x1_bn"
  param {
    lr_mult: 1
    decay_mult: 0
  }
  param {
    lr_mult: 1
    decay_mult: 0
  }
  bn_param {
    slope_filler {
      type: "constant"
      value: 1
    }
    bias_filler {
      type: "constant"
      value: 0
    }
    frozen: true
  }
}
layer {
  name: "inception_4b/relu_1x1"
  type: "ReLU"
  bottom: "inception_4b/1x1_bn"
  top: "inception_4b/1x1_bn"
}
layer {
  name: "inception_4b/3x3_reduce"
  type: "Convolution"
  bottom: "inception_4a/output"
  top: "inception_4b/3x3_reduce"
  param {
    lr_mult: 1
    decay_mult: 1
  }
  param {
    lr_mult: 2
    decay_mult: 
I0107 20:41:01.508219 14973 net.cpp:417] Input 0 -> data
I0107 20:41:01.508249 14973 layer_factory.hpp:74] Creating layer conv1/7x7_s2
I0107 20:41:01.508255 14973 net.cpp:96] Creating Layer conv1/7x7_s2
I0107 20:41:01.508260 14973 net.cpp:459] conv1/7x7_s2 <- data
I0107 20:41:01.508265 14973 net.cpp:415] conv1/7x7_s2 -> conv1/7x7_s2
I0107 20:41:01.508270 14973 net.cpp:160] Setting up conv1/7x7_s2
I0107 20:41:01.508620 14973 net.cpp:167] Top shape: 1 64 112 112 (802816)
I0107 20:41:01.508630 14973 layer_factory.hpp:74] Creating layer conv1/7x7_s2_bn
I0107 20:41:01.508632 14973 layer_factory.cpp:177] Layer conv1/7x7_s2_bn is using CAFFE engine.
I0107 20:41:01.508637 14973 net.cpp:96] Creating Layer conv1/7x7_s2_bn
I0107 20:41:01.508641 14973 net.cpp:459] conv1/7x7_s2_bn <- conv1/7x7_s2
I0107 20:41:01.508644 14973 net.cpp:415] conv1/7x7_s2_bn -> conv1/7x7_s2_bn
I0107 20:41:01.508649 14973 net.cpp:160] Setting up conv1/7x7_s2_bn
I0107 20:41:01.508678 14973 net.cpp:167] Top shape: 1 64 112 112 (802816)
I0107 20:41:01.508685 14973 layer_factory.hpp:74] Creating layer conv1/relu_7x7
I0107 20:41:01.508690 14973 net.cpp:96] Creating Layer conv1/relu_7x7
I0107 20:41:01.508692 14973 net.cpp:459] conv1/relu_7x7 <- conv1/7x7_s2_bn
I0107 20:41:01.508697 14973 net.cpp:404] conv1/relu_7x7 -> conv1/7x7_s2_bn (in-place)
I0107 20:41:01.508700 14973 net.cpp:160] Setting up conv1/relu_7x7
I0107 20:41:01.508703 14973 net.cpp:167] Top shape: 1 64 112 112 (802816)
I0107 20:41:01.508707 14973 layer_factory.hpp:74] Creating layer pool1/3x3_s2
I0107 20:41:01.508710 14973 net.cpp:96] Creating Layer pool1/3x3_s2
I0107 20:41:01.508713 14973 net.cpp:459] pool1/3x3_s2 <- conv1/7x7_s2_bn
I0107 20:41:01.508716 14973 net.cpp:415] pool1/3x3_s2 -> pool1/3x3_s2
I0107 20:41:01.508720 14973 net.cpp:160] Setting up pool1/3x3_s2
I0107 20:41:01.508725 14973 net.cpp:167] Top shape: 1 64 56 56 (200704)
I0107 20:41:01.508728 14973 layer_factory.hpp:74] Creating layer conv2/3x3_reduce
I0107 20:41:01.508733 14973 net.cpp:96] Creating Layer conv2/3x3_reduce
I0107 20:41:01.508735 14973 net.cpp:459] conv2/3x3_reduce <- pool1/3x3_s2
I0107 20:41:01.508739 14973 net.cpp:415] conv2/3x3_reduce -> conv2/3x3_reduce
I0107 20:41:01.508744 14973 net.cpp:160] Setting up conv2/3x3_reduce
I0107 20:41:01.508772 14973 net.cpp:167] Top shape: 1 64 56 56 (200704)
I0107 20:41:01.508776 14973 layer_factory.hpp:74] Creating layer conv2/3x3_reduce_bn
I0107 20:41:01.508780 14973 layer_factory.cpp:177] Layer conv2/3x3_reduce_bn is using CAFFE engine.
I0107 20:41:01.508783 14973 net.cpp:96] Creating Layer conv2/3x3_reduce_bn
I0107 20:41:01.508786 14973 net.cpp:459] conv2/3x3_reduce_bn <- conv2/3x3_reduce
I0107 20:41:01.508790 14973 net.cpp:415] conv2/3x3_reduce_bn -> conv2/3x3_reduce_bn
I0107 20:41:01.508798 14973 net.cpp:160] Setting up conv2/3x3_reduce_bn
I0107 20:41:01.508812 14973 net.cpp:167] Top shape: 1 64 56 56 (200704)
I0107 20:41:01.508818 14973 layer_factory.hpp:74] Creating layer conv2/relu_3x3_reduce
I0107 20:41:01.508822 14973 net.cpp:96] Creating Layer conv2/relu_3x3_reduce
I0107 20:41:01.508826 14973 net.cpp:459] conv2/relu_3x3_reduce <- conv2/3x3_reduce_bn
I0107 20:41:01.508828 14973 net.cpp:404] conv2/relu_3x3_reduce -> conv2/3x3_reduce_bn (in-place)
I0107 20:41:01.508832 14973 net.cpp:160] Setting up conv2/relu_3x3_reduce
I0107 20:41:01.508836 14973 net.cpp:167] Top shape: 1 64 56 56 (200704)
I0107 20:41:01.508838 14973 layer_factory.hpp:74] Creating layer conv2/3x3
I0107 20:41:01.508843 14973 net.cpp:96] Creating Layer conv2/3x3
I0107 20:41:01.508846 14973 net.cpp:459] conv2/3x3 <- conv2/3x3_reduce_bn
I0107 20:41:01.508851 14973 net.cpp:415] conv2/3x3 -> conv2/3x3
I0107 20:41:01.508854 14973 net.cpp:160] Setting up conv2/3x3
I0107 20:41:01.509346 14973 net.cpp:167] Top shape: 1 192 56 56 (602112)
I0107 20:41:01.509351 14973 layer_factory.hpp:74] Creating layer conv2/3x3_bn
I0107 20:41:01.509354 14973 layer_factory.cpp:177] Layer conv2/3x3_bn is using CAFFE engine.
I0107 20:41:01.509359 14973 net.cpp:96] Creating Layer conv2/3x3_bn
I0107 20:41:01.509362 14973 net.cpp:459] conv2/3x3_bn <- conv2/3x3
I0107 20:41:01.509367 14973 net.cpp:415] conv2/3x3_bn -> conv2/3x3_bn
I0107 20:41:01.509371 14973 net.cpp:160] Setting up conv2/3x3_bn
I0107 20:41:01.509385 14973 net.cpp:167] Top shape: 1 192 56 56 (602112)
I0107 20:41:01.509392 14973 layer_factory.hpp:74] Creating layer conv2/relu_3x3
I0107 20:41:01.509397 14973 net.cpp:96] Creating Layer conv2/relu_3x3
I0107 20:41:01.509399 14973 net.cpp:459] conv2/relu_3x3 <- conv2/3x3_bn
I0107 20:41:01.509402 14973 net.cpp:404] conv2/relu_3x3 -> conv2/3x3_bn (in-place)
I0107 20:41:01.509407 14973 net.cpp:160] Setting up conv2/relu_3x3
I0107 20:41:01.509409 14973 net.cpp:167] Top shape: 1 192 56 56 (602112)
I0107 20:41:01.509413 14973 layer_factory.hpp:74] Creating layer pool2/3x3_s2
I0107 20:41:01.509415 14973 net.cpp:96] Creating Layer pool2/3x3_s2
I0107 20:41:01.509418 14973 net.cpp:459] pool2/3x3_s2 <- conv2/3x3_bn
I0107 20:41:01.509423 14973 net.cpp:415] pool2/3x3_s2 -> pool2/3x3_s2
I0107 20:41:01.509428 14973 net.cpp:160] Setting up pool2/3x3_s2
I0107 20:41:01.509433 14973 net.cpp:167] Top shape: 1 192 28 28 (150528)
I0107 20:41:01.509435 14973 layer_factory.hpp:74] Creating layer pool2/3x3_s2_pool2/3x3_s2_0_split
I0107 20:41:01.509439 14973 net.cpp:96] Creating Layer pool2/3x3_s2_pool2/3x3_s2_0_split
I0107 20:41:01.509443 14973 net.cpp:459] pool2/3x3_s2_pool2/3x3_s2_0_split <- pool2/3x3_s2
I0107 20:41:01.509445 14973 net.cpp:415] pool2/3x3_s2_pool2/3x3_s2_0_split -> pool2/3x3_s2_pool2/3x3_s2_0_split_0
I0107 20:41:01.509450 14973 net.cpp:415] pool2/3x3_s2_pool2/3x3_s2_0_split -> pool2/3x3_s2_pool2/3x3_s2_0_split_1
I0107 20:41:01.509454 14973 net.cpp:415] pool2/3x3_s2_pool2/3x3_s2_0_split -> pool2/3x3_s2_pool2/3x3_s2_0_split_2
I0107 20:41:01.509459 14973 net.cpp:415] pool2/3x3_s2_pool2/3x3_s2_0_split -> pool2/3x3_s2_pool2/3x3_s2_0_split_3
I0107 20:41:01.509462 14973 net.cpp:160] Setting up pool2/3x3_s2_pool2/3x3_s2_0_split
I0107 20:41:01.509466 14973 net.cpp:167] Top shape: 1 192 28 28 (150528)
I0107 20:41:01.509470 14973 net.cpp:167] Top shape: 1 192 28 28 (150528)
I0107 20:41:01.509474 14973 net.cpp:167] Top shape: 1 192 28 28 (150528)
I0107 20:41:01.509476 14973 net.cpp:167] Top shape: 1 192 28 28 (150528)
I0107 20:41:01.509479 14973 layer_factory.hpp:74] Creating layer inception_3a/1x1
I0107 20:41:01.509483 14973 net.cpp:96] Creating Layer inception_3a/1x1
I0107 20:41:01.509486 14973 net.cpp:459] inception_3a/1x1 <- pool2/3x3_s2_pool2/3x3_s2_0_split_0
I0107 20:41:01.509490 14973 net.cpp:415] inception_3a/1x1 -> inception_3a/1x1
I0107 20:41:01.509495 14973 net.cpp:160] Setting up inception_3a/1x1
I0107 20:41:01.509555 14973 net.cpp:167] Top shape: 1 64 28 28 (50176)
I0107 20:41:01.509560 14973 layer_factory.hpp:74] Creating layer inception_3a/1x1_bn
I0107 20:41:01.509567 14973 layer_factory.cpp:177] Layer inception_3a/1x1_bn is using CAFFE engine.
I0107 20:41:01.509570 14973 net.cpp:96] Creating Layer inception_3a/1x1_bn
I0107 20:41:01.509573 14973 net.cpp:459] inception_3a/1x1_bn <- inception_3a/1x1
I0107 20:41:01.509578 14973 net.cpp:415] inception_3a/1x1_bn -> inception_3a/1x1_bn
I0107 20:41:01.509582 14973 net.cpp:160] Setting up inception_3a/1x1_bn
I0107 20:41:01.509596 14973 net.cpp:167] Top shape: 1 64 28 28 (50176)
I0107 20:41:01.509603 14973 layer_factory.hpp:74] Creating layer inception_3a/relu_1x1
I0107 20:41:01.509606 14973 net.cpp:96] Creating Layer inception_3a/relu_1x1
I0107 20:41:01.509609 14973 net.cpp:459] inception_3a/relu_1x1 <- inception_3a/1x1_bn
I0107 20:41:01.509613 14973 net.cpp:404] inception_3a/relu_1x1 -> inception_3a/1x1_bn (in-place)
I0107 20:41:01.509616 14973 net.cpp:160] Setting up inception_3a/relu_1x1
I0107 20:41:01.509620 14973 net.cpp:167] Top shape: 1 64 28 28 (50176)
I0107 20:41:01.509624 14973 layer_factory.hpp:74] Creating layer inception_3a/3x3_reduce
I0107 20:41:01.509627 14973 net.cpp:96] Creating Layer inception_3a/3x3_reduce
I0107 20:41:01.509630 14973 net.cpp:459] inception_3a/3x3_reduce <- pool2/3x3_s2_pool2/3x3_s2_0_split_1
I0107 20:41:01.509634 14973 net.cpp:415] inception_3a/3x3_reduce -> inception_3a/3x3_reduce
I0107 20:41:01.509639 14973 net.cpp:160] Setting up inception_3a/3x3_reduce
I0107 20:41:01.509699 14973 net.cpp:167] Top shape: 1 64 28 28 (50176)
I0107 20:41:01.509704 14973 layer_factory.hpp:74] Creating layer inception_3a/3x3_reduce_bn
I0107 20:41:01.509707 14973 layer_factory.cpp:177] Layer inception_3a/3x3_reduce_bn is using CAFFE engine.
I0107 20:41:01.509713 14973 net.cpp:96] Creating Layer inception_3a/3x3_reduce_bn
I0107 20:41:01.509716 14973 net.cpp:459] inception_3a/3x3_reduce_bn <- inception_3a/3x3_reduce
I0107 20:41:01.509721 14973 net.cpp:415] inception_3a/3x3_reduce_bn -> inception_3a/3x3_reduce_bn
I0107 20:41:01.509727 14973 net.cpp:160] Setting up inception_3a/3x3_reduce_bn
I0107 20:41:01.509737 14973 net.cpp:167] Top shape: 1 64 28 28 (50176)
I0107 20:41:01.509743 14973 layer_factory.hpp:74] Creating layer inception_3a/relu_3x3_reduce
I0107 20:41:01.509747 14973 net.cpp:96] Creating Layer inception_3a/relu_3x3_reduce
I0107 20:41:01.509749 14973 net.cpp:459] inception_3a/relu_3x3_reduce <- inception_3a/3x3_reduce_bn
I0107 20:41:01.509753 14973 net.cpp:404] inception_3a/relu_3x3_reduce -> inception_3a/3x3_reduce_bn (in-place)
I0107 20:41:01.509757 14973 net.cpp:160] Setting up inception_3a/relu_3x3_reduce
I0107 20:41:01.509760 14973 net.cpp:167] Top shape: 1 64 28 28 (50176)
I0107 20:41:01.509763 14973 layer_factory.hpp:74] Creating layer inception_3a/3x3
I0107 20:41:01.509766 14973 net.cpp:96] Creating Layer inception_3a/3x3
I0107 20:41:01.509769 14973 net.cpp:459] inception_3a/3x3 <- inception_3a/3x3_reduce_bn
I0107 20:41:01.509773 14973 net.cpp:415] inception_3a/3x3 -> inception_3a/3x3
I0107 20:41:01.509778 14973 net.cpp:160] Setting up inception_3a/3x3
I0107 20:41:01.509954 14973 net.cpp:167] Top shape: 1 64 28 28 (50176)
I0107 20:41:01.509961 14973 layer_factory.hpp:74] Creating layer inception_3a/3x3_bn
I0107 20:41:01.509963 14973 layer_factory.cpp:177] Layer inception_3a/3x3_bn is using CAFFE engine.
I0107 20:41:01.509968 14973 net.cpp:96] Creating Layer inception_3a/3x3_bn
I0107 20:41:01.509971 14973 net.cpp:459] inception_3a/3x3_bn <- inception_3a/3x3
I0107 20:41:01.509975 14973 net.cpp:415] inception_3a/3x3_bn -> inception_3a/3x3_bn
I0107 20:41:01.509980 14973 net.cpp:160] Setting up inception_3a/3x3_bn
I0107 20:41:01.509991 14973 net.cpp:167] Top shape: 1 64 28 28 (50176)
I0107 20:41:01.509999 14973 layer_factory.hpp:74] Creating layer inception_3a/relu_3x3
I0107 20:41:01.510004 14973 net.cpp:96] Creating Layer inception_3a/relu_3x3
I0107 20:41:01.510005 14973 net.cpp:459] inception_3a/relu_3x3 <- inception_3a/3x3_bn
I0107 20:41:01.510010 14973 net.cpp:404] inception_3a/relu_3x3 -> inception_3a/3x3_bn (in-place)
I0107 20:41:01.510013 14973 net.cpp:160] Setting up inception_3a/relu_3x3
I0107 20:41:01.510018 14973 net.cpp:167] Top shape: 1 64 28 28 (50176)
I0107 20:41:01.510021 14973 layer_factory.hpp:74] Creating layer inception_3a/double_3x3_reduce
I0107 20:41:01.510028 14973 net.cpp:96] Creating Layer inception_3a/double_3x3_reduce
I0107 20:41:01.510031 14973 net.cpp:459] inception_3a/double_3x3_reduce <- pool2/3x3_s2_pool2/3x3_s2_0_split_2
I0107 20:41:01.510035 14973 net.cpp:415] inception_3a/double_3x3_reduce -> inception_3a/double_3x3_reduce
I0107 20:41:01.510040 14973 net.cpp:160] Setting up inception_3a/double_3x3_reduce
I0107 20:41:01.510100 14973 net.cpp:167] Top shape: 1 64 28 28 (50176)
I0107 20:41:01.510105 14973 layer_factory.hpp:74] Creating layer inception_3a/double_3x3_reduce_bn
I0107 20:41:01.510108 14973 layer_factory.cpp:177] Layer inception_3a/double_3x3_reduce_bn is using CAFFE engine.
I0107 20:41:01.510113 14973 net.cpp:96] Creating Layer inception_3a/double_3x3_reduce_bn
I0107 20:41:01.510115 14973 net.cpp:459] inception_3a/double_3x3_reduce_bn <- inception_3a/double_3x3_reduce
I0107 20:41:01.510120 14973 net.cpp:415] inception_3a/double_3x3_reduce_bn -> inception_3a/double_3x3_reduce_bn
I0107 20:41:01.510124 14973 net.cpp:160] Setting up inception_3a/double_3x3_reduce_bn
I0107 20:41:01.510134 14973 net.cpp:167] Top shape: 1 64 28 28 (50176)
I0107 20:41:01.510139 14973 layer_factory.hpp:74] Creating layer inception_3a/relu_double_3x3_reduce
I0107 20:41:01.510143 14973 net.cpp:96] Creating Layer inception_3a/relu_double_3x3_reduce
I0107 20:41:01.510145 14973 net.cpp:459] inception_3a/relu_double_3x3_reduce <- inception_3a/double_3x3_reduce_bn
I0107 20:41:01.510149 14973 net.cpp:404] inception_3a/relu_double_3x3_reduce -> inception_3a/double_3x3_reduce_bn (in-place)
I0107 20:41:01.510154 14973 net.cpp:160] Setting up inception_3a/relu_double_3x3_reduce
I0107 20:41:01.510157 14973 net.cpp:167] Top shape: 1 64 28 28 (50176)
I0107 20:41:01.510159 14973 layer_factory.hpp:74] Creating layer inception_3a/double_3x3_1
I0107 20:41:01.510164 14973 net.cpp:96] Creating Layer inception_3a/double_3x3_1
I0107 20:41:01.510166 14973 net.cpp:459] inception_3a/double_3x3_1 <- inception_3a/double_3x3_reduce_bn
I0107 20:41:01.510170 14973 net.cpp:415] inception_3a/double_3x3_1 -> inception_3a/double_3x3_1
I0107 20:41:01.510175 14973 net.cpp:160] Setting up inception_3a/double_3x3_1
I0107 20:41:01.510424 14973 net.cpp:167] Top shape: 1 96 28 28 (75264)
I0107 20:41:01.510431 14973 layer_factory.hpp:74] Creating layer inception_3a/double_3x3_1_bn
I0107 20:41:01.510432 14973 layer_factory.cpp:177] Layer inception_3a/double_3x3_1_bn is using CAFFE engine.
I0107 20:41:01.510437 14973 net.cpp:96] Creating Layer inception_3a/double_3x3_1_bn
I0107 20:41:01.510440 14973 net.cpp:459] inception_3a/double_3x3_1_bn <- inception_3a/double_3x3_1
I0107 20:41:01.510444 14973 net.cpp:415] inception_3a/double_3x3_1_bn -> inception_3a/double_3x3_1_bn
I0107 20:41:01.510448 14973 net.cpp:160] Setting up inception_3a/double_3x3_1_bn
I0107 20:41:01.510459 14973 net.cpp:167] Top shape: 1 96 28 28 (75264)
I0107 20:41:01.510464 14973 layer_factory.hpp:74] Creating layer inception_3a/relu_double_3x3_1
I0107 20:41:01.510468 14973 net.cpp:96] Creating Layer inception_3a/relu_double_3x3_1
I0107 20:41:01.510471 14973 net.cpp:459] inception_3a/relu_double_3x3_1 <- inception_3a/double_3x3_1_bn
I0107 20:41:01.510475 14973 net.cpp:404] inception_3a/relu_double_3x3_1 -> inception_3a/double_3x3_1_bn (in-place)
I0107 20:41:01.510478 14973 net.cpp:160] Setting up inception_3a/relu_double_3x3_1
I0107 20:41:01.510483 14973 net.cpp:167] Top shape: 1 96 28 28 (75264)
I0107 20:41:01.510484 14973 layer_factory.hpp:74] Creating layer inception_3a/double_3x3_2
I0107 20:41:01.510488 14973 net.cpp:96] Creating Layer inception_3a/double_3x3_2
I0107 20:41:01.510491 14973 net.cpp:459] inception_3a/double_3x3_2 <- inception_3a/double_3x3_1_bn
I0107 20:41:01.510495 14973 net.cpp:415] inception_3a/double_3x3_2 -> inception_3a/double_3x3_2
I0107 20:41:01.510499 14973 net.cpp:160] Setting up inception_3a/double_3x3_2
I0107 20:41:01.510869 14973 net.cpp:167] Top shape: 1 96 28 28 (75264)
I0107 20:41:01.510874 14973 layer_factory.hpp:74] Creating layer inception_3a/double_3x3_2_bn
I0107 20:41:01.510877 14973 layer_factory.cpp:177] Layer inception_3a/double_3x3_2_bn is using CAFFE engine.
I0107 20:41:01.510881 14973 net.cpp:96] Creating Layer inception_3a/double_3x3_2_bn
I0107 20:41:01.510885 14973 net.cpp:459] inception_3a/double_3x3_2_bn <- inception_3a/double_3x3_2
I0107 20:41:01.510888 14973 net.cpp:415] inception_3a/double_3x3_2_bn -> inception_3a/double_3x3_2_bn
I0107 20:41:01.510893 14973 net.cpp:160] Setting up inception_3a/double_3x3_2_bn
I0107 20:41:01.510905 14973 net.cpp:167] Top shape: 1 96 28 28 (75264)
I0107 20:41:01.510910 14973 layer_factory.hpp:74] Creating layer inception_3a/relu_double_3x3_2
I0107 20:41:01.510912 14973 net.cpp:96] Creating Layer inception_3a/relu_double_3x3_2
I0107 20:41:01.510915 14973 net.cpp:459] inception_3a/relu_double_3x3_2 <- inception_3a/double_3x3_2_bn
I0107 20:41:01.510920 14973 net.cpp:404] inception_3a/relu_double_3x3_2 -> inception_3a/double_3x3_2_bn (in-place)
I0107 20:41:01.510923 14973 net.cpp:160] Setting up inception_3a/relu_double_3x3_2
I0107 20:41:01.510926 14973 net.cpp:167] Top shape: 1 96 28 28 (75264)
I0107 20:41:01.510929 14973 layer_factory.hpp:74] Creating layer inception_3a/pool
I0107 20:41:01.510933 14973 net.cpp:96] Creating Layer inception_3a/pool
I0107 20:41:01.510936 14973 net.cpp:459] inception_3a/pool <- pool2/3x3_s2_pool2/3x3_s2_0_split_3
I0107 20:41:01.510939 14973 net.cpp:415] inception_3a/pool -> inception_3a/pool
I0107 20:41:01.510943 14973 net.cpp:160] Setting up inception_3a/pool
I0107 20:41:01.510947 14973 net.cpp:167] Top shape: 1 192 28 28 (150528)
I0107 20:41:01.510951 14973 layer_factory.hpp:74] Creating layer inception_3a/pool_proj
I0107 20:41:01.510956 14973 net.cpp:96] Creating Layer inception_3a/pool_proj
I0107 20:41:01.510958 14973 net.cpp:459] inception_3a/pool_proj <- inception_3a/pool
I0107 20:41:01.510962 14973 net.cpp:415] inception_3a/pool_proj -> inception_3a/pool_proj
I0107 20:41:01.510967 14973 net.cpp:160] Setting up inception_3a/pool_proj
I0107 20:41:01.511000 14973 net.cpp:167] Top shape: 1 32 28 28 (25088)
I0107 20:41:01.511004 14973 layer_factory.hpp:74] Creating layer inception_3a/pool_proj_bn
I0107 20:41:01.511008 14973 layer_factory.cpp:177] Layer inception_3a/pool_proj_bn is using CAFFE engine.
I0107 20:41:01.511013 14973 net.cpp:96] Creating Layer inception_3a/pool_proj_bn
I0107 20:41:01.511016 14973 net.cpp:459] inception_3a/pool_proj_bn <- inception_3a/pool_proj
I0107 20:41:01.511020 14973 net.cpp:415] inception_3a/pool_proj_bn -> inception_3a/pool_proj_bn
I0107 20:41:01.511025 14973 net.cpp:160] Setting up inception_3a/pool_proj_bn
I0107 20:41:01.511036 14973 net.cpp:167] Top shape: 1 32 28 28 (25088)
I0107 20:41:01.511041 14973 layer_factory.hpp:74] Creating layer inception_3a/relu_pool_proj
I0107 20:41:01.511045 14973 net.cpp:96] Creating Layer inception_3a/relu_pool_proj
I0107 20:41:01.511049 14973 net.cpp:459] inception_3a/relu_pool_proj <- inception_3a/pool_proj_bn
I0107 20:41:01.511051 14973 net.cpp:404] inception_3a/relu_pool_proj -> inception_3a/pool_proj_bn (in-place)
I0107 20:41:01.511055 14973 net.cpp:160] Setting up inception_3a/relu_pool_proj
I0107 20:41:01.511059 14973 net.cpp:167] Top shape: 1 32 28 28 (25088)
I0107 20:41:01.511061 14973 layer_factory.hpp:74] Creating layer inception_3a/output
I0107 20:41:01.511065 14973 net.cpp:96] Creating Layer inception_3a/output
I0107 20:41:01.511068 14973 net.cpp:459] inception_3a/output <- inception_3a/1x1_bn
I0107 20:41:01.511072 14973 net.cpp:459] inception_3a/output <- inception_3a/3x3_bn
I0107 20:41:01.511075 14973 net.cpp:459] inception_3a/output <- inception_3a/double_3x3_2_bn
I0107 20:41:01.511078 14973 net.cpp:459] inception_3a/output <- inception_3a/pool_proj_bn
I0107 20:41:01.511081 14973 net.cpp:415] inception_3a/output -> inception_3a/output
I0107 20:41:01.511085 14973 net.cpp:160] Setting up inception_3a/output
I0107 20:41:01.511090 14973 net.cpp:167] Top shape: 1 256 28 28 (200704)
I0107 20:41:01.511096 14973 layer_factory.hpp:74] Creating layer inception_3a/output_inception_3a/output_0_split
I0107 20:41:01.511101 14973 net.cpp:96] Creating Layer inception_3a/output_inception_3a/output_0_split
I0107 20:41:01.511103 14973 net.cpp:459] inception_3a/output_inception_3a/output_0_split <- inception_3a/output
I0107 20:41:01.511106 14973 net.cpp:415] inception_3a/output_inception_3a/output_0_split -> inception_3a/output_inception_3a/output_0_split_0
I0107 20:41:01.511112 14973 net.cpp:415] inception_3a/output_inception_3a/output_0_split -> inception_3a/output_inception_3a/output_0_split_1
I0107 20:41:01.511116 14973 net.cpp:415] inception_3a/output_inception_3a/output_0_split -> inception_3a/output_inception_3a/output_0_split_2
I0107 20:41:01.511121 14973 net.cpp:415] inception_3a/output_inception_3a/output_0_split -> inception_3a/output_inception_3a/output_0_split_3
I0107 20:41:01.511126 14973 net.cpp:160] Setting up inception_3a/output_inception_3a/output_0_split
I0107 20:41:01.511132 14973 net.cpp:167] Top shape: 1 256 28 28 (200704)
I0107 20:41:01.511134 14973 net.cpp:167] Top shape: 1 256 28 28 (200704)
I0107 20:41:01.511137 14973 net.cpp:167] Top shape: 1 256 28 28 (200704)
I0107 20:41:01.511142 14973 net.cpp:167] Top shape: 1 256 28 28 (200704)
I0107 20:41:01.511143 14973 layer_factory.hpp:74] Creating layer inception_3b/1x1
I0107 20:41:01.511147 14973 net.cpp:96] Creating Layer inception_3b/1x1
I0107 20:41:01.511150 14973 net.cpp:459] inception_3b/1x1 <- inception_3a/output_inception_3a/output_0_split_0
I0107 20:41:01.511155 14973 net.cpp:415] inception_3b/1x1 -> inception_3b/1x1
I0107 20:41:01.511160 14973 net.cpp:160] Setting up inception_3b/1x1
I0107 20:41:01.511240 14973 net.cpp:167] Top shape: 1 64 28 28 (50176)
I0107 20:41:01.511245 14973 layer_factory.hpp:74] Creating layer inception_3b/1x1_bn
I0107 20:41:01.511247 14973 layer_factory.cpp:177] Layer inception_3b/1x1_bn is using CAFFE engine.
I0107 20:41:01.511251 14973 net.cpp:96] Creating Layer inception_3b/1x1_bn
I0107 20:41:01.511255 14973 net.cpp:459] inception_3b/1x1_bn <- inception_3b/1x1
I0107 20:41:01.511258 14973 net.cpp:415] inception_3b/1x1_bn -> inception_3b/1x1_bn
I0107 20:41:01.511262 14973 net.cpp:160] Setting up inception_3b/1x1_bn
I0107 20:41:01.511273 14973 net.cpp:167] Top shape: 1 64 28 28 (50176)
I0107 20:41:01.511283 14973 layer_factory.hpp:74] Creating layer inception_3b/relu_1x1
I0107 20:41:01.511287 14973 net.cpp:96] Creating Layer inception_3b/relu_1x1
I0107 20:41:01.511291 14973 net.cpp:459] inception_3b/relu_1x1 <- inception_3b/1x1_bn
I0107 20:41:01.511294 14973 net.cpp:404] inception_3b/relu_1x1 -> inception_3b/1x1_bn (in-place)
I0107 20:41:01.511297 14973 net.cpp:160] Setting up inception_3b/relu_1x1
I0107 20:41:01.511301 14973 net.cpp:167] Top shape: 1 64 28 28 (50176)
I0107 20:41:01.511304 14973 layer_factory.hpp:74] Creating layer inception_3b/3x3_reduce
I0107 20:41:01.511308 14973 net.cpp:96] Creating Layer inception_3b/3x3_reduce
I0107 20:41:01.511310 14973 net.cpp:459] inception_3b/3x3_reduce <- inception_3a/output_inception_3a/output_0_split_1
I0107 20:41:01.511315 14973 net.cpp:415] inception_3b/3x3_reduce -> inception_3b/3x3_reduce
I0107 20:41:01.511320 14973 net.cpp:160] Setting up inception_3b/3x3_reduce
I0107 20:41:01.511397 14973 net.cpp:167] Top shape: 1 64 28 28 (50176)
I0107 20:41:01.511402 14973 layer_factory.hpp:74] Creating layer inception_3b/3x3_reduce_bn
I0107 20:41:01.511405 14973 layer_factory.cpp:177] Layer inception_3b/3x3_reduce_bn is using CAFFE engine.
I0107 20:41:01.511410 14973 net.cpp:96] Creating Layer inception_3b/3x3_reduce_bn
I0107 20:41:01.511414 14973 net.cpp:459] inception_3b/3x3_reduce_bn <- inception_3b/3x3_reduce
I0107 20:41:01.511417 14973 net.cpp:415] inception_3b/3x3_reduce_bn -> inception_3b/3x3_reduce_bn
I0107 20:41:01.511422 14973 net.cpp:160] Setting up inception_3b/3x3_reduce_bn
I0107 20:41:01.511432 14973 net.cpp:167] Top shape: 1 64 28 28 (50176)
I0107 20:41:01.511440 14973 layer_factory.hpp:74] Creating layer inception_3b/relu_3x3_reduce
I0107 20:41:01.511446 14973 net.cpp:96] Creating Layer inception_3b/relu_3x3_reduce
I0107 20:41:01.511451 14973 net.cpp:459] inception_3b/relu_3x3_reduce <- inception_3b/3x3_reduce_bn
I0107 20:41:01.511453 14973 net.cpp:404] inception_3b/relu_3x3_reduce -> inception_3b/3x3_reduce_bn (in-place)
I0107 20:41:01.511457 14973 net.cpp:160] Setting up inception_3b/relu_3x3_reduce
I0107 20:41:01.511461 14973 net.cpp:167] Top shape: 1 64 28 28 (50176)
I0107 20:41:01.511463 14973 layer_factory.hpp:74] Creating layer inception_3b/3x3
I0107 20:41:01.511467 14973 net.cpp:96] Creating Layer inception_3b/3x3
I0107 20:41:01.511469 14973 net.cpp:459] inception_3b/3x3 <- inception_3b/3x3_reduce_bn
I0107 20:41:01.511474 14973 net.cpp:415] inception_3b/3x3 -> inception_3b/3x3
I0107 20:41:01.511478 14973 net.cpp:160] Setting up inception_3b/3x3
I0107 20:41:01.511724 14973 net.cpp:167] Top shape: 1 96 28 28 (75264)
I0107 20:41:01.511729 14973 layer_factory.hpp:74] Creating layer inception_3b/3x3_bn
I0107 20:41:01.511732 14973 layer_factory.cpp:177] Layer inception_3b/3x3_bn is using CAFFE engine.
I0107 20:41:01.511736 14973 net.cpp:96] Creating Layer inception_3b/3x3_bn
I0107 20:41:01.511739 14973 net.cpp:459] inception_3b/3x3_bn <- inception_3b/3x3
I0107 20:41:01.511744 14973 net.cpp:415] inception_3b/3x3_bn -> inception_3b/3x3_bn
I0107 20:41:01.511749 14973 net.cpp:160] Setting up inception_3b/3x3_bn
I0107 20:41:01.511760 14973 net.cpp:167] Top shape: 1 96 28 28 (75264)
I0107 20:41:01.511765 14973 layer_factory.hpp:74] Creating layer inception_3b/relu_3x3
I0107 20:41:01.511770 14973 net.cpp:96] Creating Layer inception_3b/relu_3x3
I0107 20:41:01.511772 14973 net.cpp:459] inception_3b/relu_3x3 <- inception_3b/3x3_bn
I0107 20:41:01.511776 14973 net.cpp:404] inception_3b/relu_3x3 -> inception_3b/3x3_bn (in-place)
I0107 20:41:01.511780 14973 net.cpp:160] Setting up inception_3b/relu_3x3
I0107 20:41:01.511783 14973 net.cpp:167] Top shape: 1 96 28 28 (75264)
I0107 20:41:01.511785 14973 layer_factory.hpp:74] Creating layer inception_3b/double_3x3_reduce
I0107 20:41:01.511790 14973 net.cpp:96] Creating Layer inception_3b/double_3x3_reduce
I0107 20:41:01.511793 14973 net.cpp:459] inception_3b/double_3x3_reduce <- inception_3a/output_inception_3a/output_0_split_2
I0107 20:41:01.511796 14973 net.cpp:415] inception_3b/double_3x3_reduce -> inception_3b/double_3x3_reduce
I0107 20:41:01.511801 14973 net.cpp:160] Setting up inception_3b/double_3x3_reduce
I0107 20:41:01.511879 14973 net.cpp:167] Top shape: 1 64 28 28 (50176)
I0107 20:41:01.511884 14973 layer_factory.hpp:74] Creating layer inception_3b/double_3x3_reduce_bn
I0107 20:41:01.511888 14973 layer_factory.cpp:177] Layer inception_3b/double_3x3_reduce_bn is using CAFFE engine.
I0107 20:41:01.511891 14973 net.cpp:96] Creating Layer inception_3b/double_3x3_reduce_bn
I0107 20:41:01.511894 14973 net.cpp:459] inception_3b/double_3x3_reduce_bn <- inception_3b/double_3x3_reduce
I0107 20:41:01.511899 14973 net.cpp:415] inception_3b/double_3x3_reduce_bn -> inception_3b/double_3x3_reduce_bn
I0107 20:41:01.511904 14973 net.cpp:160] Setting up inception_3b/double_3x3_reduce_bn
I0107 20:41:01.511914 14973 net.cpp:167] Top shape: 1 64 28 28 (50176)
I0107 20:41:01.511919 14973 layer_factory.hpp:74] Creating layer inception_3b/relu_double_3x3_reduce
I0107 20:41:01.511922 14973 net.cpp:96] Creating Layer inception_3b/relu_double_3x3_reduce
I0107 20:41:01.511924 14973 net.cpp:459] inception_3b/relu_double_3x3_reduce <- inception_3b/double_3x3_reduce_bn
I0107 20:41:01.511929 14973 net.cpp:404] inception_3b/relu_double_3x3_reduce -> inception_3b/double_3x3_reduce_bn (in-place)
I0107 20:41:01.511932 14973 net.cpp:160] Setting up inception_3b/relu_double_3x3_reduce
I0107 20:41:01.511935 14973 net.cpp:167] Top shape: 1 64 28 28 (50176)
I0107 20:41:01.511939 14973 layer_factory.hpp:74] Creating layer inception_3b/double_3x3_1
I0107 20:41:01.511942 14973 net.cpp:96] Creating Layer inception_3b/double_3x3_1
I0107 20:41:01.511945 14973 net.cpp:459] inception_3b/double_3x3_1 <- inception_3b/double_3x3_reduce_bn
I0107 20:41:01.511952 14973 net.cpp:415] inception_3b/double_3x3_1 -> inception_3b/double_3x3_1
I0107 20:41:01.511957 14973 net.cpp:160] Setting up inception_3b/double_3x3_1
I0107 20:41:01.512207 14973 net.cpp:167] Top shape: 1 96 28 28 (75264)
I0107 20:41:01.512212 14973 layer_factory.hpp:74] Creating layer inception_3b/double_3x3_1_bn
I0107 20:41:01.512215 14973 layer_factory.cpp:177] Layer inception_3b/double_3x3_1_bn is using CAFFE engine.
I0107 20:41:01.512220 14973 net.cpp:96] Creating Layer inception_3b/double_3x3_1_bn
I0107 20:41:01.512223 14973 net.cpp:459] inception_3b/double_3x3_1_bn <- inception_3b/double_3x3_1
I0107 20:41:01.512228 14973 net.cpp:415] inception_3b/double_3x3_1_bn -> inception_3b/double_3x3_1_bn
I0107 20:41:01.512231 14973 net.cpp:160] Setting up inception_3b/double_3x3_1_bn
I0107 20:41:01.512243 14973 net.cpp:167] Top shape: 1 96 28 28 (75264)
I0107 20:41:01.512248 14973 layer_factory.hpp:74] Creating layer inception_3b/relu_double_3x3_1
I0107 20:41:01.512251 14973 net.cpp:96] Creating Layer inception_3b/relu_double_3x3_1
I0107 20:41:01.512254 14973 net.cpp:459] inception_3b/relu_double_3x3_1 <- inception_3b/double_3x3_1_bn
I0107 20:41:01.512257 14973 net.cpp:404] inception_3b/relu_double_3x3_1 -> inception_3b/double_3x3_1_bn (in-place)
I0107 20:41:01.512260 14973 net.cpp:160] Setting up inception_3b/relu_double_3x3_1
I0107 20:41:01.512264 14973 net.cpp:167] Top shape: 1 96 28 28 (75264)
I0107 20:41:01.512267 14973 layer_factory.hpp:74] Creating layer inception_3b/double_3x3_2
I0107 20:41:01.512271 14973 net.cpp:96] Creating Layer inception_3b/double_3x3_2
I0107 20:41:01.512274 14973 net.cpp:459] inception_3b/double_3x3_2 <- inception_3b/double_3x3_1_bn
I0107 20:41:01.512279 14973 net.cpp:415] inception_3b/double_3x3_2 -> inception_3b/double_3x3_2
I0107 20:41:01.512284 14973 net.cpp:160] Setting up inception_3b/double_3x3_2
I0107 20:41:01.512648 14973 net.cpp:167] Top shape: 1 96 28 28 (75264)
I0107 20:41:01.512653 14973 layer_factory.hpp:74] Creating layer inception_3b/double_3x3_2_bn
I0107 20:41:01.512656 14973 layer_factory.cpp:177] Layer inception_3b/double_3x3_2_bn is using CAFFE engine.
I0107 20:41:01.512660 14973 net.cpp:96] Creating Layer inception_3b/double_3x3_2_bn
I0107 20:41:01.512663 14973 net.cpp:459] inception_3b/double_3x3_2_bn <- inception_3b/double_3x3_2
I0107 20:41:01.512667 14973 net.cpp:415] inception_3b/double_3x3_2_bn -> inception_3b/double_3x3_2_bn
I0107 20:41:01.512672 14973 net.cpp:160] Setting up inception_3b/double_3x3_2_bn
I0107 20:41:01.512683 14973 net.cpp:167] Top shape: 1 96 28 28 (75264)
I0107 20:41:01.512689 14973 layer_factory.hpp:74] Creating layer inception_3b/relu_double_3x3_2
I0107 20:41:01.512693 14973 net.cpp:96] Creating Layer inception_3b/relu_double_3x3_2
I0107 20:41:01.512696 14973 net.cpp:459] inception_3b/relu_double_3x3_2 <- inception_3b/double_3x3_2_bn
I0107 20:41:01.512699 14973 net.cpp:404] inception_3b/relu_double_3x3_2 -> inception_3b/double_3x3_2_bn (in-place)
I0107 20:41:01.512703 14973 net.cpp:160] Setting up inception_3b/relu_double_3x3_2
I0107 20:41:01.512706 14973 net.cpp:167] Top shape: 1 96 28 28 (75264)
I0107 20:41:01.512709 14973 layer_factory.hpp:74] Creating layer inception_3b/pool
I0107 20:41:01.512713 14973 net.cpp:96] Creating Layer inception_3b/pool
I0107 20:41:01.512717 14973 net.cpp:459] inception_3b/pool <- inception_3a/output_inception_3a/output_0_split_3
I0107 20:41:01.512719 14973 net.cpp:415] inception_3b/pool -> inception_3b/pool
I0107 20:41:01.512723 14973 net.cpp:160] Setting up inception_3b/pool
I0107 20:41:01.512727 14973 net.cpp:167] Top shape: 1 256 28 28 (200704)
I0107 20:41:01.512730 14973 layer_factory.hpp:74] Creating layer inception_3b/pool_proj
I0107 20:41:01.512735 14973 net.cpp:96] Creating Layer inception_3b/pool_proj
I0107 20:41:01.512738 14973 net.cpp:459] inception_3b/pool_proj <- inception_3b/pool
I0107 20:41:01.512742 14973 net.cpp:415] inception_3b/pool_proj -> inception_3b/pool_proj
I0107 20:41:01.512747 14973 net.cpp:160] Setting up inception_3b/pool_proj
I0107 20:41:01.512823 14973 net.cpp:167] Top shape: 1 64 28 28 (50176)
I0107 20:41:01.512830 14973 layer_factory.hpp:74] Creating layer inception_3b/pool_proj_bn
I0107 20:41:01.512833 14973 layer_factory.cpp:177] Layer inception_3b/pool_proj_bn is using CAFFE engine.
I0107 20:41:01.512837 14973 net.cpp:96] Creating Layer inception_3b/pool_proj_bn
I0107 20:41:01.512840 14973 net.cpp:459] inception_3b/pool_proj_bn <- inception_3b/pool_proj
I0107 20:41:01.512845 14973 net.cpp:415] inception_3b/pool_proj_bn -> inception_3b/pool_proj_bn
I0107 20:41:01.512850 14973 net.cpp:160] Setting up inception_3b/pool_proj_bn
I0107 20:41:01.512863 14973 net.cpp:167] Top shape: 1 64 28 28 (50176)
I0107 20:41:01.512868 14973 layer_factory.hpp:74] Creating layer inception_3b/relu_pool_proj
I0107 20:41:01.512871 14973 net.cpp:96] Creating Layer inception_3b/relu_pool_proj
I0107 20:41:01.512874 14973 net.cpp:459] inception_3b/relu_pool_proj <- inception_3b/pool_proj_bn
I0107 20:41:01.512878 14973 net.cpp:404] inception_3b/relu_pool_proj -> inception_3b/pool_proj_bn (in-place)
I0107 20:41:01.512882 14973 net.cpp:160] Setting up inception_3b/relu_pool_proj
I0107 20:41:01.512886 14973 net.cpp:167] Top shape: 1 64 28 28 (50176)
I0107 20:41:01.512888 14973 layer_factory.hpp:74] Creating layer inception_3b/output
I0107 20:41:01.512892 14973 net.cpp:96] Creating Layer inception_3b/output
I0107 20:41:01.512894 14973 net.cpp:459] inception_3b/output <- inception_3b/1x1_bn
I0107 20:41:01.512898 14973 net.cpp:459] inception_3b/output <- inception_3b/3x3_bn
I0107 20:41:01.512902 14973 net.cpp:459] inception_3b/output <- inception_3b/double_3x3_2_bn
I0107 20:41:01.512904 14973 net.cpp:459] inception_3b/output <- inception_3b/pool_proj_bn
I0107 20:41:01.512907 14973 net.cpp:415] inception_3b/output -> inception_3b/output
I0107 20:41:01.512912 14973 net.cpp:160] Setting up inception_3b/output
I0107 20:41:01.512917 14973 net.cpp:167] Top shape: 1 320 28 28 (250880)
I0107 20:41:01.512919 14973 layer_factory.hpp:74] Creating layer inception_3b/output_inception_3b/output_0_split
I0107 20:41:01.512923 14973 net.cpp:96] Creating Layer inception_3b/output_inception_3b/output_0_split
I0107 20:41:01.512925 14973 net.cpp:459] inception_3b/output_inception_3b/output_0_split <- inception_3b/output
I0107 20:41:01.512929 14973 net.cpp:415] inception_3b/output_inception_3b/output_0_split -> inception_3b/output_inception_3b/output_0_split_0
I0107 20:41:01.512933 14973 net.cpp:415] inception_3b/output_inception_3b/output_0_split -> inception_3b/output_inception_3b/output_0_split_1
I0107 20:41:01.512938 14973 net.cpp:415] inception_3b/output_inception_3b/output_0_split -> inception_3b/output_inception_3b/output_0_split_2
I0107 20:41:01.512941 14973 net.cpp:160] Setting up inception_3b/output_inception_3b/output_0_split
I0107 20:41:01.512945 14973 net.cpp:167] Top shape: 1 320 28 28 (250880)
I0107 20:41:01.512949 14973 net.cpp:167] Top shape: 1 320 28 28 (250880)
I0107 20:41:01.512953 14973 net.cpp:167] Top shape: 1 320 28 28 (250880)
I0107 20:41:01.512955 14973 layer_factory.hpp:74] Creating layer inception_3c/3x3_reduce
I0107 20:41:01.512960 14973 net.cpp:96] Creating Layer inception_3c/3x3_reduce
I0107 20:41:01.512964 14973 net.cpp:459] inception_3c/3x3_reduce <- inception_3b/output_inception_3b/output_0_split_0
I0107 20:41:01.512969 14973 net.cpp:415] inception_3c/3x3_reduce -> inception_3c/3x3_reduce
I0107 20:41:01.512974 14973 net.cpp:160] Setting up inception_3c/3x3_reduce
I0107 20:41:01.513157 14973 net.cpp:167] Top shape: 1 128 28 28 (100352)
I0107 20:41:01.513162 14973 layer_factory.hpp:74] Creating layer inception_3c/3x3_reduce_bn
I0107 20:41:01.513165 14973 layer_factory.cpp:177] Layer inception_3c/3x3_reduce_bn is using CAFFE engine.
I0107 20:41:01.513170 14973 net.cpp:96] Creating Layer inception_3c/3x3_reduce_bn
I0107 20:41:01.513173 14973 net.cpp:459] inception_3c/3x3_reduce_bn <- inception_3c/3x3_reduce
I0107 20:41:01.513176 14973 net.cpp:415] inception_3c/3x3_reduce_bn -> inception_3c/3x3_reduce_bn
I0107 20:41:01.513181 14973 net.cpp:160] Setting up inception_3c/3x3_reduce_bn
I0107 20:41:01.513192 14973 net.cpp:167] Top shape: 1 128 28 28 (100352)
I0107 20:41:01.513201 14973 layer_factory.hpp:74] Creating layer inception_3c/relu_3x3_reduce
I0107 20:41:01.513206 14973 net.cpp:96] Creating Layer inception_3c/relu_3x3_reduce
I0107 20:41:01.513208 14973 net.cpp:459] inception_3c/relu_3x3_reduce <- inception_3c/3x3_reduce_bn
I0107 20:41:01.513211 14973 net.cpp:404] inception_3c/relu_3x3_reduce -> inception_3c/3x3_reduce_bn (in-place)
I0107 20:41:01.513216 14973 net.cpp:160] Setting up inception_3c/relu_3x3_reduce
I0107 20:41:01.513218 14973 net.cpp:167] Top shape: 1 128 28 28 (100352)
I0107 20:41:01.513221 14973 layer_factory.hpp:74] Creating layer inception_3c/3x3
I0107 20:41:01.513226 14973 net.cpp:96] Creating Layer inception_3c/3x3
I0107 20:41:01.513227 14973 net.cpp:459] inception_3c/3x3 <- inception_3c/3x3_reduce_bn
I0107 20:41:01.513232 14973 net.cpp:415] inception_3c/3x3 -> inception_3c/3x3
I0107 20:41:01.513236 14973 net.cpp:160] Setting up inception_3c/3x3
I0107 20:41:01.514050 14973 net.cpp:167] Top shape: 1 160 14 14 (31360)
I0107 20:41:01.514056 14973 layer_factory.hpp:74] Creating layer inception_3c/3x3_bn
I0107 20:41:01.514060 14973 layer_factory.cpp:177] Layer inception_3c/3x3_bn is using CAFFE engine.
I0107 20:41:01.514067 14973 net.cpp:96] Creating Layer inception_3c/3x3_bn
I0107 20:41:01.514071 14973 net.cpp:459] inception_3c/3x3_bn <- inception_3c/3x3
I0107 20:41:01.514075 14973 net.cpp:415] inception_3c/3x3_bn -> inception_3c/3x3_bn
I0107 20:41:01.514081 14973 net.cpp:160] Setting up inception_3c/3x3_bn
I0107 20:41:01.514091 14973 net.cpp:167] Top shape: 1 160 14 14 (31360)
I0107 20:41:01.514096 14973 layer_factory.hpp:74] Creating layer inception_3c/relu_3x3
I0107 20:41:01.514101 14973 net.cpp:96] Creating Layer inception_3c/relu_3x3
I0107 20:41:01.514103 14973 net.cpp:459] inception_3c/relu_3x3 <- inception_3c/3x3_bn
I0107 20:41:01.514106 14973 net.cpp:404] inception_3c/relu_3x3 -> inception_3c/3x3_bn (in-place)
I0107 20:41:01.514111 14973 net.cpp:160] Setting up inception_3c/relu_3x3
I0107 20:41:01.514113 14973 net.cpp:167] Top shape: 1 160 14 14 (31360)
I0107 20:41:01.514117 14973 layer_factory.hpp:74] Creating layer inception_3c/double_3x3_reduce
I0107 20:41:01.514120 14973 net.cpp:96] Creating Layer inception_3c/double_3x3_reduce
I0107 20:41:01.514123 14973 net.cpp:459] inception_3c/double_3x3_reduce <- inception_3b/output_inception_3b/output_0_split_1
I0107 20:41:01.514128 14973 net.cpp:415] inception_3c/double_3x3_reduce -> inception_3c/double_3x3_reduce
I0107 20:41:01.514132 14973 net.cpp:160] Setting up inception_3c/double_3x3_reduce
I0107 20:41:01.514230 14973 net.cpp:167] Top shape: 1 64 28 28 (50176)
I0107 20:41:01.514235 14973 layer_factory.hpp:74] Creating layer inception_3c/double_3x3_reduce_bn
I0107 20:41:01.514237 14973 layer_factory.cpp:177] Layer inception_3c/double_3x3_reduce_bn is using CAFFE engine.
I0107 20:41:01.514242 14973 net.cpp:96] Creating Layer inception_3c/double_3x3_reduce_bn
I0107 20:41:01.514245 14973 net.cpp:459] inception_3c/double_3x3_reduce_bn <- inception_3c/double_3x3_reduce
I0107 20:41:01.514250 14973 net.cpp:415] inception_3c/double_3x3_reduce_bn -> inception_3c/double_3x3_reduce_bn
I0107 20:41:01.514253 14973 net.cpp:160] Setting up inception_3c/double_3x3_reduce_bn
I0107 20:41:01.514264 14973 net.cpp:167] Top shape: 1 64 28 28 (50176)
I0107 20:41:01.514269 14973 layer_factory.hpp:74] Creating layer inception_3c/relu_double_3x3_reduce
I0107 20:41:01.514273 14973 net.cpp:96] Creating Layer inception_3c/relu_double_3x3_reduce
I0107 20:41:01.514276 14973 net.cpp:459] inception_3c/relu_double_3x3_reduce <- inception_3c/double_3x3_reduce_bn
I0107 20:41:01.514279 14973 net.cpp:404] inception_3c/relu_double_3x3_reduce -> inception_3c/double_3x3_reduce_bn (in-place)
I0107 20:41:01.514282 14973 net.cpp:160] Setting up inception_3c/relu_double_3x3_reduce
I0107 20:41:01.514286 14973 net.cpp:167] Top shape: 1 64 28 28 (50176)
I0107 20:41:01.514288 14973 layer_factory.hpp:74] Creating layer inception_3c/double_3x3_1
I0107 20:41:01.514293 14973 net.cpp:96] Creating Layer inception_3c/double_3x3_1
I0107 20:41:01.514299 14973 net.cpp:459] inception_3c/double_3x3_1 <- inception_3c/double_3x3_reduce_bn
I0107 20:41:01.514304 14973 net.cpp:415] inception_3c/double_3x3_1 -> inception_3c/double_3x3_1
I0107 20:41:01.514308 14973 net.cpp:160] Setting up inception_3c/double_3x3_1
I0107 20:41:01.514557 14973 net.cpp:167] Top shape: 1 96 28 28 (75264)
I0107 20:41:01.514564 14973 layer_factory.hpp:74] Creating layer inception_3c/double_3x3_1_bn
I0107 20:41:01.514565 14973 layer_factory.cpp:177] Layer inception_3c/double_3x3_1_bn is using CAFFE engine.
I0107 20:41:01.514569 14973 net.cpp:96] Creating Layer inception_3c/double_3x3_1_bn
I0107 20:41:01.514572 14973 net.cpp:459] inception_3c/double_3x3_1_bn <- inception_3c/double_3x3_1
I0107 20:41:01.514577 14973 net.cpp:415] inception_3c/double_3x3_1_bn -> inception_3c/double_3x3_1_bn
I0107 20:41:01.514581 14973 net.cpp:160] Setting up inception_3c/double_3x3_1_bn
I0107 20:41:01.514592 14973 net.cpp:167] Top shape: 1 96 28 28 (75264)
I0107 20:41:01.514598 14973 layer_factory.hpp:74] Creating layer inception_3c/relu_double_3x3_1
I0107 20:41:01.514602 14973 net.cpp:96] Creating Layer inception_3c/relu_double_3x3_1
I0107 20:41:01.514605 14973 net.cpp:459] inception_3c/relu_double_3x3_1 <- inception_3c/double_3x3_1_bn
I0107 20:41:01.514607 14973 net.cpp:404] inception_3c/relu_double_3x3_1 -> inception_3c/double_3x3_1_bn (in-place)
I0107 20:41:01.514612 14973 net.cpp:160] Setting up inception_3c/relu_double_3x3_1
I0107 20:41:01.514616 14973 net.cpp:167] Top shape: 1 96 28 28 (75264)
I0107 20:41:01.514618 14973 layer_factory.hpp:74] Creating layer inception_3c/double_3x3_2
I0107 20:41:01.514622 14973 net.cpp:96] Creating Layer inception_3c/double_3x3_2
I0107 20:41:01.514624 14973 net.cpp:459] inception_3c/double_3x3_2 <- inception_3c/double_3x3_1_bn
I0107 20:41:01.514628 14973 net.cpp:415] inception_3c/double_3x3_2 -> inception_3c/double_3x3_2
I0107 20:41:01.514632 14973 net.cpp:160] Setting up inception_3c/double_3x3_2
I0107 20:41:01.514997 14973 net.cpp:167] Top shape: 1 96 14 14 (18816)
I0107 20:41:01.515003 14973 layer_factory.hpp:74] Creating layer inception_3c/double_3x3_2_bn
I0107 20:41:01.515007 14973 layer_factory.cpp:177] Layer inception_3c/double_3x3_2_bn is using CAFFE engine.
I0107 20:41:01.515010 14973 net.cpp:96] Creating Layer inception_3c/double_3x3_2_bn
I0107 20:41:01.515012 14973 net.cpp:459] inception_3c/double_3x3_2_bn <- inception_3c/double_3x3_2
I0107 20:41:01.515017 14973 net.cpp:415] inception_3c/double_3x3_2_bn -> inception_3c/double_3x3_2_bn
I0107 20:41:01.515022 14973 net.cpp:160] Setting up inception_3c/double_3x3_2_bn
I0107 20:41:01.515031 14973 net.cpp:167] Top shape: 1 96 14 14 (18816)
I0107 20:41:01.515045 14973 layer_factory.hpp:74] Creating layer inception_3c/relu_double_3x3_2
I0107 20:41:01.515049 14973 net.cpp:96] Creating Layer inception_3c/relu_double_3x3_2
I0107 20:41:01.515053 14973 net.cpp:459] inception_3c/relu_double_3x3_2 <- inception_3c/double_3x3_2_bn
I0107 20:41:01.515055 14973 net.cpp:404] inception_3c/relu_double_3x3_2 -> inception_3c/double_3x3_2_bn (in-place)
I0107 20:41:01.515059 14973 net.cpp:160] Setting up inception_3c/relu_double_3x3_2
I0107 20:41:01.515064 14973 net.cpp:167] Top shape: 1 96 14 14 (18816)
I0107 20:41:01.515065 14973 layer_factory.hpp:74] Creating layer inception_3c/pool
I0107 20:41:01.515069 14973 net.cpp:96] Creating Layer inception_3c/pool
I0107 20:41:01.515072 14973 net.cpp:459] inception_3c/pool <- inception_3b/output_inception_3b/output_0_split_2
I0107 20:41:01.515076 14973 net.cpp:415] inception_3c/pool -> inception_3c/pool
I0107 20:41:01.515080 14973 net.cpp:160] Setting up inception_3c/pool
I0107 20:41:01.515085 14973 net.cpp:167] Top shape: 1 320 14 14 (62720)
I0107 20:41:01.515089 14973 layer_factory.hpp:74] Creating layer inception_3c/output
I0107 20:41:01.515091 14973 net.cpp:96] Creating Layer inception_3c/output
I0107 20:41:01.515094 14973 net.cpp:459] inception_3c/output <- inception_3c/3x3_bn
I0107 20:41:01.515097 14973 net.cpp:459] inception_3c/output <- inception_3c/double_3x3_2_bn
I0107 20:41:01.515105 14973 net.cpp:459] inception_3c/output <- inception_3c/pool
I0107 20:41:01.515108 14973 net.cpp:415] inception_3c/output -> inception_3c/output
I0107 20:41:01.515112 14973 net.cpp:160] Setting up inception_3c/output
I0107 20:41:01.515116 14973 net.cpp:167] Top shape: 1 576 14 14 (112896)
I0107 20:41:01.515120 14973 layer_factory.hpp:74] Creating layer inception_3c/output_inception_3c/output_0_split
I0107 20:41:01.515122 14973 net.cpp:96] Creating Layer inception_3c/output_inception_3c/output_0_split
I0107 20:41:01.515125 14973 net.cpp:459] inception_3c/output_inception_3c/output_0_split <- inception_3c/output
I0107 20:41:01.515130 14973 net.cpp:415] inception_3c/output_inception_3c/output_0_split -> inception_3c/output_inception_3c/output_0_split_0
I0107 20:41:01.515138 14973 net.cpp:415] inception_3c/output_inception_3c/output_0_split -> inception_3c/output_inception_3c/output_0_split_1
I0107 20:41:01.515143 14973 net.cpp:415] inception_3c/output_inception_3c/output_0_split -> inception_3c/output_inception_3c/output_0_split_2
I0107 20:41:01.515147 14973 net.cpp:415] inception_3c/output_inception_3c/output_0_split -> inception_3c/output_inception_3c/output_0_split_3
I0107 20:41:01.515151 14973 net.cpp:160] Setting up inception_3c/output_inception_3c/output_0_split
I0107 20:41:01.515156 14973 net.cpp:167] Top shape: 1 576 14 14 (112896)
I0107 20:41:01.515159 14973 net.cpp:167] Top shape: 1 576 14 14 (112896)
I0107 20:41:01.515162 14973 net.cpp:167] Top shape: 1 576 14 14 (112896)
I0107 20:41:01.515166 14973 net.cpp:167] Top shape: 1 576 14 14 (112896)
I0107 20:41:01.515167 14973 layer_factory.hpp:74] Creating layer inception_4a/1x1
I0107 20:41:01.515173 14973 net.cpp:96] Creating Layer inception_4a/1x1
I0107 20:41:01.515177 14973 net.cpp:459] inception_4a/1x1 <- inception_3c/output_inception_3c/output_0_split_0
I0107 20:41:01.515182 14973 net.cpp:415] inception_4a/1x1 -> inception_4a/1x1
I0107 20:41:01.515185 14973 net.cpp:160] Setting up inception_4a/1x1
I0107 20:41:01.515748 14973 net.cpp:167] Top shape: 1 224 14 14 (43904)
I0107 20:41:01.515754 14973 layer_factory.hpp:74] Creating layer inception_4a/1x1_bn
I0107 20:41:01.515758 14973 layer_factory.cpp:177] Layer inception_4a/1x1_bn is using CAFFE engine.
I0107 20:41:01.515763 14973 net.cpp:96] Creating Layer inception_4a/1x1_bn
I0107 20:41:01.515765 14973 net.cpp:459] inception_4a/1x1_bn <- inception_4a/1x1
I0107 20:41:01.515769 14973 net.cpp:415] inception_4a/1x1_bn -> inception_4a/1x1_bn
I0107 20:41:01.515774 14973 net.cpp:160] Setting up inception_4a/1x1_bn
I0107 20:41:01.515785 14973 net.cpp:167] Top shape: 1 224 14 14 (43904)
I0107 20:41:01.515790 14973 layer_factory.hpp:74] Creating layer inception_4a/relu_1x1
I0107 20:41:01.515794 14973 net.cpp:96] Creating Layer inception_4a/relu_1x1
I0107 20:41:01.515796 14973 net.cpp:459] inception_4a/relu_1x1 <- inception_4a/1x1_bn
I0107 20:41:01.515800 14973 net.cpp:404] inception_4a/relu_1x1 -> inception_4a/1x1_bn (in-place)
I0107 20:41:01.515805 14973 net.cpp:160] Setting up inception_4a/relu_1x1
I0107 20:41:01.515807 14973 net.cpp:167] Top shape: 1 224 14 14 (43904)
I0107 20:41:01.515810 14973 layer_factory.hpp:74] Creating layer inception_4a/3x3_reduce
I0107 20:41:01.515815 14973 net.cpp:96] Creating Layer inception_4a/3x3_reduce
I0107 20:41:01.515817 14973 net.cpp:459] inception_4a/3x3_reduce <- inception_3c/output_inception_3c/output_0_split_1
I0107 20:41:01.515821 14973 net.cpp:415] inception_4a/3x3_reduce -> inception_4a/3x3_reduce
I0107 20:41:01.515826 14973 net.cpp:160] Setting up inception_4a/3x3_reduce
I0107 20:41:01.515992 14973 net.cpp:167] Top shape: 1 64 14 14 (12544)
I0107 20:41:01.515997 14973 layer_factory.hpp:74] Creating layer inception_4a/3x3_reduce_bn
I0107 20:41:01.516000 14973 layer_factory.cpp:177] Layer inception_4a/3x3_reduce_bn is using CAFFE engine.
I0107 20:41:01.516005 14973 net.cpp:96] Creating Layer inception_4a/3x3_reduce_bn
I0107 20:41:01.516008 14973 net.cpp:459] inception_4a/3x3_reduce_bn <- inception_4a/3x3_reduce
I0107 20:41:01.516013 14973 net.cpp:415] inception_4a/3x3_reduce_bn -> inception_4a/3x3_reduce_bn
I0107 20:41:01.516019 14973 net.cpp:160] Setting up inception_4a/3x3_reduce_bn
I0107 20:41:01.516029 14973 net.cpp:167] Top shape: 1 64 14 14 (12544)
I0107 20:41:01.516036 14973 layer_factory.hpp:74] Creating layer inception_4a/relu_3x3_reduce
I0107 20:41:01.516038 14973 net.cpp:96] Creating Layer inception_4a/relu_3x3_reduce
I0107 20:41:01.516041 14973 net.cpp:459] inception_4a/relu_3x3_reduce <- inception_4a/3x3_reduce_bn
I0107 20:41:01.516047 14973 net.cpp:404] inception_4a/relu_3x3_reduce -> inception_4a/3x3_reduce_bn (in-place)
I0107 20:41:01.516050 14973 net.cpp:160] Setting up inception_4a/relu_3x3_reduce
I0107 20:41:01.516053 14973 net.cpp:167] Top shape: 1 64 14 14 (12544)
I0107 20:41:01.516057 14973 layer_factory.hpp:74] Creating layer inception_4a/3x3
I0107 20:41:01.516059 14973 net.cpp:96] Creating Layer inception_4a/3x3
I0107 20:41:01.516062 14973 net.cpp:459] inception_4a/3x3 <- inception_4a/3x3_reduce_bn
I0107 20:41:01.516067 14973 net.cpp:415] inception_4a/3x3 -> inception_4a/3x3
I0107 20:41:01.516072 14973 net.cpp:160] Setting up inception_4a/3x3
I0107 20:41:01.516317 14973 net.cpp:167] Top shape: 1 96 14 14 (18816)
I0107 20:41:01.516324 14973 layer_factory.hpp:74] Creating layer inception_4a/3x3_bn
I0107 20:41:01.516326 14973 layer_factory.cpp:177] Layer inception_4a/3x3_bn is using CAFFE engine.
I0107 20:41:01.516330 14973 net.cpp:96] Creating Layer inception_4a/3x3_bn
I0107 20:41:01.516335 14973 net.cpp:459] inception_4a/3x3_bn <- inception_4a/3x3
I0107 20:41:01.516338 14973 net.cpp:415] inception_4a/3x3_bn -> inception_4a/3x3_bn
I0107 20:41:01.516342 14973 net.cpp:160] Setting up inception_4a/3x3_bn
I0107 20:41:01.516352 14973 net.cpp:167] Top shape: 1 96 14 14 (18816)
I0107 20:41:01.516358 14973 layer_factory.hpp:74] Creating layer inception_4a/relu_3x3
I0107 20:41:01.516362 14973 net.cpp:96] Creating Layer inception_4a/relu_3x3
I0107 20:41:01.516366 14973 net.cpp:459] inception_4a/relu_3x3 <- inception_4a/3x3_bn
I0107 20:41:01.516368 14973 net.cpp:404] inception_4a/relu_3x3 -> inception_4a/3x3_bn (in-place)
I0107 20:41:01.516372 14973 net.cpp:160] Setting up inception_4a/relu_3x3
I0107 20:41:01.516376 14973 net.cpp:167] Top shape: 1 96 14 14 (18816)
I0107 20:41:01.516378 14973 layer_factory.hpp:74] Creating layer inception_4a/double_3x3_reduce
I0107 20:41:01.516382 14973 net.cpp:96] Creating Layer inception_4a/double_3x3_reduce
I0107 20:41:01.516386 14973 net.cpp:459] inception_4a/double_3x3_reduce <- inception_3c/output_inception_3c/output_0_split_2
I0107 20:41:01.516389 14973 net.cpp:415] inception_4a/double_3x3_reduce -> inception_4a/double_3x3_reduce
I0107 20:41:01.516393 14973 net.cpp:160] Setting up inception_4a/double_3x3_reduce
I0107 20:41:01.516641 14973 net.cpp:167] Top shape: 1 96 14 14 (18816)
I0107 20:41:01.516647 14973 layer_factory.hpp:74] Creating layer inception_4a/double_3x3_reduce_bn
I0107 20:41:01.516650 14973 layer_factory.cpp:177] Layer inception_4a/double_3x3_reduce_bn is using CAFFE engine.
I0107 20:41:01.516654 14973 net.cpp:96] Creating Layer inception_4a/double_3x3_reduce_bn
I0107 20:41:01.516657 14973 net.cpp:459] inception_4a/double_3x3_reduce_bn <- inception_4a/double_3x3_reduce
I0107 20:41:01.516662 14973 net.cpp:415] inception_4a/double_3x3_reduce_bn -> inception_4a/double_3x3_reduce_bn
I0107 20:41:01.516667 14973 net.cpp:160] Setting up inception_4a/double_3x3_reduce_bn
I0107 20:41:01.516676 14973 net.cpp:167] Top shape: 1 96 14 14 (18816)
I0107 20:41:01.516681 14973 layer_factory.hpp:74] Creating layer inception_4a/relu_double_3x3_reduce
I0107 20:41:01.516685 14973 net.cpp:96] Creating Layer inception_4a/relu_double_3x3_reduce
I0107 20:41:01.516688 14973 net.cpp:459] inception_4a/relu_double_3x3_reduce <- inception_4a/double_3x3_reduce_bn
I0107 20:41:01.516692 14973 net.cpp:404] inception_4a/relu_double_3x3_reduce -> inception_4a/double_3x3_reduce_bn (in-place)
I0107 20:41:01.516695 14973 net.cpp:160] Setting up inception_4a/relu_double_3x3_reduce
I0107 20:41:01.516700 14973 net.cpp:167] Top shape: 1 96 14 14 (18816)
I0107 20:41:01.516703 14973 layer_factory.hpp:74] Creating layer inception_4a/double_3x3_1
I0107 20:41:01.516708 14973 net.cpp:96] Creating Layer inception_4a/double_3x3_1
I0107 20:41:01.516710 14973 net.cpp:459] inception_4a/double_3x3_1 <- inception_4a/double_3x3_reduce_bn
I0107 20:41:01.516716 14973 net.cpp:415] inception_4a/double_3x3_1 -> inception_4a/double_3x3_1
I0107 20:41:01.516721 14973 net.cpp:160] Setting up inception_4a/double_3x3_1
I0107 20:41:01.517204 14973 net.cpp:167] Top shape: 1 128 14 14 (25088)
I0107 20:41:01.517210 14973 layer_factory.hpp:74] Creating layer inception_4a/double_3x3_1_bn
I0107 20:41:01.517212 14973 layer_factory.cpp:177] Layer inception_4a/double_3x3_1_bn is using CAFFE engine.
I0107 20:41:01.517217 14973 net.cpp:96] Creating Layer inception_4a/double_3x3_1_bn
I0107 20:41:01.517220 14973 net.cpp:459] inception_4a/double_3x3_1_bn <- inception_4a/double_3x3_1
I0107 20:41:01.517225 14973 net.cpp:415] inception_4a/double_3x3_1_bn -> inception_4a/double_3x3_1_bn
I0107 20:41:01.517228 14973 net.cpp:160] Setting up inception_4a/double_3x3_1_bn
I0107 20:41:01.517241 14973 net.cpp:167] Top shape: 1 128 14 14 (25088)
I0107 20:41:01.517246 14973 layer_factory.hpp:74] Creating layer inception_4a/relu_double_3x3_1
I0107 20:41:01.517251 14973 net.cpp:96] Creating Layer inception_4a/relu_double_3x3_1
I0107 20:41:01.517253 14973 net.cpp:459] inception_4a/relu_double_3x3_1 <- inception_4a/double_3x3_1_bn
I0107 20:41:01.517257 14973 net.cpp:404] inception_4a/relu_double_3x3_1 -> inception_4a/double_3x3_1_bn (in-place)
I0107 20:41:01.517261 14973 net.cpp:160] Setting up inception_4a/relu_double_3x3_1
I0107 20:41:01.517264 14973 net.cpp:167] Top shape: 1 128 14 14 (25088)
I0107 20:41:01.517267 14973 layer_factory.hpp:74] Creating layer inception_4a/double_3x3_2
I0107 20:41:01.517271 14973 net.cpp:96] Creating Layer inception_4a/double_3x3_2
I0107 20:41:01.517273 14973 net.cpp:459] inception_4a/double_3x3_2 <- inception_4a/double_3x3_1_bn
I0107 20:41:01.517278 14973 net.cpp:415] inception_4a/double_3x3_2 -> inception_4a/double_3x3_2
I0107 20:41:01.517282 14973 net.cpp:160] Setting up inception_4a/double_3x3_2
I0107 20:41:01.517927 14973 net.cpp:167] Top shape: 1 128 14 14 (25088)
I0107 20:41:01.517935 14973 layer_factory.hpp:74] Creating layer inception_4a/double_3x3_2_bn
I0107 20:41:01.517937 14973 layer_factory.cpp:177] Layer inception_4a/double_3x3_2_bn is using CAFFE engine.
I0107 20:41:01.517942 14973 net.cpp:96] Creating Layer inception_4a/double_3x3_2_bn
I0107 20:41:01.517946 14973 net.cpp:459] inception_4a/double_3x3_2_bn <- inception_4a/double_3x3_2
I0107 20:41:01.517951 14973 net.cpp:415] inception_4a/double_3x3_2_bn -> inception_4a/double_3x3_2_bn
I0107 20:41:01.517954 14973 net.cpp:160] Setting up inception_4a/double_3x3_2_bn
I0107 20:41:01.517964 14973 net.cpp:167] Top shape: 1 128 14 14 (25088)
I0107 20:41:01.517969 14973 layer_factory.hpp:74] Creating layer inception_4a/relu_double_3x3_2
I0107 20:41:01.517972 14973 net.cpp:96] Creating Layer inception_4a/relu_double_3x3_2
I0107 20:41:01.517976 14973 net.cpp:459] inception_4a/relu_double_3x3_2 <- inception_4a/double_3x3_2_bn
I0107 20:41:01.517979 14973 net.cpp:404] inception_4a/relu_double_3x3_2 -> inception_4a/double_3x3_2_bn (in-place)
I0107 20:41:01.517983 14973 net.cpp:160] Setting up inception_4a/relu_double_3x3_2
I0107 20:41:01.517987 14973 net.cpp:167] Top shape: 1 128 14 14 (25088)
I0107 20:41:01.517989 14973 layer_factory.hpp:74] Creating layer inception_4a/pool
I0107 20:41:01.517993 14973 net.cpp:96] Creating Layer inception_4a/pool
I0107 20:41:01.517997 14973 net.cpp:459] inception_4a/pool <- inception_3c/output_inception_3c/output_0_split_3
I0107 20:41:01.517999 14973 net.cpp:415] inception_4a/pool -> inception_4a/pool
I0107 20:41:01.518003 14973 net.cpp:160] Setting up inception_4a/pool
I0107 20:41:01.518007 14973 net.cpp:167] Top shape: 1 576 14 14 (112896)
I0107 20:41:01.518010 14973 layer_factory.hpp:74] Creating layer inception_4a/pool_proj
I0107 20:41:01.518015 14973 net.cpp:96] Creating Layer inception_4a/pool_proj
I0107 20:41:01.518020 14973 net.cpp:459] inception_4a/pool_proj <- inception_4a/pool
I0107 20:41:01.518025 14973 net.cpp:415] inception_4a/pool_proj -> inception_4a/pool_proj
I0107 20:41:01.518030 14973 net.cpp:160] Setting up inception_4a/pool_proj
I0107 20:41:01.518357 14973 net.cpp:167] Top shape: 1 128 14 14 (25088)
I0107 20:41:01.518362 14973 layer_factory.hpp:74] Creating layer inception_4a/pool_proj_bn
I0107 20:41:01.518365 14973 layer_factory.cpp:177] Layer inception_4a/pool_proj_bn is using CAFFE engine.
I0107 20:41:01.518369 14973 net.cpp:96] Creating Layer inception_4a/pool_proj_bn
I0107 20:41:01.518374 14973 net.cpp:459] inception_4a/pool_proj_bn <- inception_4a/pool_proj
I0107 20:41:01.518378 14973 net.cpp:415] inception_4a/pool_proj_bn -> inception_4a/pool_proj_bn
I0107 20:41:01.518383 14973 net.cpp:160] Setting up inception_4a/pool_proj_bn
I0107 20:41:01.518393 14973 net.cpp:167] Top shape: 1 128 14 14 (25088)
I0107 20:41:01.518399 14973 layer_factory.hpp:74] Creating layer inception_4a/relu_pool_proj
I0107 20:41:01.518402 14973 net.cpp:96] Creating Layer inception_4a/relu_pool_proj
I0107 20:41:01.518404 14973 net.cpp:459] inception_4a/relu_pool_proj <- inception_4a/pool_proj_bn
I0107 20:41:01.518409 14973 net.cpp:404] inception_4a/relu_pool_proj -> inception_4a/pool_proj_bn (in-place)
I0107 20:41:01.518412 14973 net.cpp:160] Setting up inception_4a/relu_pool_proj
I0107 20:41:01.518416 14973 net.cpp:167] Top shape: 1 128 14 14 (25088)
I0107 20:41:01.518419 14973 layer_factory.hpp:74] Creating layer inception_4a/output
I0107 20:41:01.518424 14973 net.cpp:96] Creating Layer inception_4a/output
I0107 20:41:01.518425 14973 net.cpp:459] inception_4a/output <- inception_4a/1x1_bn
I0107 20:41:01.518429 14973 net.cpp:459] inception_4a/output <- inception_4a/3x3_bn
I0107 20:41:01.518432 14973 net.cpp:459] inception_4a/output <- inception_4a/double_3x3_2_bn
I0107 20:41:01.518435 14973 net.cpp:459] inception_4a/output <- inception_4a/pool_proj_bn
I0107 20:41:01.518438 14973 net.cpp:415] inception_4a/output -> inception_4a/output
I0107 20:41:01.518442 14973 net.cpp:160] Setting up inception_4a/output
I0107 20:41:01.518446 14973 net.cpp:167] Top shape: 1 576 14 14 (112896)
I0107 20:41:01.518450 14973 layer_factory.hpp:74] Creating layer inception_4a/output_inception_4a/output_0_split
I0107 20:41:01.518453 14973 net.cpp:96] Creating Layer inception_4a/output_inception_4a/output_0_split
I0107 20:41:01.518456 14973 net.cpp:459] inception_4a/output_inception_4a/output_0_split <- inception_4a/output
I0107 20:41:01.518460 14973 net.cpp:415] inception_4a/output_inception_4a/output_0_split -> inception_4a/output_inception_4a/output_0_split_0
I0107 20:41:01.518465 14973 net.cpp:415] inception_4a/output_inception_4a/output_0_split -> inception_4a/output_inception_4a/output_0_split_1
I0107 20:41:01.518470 14973 net.cpp:415] inception_4a/output_inception_4a/output_0_split -> inception_4a/output_inception_4a/output_0_split_2
I0107 20:41:01.518473 14973 net.cpp:415] inception_4a/output_inception_4a/output_0_split -> inception_4a/output_inception_4a/output_0_split_3
I0107 20:41:01.518477 14973 net.cpp:160] Setting up inception_4a/output_inception_4a/output_0_split
I0107 20:41:01.518481 14973 net.cpp:167] Top shape: 1 576 14 14 (112896)
I0107 20:41:01.518484 14973 net.cpp:167] Top shape: 1 576 14 14 (112896)
I0107 20:41:01.518487 14973 net.cpp:167] Top shape: 1 576 14 14 (112896)
I0107 20:41:01.518491 14973 net.cpp:167] Top shape: 1 576 14 14 (112896)
I0107 20:41:01.518493 14973 layer_factory.hpp:74] Creating layer inception_4b/1x1
I0107 20:41:01.518498 14973 net.cpp:96] Creating Layer inception_4b/1x1
I0107 20:41:01.518501 14973 net.cpp:459] inception_4b/1x1 <- inception_4a/output_inception_4a/output_0_split_0
I0107 20:41:01.518507 14973 net.cpp:415] inception_4b/1x1 -> inception_4b/1x1
I0107 20:41:01.518512 14973 net.cpp:160] Setting up inception_4b/1x1
I0107 20:41:01.518993 14973 net.cpp:167] Top shape: 1 192 14 14 (37632)
I0107 20:41:01.518999 14973 layer_factory.hpp:74] Creating layer inception_4b/1x1_bn
I0107 20:41:01.519002 14973 layer_factory.cpp:177] Layer inception_4b/1x1_bn is using CAFFE engine.
I0107 20:41:01.519009 14973 net.cpp:96] Creating Layer inception_4b/1x1_bn
I0107 20:41:01.519012 14973 net.cpp:459] inception_4b/1x1_bn <- inception_4b/1x1
I0107 20:41:01.519017 14973 net.cpp:415] inception_4b/1x1_bn -> inception_4b/1x1_bn
I0107 20:41:01.519022 14973 net.cpp:160] Setting up inception_4b/1x1_bn
I0107 20:41:01.519032 14973 net.cpp:167] Top shape: 1 192 14 14 (37632)
I0107 20:41:01.519038 14973 layer_factory.hpp:74] Creating layer inception_4b/relu_1x1
I0107 20:41:01.519044 14973 net.cpp:96] Creating Layer inception_4b/relu_1x1
I0107 20:41:01.519047 14973 net.cpp:459] inception_4b/relu_1x1 <- inception_4b/1x1_bn
I0107 20:41:01.519050 14973 net.cpp:404] inception_4b/relu_1x1 -> inception_4b/1x1_bn (in-place)
I0107 20:41:01.519054 14973 net.cpp:160] Setting up inception_4b/relu_1x1
I0107 20:41:01.519058 14973 net.cpp:167] Top shape: 1 192 14 14 (37632)
I0107 20:41:01.519060 14973 layer_factory.hpp:74] Creating layer inception_4b/3x3_reduce
I0107 20:41:01.519065 14973 net.cpp:96] Creating Layer inception_4b/3x3_reduce
I0107 20:41:01.519068 14973 net.cpp:459] inception_4b/3x3_reduce <- inception_4a/output_inception_4a/output_0_split_1
I0107 20:41:01.519073 14973 net.cpp:415] inception_4b/3x3_reduce -> inception_4b/3x3_reduce
I0107 20:41:01.519078 14973 net.cpp:160] Setting up inception_4b/3x3_reduce
I0107 20:41:01.519325 14973 net.cpp:167] Top shape: 1 96 14 14 (18816)
I0107 20:41:01.519331 14973 layer_factory.hpp:74] Creating layer inception_4b/3x3_reduce_bn
I0107 20:41:01.519335 14973 layer_factory.cpp:177] Layer inception_4b/3x3_reduce_bn is using CAFFE engine.
I0107 20:41:01.519340 14973 net.cpp:96] Creating Layer inception_4b/3x3_reduce_bn
I0107 20:41:01.519342 14973 net.cpp:459] inception_4b/3x3_reduce_bn <- inception_4b/3x3_reduce
I0107 20:41:01.519346 14973 net.cpp:415] inception_4b/3x3_reduce_bn -> inception_4b/3x3_reduce_bn
I0107 20:41:01.519351 14973 net.cpp:160] Setting up inception_4b/3x3_reduce_bn
I0107 20:41:01.519361 14973 net.cpp:167] Top shape: 1 96 14 14 (18816)
I0107 20:41:01.519366 14973 layer_factory.hpp:74] Creating layer inception_4b/relu_3x3_reduce
I0107 20:41:01.519369 14973 net.cpp:96] Creating Layer inception_4b/relu_3x3_reduce
I0107 20:41:01.519372 14973 net.cpp:459] inception_4b/relu_3x3_reduce <- inception_4b/3x3_reduce_bn
I0107 20:41:01.519376 14973 net.cpp:404] inception_4b/relu_3x3_reduce -> inception_4b/3x3_reduce_bn (in-place)
I0107 20:41:01.519379 14973 net.cpp:160] Setting up inception_4b/relu_3x3_reduce
I0107 20:41:01.519383 14973 net.cpp:167] Top shape: 1 96 14 14 (18816)
I0107 20:41:01.519387 14973 layer_factory.hpp:74] Creating layer inception_4b/3x3
I0107 20:41:01.519390 14973 net.cpp:96] Creating Layer inception_4b/3x3
I0107 20:41:01.519392 14973 net.cpp:459] inception_4b/3x3 <- inception_4b/3x3_reduce_bn
I0107 20:41:01.519397 14973 net.cpp:415] inception_4b/3x3 -> inception_4b/3x3
I0107 20:41:01.519402 14973 net.cpp:160] Setting up inception_4b/3x3
I0107 20:41:01.519887 14973 net.cpp:167] Top shape: 1 128 14 14 (25088)
I0107 20:41:01.519892 14973 layer_factory.hpp:74] Creating layer inception_4b/3x3_bn
I0107 20:41:01.519896 14973 layer_factory.cpp:177] Layer inception_4b/3x3_bn is using CAFFE engine.
I0107 20:41:01.519899 14973 net.cpp:96] Creating Layer inception_4b/3x3_bn
I0107 20:41:01.519902 14973 net.cpp:459] inception_4b/3x3_bn <- inception_4b/3x3
I0107 20:41:01.519907 14973 net.cpp:415] inception_4b/3x3_bn -> inception_4b/3x3_bn
I0107 20:41:01.519912 14973 net.cpp:160] Setting up inception_4b/3x3_bn
I0107 20:41:01.519922 14973 net.cpp:167] Top shape: 1 128 14 14 (25088)
I0107 20:41:01.519927 14973 layer_factory.hpp:74] Creating layer inception_4b/relu_3x3
I0107 20:41:01.519932 14973 net.cpp:96] Creating Layer inception_4b/relu_3x3
I0107 20:41:01.519934 14973 net.cpp:459] inception_4b/relu_3x3 <- inception_4b/3x3_bn
I0107 20:41:01.519938 14973 net.cpp:404] inception_4b/relu_3x3 -> inception_4b/3x3_bn (in-place)
I0107 20:41:01.519942 14973 net.cpp:160] Setting up inception_4b/relu_3x3
I0107 20:41:01.519948 14973 net.cpp:167] Top shape: 1 128 14 14 (25088)
I0107 20:41:01.519950 14973 layer_factory.hpp:74] Creating layer inception_4b/double_3x3_reduce
I0107 20:41:01.519955 14973 net.cpp:96] Creating Layer inception_4b/double_3x3_reduce
I0107 20:41:01.519958 14973 net.cpp:459] inception_4b/double_3x3_reduce <- inception_4a/output_inception_4a/output_0_split_2
I0107 20:41:01.519963 14973 net.cpp:415] inception_4b/double_3x3_reduce -> inception_4b/double_3x3_reduce
I0107 20:41:01.519968 14973 net.cpp:160] Setting up inception_4b/double_3x3_reduce
I0107 20:41:01.520215 14973 net.cpp:167] Top shape: 1 96 14 14 (18816)
I0107 20:41:01.520220 14973 layer_factory.hpp:74] Creating layer inception_4b/double_3x3_reduce_bn
I0107 20:41:01.520223 14973 layer_factory.cpp:177] Layer inception_4b/double_3x3_reduce_bn is using CAFFE engine.
I0107 20:41:01.520227 14973 net.cpp:96] Creating Layer inception_4b/double_3x3_reduce_bn
I0107 20:41:01.520231 14973 net.cpp:459] inception_4b/double_3x3_reduce_bn <- inception_4b/double_3x3_reduce
I0107 20:41:01.520236 14973 net.cpp:415] inception_4b/double_3x3_reduce_bn -> inception_4b/double_3x3_reduce_bn
I0107 20:41:01.520239 14973 net.cpp:160] Setting up inception_4b/double_3x3_reduce_bn
I0107 20:41:01.520249 14973 net.cpp:167] Top shape: 1 96 14 14 (18816)
I0107 20:41:01.520254 14973 layer_factory.hpp:74] Creating layer inception_4b/relu_double_3x3_reduce
I0107 20:41:01.520259 14973 net.cpp:96] Creating Layer inception_4b/relu_double_3x3_reduce
I0107 20:41:01.520262 14973 net.cpp:459] inception_4b/relu_double_3x3_reduce <- inception_4b/double_3x3_reduce_bn
I0107 20:41:01.520265 14973 net.cpp:404] inception_4b/relu_double_3x3_reduce -> inception_4b/double_3x3_reduce_bn (in-place)
I0107 20:41:01.520269 14973 net.cpp:160] Setting up inception_4b/relu_double_3x3_reduce
I0107 20:41:01.520272 14973 net.cpp:167] Top shape: 1 96 14 14 (18816)
I0107 20:41:01.520275 14973 layer_factory.hpp:74] Creating layer inception_4b/double_3x3_1
I0107 20:41:01.520280 14973 net.cpp:96] Creating Layer inception_4b/double_3x3_1
I0107 20:41:01.520283 14973 net.cpp:459] inception_4b/double_3x3_1 <- inception_4b/double_3x3_reduce_bn
I0107 20:41:01.520287 14973 net.cpp:415] inception_4b/double_3x3_1 -> inception_4b/double_3x3_1
I0107 20:41:01.520292 14973 net.cpp:160] Setting up inception_4b/double_3x3_1
I0107 20:41:01.520774 14973 net.cpp:167] Top shape: 1 128 14 14 (25088)
I0107 20:41:01.520781 14973 layer_factory.hpp:74] Creating layer inception_4b/double_3x3_1_bn
I0107 20:41:01.520783 14973 layer_factory.cpp:177] Layer inception_4b/double_3x3_1_bn is using CAFFE engine.
I0107 20:41:01.520787 14973 net.cpp:96] Creating Layer inception_4b/double_3x3_1_bn
I0107 20:41:01.520790 14973 net.cpp:459] inception_4b/double_3x3_1_bn <- inception_4b/double_3x3_1
I0107 20:41:01.520795 14973 net.cpp:415] inception_4b/double_3x3_1_bn -> inception_4b/double_3x3_1_bn
I0107 20:41:01.520799 14973 net.cpp:160] Setting up inception_4b/double_3x3_1_bn
I0107 20:41:01.520809 14973 net.cpp:167] Top shape: 1 128 14 14 (25088)
I0107 20:41:01.520817 14973 layer_factory.hpp:74] Creating layer inception_4b/relu_double_3x3_1
I0107 20:41:01.520822 14973 net.cpp:96] Creating Layer inception_4b/relu_double_3x3_1
I0107 20:41:01.520824 14973 net.cpp:459] inception_4b/relu_double_3x3_1 <- inception_4b/double_3x3_1_bn
I0107 20:41:01.520828 14973 net.cpp:404] inception_4b/relu_double_3x3_1 -> inception_4b/double_3x3_1_bn (in-place)
I0107 20:41:01.520830 14973 net.cpp:160] Setting up inception_4b/relu_double_3x3_1
I0107 20:41:01.520834 14973 net.cpp:167] Top shape: 1 128 14 14 (25088)
I0107 20:41:01.520838 14973 layer_factory.hpp:74] Creating layer inception_4b/double_3x3_2
I0107 20:41:01.520843 14973 net.cpp:96] Creating Layer inception_4b/double_3x3_2
I0107 20:41:01.520844 14973 net.cpp:459] inception_4b/double_3x3_2 <- inception_4b/double_3x3_1_bn
I0107 20:41:01.520848 14973 net.cpp:415] inception_4b/double_3x3_2 -> inception_4b/double_3x3_2
I0107 20:41:01.520853 14973 net.cpp:160] Setting up inception_4b/double_3x3_2
I0107 20:41:01.521493 14973 net.cpp:167] Top shape: 1 128 14 14 (25088)
I0107 20:41:01.521502 14973 layer_factory.hpp:74] Creating layer inception_4b/double_3x3_2_bn
I0107 20:41:01.521504 14973 layer_factory.cpp:177] Layer inception_4b/double_3x3_2_bn is using CAFFE engine.
I0107 20:41:01.521509 14973 net.cpp:96] Creating Layer inception_4b/double_3x3_2_bn
I0107 20:41:01.521512 14973 net.cpp:459] inception_4b/double_3x3_2_bn <- inception_4b/double_3x3_2
I0107 20:41:01.521517 14973 net.cpp:415] inception_4b/double_3x3_2_bn -> inception_4b/double_3x3_2_bn
I0107 20:41:01.521522 14973 net.cpp:160] Setting up inception_4b/double_3x3_2_bn
I0107 20:41:01.521531 14973 net.cpp:167] Top shape: 1 128 14 14 (25088)
I0107 20:41:01.521536 14973 layer_factory.hpp:74] Creating layer inception_4b/relu_double_3x3_2
I0107 20:41:01.521541 14973 net.cpp:96] Creating Layer inception_4b/relu_double_3x3_2
I0107 20:41:01.521544 14973 net.cpp:459] inception_4b/relu_double_3x3_2 <- inception_4b/double_3x3_2_bn
I0107 20:41:01.521548 14973 net.cpp:404] inception_4b/relu_double_3x3_2 -> inception_4b/double_3x3_2_bn (in-place)
I0107 20:41:01.521551 14973 net.cpp:160] Setting up inception_4b/relu_double_3x3_2
I0107 20:41:01.521554 14973 net.cpp:167] Top shape: 1 128 14 14 (25088)
I0107 20:41:01.521558 14973 layer_factory.hpp:74] Creating layer inception_4b/pool
I0107 20:41:01.521560 14973 net.cpp:96] Creating Layer inception_4b/pool
I0107 20:41:01.521564 14973 net.cpp:459] inception_4b/pool <- inception_4a/output_inception_4a/output_0_split_3
I0107 20:41:01.521569 14973 net.cpp:415] inception_4b/pool -> inception_4b/pool
I0107 20:41:01.521572 14973 net.cpp:160] Setting up inception_4b/pool
I0107 20:41:01.521576 14973 net.cpp:167] Top shape: 1 576 14 14 (112896)
I0107 20:41:01.521579 14973 layer_factory.hpp:74] Creating layer inception_4b/pool_proj
I0107 20:41:01.521584 14973 net.cpp:96] Creating Layer inception_4b/pool_proj
I0107 20:41:01.521586 14973 net.cpp:459] inception_4b/pool_proj <- inception_4b/pool
I0107 20:41:01.521591 14973 net.cpp:415] inception_4b/pool_proj -> inception_4b/pool_proj
I0107 20:41:01.521595 14973 net.cpp:160] Setting up inception_4b/pool_proj
I0107 20:41:01.521927 14973 net.cpp:167] Top shape: 1 128 14 14 (25088)
I0107 20:41:01.521934 14973 layer_factory.hpp:74] Creating layer inception_4b/pool_proj_bn
I0107 20:41:01.521937 14973 layer_factory.cpp:177] Layer inception_4b/pool_proj_bn is using CAFFE engine.
I0107 20:41:01.521942 14973 net.cpp:96] Creating Layer inception_4b/pool_proj_bn
I0107 20:41:01.521945 14973 net.cpp:459] inception_4b/pool_proj_bn <- inception_4b/pool_proj
I0107 20:41:01.521950 14973 net.cpp:415] inception_4b/pool_proj_bn -> inception_4b/pool_proj_bn
I0107 20:41:01.521955 14973 net.cpp:160] Setting up inception_4b/pool_proj_bn
I0107 20:41:01.521965 14973 net.cpp:167] Top shape: 1 128 14 14 (25088)
I0107 20:41:01.521970 14973 layer_factory.hpp:74] Creating layer inception_4b/relu_pool_proj
I0107 20:41:01.521973 14973 net.cpp:96] Creating Layer inception_4b/relu_pool_proj
I0107 20:41:01.521976 14973 net.cpp:459] inception_4b/relu_pool_proj <- inception_4b/pool_proj_bn
I0107 20:41:01.521981 14973 net.cpp:404] inception_4b/relu_pool_proj -> inception_4b/pool_proj_bn (in-place)
I0107 20:41:01.521984 14973 net.cpp:160] Setting up inception_4b/relu_pool_proj
I0107 20:41:01.521987 14973 net.cpp:167] Top shape: 1 128 14 14 (25088)
I0107 20:41:01.521991 14973 layer_factory.hpp:74] Creating layer inception_4b/output
I0107 20:41:01.521994 14973 net.cpp:96] Creating Layer inception_4b/output
I0107 20:41:01.521997 14973 net.cpp:459] inception_4b/output <- inception_4b/1x1_bn
I0107 20:41:01.522001 14973 net.cpp:459] inception_4b/output <- inception_4b/3x3_bn
I0107 20:41:01.522003 14973 net.cpp:459] inception_4b/output <- inception_4b/double_3x3_2_bn
I0107 20:41:01.522006 14973 net.cpp:459] inception_4b/output <- inception_4b/pool_proj_bn
I0107 20:41:01.522011 14973 net.cpp:415] inception_4b/output -> inception_4b/output
I0107 20:41:01.522014 14973 net.cpp:160] Setting up inception_4b/output
I0107 20:41:01.522019 14973 net.cpp:167] Top shape: 1 576 14 14 (112896)
I0107 20:41:01.522024 14973 layer_factory.hpp:74] Creating layer inception_4b/output_inception_4b/output_0_split
I0107 20:41:01.522028 14973 net.cpp:96] Creating Layer inception_4b/output_inception_4b/output_0_split
I0107 20:41:01.522032 14973 net.cpp:459] inception_4b/output_inception_4b/output_0_split <- inception_4b/output
I0107 20:41:01.522035 14973 net.cpp:415] inception_4b/output_inception_4b/output_0_split -> inception_4b/output_inception_4b/output_0_split_0
I0107 20:41:01.522039 14973 net.cpp:415] inception_4b/output_inception_4b/output_0_split -> inception_4b/output_inception_4b/output_0_split_1
I0107 20:41:01.522044 14973 net.cpp:415] inception_4b/output_inception_4b/output_0_split -> inception_4b/output_inception_4b/output_0_split_2
I0107 20:41:01.522048 14973 net.cpp:415] inception_4b/output_inception_4b/output_0_split -> inception_4b/output_inception_4b/output_0_split_3
I0107 20:41:01.522052 14973 net.cpp:160] Setting up inception_4b/output_inception_4b/output_0_split
I0107 20:41:01.522058 14973 net.cpp:167] Top shape: 1 576 14 14 (112896)
I0107 20:41:01.522060 14973 net.cpp:167] Top shape: 1 576 14 14 (112896)
I0107 20:41:01.522063 14973 net.cpp:167] Top shape: 1 576 14 14 (112896)
I0107 20:41:01.522066 14973 net.cpp:167] Top shape: 1 576 14 14 (112896)
I0107 20:41:01.522069 14973 layer_factory.hpp:74] Creating layer inception_4c/1x1
I0107 20:41:01.522073 14973 net.cpp:96] Creating Layer inception_4c/1x1
I0107 20:41:01.522076 14973 net.cpp:459] inception_4c/1x1 <- inception_4b/output_inception_4b/output_0_split_0
I0107 20:41:01.522081 14973 net.cpp:415] inception_4c/1x1 -> inception_4c/1x1
I0107 20:41:01.522085 14973 net.cpp:160] Setting up inception_4c/1x1
I0107 20:41:01.522488 14973 net.cpp:167] Top shape: 1 160 14 14 (31360)
I0107 20:41:01.522495 14973 layer_factory.hpp:74] Creating layer inception_4c/1x1_bn
I0107 20:41:01.522496 14973 layer_factory.cpp:177] Layer inception_4c/1x1_bn is using CAFFE engine.
I0107 20:41:01.522501 14973 net.cpp:96] Creating Layer inception_4c/1x1_bn
I0107 20:41:01.522505 14973 net.cpp:459] inception_4c/1x1_bn <- inception_4c/1x1
I0107 20:41:01.522508 14973 net.cpp:415] inception_4c/1x1_bn -> inception_4c/1x1_bn
I0107 20:41:01.522513 14973 net.cpp:160] Setting up inception_4c/1x1_bn
I0107 20:41:01.522523 14973 net.cpp:167] Top shape: 1 160 14 14 (31360)
I0107 20:41:01.522529 14973 layer_factory.hpp:74] Creating layer inception_4c/relu_1x1
I0107 20:41:01.522541 14973 net.cpp:96] Creating Layer inception_4c/relu_1x1
I0107 20:41:01.522544 14973 net.cpp:459] inception_4c/relu_1x1 <- inception_4c/1x1_bn
I0107 20:41:01.522548 14973 net.cpp:404] inception_4c/relu_1x1 -> inception_4c/1x1_bn (in-place)
I0107 20:41:01.522552 14973 net.cpp:160] Setting up inception_4c/relu_1x1
I0107 20:41:01.522555 14973 net.cpp:167] Top shape: 1 160 14 14 (31360)
I0107 20:41:01.522558 14973 layer_factory.hpp:74] Creating layer inception_4c/3x3_reduce
I0107 20:41:01.522563 14973 net.cpp:96] Creating Layer inception_4c/3x3_reduce
I0107 20:41:01.522567 14973 net.cpp:459] inception_4c/3x3_reduce <- inception_4b/output_inception_4b/output_0_split_1
I0107 20:41:01.522572 14973 net.cpp:415] inception_4c/3x3_reduce -> inception_4c/3x3_reduce
I0107 20:41:01.522575 14973 net.cpp:160] Setting up inception_4c/3x3_reduce
I0107 20:41:01.522902 14973 net.cpp:167] Top shape: 1 128 14 14 (25088)
I0107 20:41:01.522907 14973 layer_factory.hpp:74] Creating layer inception_4c/3x3_reduce_bn
I0107 20:41:01.522909 14973 layer_factory.cpp:177] Layer inception_4c/3x3_reduce_bn is using CAFFE engine.
I0107 20:41:01.522914 14973 net.cpp:96] Creating Layer inception_4c/3x3_reduce_bn
I0107 20:41:01.522917 14973 net.cpp:459] inception_4c/3x3_reduce_bn <- inception_4c/3x3_reduce
I0107 20:41:01.522922 14973 net.cpp:415] inception_4c/3x3_reduce_bn -> inception_4c/3x3_reduce_bn
I0107 20:41:01.522927 14973 net.cpp:160] Setting up inception_4c/3x3_reduce_bn
I0107 20:41:01.522938 14973 net.cpp:167] Top shape: 1 128 14 14 (25088)
I0107 20:41:01.522943 14973 layer_factory.hpp:74] Creating layer inception_4c/relu_3x3_reduce
I0107 20:41:01.522948 14973 net.cpp:96] Creating Layer inception_4c/relu_3x3_reduce
I0107 20:41:01.522951 14973 net.cpp:459] inception_4c/relu_3x3_reduce <- inception_4c/3x3_reduce_bn
I0107 20:41:01.522955 14973 net.cpp:404] inception_4c/relu_3x3_reduce -> inception_4c/3x3_reduce_bn (in-place)
I0107 20:41:01.522959 14973 net.cpp:160] Setting up inception_4c/relu_3x3_reduce
I0107 20:41:01.522963 14973 net.cpp:167] Top shape: 1 128 14 14 (25088)
I0107 20:41:01.522965 14973 layer_factory.hpp:74] Creating layer inception_4c/3x3
I0107 20:41:01.522970 14973 net.cpp:96] Creating Layer inception_4c/3x3
I0107 20:41:01.522972 14973 net.cpp:459] inception_4c/3x3 <- inception_4c/3x3_reduce_bn
I0107 20:41:01.522977 14973 net.cpp:415] inception_4c/3x3 -> inception_4c/3x3
I0107 20:41:01.522981 14973 net.cpp:160] Setting up inception_4c/3x3
I0107 20:41:01.523782 14973 net.cpp:167] Top shape: 1 160 14 14 (31360)
I0107 20:41:01.523788 14973 layer_factory.hpp:74] Creating layer inception_4c/3x3_bn
I0107 20:41:01.523792 14973 layer_factory.cpp:177] Layer inception_4c/3x3_bn is using CAFFE engine.
I0107 20:41:01.523797 14973 net.cpp:96] Creating Layer inception_4c/3x3_bn
I0107 20:41:01.523799 14973 net.cpp:459] inception_4c/3x3_bn <- inception_4c/3x3
I0107 20:41:01.523803 14973 net.cpp:415] inception_4c/3x3_bn -> inception_4c/3x3_bn
I0107 20:41:01.523808 14973 net.cpp:160] Setting up inception_4c/3x3_bn
I0107 20:41:01.523818 14973 net.cpp:167] Top shape: 1 160 14 14 (31360)
I0107 20:41:01.523823 14973 layer_factory.hpp:74] Creating layer inception_4c/relu_3x3
I0107 20:41:01.523828 14973 net.cpp:96] Creating Layer inception_4c/relu_3x3
I0107 20:41:01.523831 14973 net.cpp:459] inception_4c/relu_3x3 <- inception_4c/3x3_bn
I0107 20:41:01.523834 14973 net.cpp:404] inception_4c/relu_3x3 -> inception_4c/3x3_bn (in-place)
I0107 20:41:01.523838 14973 net.cpp:160] Setting up inception_4c/relu_3x3
I0107 20:41:01.523841 14973 net.cpp:167] Top shape: 1 160 14 14 (31360)
I0107 20:41:01.523844 14973 layer_factory.hpp:74] Creating layer inception_4c/double_3x3_reduce
I0107 20:41:01.523849 14973 net.cpp:96] Creating Layer inception_4c/double_3x3_reduce
I0107 20:41:01.523851 14973 net.cpp:459] inception_4c/double_3x3_reduce <- inception_4b/output_inception_4b/output_0_split_2
I0107 20:41:01.523856 14973 net.cpp:415] inception_4c/double_3x3_reduce -> inception_4c/double_3x3_reduce
I0107 20:41:01.523861 14973 net.cpp:160] Setting up inception_4c/double_3x3_reduce
I0107 20:41:01.524188 14973 net.cpp:167] Top shape: 1 128 14 14 (25088)
I0107 20:41:01.524194 14973 layer_factory.hpp:74] Creating layer inception_4c/double_3x3_reduce_bn
I0107 20:41:01.524196 14973 layer_factory.cpp:177] Layer inception_4c/double_3x3_reduce_bn is using CAFFE engine.
I0107 20:41:01.524201 14973 net.cpp:96] Creating Layer inception_4c/double_3x3_reduce_bn
I0107 20:41:01.524204 14973 net.cpp:459] inception_4c/double_3x3_reduce_bn <- inception_4c/double_3x3_reduce
I0107 20:41:01.524209 14973 net.cpp:415] inception_4c/double_3x3_reduce_bn -> inception_4c/double_3x3_reduce_bn
I0107 20:41:01.524214 14973 net.cpp:160] Setting up inception_4c/double_3x3_reduce_bn
I0107 20:41:01.524224 14973 net.cpp:167] Top shape: 1 128 14 14 (25088)
I0107 20:41:01.524229 14973 layer_factory.hpp:74] Creating layer inception_4c/relu_double_3x3_reduce
I0107 20:41:01.524232 14973 net.cpp:96] Creating Layer inception_4c/relu_double_3x3_reduce
I0107 20:41:01.524235 14973 net.cpp:459] inception_4c/relu_double_3x3_reduce <- inception_4c/double_3x3_reduce_bn
I0107 20:41:01.524240 14973 net.cpp:404] inception_4c/relu_double_3x3_reduce -> inception_4c/double_3x3_reduce_bn (in-place)
I0107 20:41:01.524242 14973 net.cpp:160] Setting up inception_4c/relu_double_3x3_reduce
I0107 20:41:01.524246 14973 net.cpp:167] Top shape: 1 128 14 14 (25088)
I0107 20:41:01.524250 14973 layer_factory.hpp:74] Creating layer inception_4c/double_3x3_1
I0107 20:41:01.524253 14973 net.cpp:96] Creating Layer inception_4c/double_3x3_1
I0107 20:41:01.524255 14973 net.cpp:459] inception_4c/double_3x3_1 <- inception_4c/double_3x3_reduce_bn
I0107 20:41:01.524262 14973 net.cpp:415] inception_4c/double_3x3_1 -> inception_4c/double_3x3_1
I0107 20:41:01.524267 14973 net.cpp:160] Setting up inception_4c/double_3x3_1
I0107 20:41:01.525064 14973 net.cpp:167] Top shape: 1 160 14 14 (31360)
I0107 20:41:01.525071 14973 layer_factory.hpp:74] Creating layer inception_4c/double_3x3_1_bn
I0107 20:41:01.525074 14973 layer_factory.cpp:177] Layer inception_4c/double_3x3_1_bn is using CAFFE engine.
I0107 20:41:01.525079 14973 net.cpp:96] Creating Layer inception_4c/double_3x3_1_bn
I0107 20:41:01.525082 14973 net.cpp:459] inception_4c/double_3x3_1_bn <- inception_4c/double_3x3_1
I0107 20:41:01.525086 14973 net.cpp:415] inception_4c/double_3x3_1_bn -> inception_4c/double_3x3_1_bn
I0107 20:41:01.525090 14973 net.cpp:160] Setting up inception_4c/double_3x3_1_bn
I0107 20:41:01.525100 14973 net.cpp:167] Top shape: 1 160 14 14 (31360)
I0107 20:41:01.525105 14973 layer_factory.hpp:74] Creating layer inception_4c/relu_double_3x3_1
I0107 20:41:01.525110 14973 net.cpp:96] Creating Layer inception_4c/relu_double_3x3_1
I0107 20:41:01.525112 14973 net.cpp:459] inception_4c/relu_double_3x3_1 <- inception_4c/double_3x3_1_bn
I0107 20:41:01.525116 14973 net.cpp:404] inception_4c/relu_double_3x3_1 -> inception_4c/double_3x3_1_bn (in-place)
I0107 20:41:01.525120 14973 net.cpp:160] Setting up inception_4c/relu_double_3x3_1
I0107 20:41:01.525123 14973 net.cpp:167] Top shape: 1 160 14 14 (31360)
I0107 20:41:01.525125 14973 layer_factory.hpp:74] Creating layer inception_4c/double_3x3_2
I0107 20:41:01.525130 14973 net.cpp:96] Creating Layer inception_4c/double_3x3_2
I0107 20:41:01.525133 14973 net.cpp:459] inception_4c/double_3x3_2 <- inception_4c/double_3x3_1_bn
I0107 20:41:01.525137 14973 net.cpp:415] inception_4c/double_3x3_2 -> inception_4c/double_3x3_2
I0107 20:41:01.525141 14973 net.cpp:160] Setting up inception_4c/double_3x3_2
I0107 20:41:01.526124 14973 net.cpp:167] Top shape: 1 160 14 14 (31360)
I0107 20:41:01.526131 14973 layer_factory.hpp:74] Creating layer inception_4c/double_3x3_2_bn
I0107 20:41:01.526134 14973 layer_factory.cpp:177] Layer inception_4c/double_3x3_2_bn is using CAFFE engine.
I0107 20:41:01.526139 14973 net.cpp:96] Creating Layer inception_4c/double_3x3_2_bn
I0107 20:41:01.526142 14973 net.cpp:459] inception_4c/double_3x3_2_bn <- inception_4c/double_3x3_2
I0107 20:41:01.526147 14973 net.cpp:415] inception_4c/double_3x3_2_bn -> inception_4c/double_3x3_2_bn
I0107 20:41:01.526151 14973 net.cpp:160] Setting up inception_4c/double_3x3_2_bn
I0107 20:41:01.526161 14973 net.cpp:167] Top shape: 1 160 14 14 (31360)
I0107 20:41:01.526166 14973 layer_factory.hpp:74] Creating layer inception_4c/relu_double_3x3_2
I0107 20:41:01.526171 14973 net.cpp:96] Creating Layer inception_4c/relu_double_3x3_2
I0107 20:41:01.526175 14973 net.cpp:459] inception_4c/relu_double_3x3_2 <- inception_4c/double_3x3_2_bn
I0107 20:41:01.526177 14973 net.cpp:404] inception_4c/relu_double_3x3_2 -> inception_4c/double_3x3_2_bn (in-place)
I0107 20:41:01.526181 14973 net.cpp:160] Setting up inception_4c/relu_double_3x3_2
I0107 20:41:01.526185 14973 net.cpp:167] Top shape: 1 160 14 14 (31360)
I0107 20:41:01.526187 14973 layer_factory.hpp:74] Creating layer inception_4c/pool
I0107 20:41:01.526191 14973 net.cpp:96] Creating Layer inception_4c/pool
I0107 20:41:01.526195 14973 net.cpp:459] inception_4c/pool <- inception_4b/output_inception_4b/output_0_split_3
I0107 20:41:01.526198 14973 net.cpp:415] inception_4c/pool -> inception_4c/pool
I0107 20:41:01.526202 14973 net.cpp:160] Setting up inception_4c/pool
I0107 20:41:01.526206 14973 net.cpp:167] Top shape: 1 576 14 14 (112896)
I0107 20:41:01.526209 14973 layer_factory.hpp:74] Creating layer inception_4c/pool_proj
I0107 20:41:01.526213 14973 net.cpp:96] Creating Layer inception_4c/pool_proj
I0107 20:41:01.526216 14973 net.cpp:459] inception_4c/pool_proj <- inception_4c/pool
I0107 20:41:01.526221 14973 net.cpp:415] inception_4c/pool_proj -> inception_4c/pool_proj
I0107 20:41:01.526226 14973 net.cpp:160] Setting up inception_4c/pool_proj
I0107 20:41:01.526545 14973 net.cpp:167] Top shape: 1 128 14 14 (25088)
I0107 20:41:01.526551 14973 layer_factory.hpp:74] Creating layer inception_4c/pool_proj_bn
I0107 20:41:01.526556 14973 layer_factory.cpp:177] Layer inception_4c/pool_proj_bn is using CAFFE engine.
I0107 20:41:01.526561 14973 net.cpp:96] Creating Layer inception_4c/pool_proj_bn
I0107 20:41:01.526564 14973 net.cpp:459] inception_4c/pool_proj_bn <- inception_4c/pool_proj
I0107 20:41:01.526569 14973 net.cpp:415] inception_4c/pool_proj_bn -> inception_4c/pool_proj_bn
I0107 20:41:01.526573 14973 net.cpp:160] Setting up inception_4c/pool_proj_bn
I0107 20:41:01.526583 14973 net.cpp:167] Top shape: 1 128 14 14 (25088)
I0107 20:41:01.526605 14973 layer_factory.hpp:74] Creating layer inception_4c/relu_pool_proj
I0107 20:41:01.526609 14973 net.cpp:96] Creating Layer inception_4c/relu_pool_proj
I0107 20:41:01.526612 14973 net.cpp:459] inception_4c/relu_pool_proj <- inception_4c/pool_proj_bn
I0107 20:41:01.526617 14973 net.cpp:404] inception_4c/relu_pool_proj -> inception_4c/pool_proj_bn (in-place)
I0107 20:41:01.526620 14973 net.cpp:160] Setting up inception_4c/relu_pool_proj
I0107 20:41:01.526623 14973 net.cpp:167] Top shape: 1 128 14 14 (25088)
I0107 20:41:01.526626 14973 layer_factory.hpp:74] Creating layer inception_4c/output
I0107 20:41:01.526630 14973 net.cpp:96] Creating Layer inception_4c/output
I0107 20:41:01.526633 14973 net.cpp:459] inception_4c/output <- inception_4c/1x1_bn
I0107 20:41:01.526636 14973 net.cpp:459] inception_4c/output <- inception_4c/3x3_bn
I0107 20:41:01.526640 14973 net.cpp:459] inception_4c/output <- inception_4c/double_3x3_2_bn
I0107 20:41:01.526643 14973 net.cpp:459] inception_4c/output <- inception_4c/pool_proj_bn
I0107 20:41:01.526646 14973 net.cpp:415] inception_4c/output -> inception_4c/output
I0107 20:41:01.526650 14973 net.cpp:160] Setting up inception_4c/output
I0107 20:41:01.526655 14973 net.cpp:167] Top shape: 1 608 14 14 (119168)
I0107 20:41:01.526659 14973 layer_factory.hpp:74] Creating layer inception_4c/output_inception_4c/output_0_split
I0107 20:41:01.526662 14973 net.cpp:96] Creating Layer inception_4c/output_inception_4c/output_0_split
I0107 20:41:01.526664 14973 net.cpp:459] inception_4c/output_inception_4c/output_0_split <- inception_4c/output
I0107 20:41:01.526669 14973 net.cpp:415] inception_4c/output_inception_4c/output_0_split -> inception_4c/output_inception_4c/output_0_split_0
I0107 20:41:01.526674 14973 net.cpp:415] inception_4c/output_inception_4c/output_0_split -> inception_4c/output_inception_4c/output_0_split_1
I0107 20:41:01.526679 14973 net.cpp:415] inception_4c/output_inception_4c/output_0_split -> inception_4c/output_inception_4c/output_0_split_2
I0107 20:41:01.526682 14973 net.cpp:415] inception_4c/output_inception_4c/output_0_split -> inception_4c/output_inception_4c/output_0_split_3
I0107 20:41:01.526686 14973 net.cpp:160] Setting up inception_4c/output_inception_4c/output_0_split
I0107 20:41:01.526690 14973 net.cpp:167] Top shape: 1 608 14 14 (119168)
I0107 20:41:01.526693 14973 net.cpp:167] Top shape: 1 608 14 14 (119168)
I0107 20:41:01.526697 14973 net.cpp:167] Top shape: 1 608 14 14 (119168)
I0107 20:41:01.526700 14973 net.cpp:167] Top shape: 1 608 14 14 (119168)
I0107 20:41:01.526702 14973 layer_factory.hpp:74] Creating layer inception_4d/1x1
I0107 20:41:01.526708 14973 net.cpp:96] Creating Layer inception_4d/1x1
I0107 20:41:01.526711 14973 net.cpp:459] inception_4d/1x1 <- inception_4c/output_inception_4c/output_0_split_0
I0107 20:41:01.526716 14973 net.cpp:415] inception_4d/1x1 -> inception_4d/1x1
I0107 20:41:01.526727 14973 net.cpp:160] Setting up inception_4d/1x1
I0107 20:41:01.526981 14973 net.cpp:167] Top shape: 1 96 14 14 (18816)
I0107 20:41:01.526988 14973 layer_factory.hpp:74] Creating layer inception_4d/1x1_bn
I0107 20:41:01.526990 14973 layer_factory.cpp:177] Layer inception_4d/1x1_bn is using CAFFE engine.
I0107 20:41:01.526996 14973 net.cpp:96] Creating Layer inception_4d/1x1_bn
I0107 20:41:01.526999 14973 net.cpp:459] inception_4d/1x1_bn <- inception_4d/1x1
I0107 20:41:01.527004 14973 net.cpp:415] inception_4d/1x1_bn -> inception_4d/1x1_bn
I0107 20:41:01.527010 14973 net.cpp:160] Setting up inception_4d/1x1_bn
I0107 20:41:01.527021 14973 net.cpp:167] Top shape: 1 96 14 14 (18816)
I0107 20:41:01.527027 14973 layer_factory.hpp:74] Creating layer inception_4d/relu_1x1
I0107 20:41:01.527031 14973 net.cpp:96] Creating Layer inception_4d/relu_1x1
I0107 20:41:01.527034 14973 net.cpp:459] inception_4d/relu_1x1 <- inception_4d/1x1_bn
I0107 20:41:01.527037 14973 net.cpp:404] inception_4d/relu_1x1 -> inception_4d/1x1_bn (in-place)
I0107 20:41:01.527041 14973 net.cpp:160] Setting up inception_4d/relu_1x1
I0107 20:41:01.527045 14973 net.cpp:167] Top shape: 1 96 14 14 (18816)
I0107 20:41:01.527047 14973 layer_factory.hpp:74] Creating layer inception_4d/3x3_reduce
I0107 20:41:01.527052 14973 net.cpp:96] Creating Layer inception_4d/3x3_reduce
I0107 20:41:01.527055 14973 net.cpp:459] inception_4d/3x3_reduce <- inception_4c/output_inception_4c/output_0_split_1
I0107 20:41:01.527060 14973 net.cpp:415] inception_4d/3x3_reduce -> inception_4d/3x3_reduce
I0107 20:41:01.527065 14973 net.cpp:160] Setting up inception_4d/3x3_reduce
I0107 20:41:01.527400 14973 net.cpp:167] Top shape: 1 128 14 14 (25088)
I0107 20:41:01.527406 14973 layer_factory.hpp:74] Creating layer inception_4d/3x3_reduce_bn
I0107 20:41:01.527410 14973 layer_factory.cpp:177] Layer inception_4d/3x3_reduce_bn is using CAFFE engine.
I0107 20:41:01.527415 14973 net.cpp:96] Creating Layer inception_4d/3x3_reduce_bn
I0107 20:41:01.527417 14973 net.cpp:459] inception_4d/3x3_reduce_bn <- inception_4d/3x3_reduce
I0107 20:41:01.527422 14973 net.cpp:415] inception_4d/3x3_reduce_bn -> inception_4d/3x3_reduce_bn
I0107 20:41:01.527426 14973 net.cpp:160] Setting up inception_4d/3x3_reduce_bn
I0107 20:41:01.527436 14973 net.cpp:167] Top shape: 1 128 14 14 (25088)
I0107 20:41:01.527441 14973 layer_factory.hpp:74] Creating layer inception_4d/relu_3x3_reduce
I0107 20:41:01.527446 14973 net.cpp:96] Creating Layer inception_4d/relu_3x3_reduce
I0107 20:41:01.527451 14973 net.cpp:459] inception_4d/relu_3x3_reduce <- inception_4d/3x3_reduce_bn
I0107 20:41:01.527453 14973 net.cpp:404] inception_4d/relu_3x3_reduce -> inception_4d/3x3_reduce_bn (in-place)
I0107 20:41:01.527457 14973 net.cpp:160] Setting up inception_4d/relu_3x3_reduce
I0107 20:41:01.527462 14973 net.cpp:167] Top shape: 1 128 14 14 (25088)
I0107 20:41:01.527463 14973 layer_factory.hpp:74] Creating layer inception_4d/3x3
I0107 20:41:01.527468 14973 net.cpp:96] Creating Layer inception_4d/3x3
I0107 20:41:01.527470 14973 net.cpp:459] inception_4d/3x3 <- inception_4d/3x3_reduce_bn
I0107 20:41:01.527474 14973 net.cpp:415] inception_4d/3x3 -> inception_4d/3x3
I0107 20:41:01.527479 14973 net.cpp:160] Setting up inception_4d/3x3
I0107 20:41:01.528417 14973 net.cpp:167] Top shape: 1 192 14 14 (37632)
I0107 20:41:01.528424 14973 layer_factory.hpp:74] Creating layer inception_4d/3x3_bn
I0107 20:41:01.528426 14973 layer_factory.cpp:177] Layer inception_4d/3x3_bn is using CAFFE engine.
I0107 20:41:01.528430 14973 net.cpp:96] Creating Layer inception_4d/3x3_bn
I0107 20:41:01.528434 14973 net.cpp:459] inception_4d/3x3_bn <- inception_4d/3x3
I0107 20:41:01.528439 14973 net.cpp:415] inception_4d/3x3_bn -> inception_4d/3x3_bn
I0107 20:41:01.528444 14973 net.cpp:160] Setting up inception_4d/3x3_bn
I0107 20:41:01.528453 14973 net.cpp:167] Top shape: 1 192 14 14 (37632)
I0107 20:41:01.528458 14973 layer_factory.hpp:74] Creating layer inception_4d/relu_3x3
I0107 20:41:01.528462 14973 net.cpp:96] Creating Layer inception_4d/relu_3x3
I0107 20:41:01.528465 14973 net.cpp:459] inception_4d/relu_3x3 <- inception_4d/3x3_bn
I0107 20:41:01.528470 14973 net.cpp:404] inception_4d/relu_3x3 -> inception_4d/3x3_bn (in-place)
I0107 20:41:01.528473 14973 net.cpp:160] Setting up inception_4d/relu_3x3
I0107 20:41:01.528477 14973 net.cpp:167] Top shape: 1 192 14 14 (37632)
I0107 20:41:01.528479 14973 layer_factory.hpp:74] Creating layer inception_4d/double_3x3_reduce
I0107 20:41:01.528483 14973 net.cpp:96] Creating Layer inception_4d/double_3x3_reduce
I0107 20:41:01.528486 14973 net.cpp:459] inception_4d/double_3x3_reduce <- inception_4c/output_inception_4c/output_0_split_2
I0107 20:41:01.528494 14973 net.cpp:415] inception_4d/double_3x3_reduce -> inception_4d/double_3x3_reduce
I0107 20:41:01.528499 14973 net.cpp:160] Setting up inception_4d/double_3x3_reduce
I0107 20:41:01.528919 14973 net.cpp:167] Top shape: 1 160 14 14 (31360)
I0107 20:41:01.528925 14973 layer_factory.hpp:74] Creating layer inception_4d/double_3x3_reduce_bn
I0107 20:41:01.528928 14973 layer_factory.cpp:177] Layer inception_4d/double_3x3_reduce_bn is using CAFFE engine.
I0107 20:41:01.528934 14973 net.cpp:96] Creating Layer inception_4d/double_3x3_reduce_bn
I0107 20:41:01.528936 14973 net.cpp:459] inception_4d/double_3x3_reduce_bn <- inception_4d/double_3x3_reduce
I0107 20:41:01.528940 14973 net.cpp:415] inception_4d/double_3x3_reduce_bn -> inception_4d/double_3x3_reduce_bn
I0107 20:41:01.528944 14973 net.cpp:160] Setting up inception_4d/double_3x3_reduce_bn
I0107 20:41:01.528956 14973 net.cpp:167] Top shape: 1 160 14 14 (31360)
I0107 20:41:01.528962 14973 layer_factory.hpp:74] Creating layer inception_4d/relu_double_3x3_reduce
I0107 20:41:01.528966 14973 net.cpp:96] Creating Layer inception_4d/relu_double_3x3_reduce
I0107 20:41:01.528970 14973 net.cpp:459] inception_4d/relu_double_3x3_reduce <- inception_4d/double_3x3_reduce_bn
I0107 20:41:01.528972 14973 net.cpp:404] inception_4d/relu_double_3x3_reduce -> inception_4d/double_3x3_reduce_bn (in-place)
I0107 20:41:01.528976 14973 net.cpp:160] Setting up inception_4d/relu_double_3x3_reduce
I0107 20:41:01.528980 14973 net.cpp:167] Top shape: 1 160 14 14 (31360)
I0107 20:41:01.528982 14973 layer_factory.hpp:74] Creating layer inception_4d/double_3x3_1
I0107 20:41:01.528988 14973 net.cpp:96] Creating Layer inception_4d/double_3x3_1
I0107 20:41:01.528991 14973 net.cpp:459] inception_4d/double_3x3_1 <- inception_4d/double_3x3_reduce_bn
I0107 20:41:01.528995 14973 net.cpp:415] inception_4d/double_3x3_1 -> inception_4d/double_3x3_1
I0107 20:41:01.529000 14973 net.cpp:160] Setting up inception_4d/double_3x3_1
I0107 20:41:01.530207 14973 net.cpp:167] Top shape: 1 192 14 14 (37632)
I0107 20:41:01.530215 14973 layer_factory.hpp:74] Creating layer inception_4d/double_3x3_1_bn
I0107 20:41:01.530217 14973 layer_factory.cpp:177] Layer inception_4d/double_3x3_1_bn is using CAFFE engine.
I0107 20:41:01.530222 14973 net.cpp:96] Creating Layer inception_4d/double_3x3_1_bn
I0107 20:41:01.530225 14973 net.cpp:459] inception_4d/double_3x3_1_bn <- inception_4d/double_3x3_1
I0107 20:41:01.530230 14973 net.cpp:415] inception_4d/double_3x3_1_bn -> inception_4d/double_3x3_1_bn
I0107 20:41:01.530236 14973 net.cpp:160] Setting up inception_4d/double_3x3_1_bn
I0107 20:41:01.530246 14973 net.cpp:167] Top shape: 1 192 14 14 (37632)
I0107 20:41:01.530251 14973 layer_factory.hpp:74] Creating layer inception_4d/relu_double_3x3_1
I0107 20:41:01.530254 14973 net.cpp:96] Creating Layer inception_4d/relu_double_3x3_1
I0107 20:41:01.530257 14973 net.cpp:459] inception_4d/relu_double_3x3_1 <- inception_4d/double_3x3_1_bn
I0107 20:41:01.530261 14973 net.cpp:404] inception_4d/relu_double_3x3_1 -> inception_4d/double_3x3_1_bn (in-place)
I0107 20:41:01.530266 14973 net.cpp:160] Setting up inception_4d/relu_double_3x3_1
I0107 20:41:01.530269 14973 net.cpp:167] Top shape: 1 192 14 14 (37632)
I0107 20:41:01.530272 14973 layer_factory.hpp:74] Creating layer inception_4d/double_3x3_2
I0107 20:41:01.530277 14973 net.cpp:96] Creating Layer inception_4d/double_3x3_2
I0107 20:41:01.530278 14973 net.cpp:459] inception_4d/double_3x3_2 <- inception_4d/double_3x3_1_bn
I0107 20:41:01.530283 14973 net.cpp:415] inception_4d/double_3x3_2 -> inception_4d/double_3x3_2
I0107 20:41:01.530287 14973 net.cpp:160] Setting up inception_4d/double_3x3_2
I0107 20:41:01.531723 14973 net.cpp:167] Top shape: 1 192 14 14 (37632)
I0107 20:41:01.531728 14973 layer_factory.hpp:74] Creating layer inception_4d/double_3x3_2_bn
I0107 20:41:01.531731 14973 layer_factory.cpp:177] Layer inception_4d/double_3x3_2_bn is using CAFFE engine.
I0107 20:41:01.531738 14973 net.cpp:96] Creating Layer inception_4d/double_3x3_2_bn
I0107 20:41:01.531745 14973 net.cpp:459] inception_4d/double_3x3_2_bn <- inception_4d/double_3x3_2
I0107 20:41:01.531749 14973 net.cpp:415] inception_4d/double_3x3_2_bn -> inception_4d/double_3x3_2_bn
I0107 20:41:01.531754 14973 net.cpp:160] Setting up inception_4d/double_3x3_2_bn
I0107 20:41:01.531765 14973 net.cpp:167] Top shape: 1 192 14 14 (37632)
I0107 20:41:01.531770 14973 layer_factory.hpp:74] Creating layer inception_4d/relu_double_3x3_2
I0107 20:41:01.531775 14973 net.cpp:96] Creating Layer inception_4d/relu_double_3x3_2
I0107 20:41:01.531779 14973 net.cpp:459] inception_4d/relu_double_3x3_2 <- inception_4d/double_3x3_2_bn
I0107 20:41:01.531781 14973 net.cpp:404] inception_4d/relu_double_3x3_2 -> inception_4d/double_3x3_2_bn (in-place)
I0107 20:41:01.531785 14973 net.cpp:160] Setting up inception_4d/relu_double_3x3_2
I0107 20:41:01.531788 14973 net.cpp:167] Top shape: 1 192 14 14 (37632)
I0107 20:41:01.531790 14973 layer_factory.hpp:74] Creating layer inception_4d/pool
I0107 20:41:01.531795 14973 net.cpp:96] Creating Layer inception_4d/pool
I0107 20:41:01.531798 14973 net.cpp:459] inception_4d/pool <- inception_4c/output_inception_4c/output_0_split_3
I0107 20:41:01.531802 14973 net.cpp:415] inception_4d/pool -> inception_4d/pool
I0107 20:41:01.531806 14973 net.cpp:160] Setting up inception_4d/pool
I0107 20:41:01.531811 14973 net.cpp:167] Top shape: 1 608 14 14 (119168)
I0107 20:41:01.531813 14973 layer_factory.hpp:74] Creating layer inception_4d/pool_proj
I0107 20:41:01.531818 14973 net.cpp:96] Creating Layer inception_4d/pool_proj
I0107 20:41:01.531821 14973 net.cpp:459] inception_4d/pool_proj <- inception_4d/pool
I0107 20:41:01.531826 14973 net.cpp:415] inception_4d/pool_proj -> inception_4d/pool_proj
I0107 20:41:01.531831 14973 net.cpp:160] Setting up inception_4d/pool_proj
I0107 20:41:01.532174 14973 net.cpp:167] Top shape: 1 128 14 14 (25088)
I0107 20:41:01.532179 14973 layer_factory.hpp:74] Creating layer inception_4d/pool_proj_bn
I0107 20:41:01.532182 14973 layer_factory.cpp:177] Layer inception_4d/pool_proj_bn is using CAFFE engine.
I0107 20:41:01.532187 14973 net.cpp:96] Creating Layer inception_4d/pool_proj_bn
I0107 20:41:01.532191 14973 net.cpp:459] inception_4d/pool_proj_bn <- inception_4d/pool_proj
I0107 20:41:01.532196 14973 net.cpp:415] inception_4d/pool_proj_bn -> inception_4d/pool_proj_bn
I0107 20:41:01.532201 14973 net.cpp:160] Setting up inception_4d/pool_proj_bn
I0107 20:41:01.532212 14973 net.cpp:167] Top shape: 1 128 14 14 (25088)
I0107 20:41:01.532217 14973 layer_factory.hpp:74] Creating layer inception_4d/relu_pool_proj
I0107 20:41:01.532220 14973 net.cpp:96] Creating Layer inception_4d/relu_pool_proj
I0107 20:41:01.532223 14973 net.cpp:459] inception_4d/relu_pool_proj <- inception_4d/pool_proj_bn
I0107 20:41:01.532227 14973 net.cpp:404] inception_4d/relu_pool_proj -> inception_4d/pool_proj_bn (in-place)
I0107 20:41:01.532230 14973 net.cpp:160] Setting up inception_4d/relu_pool_proj
I0107 20:41:01.532234 14973 net.cpp:167] Top shape: 1 128 14 14 (25088)
I0107 20:41:01.532236 14973 layer_factory.hpp:74] Creating layer inception_4d/output
I0107 20:41:01.532241 14973 net.cpp:96] Creating Layer inception_4d/output
I0107 20:41:01.532243 14973 net.cpp:459] inception_4d/output <- inception_4d/1x1_bn
I0107 20:41:01.532246 14973 net.cpp:459] inception_4d/output <- inception_4d/3x3_bn
I0107 20:41:01.532250 14973 net.cpp:459] inception_4d/output <- inception_4d/double_3x3_2_bn
I0107 20:41:01.532253 14973 net.cpp:459] inception_4d/output <- inception_4d/pool_proj_bn
I0107 20:41:01.532258 14973 net.cpp:415] inception_4d/output -> inception_4d/output
I0107 20:41:01.532261 14973 net.cpp:160] Setting up inception_4d/output
I0107 20:41:01.532266 14973 net.cpp:167] Top shape: 1 608 14 14 (119168)
I0107 20:41:01.532269 14973 layer_factory.hpp:74] Creating layer inception_4d/output_inception_4d/output_0_split
I0107 20:41:01.532272 14973 net.cpp:96] Creating Layer inception_4d/output_inception_4d/output_0_split
I0107 20:41:01.532275 14973 net.cpp:459] inception_4d/output_inception_4d/output_0_split <- inception_4d/output
I0107 20:41:01.532281 14973 net.cpp:415] inception_4d/output_inception_4d/output_0_split -> inception_4d/output_inception_4d/output_0_split_0
I0107 20:41:01.532286 14973 net.cpp:415] inception_4d/output_inception_4d/output_0_split -> inception_4d/output_inception_4d/output_0_split_1
I0107 20:41:01.532290 14973 net.cpp:415] inception_4d/output_inception_4d/output_0_split -> inception_4d/output_inception_4d/output_0_split_2
I0107 20:41:01.532294 14973 net.cpp:160] Setting up inception_4d/output_inception_4d/output_0_split
I0107 20:41:01.532299 14973 net.cpp:167] Top shape: 1 608 14 14 (119168)
I0107 20:41:01.532302 14973 net.cpp:167] Top shape: 1 608 14 14 (119168)
I0107 20:41:01.532305 14973 net.cpp:167] Top shape: 1 608 14 14 (119168)
I0107 20:41:01.532308 14973 layer_factory.hpp:74] Creating layer inception_4e/3x3_reduce
I0107 20:41:01.532313 14973 net.cpp:96] Creating Layer inception_4e/3x3_reduce
I0107 20:41:01.532316 14973 net.cpp:459] inception_4e/3x3_reduce <- inception_4d/output_inception_4d/output_0_split_0
I0107 20:41:01.532321 14973 net.cpp:415] inception_4e/3x3_reduce -> inception_4e/3x3_reduce
I0107 20:41:01.532325 14973 net.cpp:160] Setting up inception_4e/3x3_reduce
I0107 20:41:01.532670 14973 net.cpp:167] Top shape: 1 128 14 14 (25088)
I0107 20:41:01.532675 14973 layer_factory.hpp:74] Creating layer inception_4e/3x3_reduce_bn
I0107 20:41:01.532677 14973 layer_factory.cpp:177] Layer inception_4e/3x3_reduce_bn is using CAFFE engine.
I0107 20:41:01.532682 14973 net.cpp:96] Creating Layer inception_4e/3x3_reduce_bn
I0107 20:41:01.532685 14973 net.cpp:459] inception_4e/3x3_reduce_bn <- inception_4e/3x3_reduce
I0107 20:41:01.532690 14973 net.cpp:415] inception_4e/3x3_reduce_bn -> inception_4e/3x3_reduce_bn
I0107 20:41:01.532693 14973 net.cpp:160] Setting up inception_4e/3x3_reduce_bn
I0107 20:41:01.532703 14973 net.cpp:167] Top shape: 1 128 14 14 (25088)
I0107 20:41:01.532709 14973 layer_factory.hpp:74] Creating layer inception_4e/relu_3x3_reduce
I0107 20:41:01.532713 14973 net.cpp:96] Creating Layer inception_4e/relu_3x3_reduce
I0107 20:41:01.532716 14973 net.cpp:459] inception_4e/relu_3x3_reduce <- inception_4e/3x3_reduce_bn
I0107 20:41:01.532721 14973 net.cpp:404] inception_4e/relu_3x3_reduce -> inception_4e/3x3_reduce_bn (in-place)
I0107 20:41:01.532724 14973 net.cpp:160] Setting up inception_4e/relu_3x3_reduce
I0107 20:41:01.532727 14973 net.cpp:167] Top shape: 1 128 14 14 (25088)
I0107 20:41:01.532730 14973 layer_factory.hpp:74] Creating layer inception_4e/3x3
I0107 20:41:01.532734 14973 net.cpp:96] Creating Layer inception_4e/3x3
I0107 20:41:01.532737 14973 net.cpp:459] inception_4e/3x3 <- inception_4e/3x3_reduce_bn
I0107 20:41:01.532742 14973 net.cpp:415] inception_4e/3x3 -> inception_4e/3x3
I0107 20:41:01.532747 14973 net.cpp:160] Setting up inception_4e/3x3
I0107 20:41:01.533709 14973 net.cpp:167] Top shape: 1 192 7 7 (9408)
I0107 20:41:01.533715 14973 layer_factory.hpp:74] Creating layer inception_4e/3x3_bn
I0107 20:41:01.533717 14973 layer_factory.cpp:177] Layer inception_4e/3x3_bn is using CAFFE engine.
I0107 20:41:01.533722 14973 net.cpp:96] Creating Layer inception_4e/3x3_bn
I0107 20:41:01.533725 14973 net.cpp:459] inception_4e/3x3_bn <- inception_4e/3x3
I0107 20:41:01.533730 14973 net.cpp:415] inception_4e/3x3_bn -> inception_4e/3x3_bn
I0107 20:41:01.533735 14973 net.cpp:160] Setting up inception_4e/3x3_bn
I0107 20:41:01.533746 14973 net.cpp:167] Top shape: 1 192 7 7 (9408)
I0107 20:41:01.533751 14973 layer_factory.hpp:74] Creating layer inception_4e/relu_3x3
I0107 20:41:01.533754 14973 net.cpp:96] Creating Layer inception_4e/relu_3x3
I0107 20:41:01.533757 14973 net.cpp:459] inception_4e/relu_3x3 <- inception_4e/3x3_bn
I0107 20:41:01.533761 14973 net.cpp:404] inception_4e/relu_3x3 -> inception_4e/3x3_bn (in-place)
I0107 20:41:01.533764 14973 net.cpp:160] Setting up inception_4e/relu_3x3
I0107 20:41:01.533768 14973 net.cpp:167] Top shape: 1 192 7 7 (9408)
I0107 20:41:01.533771 14973 layer_factory.hpp:74] Creating layer inception_4e/double_3x3_reduce
I0107 20:41:01.533777 14973 net.cpp:96] Creating Layer inception_4e/double_3x3_reduce
I0107 20:41:01.533781 14973 net.cpp:459] inception_4e/double_3x3_reduce <- inception_4d/output_inception_4d/output_0_split_1
I0107 20:41:01.533785 14973 net.cpp:415] inception_4e/double_3x3_reduce -> inception_4e/double_3x3_reduce
I0107 20:41:01.533790 14973 net.cpp:160] Setting up inception_4e/double_3x3_reduce
I0107 20:41:01.534307 14973 net.cpp:167] Top shape: 1 192 14 14 (37632)
I0107 20:41:01.534312 14973 layer_factory.hpp:74] Creating layer inception_4e/double_3x3_reduce_bn
I0107 20:41:01.534315 14973 layer_factory.cpp:177] Layer inception_4e/double_3x3_reduce_bn is using CAFFE engine.
I0107 20:41:01.534322 14973 net.cpp:96] Creating Layer inception_4e/double_3x3_reduce_bn
I0107 20:41:01.534324 14973 net.cpp:459] inception_4e/double_3x3_reduce_bn <- inception_4e/double_3x3_reduce
I0107 20:41:01.534328 14973 net.cpp:415] inception_4e/double_3x3_reduce_bn -> inception_4e/double_3x3_reduce_bn
I0107 20:41:01.534332 14973 net.cpp:160] Setting up inception_4e/double_3x3_reduce_bn
I0107 20:41:01.534343 14973 net.cpp:167] Top shape: 1 192 14 14 (37632)
I0107 20:41:01.534349 14973 layer_factory.hpp:74] Creating layer inception_4e/relu_double_3x3_reduce
I0107 20:41:01.534353 14973 net.cpp:96] Creating Layer inception_4e/relu_double_3x3_reduce
I0107 20:41:01.534355 14973 net.cpp:459] inception_4e/relu_double_3x3_reduce <- inception_4e/double_3x3_reduce_bn
I0107 20:41:01.534359 14973 net.cpp:404] inception_4e/relu_double_3x3_reduce -> inception_4e/double_3x3_reduce_bn (in-place)
I0107 20:41:01.534363 14973 net.cpp:160] Setting up inception_4e/relu_double_3x3_reduce
I0107 20:41:01.534366 14973 net.cpp:167] Top shape: 1 192 14 14 (37632)
I0107 20:41:01.534369 14973 layer_factory.hpp:74] Creating layer inception_4e/double_3x3_1
I0107 20:41:01.534374 14973 net.cpp:96] Creating Layer inception_4e/double_3x3_1
I0107 20:41:01.534376 14973 net.cpp:459] inception_4e/double_3x3_1 <- inception_4e/double_3x3_reduce_bn
I0107 20:41:01.534381 14973 net.cpp:415] inception_4e/double_3x3_1 -> inception_4e/double_3x3_1
I0107 20:41:01.534385 14973 net.cpp:160] Setting up inception_4e/double_3x3_1
I0107 20:41:01.536298 14973 net.cpp:167] Top shape: 1 256 14 14 (50176)
I0107 20:41:01.536304 14973 layer_factory.hpp:74] Creating layer inception_4e/double_3x3_1_bn
I0107 20:41:01.536309 14973 layer_factory.cpp:177] Layer inception_4e/double_3x3_1_bn is using CAFFE engine.
I0107 20:41:01.536314 14973 net.cpp:96] Creating Layer inception_4e/double_3x3_1_bn
I0107 20:41:01.536316 14973 net.cpp:459] inception_4e/double_3x3_1_bn <- inception_4e/double_3x3_1
I0107 20:41:01.536320 14973 net.cpp:415] inception_4e/double_3x3_1_bn -> inception_4e/double_3x3_1_bn
I0107 20:41:01.536324 14973 net.cpp:160] Setting up inception_4e/double_3x3_1_bn
I0107 20:41:01.536337 14973 net.cpp:167] Top shape: 1 256 14 14 (50176)
I0107 20:41:01.536342 14973 layer_factory.hpp:74] Creating layer inception_4e/relu_double_3x3_1
I0107 20:41:01.536346 14973 net.cpp:96] Creating Layer inception_4e/relu_double_3x3_1
I0107 20:41:01.536350 14973 net.cpp:459] inception_4e/relu_double_3x3_1 <- inception_4e/double_3x3_1_bn
I0107 20:41:01.536353 14973 net.cpp:404] inception_4e/relu_double_3x3_1 -> inception_4e/double_3x3_1_bn (in-place)
I0107 20:41:01.536356 14973 net.cpp:160] Setting up inception_4e/relu_double_3x3_1
I0107 20:41:01.536360 14973 net.cpp:167] Top shape: 1 256 14 14 (50176)
I0107 20:41:01.536362 14973 layer_factory.hpp:74] Creating layer inception_4e/double_3x3_2
I0107 20:41:01.536367 14973 net.cpp:96] Creating Layer inception_4e/double_3x3_2
I0107 20:41:01.536370 14973 net.cpp:459] inception_4e/double_3x3_2 <- inception_4e/double_3x3_1_bn
I0107 20:41:01.536375 14973 net.cpp:415] inception_4e/double_3x3_2 -> inception_4e/double_3x3_2
I0107 20:41:01.536379 14973 net.cpp:160] Setting up inception_4e/double_3x3_2
I0107 20:41:01.538928 14973 net.cpp:167] Top shape: 1 256 7 7 (12544)
I0107 20:41:01.538935 14973 layer_factory.hpp:74] Creating layer inception_4e/double_3x3_2_bn
I0107 20:41:01.538941 14973 layer_factory.cpp:177] Layer inception_4e/double_3x3_2_bn is using CAFFE engine.
I0107 20:41:01.538947 14973 net.cpp:96] Creating Layer inception_4e/double_3x3_2_bn
I0107 20:41:01.538950 14973 net.cpp:459] inception_4e/double_3x3_2_bn <- inception_4e/double_3x3_2
I0107 20:41:01.538955 14973 net.cpp:415] inception_4e/double_3x3_2_bn -> inception_4e/double_3x3_2_bn
I0107 20:41:01.538960 14973 net.cpp:160] Setting up inception_4e/double_3x3_2_bn
I0107 20:41:01.538970 14973 net.cpp:167] Top shape: 1 256 7 7 (12544)
I0107 20:41:01.538976 14973 layer_factory.hpp:74] Creating layer inception_4e/relu_double_3x3_2
I0107 20:41:01.538980 14973 net.cpp:96] Creating Layer inception_4e/relu_double_3x3_2
I0107 20:41:01.538982 14973 net.cpp:459] inception_4e/relu_double_3x3_2 <- inception_4e/double_3x3_2_bn
I0107 20:41:01.538985 14973 net.cpp:404] inception_4e/relu_double_3x3_2 -> inception_4e/double_3x3_2_bn (in-place)
I0107 20:41:01.538990 14973 net.cpp:160] Setting up inception_4e/relu_double_3x3_2
I0107 20:41:01.538992 14973 net.cpp:167] Top shape: 1 256 7 7 (12544)
I0107 20:41:01.538995 14973 layer_factory.hpp:74] Creating layer inception_4e/pool
I0107 20:41:01.539000 14973 net.cpp:96] Creating Layer inception_4e/pool
I0107 20:41:01.539002 14973 net.cpp:459] inception_4e/pool <- inception_4d/output_inception_4d/output_0_split_2
I0107 20:41:01.539007 14973 net.cpp:415] inception_4e/pool -> inception_4e/pool
I0107 20:41:01.539011 14973 net.cpp:160] Setting up inception_4e/pool
I0107 20:41:01.539016 14973 net.cpp:167] Top shape: 1 608 7 7 (29792)
I0107 20:41:01.539019 14973 layer_factory.hpp:74] Creating layer inception_4e/output
I0107 20:41:01.539023 14973 net.cpp:96] Creating Layer inception_4e/output
I0107 20:41:01.539026 14973 net.cpp:459] inception_4e/output <- inception_4e/3x3_bn
I0107 20:41:01.539029 14973 net.cpp:459] inception_4e/output <- inception_4e/double_3x3_2_bn
I0107 20:41:01.539032 14973 net.cpp:459] inception_4e/output <- inception_4e/pool
I0107 20:41:01.539037 14973 net.cpp:415] inception_4e/output -> inception_4e/output
I0107 20:41:01.539041 14973 net.cpp:160] Setting up inception_4e/output
I0107 20:41:01.539046 14973 net.cpp:167] Top shape: 1 1056 7 7 (51744)
I0107 20:41:01.539048 14973 layer_factory.hpp:74] Creating layer inception_4e/output_inception_4e/output_0_split
I0107 20:41:01.539053 14973 net.cpp:96] Creating Layer inception_4e/output_inception_4e/output_0_split
I0107 20:41:01.539055 14973 net.cpp:459] inception_4e/output_inception_4e/output_0_split <- inception_4e/output
I0107 20:41:01.539059 14973 net.cpp:415] inception_4e/output_inception_4e/output_0_split -> inception_4e/output_inception_4e/output_0_split_0
I0107 20:41:01.539063 14973 net.cpp:415] inception_4e/output_inception_4e/output_0_split -> inception_4e/output_inception_4e/output_0_split_1
I0107 20:41:01.539068 14973 net.cpp:415] inception_4e/output_inception_4e/output_0_split -> inception_4e/output_inception_4e/output_0_split_2
I0107 20:41:01.539073 14973 net.cpp:415] inception_4e/output_inception_4e/output_0_split -> inception_4e/output_inception_4e/output_0_split_3
I0107 20:41:01.539077 14973 net.cpp:160] Setting up inception_4e/output_inception_4e/output_0_split
I0107 20:41:01.539082 14973 net.cpp:167] Top shape: 1 1056 7 7 (51744)
I0107 20:41:01.539084 14973 net.cpp:167] Top shape: 1 1056 7 7 (51744)
I0107 20:41:01.539088 14973 net.cpp:167] Top shape: 1 1056 7 7 (51744)
I0107 20:41:01.539090 14973 net.cpp:167] Top shape: 1 1056 7 7 (51744)
I0107 20:41:01.539093 14973 layer_factory.hpp:74] Creating layer inception_5a/1x1
I0107 20:41:01.539098 14973 net.cpp:96] Creating Layer inception_5a/1x1
I0107 20:41:01.539101 14973 net.cpp:459] inception_5a/1x1 <- inception_4e/output_inception_4e/output_0_split_0
I0107 20:41:01.539105 14973 net.cpp:415] inception_5a/1x1 -> inception_5a/1x1
I0107 20:41:01.539110 14973 net.cpp:160] Setting up inception_5a/1x1
I0107 20:41:01.540719 14973 net.cpp:167] Top shape: 1 352 7 7 (17248)
I0107 20:41:01.540725 14973 layer_factory.hpp:74] Creating layer inception_5a/1x1_bn
I0107 20:41:01.540729 14973 layer_factory.cpp:177] Layer inception_5a/1x1_bn is using CAFFE engine.
I0107 20:41:01.540736 14973 net.cpp:96] Creating Layer inception_5a/1x1_bn
I0107 20:41:01.540740 14973 net.cpp:459] inception_5a/1x1_bn <- inception_5a/1x1
I0107 20:41:01.540745 14973 net.cpp:415] inception_5a/1x1_bn -> inception_5a/1x1_bn
I0107 20:41:01.540750 14973 net.cpp:160] Setting up inception_5a/1x1_bn
I0107 20:41:01.540761 14973 net.cpp:167] Top shape: 1 352 7 7 (17248)
I0107 20:41:01.540766 14973 layer_factory.hpp:74] Creating layer inception_5a/relu_1x1
I0107 20:41:01.540771 14973 net.cpp:96] Creating Layer inception_5a/relu_1x1
I0107 20:41:01.540773 14973 net.cpp:459] inception_5a/relu_1x1 <- inception_5a/1x1_bn
I0107 20:41:01.540778 14973 net.cpp:404] inception_5a/relu_1x1 -> inception_5a/1x1_bn (in-place)
I0107 20:41:01.540781 14973 net.cpp:160] Setting up inception_5a/relu_1x1
I0107 20:41:01.540786 14973 net.cpp:167] Top shape: 1 352 7 7 (17248)
I0107 20:41:01.540788 14973 layer_factory.hpp:74] Creating layer inception_5a/3x3_reduce
I0107 20:41:01.540792 14973 net.cpp:96] Creating Layer inception_5a/3x3_reduce
I0107 20:41:01.540796 14973 net.cpp:459] inception_5a/3x3_reduce <- inception_4e/output_inception_4e/output_0_split_1
I0107 20:41:01.540801 14973 net.cpp:415] inception_5a/3x3_reduce -> inception_5a/3x3_reduce
I0107 20:41:01.540804 14973 net.cpp:160] Setting up inception_5a/3x3_reduce
I0107 20:41:01.541684 14973 net.cpp:167] Top shape: 1 192 7 7 (9408)
I0107 20:41:01.541689 14973 layer_factory.hpp:74] Creating layer inception_5a/3x3_reduce_bn
I0107 20:41:01.541692 14973 layer_factory.cpp:177] Layer inception_5a/3x3_reduce_bn is using CAFFE engine.
I0107 20:41:01.541697 14973 net.cpp:96] Creating Layer inception_5a/3x3_reduce_bn
I0107 20:41:01.541700 14973 net.cpp:459] inception_5a/3x3_reduce_bn <- inception_5a/3x3_reduce
I0107 20:41:01.541705 14973 net.cpp:415] inception_5a/3x3_reduce_bn -> inception_5a/3x3_reduce_bn
I0107 20:41:01.541710 14973 net.cpp:160] Setting up inception_5a/3x3_reduce_bn
I0107 20:41:01.541720 14973 net.cpp:167] Top shape: 1 192 7 7 (9408)
I0107 20:41:01.541725 14973 layer_factory.hpp:74] Creating layer inception_5a/relu_3x3_reduce
I0107 20:41:01.541729 14973 net.cpp:96] Creating Layer inception_5a/relu_3x3_reduce
I0107 20:41:01.541733 14973 net.cpp:459] inception_5a/relu_3x3_reduce <- inception_5a/3x3_reduce_bn
I0107 20:41:01.541738 14973 net.cpp:404] inception_5a/relu_3x3_reduce -> inception_5a/3x3_reduce_bn (in-place)
I0107 20:41:01.541743 14973 net.cpp:160] Setting up inception_5a/relu_3x3_reduce
I0107 20:41:01.541746 14973 net.cpp:167] Top shape: 1 192 7 7 (9408)
I0107 20:41:01.541749 14973 layer_factory.hpp:74] Creating layer inception_5a/3x3
I0107 20:41:01.541754 14973 net.cpp:96] Creating Layer inception_5a/3x3
I0107 20:41:01.541755 14973 net.cpp:459] inception_5a/3x3 <- inception_5a/3x3_reduce_bn
I0107 20:41:01.541760 14973 net.cpp:415] inception_5a/3x3 -> inception_5a/3x3
I0107 20:41:01.541765 14973 net.cpp:160] Setting up inception_5a/3x3
I0107 20:41:01.543898 14973 net.cpp:167] Top shape: 1 320 7 7 (15680)
I0107 20:41:01.543906 14973 layer_factory.hpp:74] Creating layer inception_5a/3x3_bn
I0107 20:41:01.543910 14973 layer_factory.cpp:177] Layer inception_5a/3x3_bn is using CAFFE engine.
I0107 20:41:01.543915 14973 net.cpp:96] Creating Layer inception_5a/3x3_bn
I0107 20:41:01.543917 14973 net.cpp:459] inception_5a/3x3_bn <- inception_5a/3x3
I0107 20:41:01.543921 14973 net.cpp:415] inception_5a/3x3_bn -> inception_5a/3x3_bn
I0107 20:41:01.543926 14973 net.cpp:160] Setting up inception_5a/3x3_bn
I0107 20:41:01.543937 14973 net.cpp:167] Top shape: 1 320 7 7 (15680)
I0107 20:41:01.543942 14973 layer_factory.hpp:74] Creating layer inception_5a/relu_3x3
I0107 20:41:01.543946 14973 net.cpp:96] Creating Layer inception_5a/relu_3x3
I0107 20:41:01.543949 14973 net.cpp:459] inception_5a/relu_3x3 <- inception_5a/3x3_bn
I0107 20:41:01.543953 14973 net.cpp:404] inception_5a/relu_3x3 -> inception_5a/3x3_bn (in-place)
I0107 20:41:01.543957 14973 net.cpp:160] Setting up inception_5a/relu_3x3
I0107 20:41:01.543963 14973 net.cpp:167] Top shape: 1 320 7 7 (15680)
I0107 20:41:01.543967 14973 layer_factory.hpp:74] Creating layer inception_5a/double_3x3_reduce
I0107 20:41:01.543970 14973 net.cpp:96] Creating Layer inception_5a/double_3x3_reduce
I0107 20:41:01.543973 14973 net.cpp:459] inception_5a/double_3x3_reduce <- inception_4e/output_inception_4e/output_0_split_2
I0107 20:41:01.543978 14973 net.cpp:415] inception_5a/double_3x3_reduce -> inception_5a/double_3x3_reduce
I0107 20:41:01.543983 14973 net.cpp:160] Setting up inception_5a/double_3x3_reduce
I0107 20:41:01.544718 14973 net.cpp:167] Top shape: 1 160 7 7 (7840)
I0107 20:41:01.544724 14973 layer_factory.hpp:74] Creating layer inception_5a/double_3x3_reduce_bn
I0107 20:41:01.544728 14973 layer_factory.cpp:177] Layer inception_5a/double_3x3_reduce_bn is using CAFFE engine.
I0107 20:41:01.544733 14973 net.cpp:96] Creating Layer inception_5a/double_3x3_reduce_bn
I0107 20:41:01.544735 14973 net.cpp:459] inception_5a/double_3x3_reduce_bn <- inception_5a/double_3x3_reduce
I0107 20:41:01.544739 14973 net.cpp:415] inception_5a/double_3x3_reduce_bn -> inception_5a/double_3x3_reduce_bn
I0107 20:41:01.544744 14973 net.cpp:160] Setting up inception_5a/double_3x3_reduce_bn
I0107 20:41:01.544754 14973 net.cpp:167] Top shape: 1 160 7 7 (7840)
I0107 20:41:01.544759 14973 layer_factory.hpp:74] Creating layer inception_5a/relu_double_3x3_reduce
I0107 20:41:01.544764 14973 net.cpp:96] Creating Layer inception_5a/relu_double_3x3_reduce
I0107 20:41:01.544766 14973 net.cpp:459] inception_5a/relu_double_3x3_reduce <- inception_5a/double_3x3_reduce_bn
I0107 20:41:01.544771 14973 net.cpp:404] inception_5a/relu_double_3x3_reduce -> inception_5a/double_3x3_reduce_bn (in-place)
I0107 20:41:01.544775 14973 net.cpp:160] Setting up inception_5a/relu_double_3x3_reduce
I0107 20:41:01.544778 14973 net.cpp:167] Top shape: 1 160 7 7 (7840)
I0107 20:41:01.544780 14973 layer_factory.hpp:74] Creating layer inception_5a/double_3x3_1
I0107 20:41:01.544785 14973 net.cpp:96] Creating Layer inception_5a/double_3x3_1
I0107 20:41:01.544787 14973 net.cpp:459] inception_5a/double_3x3_1 <- inception_5a/double_3x3_reduce_bn
I0107 20:41:01.544792 14973 net.cpp:415] inception_5a/double_3x3_1 -> inception_5a/double_3x3_1
I0107 20:41:01.544797 14973 net.cpp:160] Setting up inception_5a/double_3x3_1
I0107 20:41:01.546224 14973 net.cpp:167] Top shape: 1 224 7 7 (10976)
I0107 20:41:01.546233 14973 layer_factory.hpp:74] Creating layer inception_5a/double_3x3_1_bn
I0107 20:41:01.546236 14973 layer_factory.cpp:177] Layer inception_5a/double_3x3_1_bn is using CAFFE engine.
I0107 20:41:01.546241 14973 net.cpp:96] Creating Layer inception_5a/double_3x3_1_bn
I0107 20:41:01.546244 14973 net.cpp:459] inception_5a/double_3x3_1_bn <- inception_5a/double_3x3_1
I0107 20:41:01.546249 14973 net.cpp:415] inception_5a/double_3x3_1_bn -> inception_5a/double_3x3_1_bn
I0107 20:41:01.546254 14973 net.cpp:160] Setting up inception_5a/double_3x3_1_bn
I0107 20:41:01.546265 14973 net.cpp:167] Top shape: 1 224 7 7 (10976)
I0107 20:41:01.546270 14973 layer_factory.hpp:74] Creating layer inception_5a/relu_double_3x3_1
I0107 20:41:01.546274 14973 net.cpp:96] Creating Layer inception_5a/relu_double_3x3_1
I0107 20:41:01.546277 14973 net.cpp:459] inception_5a/relu_double_3x3_1 <- inception_5a/double_3x3_1_bn
I0107 20:41:01.546281 14973 net.cpp:404] inception_5a/relu_double_3x3_1 -> inception_5a/double_3x3_1_bn (in-place)
I0107 20:41:01.546285 14973 net.cpp:160] Setting up inception_5a/relu_double_3x3_1
I0107 20:41:01.546288 14973 net.cpp:167] Top shape: 1 224 7 7 (10976)
I0107 20:41:01.546291 14973 layer_factory.hpp:74] Creating layer inception_5a/double_3x3_2
I0107 20:41:01.546295 14973 net.cpp:96] Creating Layer inception_5a/double_3x3_2
I0107 20:41:01.546298 14973 net.cpp:459] inception_5a/double_3x3_2 <- inception_5a/double_3x3_1_bn
I0107 20:41:01.546303 14973 net.cpp:415] inception_5a/double_3x3_2 -> inception_5a/double_3x3_2
I0107 20:41:01.546308 14973 net.cpp:160] Setting up inception_5a/double_3x3_2
I0107 20:41:01.548213 14973 net.cpp:167] Top shape: 1 224 7 7 (10976)
I0107 20:41:01.548224 14973 layer_factory.hpp:74] Creating layer inception_5a/double_3x3_2_bn
I0107 20:41:01.548228 14973 layer_factory.cpp:177] Layer inception_5a/double_3x3_2_bn is using CAFFE engine.
I0107 20:41:01.548233 14973 net.cpp:96] Creating Layer inception_5a/double_3x3_2_bn
I0107 20:41:01.548236 14973 net.cpp:459] inception_5a/double_3x3_2_bn <- inception_5a/double_3x3_2
I0107 20:41:01.548241 14973 net.cpp:415] inception_5a/double_3x3_2_bn -> inception_5a/double_3x3_2_bn
I0107 20:41:01.548245 14973 net.cpp:160] Setting up inception_5a/double_3x3_2_bn
I0107 20:41:01.548255 14973 net.cpp:167] Top shape: 1 224 7 7 (10976)
I0107 20:41:01.548260 14973 layer_factory.hpp:74] Creating layer inception_5a/relu_double_3x3_2
I0107 20:41:01.548265 14973 net.cpp:96] Creating Layer inception_5a/relu_double_3x3_2
I0107 20:41:01.548269 14973 net.cpp:459] inception_5a/relu_double_3x3_2 <- inception_5a/double_3x3_2_bn
I0107 20:41:01.548271 14973 net.cpp:404] inception_5a/relu_double_3x3_2 -> inception_5a/double_3x3_2_bn (in-place)
I0107 20:41:01.548275 14973 net.cpp:160] Setting up inception_5a/relu_double_3x3_2
I0107 20:41:01.548279 14973 net.cpp:167] Top shape: 1 224 7 7 (10976)
I0107 20:41:01.548281 14973 layer_factory.hpp:74] Creating layer inception_5a/pool
I0107 20:41:01.548285 14973 net.cpp:96] Creating Layer inception_5a/pool
I0107 20:41:01.548288 14973 net.cpp:459] inception_5a/pool <- inception_4e/output_inception_4e/output_0_split_3
I0107 20:41:01.548293 14973 net.cpp:415] inception_5a/pool -> inception_5a/pool
I0107 20:41:01.548297 14973 net.cpp:160] Setting up inception_5a/pool
I0107 20:41:01.548302 14973 net.cpp:167] Top shape: 1 1056 7 7 (51744)
I0107 20:41:01.548305 14973 layer_factory.hpp:74] Creating layer inception_5a/pool_proj
I0107 20:41:01.548310 14973 net.cpp:96] Creating Layer inception_5a/pool_proj
I0107 20:41:01.548312 14973 net.cpp:459] inception_5a/pool_proj <- inception_5a/pool
I0107 20:41:01.548317 14973 net.cpp:415] inception_5a/pool_proj -> inception_5a/pool_proj
I0107 20:41:01.548321 14973 net.cpp:160] Setting up inception_5a/pool_proj
I0107 20:41:01.548913 14973 net.cpp:167] Top shape: 1 128 7 7 (6272)
I0107 20:41:01.548921 14973 layer_factory.hpp:74] Creating layer inception_5a/pool_proj_bn
I0107 20:41:01.548924 14973 layer_factory.cpp:177] Layer inception_5a/pool_proj_bn is using CAFFE engine.
I0107 20:41:01.548929 14973 net.cpp:96] Creating Layer inception_5a/pool_proj_bn
I0107 20:41:01.548933 14973 net.cpp:459] inception_5a/pool_proj_bn <- inception_5a/pool_proj
I0107 20:41:01.548938 14973 net.cpp:415] inception_5a/pool_proj_bn -> inception_5a/pool_proj_bn
I0107 20:41:01.548941 14973 net.cpp:160] Setting up inception_5a/pool_proj_bn
I0107 20:41:01.548951 14973 net.cpp:167] Top shape: 1 128 7 7 (6272)
I0107 20:41:01.548956 14973 layer_factory.hpp:74] Creating layer inception_5a/relu_pool_proj
I0107 20:41:01.548961 14973 net.cpp:96] Creating Layer inception_5a/relu_pool_proj
I0107 20:41:01.548964 14973 net.cpp:459] inception_5a/relu_pool_proj <- inception_5a/pool_proj_bn
I0107 20:41:01.548967 14973 net.cpp:404] inception_5a/relu_pool_proj -> inception_5a/pool_proj_bn (in-place)
I0107 20:41:01.548971 14973 net.cpp:160] Setting up inception_5a/relu_pool_proj
I0107 20:41:01.548974 14973 net.cpp:167] Top shape: 1 128 7 7 (6272)
I0107 20:41:01.548977 14973 layer_factory.hpp:74] Creating layer inception_5a/output
I0107 20:41:01.548981 14973 net.cpp:96] Creating Layer inception_5a/output
I0107 20:41:01.548985 14973 net.cpp:459] inception_5a/output <- inception_5a/1x1_bn
I0107 20:41:01.548990 14973 net.cpp:459] inception_5a/output <- inception_5a/3x3_bn
I0107 20:41:01.548992 14973 net.cpp:459] inception_5a/output <- inception_5a/double_3x3_2_bn
I0107 20:41:01.548995 14973 net.cpp:459] inception_5a/output <- inception_5a/pool_proj_bn
I0107 20:41:01.549000 14973 net.cpp:415] inception_5a/output -> inception_5a/output
I0107 20:41:01.549003 14973 net.cpp:160] Setting up inception_5a/output
I0107 20:41:01.549008 14973 net.cpp:167] Top shape: 1 1024 7 7 (50176)
I0107 20:41:01.549011 14973 layer_factory.hpp:74] Creating layer inception_5a/output_inception_5a/output_0_split
I0107 20:41:01.549018 14973 net.cpp:96] Creating Layer inception_5a/output_inception_5a/output_0_split
I0107 20:41:01.549021 14973 net.cpp:459] inception_5a/output_inception_5a/output_0_split <- inception_5a/output
I0107 20:41:01.549024 14973 net.cpp:415] inception_5a/output_inception_5a/output_0_split -> inception_5a/output_inception_5a/output_0_split_0
I0107 20:41:01.549031 14973 net.cpp:415] inception_5a/output_inception_5a/output_0_split -> inception_5a/output_inception_5a/output_0_split_1
I0107 20:41:01.549036 14973 net.cpp:415] inception_5a/output_inception_5a/output_0_split -> inception_5a/output_inception_5a/output_0_split_2
I0107 20:41:01.549039 14973 net.cpp:415] inception_5a/output_inception_5a/output_0_split -> inception_5a/output_inception_5a/output_0_split_3
I0107 20:41:01.549043 14973 net.cpp:160] Setting up inception_5a/output_inception_5a/output_0_split
I0107 20:41:01.549047 14973 net.cpp:167] Top shape: 1 1024 7 7 (50176)
I0107 20:41:01.549051 14973 net.cpp:167] Top shape: 1 1024 7 7 (50176)
I0107 20:41:01.549053 14973 net.cpp:167] Top shape: 1 1024 7 7 (50176)
I0107 20:41:01.549057 14973 net.cpp:167] Top shape: 1 1024 7 7 (50176)
I0107 20:41:01.549059 14973 layer_factory.hpp:74] Creating layer inception_5b/1x1
I0107 20:41:01.549065 14973 net.cpp:96] Creating Layer inception_5b/1x1
I0107 20:41:01.549068 14973 net.cpp:459] inception_5b/1x1 <- inception_5a/output_inception_5a/output_0_split_0
I0107 20:41:01.549072 14973 net.cpp:415] inception_5b/1x1 -> inception_5b/1x1
I0107 20:41:01.549077 14973 net.cpp:160] Setting up inception_5b/1x1
I0107 20:41:01.550647 14973 net.cpp:167] Top shape: 1 352 7 7 (17248)
I0107 20:41:01.550653 14973 layer_factory.hpp:74] Creating layer inception_5b/1x1_bn
I0107 20:41:01.550657 14973 layer_factory.cpp:177] Layer inception_5b/1x1_bn is using CAFFE engine.
I0107 20:41:01.550660 14973 net.cpp:96] Creating Layer inception_5b/1x1_bn
I0107 20:41:01.550663 14973 net.cpp:459] inception_5b/1x1_bn <- inception_5b/1x1
I0107 20:41:01.550668 14973 net.cpp:415] inception_5b/1x1_bn -> inception_5b/1x1_bn
I0107 20:41:01.550673 14973 net.cpp:160] Setting up inception_5b/1x1_bn
I0107 20:41:01.550685 14973 net.cpp:167] Top shape: 1 352 7 7 (17248)
I0107 20:41:01.550690 14973 layer_factory.hpp:74] Creating layer inception_5b/relu_1x1
I0107 20:41:01.550695 14973 net.cpp:96] Creating Layer inception_5b/relu_1x1
I0107 20:41:01.550698 14973 net.cpp:459] inception_5b/relu_1x1 <- inception_5b/1x1_bn
I0107 20:41:01.550701 14973 net.cpp:404] inception_5b/relu_1x1 -> inception_5b/1x1_bn (in-place)
I0107 20:41:01.550705 14973 net.cpp:160] Setting up inception_5b/relu_1x1
I0107 20:41:01.550709 14973 net.cpp:167] Top shape: 1 352 7 7 (17248)
I0107 20:41:01.550711 14973 layer_factory.hpp:74] Creating layer inception_5b/3x3_reduce
I0107 20:41:01.550715 14973 net.cpp:96] Creating Layer inception_5b/3x3_reduce
I0107 20:41:01.550719 14973 net.cpp:459] inception_5b/3x3_reduce <- inception_5a/output_inception_5a/output_0_split_1
I0107 20:41:01.550724 14973 net.cpp:415] inception_5b/3x3_reduce -> inception_5b/3x3_reduce
I0107 20:41:01.550727 14973 net.cpp:160] Setting up inception_5b/3x3_reduce
I0107 20:41:01.551584 14973 net.cpp:167] Top shape: 1 192 7 7 (9408)
I0107 20:41:01.551590 14973 layer_factory.hpp:74] Creating layer inception_5b/3x3_reduce_bn
I0107 20:41:01.551594 14973 layer_factory.cpp:177] Layer inception_5b/3x3_reduce_bn is using CAFFE engine.
I0107 20:41:01.551597 14973 net.cpp:96] Creating Layer inception_5b/3x3_reduce_bn
I0107 20:41:01.551601 14973 net.cpp:459] inception_5b/3x3_reduce_bn <- inception_5b/3x3_reduce
I0107 20:41:01.551609 14973 net.cpp:415] inception_5b/3x3_reduce_bn -> inception_5b/3x3_reduce_bn
I0107 20:41:01.551612 14973 net.cpp:160] Setting up inception_5b/3x3_reduce_bn
I0107 20:41:01.551623 14973 net.cpp:167] Top shape: 1 192 7 7 (9408)
I0107 20:41:01.551630 14973 layer_factory.hpp:74] Creating layer inception_5b/relu_3x3_reduce
I0107 20:41:01.551632 14973 net.cpp:96] Creating Layer inception_5b/relu_3x3_reduce
I0107 20:41:01.551638 14973 net.cpp:459] inception_5b/relu_3x3_reduce <- inception_5b/3x3_reduce_bn
I0107 20:41:01.551643 14973 net.cpp:404] inception_5b/relu_3x3_reduce -> inception_5b/3x3_reduce_bn (in-place)
I0107 20:41:01.551647 14973 net.cpp:160] Setting up inception_5b/relu_3x3_reduce
I0107 20:41:01.551651 14973 net.cpp:167] Top shape: 1 192 7 7 (9408)
I0107 20:41:01.551653 14973 layer_factory.hpp:74] Creating layer inception_5b/3x3
I0107 20:41:01.551657 14973 net.cpp:96] Creating Layer inception_5b/3x3
I0107 20:41:01.551661 14973 net.cpp:459] inception_5b/3x3 <- inception_5b/3x3_reduce_bn
I0107 20:41:01.551666 14973 net.cpp:415] inception_5b/3x3 -> inception_5b/3x3
I0107 20:41:01.551669 14973 net.cpp:160] Setting up inception_5b/3x3
I0107 20:41:01.554064 14973 net.cpp:167] Top shape: 1 320 7 7 (15680)
I0107 20:41:01.554070 14973 layer_factory.hpp:74] Creating layer inception_5b/3x3_bn
I0107 20:41:01.554074 14973 layer_factory.cpp:177] Layer inception_5b/3x3_bn is using CAFFE engine.
I0107 20:41:01.554080 14973 net.cpp:96] Creating Layer inception_5b/3x3_bn
I0107 20:41:01.554082 14973 net.cpp:459] inception_5b/3x3_bn <- inception_5b/3x3
I0107 20:41:01.554086 14973 net.cpp:415] inception_5b/3x3_bn -> inception_5b/3x3_bn
I0107 20:41:01.554091 14973 net.cpp:160] Setting up inception_5b/3x3_bn
I0107 20:41:01.554102 14973 net.cpp:167] Top shape: 1 320 7 7 (15680)
I0107 20:41:01.554107 14973 layer_factory.hpp:74] Creating layer inception_5b/relu_3x3
I0107 20:41:01.554112 14973 net.cpp:96] Creating Layer inception_5b/relu_3x3
I0107 20:41:01.554116 14973 net.cpp:459] inception_5b/relu_3x3 <- inception_5b/3x3_bn
I0107 20:41:01.554118 14973 net.cpp:404] inception_5b/relu_3x3 -> inception_5b/3x3_bn (in-place)
I0107 20:41:01.554122 14973 net.cpp:160] Setting up inception_5b/relu_3x3
I0107 20:41:01.554126 14973 net.cpp:167] Top shape: 1 320 7 7 (15680)
I0107 20:41:01.554128 14973 layer_factory.hpp:74] Creating layer inception_5b/double_3x3_reduce
I0107 20:41:01.554133 14973 net.cpp:96] Creating Layer inception_5b/double_3x3_reduce
I0107 20:41:01.554136 14973 net.cpp:459] inception_5b/double_3x3_reduce <- inception_5a/output_inception_5a/output_0_split_2
I0107 20:41:01.554141 14973 net.cpp:415] inception_5b/double_3x3_reduce -> inception_5b/double_3x3_reduce
I0107 20:41:01.554146 14973 net.cpp:160] Setting up inception_5b/double_3x3_reduce
I0107 20:41:01.555001 14973 net.cpp:167] Top shape: 1 192 7 7 (9408)
I0107 20:41:01.555007 14973 layer_factory.hpp:74] Creating layer inception_5b/double_3x3_reduce_bn
I0107 20:41:01.555011 14973 layer_factory.cpp:177] Layer inception_5b/double_3x3_reduce_bn is using CAFFE engine.
I0107 20:41:01.555016 14973 net.cpp:96] Creating Layer inception_5b/double_3x3_reduce_bn
I0107 20:41:01.555019 14973 net.cpp:459] inception_5b/double_3x3_reduce_bn <- inception_5b/double_3x3_reduce
I0107 20:41:01.555023 14973 net.cpp:415] inception_5b/double_3x3_reduce_bn -> inception_5b/double_3x3_reduce_bn
I0107 20:41:01.555027 14973 net.cpp:160] Setting up inception_5b/double_3x3_reduce_bn
I0107 20:41:01.555037 14973 net.cpp:167] Top shape: 1 192 7 7 (9408)
I0107 20:41:01.555042 14973 layer_factory.hpp:74] Creating layer inception_5b/relu_double_3x3_reduce
I0107 20:41:01.555047 14973 net.cpp:96] Creating Layer inception_5b/relu_double_3x3_reduce
I0107 20:41:01.555050 14973 net.cpp:459] inception_5b/relu_double_3x3_reduce <- inception_5b/double_3x3_reduce_bn
I0107 20:41:01.555053 14973 net.cpp:404] inception_5b/relu_double_3x3_reduce -> inception_5b/double_3x3_reduce_bn (in-place)
I0107 20:41:01.555057 14973 net.cpp:160] Setting up inception_5b/relu_double_3x3_reduce
I0107 20:41:01.555060 14973 net.cpp:167] Top shape: 1 192 7 7 (9408)
I0107 20:41:01.555063 14973 layer_factory.hpp:74] Creating layer inception_5b/double_3x3_1
I0107 20:41:01.555068 14973 net.cpp:96] Creating Layer inception_5b/double_3x3_1
I0107 20:41:01.555070 14973 net.cpp:459] inception_5b/double_3x3_1 <- inception_5b/double_3x3_reduce_bn
I0107 20:41:01.555075 14973 net.cpp:415] inception_5b/double_3x3_1 -> inception_5b/double_3x3_1
I0107 20:41:01.555083 14973 net.cpp:160] Setting up inception_5b/double_3x3_1
I0107 20:41:01.556756 14973 net.cpp:167] Top shape: 1 224 7 7 (10976)
I0107 20:41:01.556763 14973 layer_factory.hpp:74] Creating layer inception_5b/double_3x3_1_bn
I0107 20:41:01.556766 14973 layer_factory.cpp:177] Layer inception_5b/double_3x3_1_bn is using CAFFE engine.
I0107 20:41:01.556771 14973 net.cpp:96] Creating Layer inception_5b/double_3x3_1_bn
I0107 20:41:01.556774 14973 net.cpp:459] inception_5b/double_3x3_1_bn <- inception_5b/double_3x3_1
I0107 20:41:01.556779 14973 net.cpp:415] inception_5b/double_3x3_1_bn -> inception_5b/double_3x3_1_bn
I0107 20:41:01.556784 14973 net.cpp:160] Setting up inception_5b/double_3x3_1_bn
I0107 20:41:01.556793 14973 net.cpp:167] Top shape: 1 224 7 7 (10976)
I0107 20:41:01.556799 14973 layer_factory.hpp:74] Creating layer inception_5b/relu_double_3x3_1
I0107 20:41:01.556804 14973 net.cpp:96] Creating Layer inception_5b/relu_double_3x3_1
I0107 20:41:01.556807 14973 net.cpp:459] inception_5b/relu_double_3x3_1 <- inception_5b/double_3x3_1_bn
I0107 20:41:01.556810 14973 net.cpp:404] inception_5b/relu_double_3x3_1 -> inception_5b/double_3x3_1_bn (in-place)
I0107 20:41:01.556815 14973 net.cpp:160] Setting up inception_5b/relu_double_3x3_1
I0107 20:41:01.556818 14973 net.cpp:167] Top shape: 1 224 7 7 (10976)
I0107 20:41:01.556821 14973 layer_factory.hpp:74] Creating layer inception_5b/double_3x3_2
I0107 20:41:01.556825 14973 net.cpp:96] Creating Layer inception_5b/double_3x3_2
I0107 20:41:01.556828 14973 net.cpp:459] inception_5b/double_3x3_2 <- inception_5b/double_3x3_1_bn
I0107 20:41:01.556833 14973 net.cpp:415] inception_5b/double_3x3_2 -> inception_5b/double_3x3_2
I0107 20:41:01.556836 14973 net.cpp:160] Setting up inception_5b/double_3x3_2
I0107 20:41:01.558801 14973 net.cpp:167] Top shape: 1 224 7 7 (10976)
I0107 20:41:01.558809 14973 layer_factory.hpp:74] Creating layer inception_5b/double_3x3_2_bn
I0107 20:41:01.558812 14973 layer_factory.cpp:177] Layer inception_5b/double_3x3_2_bn is using CAFFE engine.
I0107 20:41:01.558816 14973 net.cpp:96] Creating Layer inception_5b/double_3x3_2_bn
I0107 20:41:01.558820 14973 net.cpp:459] inception_5b/double_3x3_2_bn <- inception_5b/double_3x3_2
I0107 20:41:01.558827 14973 net.cpp:415] inception_5b/double_3x3_2_bn -> inception_5b/double_3x3_2_bn
I0107 20:41:01.558831 14973 net.cpp:160] Setting up inception_5b/double_3x3_2_bn
I0107 20:41:01.558843 14973 net.cpp:167] Top shape: 1 224 7 7 (10976)
I0107 20:41:01.558848 14973 layer_factory.hpp:74] Creating layer inception_5b/relu_double_3x3_2
I0107 20:41:01.558852 14973 net.cpp:96] Creating Layer inception_5b/relu_double_3x3_2
I0107 20:41:01.558856 14973 net.cpp:459] inception_5b/relu_double_3x3_2 <- inception_5b/double_3x3_2_bn
I0107 20:41:01.558859 14973 net.cpp:404] inception_5b/relu_double_3x3_2 -> inception_5b/double_3x3_2_bn (in-place)
I0107 20:41:01.558863 14973 net.cpp:160] Setting up inception_5b/relu_double_3x3_2
I0107 20:41:01.558866 14973 net.cpp:167] Top shape: 1 224 7 7 (10976)
I0107 20:41:01.558869 14973 layer_factory.hpp:74] Creating layer inception_5b/pool
I0107 20:41:01.558873 14973 net.cpp:96] Creating Layer inception_5b/pool
I0107 20:41:01.558876 14973 net.cpp:459] inception_5b/pool <- inception_5a/output_inception_5a/output_0_split_3
I0107 20:41:01.558881 14973 net.cpp:415] inception_5b/pool -> inception_5b/pool
I0107 20:41:01.558884 14973 net.cpp:160] Setting up inception_5b/pool
I0107 20:41:01.558890 14973 net.cpp:167] Top shape: 1 1024 7 7 (50176)
I0107 20:41:01.558894 14973 layer_factory.hpp:74] Creating layer inception_5b/pool_proj
I0107 20:41:01.558898 14973 net.cpp:96] Creating Layer inception_5b/pool_proj
I0107 20:41:01.558902 14973 net.cpp:459] inception_5b/pool_proj <- inception_5b/pool
I0107 20:41:01.558907 14973 net.cpp:415] inception_5b/pool_proj -> inception_5b/pool_proj
I0107 20:41:01.558910 14973 net.cpp:160] Setting up inception_5b/pool_proj
I0107 20:41:01.559483 14973 net.cpp:167] Top shape: 1 128 7 7 (6272)
I0107 20:41:01.559489 14973 layer_factory.hpp:74] Creating layer inception_5b/pool_proj_bn
I0107 20:41:01.559494 14973 layer_factory.cpp:177] Layer inception_5b/pool_proj_bn is using CAFFE engine.
I0107 20:41:01.559499 14973 net.cpp:96] Creating Layer inception_5b/pool_proj_bn
I0107 20:41:01.559502 14973 net.cpp:459] inception_5b/pool_proj_bn <- inception_5b/pool_proj
I0107 20:41:01.559507 14973 net.cpp:415] inception_5b/pool_proj_bn -> inception_5b/pool_proj_bn
I0107 20:41:01.559512 14973 net.cpp:160] Setting up inception_5b/pool_proj_bn
I0107 20:41:01.559522 14973 net.cpp:167] Top shape: 1 128 7 7 (6272)
I0107 20:41:01.559527 14973 layer_factory.hpp:74] Creating layer inception_5b/relu_pool_proj
I0107 20:41:01.559531 14973 net.cpp:96] Creating Layer inception_5b/relu_pool_proj
I0107 20:41:01.559535 14973 net.cpp:459] inception_5b/relu_pool_proj <- inception_5b/pool_proj_bn
I0107 20:41:01.559538 14973 net.cpp:404] inception_5b/relu_pool_proj -> inception_5b/pool_proj_bn (in-place)
I0107 20:41:01.559542 14973 net.cpp:160] Setting up inception_5b/relu_pool_proj
I0107 20:41:01.559545 14973 net.cpp:167] Top shape: 1 128 7 7 (6272)
I0107 20:41:01.559548 14973 layer_factory.hpp:74] Creating layer inception_5b/output
I0107 20:41:01.559552 14973 net.cpp:96] Creating Layer inception_5b/output
I0107 20:41:01.559556 14973 net.cpp:459] inception_5b/output <- inception_5b/1x1_bn
I0107 20:41:01.559558 14973 net.cpp:459] inception_5b/output <- inception_5b/3x3_bn
I0107 20:41:01.559561 14973 net.cpp:459] inception_5b/output <- inception_5b/double_3x3_2_bn
I0107 20:41:01.559566 14973 net.cpp:459] inception_5b/output <- inception_5b/pool_proj_bn
I0107 20:41:01.559568 14973 net.cpp:415] inception_5b/output -> inception_5b/output
I0107 20:41:01.559572 14973 net.cpp:160] Setting up inception_5b/output
I0107 20:41:01.559577 14973 net.cpp:167] Top shape: 1 1024 7 7 (50176)
I0107 20:41:01.559581 14973 layer_factory.hpp:74] Creating layer global_pool
I0107 20:41:01.559586 14973 net.cpp:96] Creating Layer global_pool
I0107 20:41:01.559588 14973 net.cpp:459] global_pool <- inception_5b/output
I0107 20:41:01.559592 14973 net.cpp:415] global_pool -> global_pool
I0107 20:41:01.559597 14973 net.cpp:160] Setting up global_pool
I0107 20:41:01.559600 14973 net.cpp:167] Top shape: 1 1024 1 1 (1024)
I0107 20:41:01.559603 14973 layer_factory.hpp:74] Creating layer dropout
I0107 20:41:01.559608 14973 net.cpp:96] Creating Layer dropout
I0107 20:41:01.559612 14973 net.cpp:459] dropout <- global_pool
I0107 20:41:01.559614 14973 net.cpp:404] dropout -> global_pool (in-place)
I0107 20:41:01.559618 14973 net.cpp:160] Setting up dropout
I0107 20:41:01.559623 14973 net.cpp:167] Top shape: 1 1024 1 1 (1024)
I0107 20:41:01.559626 14973 layer_factory.hpp:74] Creating layer fc-action
I0107 20:41:01.559631 14973 net.cpp:96] Creating Layer fc-action
I0107 20:41:01.559633 14973 net.cpp:459] fc-action <- global_pool
I0107 20:41:01.559638 14973 net.cpp:415] fc-action -> fc-action
I0107 20:41:01.559643 14973 net.cpp:160] Setting up fc-action
I0107 20:41:01.561450 14973 net.cpp:167] Top shape: 1 101 (101)
I0107 20:41:01.561455 14973 net.cpp:241] fc-action does not need backward computation.
I0107 20:41:01.561458 14973 net.cpp:241] dropout does not need backward computation.
I0107 20:41:01.561460 14973 net.cpp:241] global_pool does not need backward computation.
I0107 20:41:01.561463 14973 net.cpp:241] inception_5b/output does not need backward computation.
I0107 20:41:01.561466 14973 net.cpp:241] inception_5b/relu_pool_proj does not need backward computation.
…
