WARNING: Logging before InitGoogleLogging() is written to STDERR
I0107 20:52:41.747077 15027 net.cpp:46] Initializing net from parameters: 
name: "BN-Inception"
input: "data"
input_dim: 1
input_dim: 3
input_dim: 224
input_dim: 224
state {
  phase: TEST
}
layer {
  name: "conv1/7x7_s2"
  type: "Convolution"
  bottom: "data"
  top: "conv1/7x7_s2"
  param {
    lr_mult: 1
    decay_mult: 1
  }
  param {
    lr_mult: 2
    decay_mult: 0
  }
  convolution_param {
    num_output: 64
    pad: 3
    kernel_size: 7
    stride: 2
    weight_filler {
      type: "xavier"
    }
    bias_filler {
      type: "constant"
      value: 0.2
    }
  }
}
layer {
  name: "conv1/7x7_s2_bn"
  type: "BN"
  bottom: "conv1/7x7_s2"
  top: "conv1/7x7_s2_bn"
  param {
    lr_mult: 1
    decay_mult: 0
  }
  param {
    lr_mult: 1
    decay_mult: 0
  }
  bn_param {
    slope_filler {
      type: "constant"
      value: 1
    }
    bias_filler {
      type: "constant"
      value: 0
    }
    frozen: true
  }
}
layer {
  name: "conv1/relu_7x7"
  type: "ReLU"
  bottom: "conv1/7x7_s2_bn"
  top: "conv1/7x7_s2_bn"
}
layer {
  name: "pool1/3x3_s2"
  type: "Pooling"
  bottom: "conv1/7x7_s2_bn"
  top: "pool1/3x3_s2"
  pooling_param {
    pool: MAX
    kernel_size: 3
    stride: 2
  }
}
layer {
  name: "conv2/3x3_reduce"
  type: "Convolution"
  bottom: "pool1/3x3_s2"
  top: "conv2/3x3_reduce"
  param {
    lr_mult: 1
    decay_mult: 1
  }
  param {
    lr_mult: 2
    decay_mult: 0
  }
  convolution_param {
    num_output: 64
    kernel_size: 1
    weight_filler {
      type: "xavier"
    }
    bias_filler {
      type: "constant"
      value: 0.2
    }
  }
}
layer {
  name: "conv2/3x3_reduce_bn"
  type: "BN"
  bottom: "conv2/3x3_reduce"
  top: "conv2/3x3_reduce_bn"
  param {
    lr_mult: 1
    decay_mult: 0
  }
  param {
    lr_mult: 1
    decay_mult: 0
  }
  bn_param {
    slope_filler {
      type: "constant"
      value: 1
    }
    bias_filler {
      type: "constant"
      value: 0
    }
    frozen: true
  }
}
layer {
  name: "conv2/relu_3x3_reduce"
  type: "ReLU"
  bottom: "conv2/3x3_reduce_bn"
  top: "conv2/3x3_reduce_bn"
}
layer {
  name: "conv2/3x3"
  type: "Convolution"
  bottom: "conv2/3x3_reduce_bn"
  top: "conv2/3x3"
  param {
    lr_mult: 1
    decay_mult: 1
  }
  param {
    lr_mult: 2
    decay_mult: 0
  }
  convolution_param {
    num_output: 192
    pad: 1
    kernel_size: 3
    weight_filler {
      type: "xavier"
    }
    bias_filler {
      type: "constant"
      value: 0.2
    }
  }
}
layer {
  name: "conv2/3x3_bn"
  type: "BN"
  bottom: "conv2/3x3"
  top: "conv2/3x3_bn"
  param {
    lr_mult: 1
    decay_mult: 0
  }
  param {
    lr_mult: 1
    decay_mult: 0
  }
  bn_param {
    slope_filler {
      type: "constant"
      value: 1
    }
    bias_filler {
      type: "constant"
      value: 0
    }
    frozen: true
  }
}
layer {
  name: "conv2/relu_3x3"
  type: "ReLU"
  bottom: "conv2/3x3_bn"
  top: "conv2/3x3_bn"
}
layer {
  name: "pool2/3x3_s2"
  type: "Pooling"
  bottom: "conv2/3x3_bn"
  top: "pool2/3x3_s2"
  pooling_param {
    pool: MAX
    kernel_size: 3
    stride: 2
  }
}
layer {
  name: "inception_3a/1x1"
  type: "Convolution"
  bottom: "pool2/3x3_s2"
  top: "inception_3a/1x1"
  param {
    lr_mult: 1
    decay_mult: 1
  }
  param {
    lr_mult: 2
    decay_mult: 0
  }
  convolution_param {
    num_output: 64
    kernel_size: 1
    weight_filler {
      type: "xavier"
    }
    bias_filler {
      type: "constant"
      value: 0.2
    }
  }
}
layer {
  name: "inception_3a/1x1_bn"
  type: "BN"
  bottom: "inception_3a/1x1"
  top: "inception_3a/1x1_bn"
  param {
    lr_mult: 1
    decay_mult: 0
  }
  param {
    lr_mult: 1
    decay_mult: 0
  }
  bn_param {
    slope_filler {
      type: "constant"
      value: 1
    }
    bias_filler {
      type: "constant"
      value: 0
    }
    frozen: true
  }
}
layer {
  name: "inception_3a/relu_1x1"
  type: "ReLU"
  bottom: "inception_3a/1x1_bn"
  top: "inception_3a/1x1_bn"
}
layer {
  name: "inception_3a/3x3_reduce"
  type: "Convolution"
  bottom: "pool2/3x3_s2"
  top: "inception_3a/3x3_reduce"
  param {
    lr_mult: 1
    decay_mult: 1
  }
  param {
    lr_mult: 2
    decay_mult: 0
  }
  convolution_param {
    num_output: 64
    kernel_size: 1
    weight_filler {
      type: "xavier"
    }
    bias_filler {
      type: "constant"
      value: 0.2
    }
  }
}
layer {
  name: "inception_3a/3x3_reduce_bn"
  type: "BN"
  bottom: "inception_3a/3x3_reduce"
  top: "inception_3a/3x3_reduce_bn"
  param {
    lr_mult: 1
    decay_mult: 0
  }
  param {
    lr_mult: 1
    decay_mult: 0
  }
  bn_param {
    slope_filler {
      type: "constant"
      value: 1
    }
    bias_filler {
      type: "constant"
      value: 0
    }
    frozen: true
  }
}
layer {
  name: "inception_3a/relu_3x3_reduce"
  type: "ReLU"
  bottom: "inception_3a/3x3_reduce_bn"
  top: "inception_3a/3x3_reduce_bn"
}
layer {
  name: "inception_3a/3x3"
  type: "Convolution"
  bottom: "inception_3a/3x3_reduce_bn"
  top: "inception_3a/3x3"
  param {
    lr_mult: 1
    decay_mult: 1
  }
  param {
    lr_mult: 2
    decay_mult: 0
  }
  convolution_param {
    num_output: 64
    pad: 1
    kernel_size: 3
    weight_filler {
      type: "xavier"
    }
    bias_filler {
      type: "constant"
      value: 0.2
    }
  }
}
layer {
  name: "inception_3a/3x3_bn"
  type: "BN"
  bottom: "inception_3a/3x3"
  top: "inception_3a/3x3_bn"
  param {
    lr_mult: 1
    decay_mult: 0
  }
  param {
    lr_mult: 1
    decay_mult: 0
  }
  bn_param {
    slope_filler {
      type: "constant"
      value: 1
    }
    bias_filler {
      type: "constant"
      value: 0
    }
    frozen: true
  }
}
layer {
  name: "inception_3a/relu_3x3"
  type: "ReLU"
  bottom: "inception_3a/3x3_bn"
  top: "inception_3a/3x3_bn"
}
layer {
  name: "inception_3a/double_3x3_reduce"
  type: "Convolution"
  bottom: "pool2/3x3_s2"
  top: "inception_3a/double_3x3_reduce"
  param {
    lr_mult: 1
    decay_mult: 1
  }
  param {
    lr_mult: 2
    decay_mult: 0
  }
  convolution_param {
    num_output: 64
    kernel_size: 1
    weight_filler {
      type: "xavier"
    }
    bias_filler {
      type: "constant"
      value: 0.2
    }
  }
}
layer {
  name: "inception_3a/double_3x3_reduce_bn"
  type: "BN"
  bottom: "inception_3a/double_3x3_reduce"
  top: "inception_3a/double_3x3_reduce_bn"
  param {
    lr_mult: 1
    decay_mult: 0
  }
  param {
    lr_mult: 1
    decay_mult: 0
  }
  bn_param {
    slope_filler {
      type: "constant"
      value: 1
    }
    bias_filler {
      type: "constant"
      value: 0
    }
    frozen: true
  }
}
layer {
  name: "inception_3a/relu_double_3x3_reduce"
  type: "ReLU"
  bottom: "inception_3a/double_3x3_reduce_bn"
  top: "inception_3a/double_3x3_reduce_bn"
}
layer {
  name: "inception_3a/double_3x3_1"
  type: "Convolution"
  bottom: "inception_3a/double_3x3_reduce_bn"
  top: "inception_3a/double_3x3_1"
  param {
    lr_mult: 1
    decay_mult: 1
  }
  param {
    lr_mult: 2
    decay_mult: 0
  }
  convolution_param {
    num_output: 96
    pad: 1
    kernel_size: 3
    weight_filler {
      type: "xavier"
    }
    bias_filler {
      type: "constant"
      value: 0.2
    }
  }
}
layer {
  name: "inception_3a/double_3x3_1_bn"
  type: "BN"
  bottom: "inception_3a/double_3x3_1"
  top: "inception_3a/double_3x3_1_bn"
  param {
    lr_mult: 1
    decay_mult: 0
  }
  param {
    lr_mult: 1
    decay_mult: 0
  }
  bn_param {
    slope_filler {
      type: "constant"
      value: 1
    }
    bias_filler {
      type: "constant"
      value: 0
    }
    frozen: true
  }
}
layer {
  name: "inception_3a/relu_double_3x3_1"
  type: "ReLU"
  bottom: "inception_3a/double_3x3_1_bn"
  top: "inception_3a/double_3x3_1_bn"
}
layer {
  name: "inception_3a/double_3x3_2"
  type: "Convolution"
  bottom: "inception_3a/double_3x3_1_bn"
  top: "inception_3a/double_3x3_2"
  param {
    lr_mult: 1
    decay_mult: 1
  }
  param {
    lr_mult: 2
    decay_mult: 0
  }
  convolution_param {
    num_output: 96
    pad: 1
    kernel_size: 3
    weight_filler {
      type: "xavier"
    }
    bias_filler {
      type: "constant"
      value: 0.2
    }
  }
}
layer {
  name: "inception_3a/double_3x3_2_bn"
  type: "BN"
  bottom: "inception_3a/double_3x3_2"
  top: "inception_3a/double_3x3_2_bn"
  param {
    lr_mult: 1
    decay_mult: 0
  }
  param {
    lr_mult: 1
    decay_mult: 0
  }
  bn_param {
    slope_filler {
      type: "constant"
      value: 1
    }
    bias_filler {
      type: "constant"
      value: 0
    }
    frozen: true
  }
}
layer {
  name: "inception_3a/relu_double_3x3_2"
  type: "ReLU"
  bottom: "inception_3a/double_3x3_2_bn"
  top: "inception_3a/double_3x3_2_bn"
}
layer {
  name: "inception_3a/pool"
  type: "Pooling"
  bottom: "pool2/3x3_s2"
  top: "inception_3a/pool"
  pooling_param {
    pool: AVE
    kernel_size: 3
    stride: 1
    pad: 1
  }
}
layer {
  name: "inception_3a/pool_proj"
  type: "Convolution"
  bottom: "inception_3a/pool"
  top: "inception_3a/pool_proj"
  param {
    lr_mult: 1
    decay_mult: 1
  }
  param {
    lr_mult: 2
    decay_mult: 0
  }
  convolution_param {
    num_output: 32
    kernel_size: 1
    weight_filler {
      type: "xavier"
    }
    bias_filler {
      type: "constant"
      value: 0.2
    }
  }
}
layer {
  name: "inception_3a/pool_proj_bn"
  type: "BN"
  bottom: "inception_3a/pool_proj"
  top: "inception_3a/pool_proj_bn"
  param {
    lr_mult: 1
    decay_mult: 0
  }
  param {
    lr_mult: 1
    decay_mult: 0
  }
  bn_param {
    slope_filler {
      type: "constant"
      value: 1
    }
    bias_filler {
      type: "constant"
      value: 0
    }
    frozen: true
  }
}
layer {
  name: "inception_3a/relu_pool_proj"
  type: "ReLU"
  bottom: "inception_3a/pool_proj_bn"
  top: "inception_3a/pool_proj_bn"
}
layer {
  name: "inception_3a/output"
  type: "Concat"
  bottom: "inception_3a/1x1_bn"
  bottom: "inception_3a/3x3_bn"
  bottom: "inception_3a/double_3x3_2_bn"
  bottom: "inception_3a/pool_proj_bn"
  top: "inception_3a/output"
}
layer {
  name: "inception_3b/1x1"
  type: "Convolution"
  bottom: "inception_3a/output"
  top: "inception_3b/1x1"
  param {
    lr_mult: 1
    decay_mult: 1
  }
  param {
    lr_mult: 2
    decay_mult: 0
  }
  convolution_param {
    num_output: 64
    kernel_size: 1
    weight_filler {
      type: "xavier"
    }
    bias_filler {
      type: "constant"
      value: 0.2
    }
  }
}
layer {
  name: "inception_3b/1x1_bn"
  type: "BN"
  bottom: "inception_3b/1x1"
  top: "inception_3b/1x1_bn"
  param {
    lr_mult: 1
    decay_mult: 0
  }
  param {
    lr_mult: 1
    decay_mult: 0
  }
  bn_param {
    slope_filler {
      type: "constant"
      value: 1
    }
    bias_filler {
      type: "constant"
      value: 0
    }
    frozen: true
  }
}
layer {
  name: "inception_3b/relu_1x1"
  type: "ReLU"
  bottom: "inception_3b/1x1_bn"
  top: "inception_3b/1x1_bn"
}
layer {
  name: "inception_3b/3x3_reduce"
  type: "Convolution"
  bottom: "inception_3a/output"
  top: "inception_3b/3x3_reduce"
  param {
    lr_mult: 1
    decay_mult: 1
  }
  param {
    lr_mult: 2
    decay_mult: 0
  }
  convolution_param {
    num_output: 64
    kernel_size: 1
    weight_filler {
      type: "xavier"
    }
    bias_filler {
      type: "constant"
      value: 0.2
    }
  }
}
layer {
  name: "inception_3b/3x3_reduce_bn"
  type: "BN"
  bottom: "inception_3b/3x3_reduce"
  top: "inception_3b/3x3_reduce_bn"
  param {
    lr_mult: 1
    decay_mult: 0
  }
  param {
    lr_mult: 1
    decay_mult: 0
  }
  bn_param {
    slope_filler {
      type: "constant"
      value: 1
    }
    bias_filler {
      type: "constant"
      value: 0
    }
    frozen: true
  }
}
layer {
  name: "inception_3b/relu_3x3_reduce"
  type: "ReLU"
  bottom: "inception_3b/3x3_reduce_bn"
  top: "inception_3b/3x3_reduce_bn"
}
layer {
  name: "inception_3b/3x3"
  type: "Convolution"
  bottom: "inception_3b/3x3_reduce_bn"
  top: "inception_3b/3x3"
  param {
    lr_mult: 1
    decay_mult: 1
  }
  param {
    lr_mult: 2
    decay_mult: 0
  }
  convolution_param {
    num_output: 96
    pad: 1
    kernel_size: 3
    weight_filler {
      type: "xavier"
    }
    bias_filler {
      type: "constant"
      value: 0.2
    }
  }
}
layer {
  name: "inception_3b/3x3_bn"
  type: "BN"
  bottom: "inception_3b/3x3"
  top: "inception_3b/3x3_bn"
  param {
    lr_mult: 1
    decay_mult: 0
  }
  param {
    lr_mult: 1
    decay_mult: 0
  }
  bn_param {
    slope_filler {
      type: "constant"
      value: 1
    }
    bias_filler {
      type: "constant"
      value: 0
    }
    frozen: true
  }
}
layer {
  name: "inception_3b/relu_3x3"
  type: "ReLU"
  bottom: "inception_3b/3x3_bn"
  top: "inception_3b/3x3_bn"
}
layer {
  name: "inception_3b/double_3x3_reduce"
  type: "Convolution"
  bottom: "inception_3a/output"
  top: "inception_3b/double_3x3_reduce"
  param {
    lr_mult: 1
    decay_mult: 1
  }
  param {
    lr_mult: 2
    decay_mult: 0
  }
  convolution_param {
    num_output: 64
    kernel_size: 1
    weight_filler {
      type: "xavier"
    }
    bias_filler {
      type: "constant"
      value: 0.2
    }
  }
}
layer {
  name: "inception_3b/double_3x3_reduce_bn"
  type: "BN"
  bottom: "inception_3b/double_3x3_reduce"
  top: "inception_3b/double_3x3_reduce_bn"
  param {
    lr_mult: 1
    decay_mult: 0
  }
  param {
    lr_mult: 1
    decay_mult: 0
  }
  bn_param {
    slope_filler {
      type: "constant"
      value: 1
    }
    bias_filler {
      type: "constant"
      value: 0
    }
    frozen: true
  }
}
layer {
  name: "inception_3b/relu_double_3x3_reduce"
  type: "ReLU"
  bottom: "inception_3b/double_3x3_reduce_bn"
  top: "inception_3b/double_3x3_reduce_bn"
}
layer {
  name: "inception_3b/double_3x3_1"
  type: "Convolution"
  bottom: "inception_3b/double_3x3_reduce_bn"
  top: "inception_3b/double_3x3_1"
  param {
    lr_mult: 1
    decay_mult: 1
  }
  param {
    lr_mult: 2
    decay_mult: 0
  }
  convolution_param {
    num_output: 96
    pad: 1
    kernel_size: 3
    weight_filler {
      type: "xavier"
    }
    bias_filler {
      type: "constant"
      value: 0.2
    }
  }
}
layer {
  name: "inception_3b/double_3x3_1_bn"
  type: "BN"
  bottom: "inception_3b/double_3x3_1"
  top: "inception_3b/double_3x3_1_bn"
  param {
    lr_mult: 1
    decay_mult: 0
  }
  param {
    lr_mult: 1
    decay_mult: 0
  }
  bn_param {
    slope_filler {
      type: "constant"
      value: 1
    }
    bias_filler {
      type: "constant"
      value: 0
    }
    frozen: true
  }
}
layer {
  name: "inception_3b/relu_double_3x3_1"
  type: "ReLU"
  bottom: "inception_3b/double_3x3_1_bn"
  top: "inception_3b/double_3x3_1_bn"
}
layer {
  name: "inception_3b/double_3x3_2"
  type: "Convolution"
  bottom: "inception_3b/double_3x3_1_bn"
  top: "inception_3b/double_3x3_2"
  param {
    lr_mult: 1
    decay_mult: 1
  }
  param {
    lr_mult: 2
    decay_mult: 0
  }
  convolution_param {
    num_output: 96
    pad: 1
    kernel_size: 3
    weight_filler {
      type: "xavier"
    }
    bias_filler {
      type: "constant"
      value: 0.2
    }
  }
}
layer {
  name: "inception_3b/double_3x3_2_bn"
  type: "BN"
  bottom: "inception_3b/double_3x3_2"
  top: "inception_3b/double_3x3_2_bn"
  param {
    lr_mult: 1
    decay_mult: 0
  }
  param {
    lr_mult: 1
    decay_mult: 0
  }
  bn_param {
    slope_filler {
      type: "constant"
      value: 1
    }
    bias_filler {
      type: "constant"
      value: 0
    }
    frozen: true
  }
}
layer {
  name: "inception_3b/relu_double_3x3_2"
  type: "ReLU"
  bottom: "inception_3b/double_3x3_2_bn"
  top: "inception_3b/double_3x3_2_bn"
}
layer {
  name: "inception_3b/pool"
  type: "Pooling"
  bottom: "inception_3a/output"
  top: "inception_3b/pool"
  pooling_param {
    pool: AVE
    kernel_size: 3
    stride: 1
    pad: 1
  }
}
layer {
  name: "inception_3b/pool_proj"
  type: "Convolution"
  bottom: "inception_3b/pool"
  top: "inception_3b/pool_proj"
  param {
    lr_mult: 1
    decay_mult: 1
  }
  param {
    lr_mult: 2
    decay_mult: 0
  }
  convolution_param {
    num_output: 64
    kernel_size: 1
    weight_filler {
      type: "xavier"
    }
    bias_filler {
      type: "constant"
      value: 0.2
    }
  }
}
layer {
  name: "inception_3b/pool_proj_bn"
  type: "BN"
  bottom: "inception_3b/pool_proj"
  top: "inception_3b/pool_proj_bn"
  param {
    lr_mult: 1
    decay_mult: 0
  }
  param {
    lr_mult: 1
    decay_mult: 0
  }
  bn_param {
    slope_filler {
      type: "constant"
      value: 1
    }
    bias_filler {
      type: "constant"
      value: 0
    }
    frozen: true
  }
}
layer {
  name: "inception_3b/relu_pool_proj"
  type: "ReLU"
  bottom: "inception_3b/pool_proj_bn"
  top: "inception_3b/pool_proj_bn"
}
layer {
  name: "inception_3b/output"
  type: "Concat"
  bottom: "inception_3b/1x1_bn"
  bottom: "inception_3b/3x3_bn"
  bottom: "inception_3b/double_3x3_2_bn"
  bottom: "inception_3b/pool_proj_bn"
  top: "inception_3b/output"
}
layer {
  name: "inception_3c/3x3_reduce"
  type: "Convolution"
  bottom: "inception_3b/output"
  top: "inception_3c/3x3_reduce"
  param {
    lr_mult: 1
    decay_mult: 1
  }
  param {
    lr_mult: 2
    decay_mult: 0
  }
  convolution_param {
    num_output: 128
    kernel_size: 1
    weight_filler {
      type: "xavier"
    }
    bias_filler {
      type: "constant"
      value: 0.2
    }
  }
}
layer {
  name: "inception_3c/3x3_reduce_bn"
  type: "BN"
  bottom: "inception_3c/3x3_reduce"
  top: "inception_3c/3x3_reduce_bn"
  param {
    lr_mult: 1
    decay_mult: 0
  }
  param {
    lr_mult: 1
    decay_mult: 0
  }
  bn_param {
    slope_filler {
      type: "constant"
      value: 1
    }
    bias_filler {
      type: "constant"
      value: 0
    }
    frozen: true
  }
}
layer {
  name: "inception_3c/relu_3x3_reduce"
  type: "ReLU"
  bottom: "inception_3c/3x3_reduce_bn"
  top: "inception_3c/3x3_reduce_bn"
}
layer {
  name: "inception_3c/3x3"
  type: "Convolution"
  bottom: "inception_3c/3x3_reduce_bn"
  top: "inception_3c/3x3"
  param {
    lr_mult: 1
    decay_mult: 1
  }
  param {
    lr_mult: 2
    decay_mult: 0
  }
  convolution_param {
    num_output: 160
    pad: 1
    kernel_size: 3
    stride: 2
    weight_filler {
      type: "xavier"
    }
    bias_filler {
      type: "constant"
      value: 0.2
    }
  }
}
layer {
  name: "inception_3c/3x3_bn"
  type: "BN"
  bottom: "inception_3c/3x3"
  top: "inception_3c/3x3_bn"
  param {
    lr_mult: 1
    decay_mult: 0
  }
  param {
    lr_mult: 1
    decay_mult: 0
  }
  bn_param {
    slope_filler {
      type: "constant"
      value: 1
    }
    bias_filler {
      type: "constant"
      value: 0
    }
    frozen: true
  }
}
layer {
  name: "inception_3c/relu_3x3"
  type: "ReLU"
  bottom: "inception_3c/3x3_bn"
  top: "inception_3c/3x3_bn"
}
layer {
  name: "inception_3c/double_3x3_reduce"
  type: "Convolution"
  bottom: "inception_3b/output"
  top: "inception_3c/double_3x3_reduce"
  param {
    lr_mult: 1
    decay_mult: 1
  }
  param {
    lr_mult: 2
    decay_mult: 0
  }
  convolution_param {
    num_output: 64
    kernel_size: 1
    weight_filler {
      type: "xavier"
    }
    bias_filler {
      type: "constant"
      value: 0.2
    }
  }
}
layer {
  name: "inception_3c/double_3x3_reduce_bn"
  type: "BN"
  bottom: "inception_3c/double_3x3_reduce"
  top: "inception_3c/double_3x3_reduce_bn"
  param {
    lr_mult: 1
    decay_mult: 0
  }
  param {
    lr_mult: 1
    decay_mult: 0
  }
  bn_param {
    slope_filler {
      type: "constant"
      value: 1
    }
    bias_filler {
      type: "constant"
      value: 0
    }
    frozen: true
  }
}
layer {
  name: "inception_3c/relu_double_3x3_reduce"
  type: "ReLU"
  bottom: "inception_3c/double_3x3_reduce_bn"
  top: "inception_3c/double_3x3_reduce_bn"
}
layer {
  name: "inception_3c/double_3x3_1"
  type: "Convolution"
  bottom: "inception_3c/double_3x3_reduce_bn"
  top: "inception_3c/double_3x3_1"
  param {
    lr_mult: 1
    decay_mult: 1
  }
  param {
    lr_mult: 2
    decay_mult: 0
  }
  convolution_param {
    num_output: 96
    pad: 1
    kernel_size: 3
    weight_filler {
      type: "xavier"
    }
    bias_filler {
      type: "constant"
      value: 0.2
    }
  }
}
layer {
  name: "inception_3c/double_3x3_1_bn"
  type: "BN"
  bottom: "inception_3c/double_3x3_1"
  top: "inception_3c/double_3x3_1_bn"
  param {
    lr_mult: 1
    decay_mult: 0
  }
  param {
    lr_mult: 1
    decay_mult: 0
  }
  bn_param {
    slope_filler {
      type: "constant"
      value: 1
    }
    bias_filler {
      type: "constant"
      value: 0
    }
    frozen: true
  }
}
layer {
  name: "inception_3c/relu_double_3x3_1"
  type: "ReLU"
  bottom: "inception_3c/double_3x3_1_bn"
  top: "inception_3c/double_3x3_1_bn"
}
layer {
  name: "inception_3c/double_3x3_2"
  type: "Convolution"
  bottom: "inception_3c/double_3x3_1_bn"
  top: "inception_3c/double_3x3_2"
  param {
    lr_mult: 1
    decay_mult: 1
  }
  param {
    lr_mult: 2
    decay_mult: 0
  }
  convolution_param {
    num_output: 96
    pad: 1
    kernel_size: 3
    stride: 2
    weight_filler {
      type: "xavier"
    }
    bias_filler {
      type: "constant"
      value: 0.2
    }
  }
}
layer {
  name: "inception_3c/double_3x3_2_bn"
  type: "BN"
  bottom: "inception_3c/double_3x3_2"
  top: "inception_3c/double_3x3_2_bn"
  param {
    lr_mult: 1
    decay_mult: 0
  }
  param {
    lr_mult: 1
    decay_mult: 0
  }
  bn_param {
    slope_filler {
      type: "constant"
      value: 1
    }
    bias_filler {
      type: "constant"
      value: 0
    }
    frozen: true
  }
}
layer {
  name: "inception_3c/relu_double_3x3_2"
  type: "ReLU"
  bottom: "inception_3c/double_3x3_2_bn"
  top: "inception_3c/double_3x3_2_bn"
}
layer {
  name: "inception_3c/pool"
  type: "Pooling"
  bottom: "inception_3b/output"
  top: "inception_3c/pool"
  pooling_param {
    pool: MAX
    kernel_size: 3
    stride: 2
  }
}
layer {
  name: "inception_3c/output"
  type: "Concat"
  bottom: "inception_3c/3x3_bn"
  bottom: "inception_3c/double_3x3_2_bn"
  bottom: "inception_3c/pool"
  top: "inception_3c/output"
}
layer {
  name: "inception_4a/1x1"
  type: "Convolution"
  bottom: "inception_3c/output"
  top: "inception_4a/1x1"
  param {
    lr_mult: 1
    decay_mult: 1
  }
  param {
    lr_mult: 2
    decay_mult: 0
  }
  convolution_param {
    num_output: 224
    kernel_size: 1
    weight_filler {
      type: "xavier"
    }
    bias_filler {
      type: "constant"
      value: 0.2
    }
  }
}
layer {
  name: "inception_4a/1x1_bn"
  type: "BN"
  bottom: "inception_4a/1x1"
  top: "inception_4a/1x1_bn"
  param {
    lr_mult: 1
    decay_mult: 0
  }
  param {
    lr_mult: 1
    decay_mult: 0
  }
  bn_param {
    slope_filler {
      type: "constant"
      value: 1
    }
    bias_filler {
      type: "constant"
      value: 0
    }
    frozen: true
  }
}
layer {
  name: "inception_4a/relu_1x1"
  type: "ReLU"
  bottom: "inception_4a/1x1_bn"
  top: "inception_4a/1x1_bn"
}
layer {
  name: "inception_4a/3x3_reduce"
  type: "Convolution"
  bottom: "inception_3c/output"
  top: "inception_4a/3x3_reduce"
  param {
    lr_mult: 1
    decay_mult: 1
  }
  param {
    lr_mult: 2
    decay_mult: 0
  }
  convolution_param {
    num_output: 64
    kernel_size: 1
    weight_filler {
      type: "xavier"
    }
    bias_filler {
      type: "constant"
      value: 0.2
    }
  }
}
layer {
  name: "inception_4a/3x3_reduce_bn"
  type: "BN"
  bottom: "inception_4a/3x3_reduce"
  top: "inception_4a/3x3_reduce_bn"
  param {
    lr_mult: 1
    decay_mult: 0
  }
  param {
    lr_mult: 1
    decay_mult: 0
  }
  bn_param {
    slope_filler {
      type: "constant"
      value: 1
    }
    bias_filler {
      type: "constant"
      value: 0
    }
    frozen: true
  }
}
layer {
  name: "inception_4a/relu_3x3_reduce"
  type: "ReLU"
  bottom: "inception_4a/3x3_reduce_bn"
  top: "inception_4a/3x3_reduce_bn"
}
layer {
  name: "inception_4a/3x3"
  type: "Convolution"
  bottom: "inception_4a/3x3_reduce_bn"
  top: "inception_4a/3x3"
  param {
    lr_mult: 1
    decay_mult: 1
  }
  param {
    lr_mult: 2
    decay_mult: 0
  }
  convolution_param {
    num_output: 96
    pad: 1
    kernel_size: 3
    weight_filler {
      type: "xavier"
    }
    bias_filler {
      type: "constant"
      value: 0.2
    }
  }
}
layer {
  name: "inception_4a/3x3_bn"
  type: "BN"
  bottom: "inception_4a/3x3"
  top: "inception_4a/3x3_bn"
  param {
    lr_mult: 1
    decay_mult: 0
  }
  param {
    lr_mult: 1
    decay_mult: 0
  }
  bn_param {
    slope_filler {
      type: "constant"
      value: 1
    }
    bias_filler {
      type: "constant"
      value: 0
    }
    frozen: true
  }
}
layer {
  name: "inception_4a/relu_3x3"
  type: "ReLU"
  bottom: "inception_4a/3x3_bn"
  top: "inception_4a/3x3_bn"
}
layer {
  name: "inception_4a/double_3x3_reduce"
  type: "Convolution"
  bottom: "inception_3c/output"
  top: "inception_4a/double_3x3_reduce"
  param {
    lr_mult: 1
    decay_mult: 1
  }
  param {
    lr_mult: 2
    decay_mult: 0
  }
  convolution_param {
    num_output: 96
    kernel_size: 1
    weight_filler {
      type: "xavier"
    }
    bias_filler {
      type: "constant"
      value: 0.2
    }
  }
}
layer {
  name: "inception_4a/double_3x3_reduce_bn"
  type: "BN"
  bottom: "inception_4a/double_3x3_reduce"
  top: "inception_4a/double_3x3_reduce_bn"
  param {
    lr_mult: 1
    decay_mult: 0
  }
  param {
    lr_mult: 1
    decay_mult: 0
  }
  bn_param {
    slope_filler {
      type: "constant"
      value: 1
    }
    bias_filler {
      type: "constant"
      value: 0
    }
    frozen: true
  }
}
layer {
  name: "inception_4a/relu_double_3x3_reduce"
  type: "ReLU"
  bottom: "inception_4a/double_3x3_reduce_bn"
  top: "inception_4a/double_3x3_reduce_bn"
}
layer {
  name: "inception_4a/double_3x3_1"
  type: "Convolution"
  bottom: "inception_4a/double_3x3_reduce_bn"
  top: "inception_4a/double_3x3_1"
  param {
    lr_mult: 1
    decay_mult: 1
  }
  param {
    lr_mult: 2
    decay_mult: 0
  }
  convolution_param {
    num_output: 128
    pad: 1
    kernel_size: 3
    weight_filler {
      type: "xavier"
    }
    bias_filler {
      type: "constant"
      value: 0.2
    }
  }
}
layer {
  name: "inception_4a/double_3x3_1_bn"
  type: "BN"
  bottom: "inception_4a/double_3x3_1"
  top: "inception_4a/double_3x3_1_bn"
  param {
    lr_mult: 1
    decay_mult: 0
  }
  param {
    lr_mult: 1
    decay_mult: 0
  }
  bn_param {
    slope_filler {
      type: "constant"
      value: 1
    }
    bias_filler {
      type: "constant"
      value: 0
    }
    frozen: true
  }
}
layer {
  name: "inception_4a/relu_double_3x3_1"
  type: "ReLU"
  bottom: "inception_4a/double_3x3_1_bn"
  top: "inception_4a/double_3x3_1_bn"
}
layer {
  name: "inception_4a/double_3x3_2"
  type: "Convolution"
  bottom: "inception_4a/double_3x3_1_bn"
  top: "inception_4a/double_3x3_2"
  param {
    lr_mult: 1
    decay_mult: 1
  }
  param {
    lr_mult: 2
    decay_mult: 0
  }
  convolution_param {
    num_output: 128
    pad: 1
    kernel_size: 3
    weight_filler {
      type: "xavier"
    }
    bias_filler {
      type: "constant"
      value: 0.2
    }
  }
}
layer {
  name: "inception_4a/double_3x3_2_bn"
  type: "BN"
  bottom: "inception_4a/double_3x3_2"
  top: "inception_4a/double_3x3_2_bn"
  param {
    lr_mult: 1
    decay_mult: 0
  }
  param {
    lr_mult: 1
    decay_mult: 0
  }
  bn_param {
    slope_filler {
      type: "constant"
      value: 1
    }
    bias_filler {
      type: "constant"
      value: 0
    }
    frozen: true
  }
}
layer {
  name: "inception_4a/relu_double_3x3_2"
  type: "ReLU"
  bottom: "inception_4a/double_3x3_2_bn"
  top: "inception_4a/double_3x3_2_bn"
}
layer {
  name: "inception_4a/pool"
  type: "Pooling"
  bottom: "inception_3c/output"
  top: "inception_4a/pool"
  pooling_param {
    pool: AVE
    kernel_size: 3
    stride: 1
    pad: 1
  }
}
layer {
  name: "inception_4a/pool_proj"
  type: "Convolution"
  bottom: "inception_4a/pool"
  top: "inception_4a/pool_proj"
  param {
    lr_mult: 1
    decay_mult: 1
  }
  param {
    lr_mult: 2
    decay_mult: 0
  }
  convolution_param {
    num_output: 128
    kernel_size: 1
    weight_filler {
      type: "xavier"
    }
    bias_filler {
      type: "constant"
      value: 0.2
    }
  }
}
layer {
  name: "inception_4a/pool_proj_bn"
  type: "BN"
  bottom: "inception_4a/pool_proj"
  top: "inception_4a/pool_proj_bn"
  param {
    lr_mult: 1
    decay_mult: 0
  }
  param {
    lr_mult: 1
    decay_mult: 0
  }
  bn_param {
    slope_filler {
      type: "constant"
      value: 1
    }
    bias_filler {
      type: "constant"
      value: 0
    }
    frozen: true
  }
}
layer {
  name: "inception_4a/relu_pool_proj"
  type: "ReLU"
  bottom: "inception_4a/pool_proj_bn"
  top: "inception_4a/pool_proj_bn"
}
layer {
  name: "inception_4a/output"
  type: "Concat"
  bottom: "inception_4a/1x1_bn"
  bottom: "inception_4a/3x3_bn"
  bottom: "inception_4a/double_3x3_2_bn"
  bottom: "inception_4a/pool_proj_bn"
  top: "inception_4a/output"
}
layer {
  name: "inception_4b/1x1"
  type: "Convolution"
  bottom: "inception_4a/output"
  top: "inception_4b/1x1"
  param {
    lr_mult: 1
    decay_mult: 1
  }
  param {
    lr_mult: 2
    decay_mult: 0
  }
  convolution_param {
    num_output: 192
    kernel_size: 1
    weight_filler {
      type: "xavier"
    }
    bias_filler {
      type: "constant"
      value: 0.2
    }
  }
}
layer {
  name: "inception_4b/1x1_bn"
  type: "BN"
  bottom: "inception_4b/1x1"
  top: "inception_4b/1x1_bn"
  param {
    lr_mult: 1
    decay_mult: 0
  }
  param {
    lr_mult: 1
    decay_mult: 0
  }
  bn_param {
    slope_filler {
      type: "constant"
      value: 1
    }
    bias_filler {
      type: "constant"
      value: 0
    }
    frozen: true
  }
}
layer {
  name: "inception_4b/relu_1x1"
  type: "ReLU"
  bottom: "inception_4b/1x1_bn"
  top: "inception_4b/1x1_bn"
}
layer {
  name: "inception_4b/3x3_reduce"
  type: "Convolution"
  bottom: "inception_4a/output"
  top: "inception_4b/3x3_reduce"
  param {
    lr_mult: 1
    decay_mult: 1
  }
  param {
    lr_mult: 2
    decay_mult: 
I0107 20:52:41.747769 15027 net.cpp:417] Input 0 -> data
I0107 20:52:41.747802 15027 layer_factory.hpp:74] Creating layer conv1/7x7_s2
I0107 20:52:41.747812 15027 net.cpp:96] Creating Layer conv1/7x7_s2
I0107 20:52:41.747814 15027 net.cpp:459] conv1/7x7_s2 <- data
I0107 20:52:41.747818 15027 net.cpp:415] conv1/7x7_s2 -> conv1/7x7_s2
I0107 20:52:41.747825 15027 net.cpp:160] Setting up conv1/7x7_s2
I0107 20:52:41.748173 15027 net.cpp:167] Top shape: 1 64 112 112 (802816)
I0107 20:52:41.748183 15027 layer_factory.hpp:74] Creating layer conv1/7x7_s2_bn
I0107 20:52:41.748186 15027 layer_factory.cpp:177] Layer conv1/7x7_s2_bn is using CAFFE engine.
I0107 20:52:41.748190 15027 net.cpp:96] Creating Layer conv1/7x7_s2_bn
I0107 20:52:41.748193 15027 net.cpp:459] conv1/7x7_s2_bn <- conv1/7x7_s2
I0107 20:52:41.748198 15027 net.cpp:415] conv1/7x7_s2_bn -> conv1/7x7_s2_bn
I0107 20:52:41.748203 15027 net.cpp:160] Setting up conv1/7x7_s2_bn
I0107 20:52:41.748229 15027 net.cpp:167] Top shape: 1 64 112 112 (802816)
I0107 20:52:41.748236 15027 layer_factory.hpp:74] Creating layer conv1/relu_7x7
I0107 20:52:41.748241 15027 net.cpp:96] Creating Layer conv1/relu_7x7
I0107 20:52:41.748245 15027 net.cpp:459] conv1/relu_7x7 <- conv1/7x7_s2_bn
I0107 20:52:41.748247 15027 net.cpp:404] conv1/relu_7x7 -> conv1/7x7_s2_bn (in-place)
I0107 20:52:41.748251 15027 net.cpp:160] Setting up conv1/relu_7x7
I0107 20:52:41.748255 15027 net.cpp:167] Top shape: 1 64 112 112 (802816)
I0107 20:52:41.748257 15027 layer_factory.hpp:74] Creating layer pool1/3x3_s2
I0107 20:52:41.748261 15027 net.cpp:96] Creating Layer pool1/3x3_s2
I0107 20:52:41.748265 15027 net.cpp:459] pool1/3x3_s2 <- conv1/7x7_s2_bn
I0107 20:52:41.748267 15027 net.cpp:415] pool1/3x3_s2 -> pool1/3x3_s2
I0107 20:52:41.748271 15027 net.cpp:160] Setting up pool1/3x3_s2
I0107 20:52:41.748276 15027 net.cpp:167] Top shape: 1 64 56 56 (200704)
I0107 20:52:41.748280 15027 layer_factory.hpp:74] Creating layer conv2/3x3_reduce
I0107 20:52:41.748284 15027 net.cpp:96] Creating Layer conv2/3x3_reduce
I0107 20:52:41.748286 15027 net.cpp:459] conv2/3x3_reduce <- pool1/3x3_s2
I0107 20:52:41.748291 15027 net.cpp:415] conv2/3x3_reduce -> conv2/3x3_reduce
I0107 20:52:41.748296 15027 net.cpp:160] Setting up conv2/3x3_reduce
I0107 20:52:41.748323 15027 net.cpp:167] Top shape: 1 64 56 56 (200704)
I0107 20:52:41.748328 15027 layer_factory.hpp:74] Creating layer conv2/3x3_reduce_bn
I0107 20:52:41.748330 15027 layer_factory.cpp:177] Layer conv2/3x3_reduce_bn is using CAFFE engine.
I0107 20:52:41.748334 15027 net.cpp:96] Creating Layer conv2/3x3_reduce_bn
I0107 20:52:41.748337 15027 net.cpp:459] conv2/3x3_reduce_bn <- conv2/3x3_reduce
I0107 20:52:41.748340 15027 net.cpp:415] conv2/3x3_reduce_bn -> conv2/3x3_reduce_bn
I0107 20:52:41.748348 15027 net.cpp:160] Setting up conv2/3x3_reduce_bn
I0107 20:52:41.748361 15027 net.cpp:167] Top shape: 1 64 56 56 (200704)
I0107 20:52:41.748368 15027 layer_factory.hpp:74] Creating layer conv2/relu_3x3_reduce
I0107 20:52:41.748373 15027 net.cpp:96] Creating Layer conv2/relu_3x3_reduce
I0107 20:52:41.748374 15027 net.cpp:459] conv2/relu_3x3_reduce <- conv2/3x3_reduce_bn
I0107 20:52:41.748378 15027 net.cpp:404] conv2/relu_3x3_reduce -> conv2/3x3_reduce_bn (in-place)
I0107 20:52:41.748381 15027 net.cpp:160] Setting up conv2/relu_3x3_reduce
I0107 20:52:41.748385 15027 net.cpp:167] Top shape: 1 64 56 56 (200704)
I0107 20:52:41.748388 15027 layer_factory.hpp:74] Creating layer conv2/3x3
I0107 20:52:41.748391 15027 net.cpp:96] Creating Layer conv2/3x3
I0107 20:52:41.748394 15027 net.cpp:459] conv2/3x3 <- conv2/3x3_reduce_bn
I0107 20:52:41.748399 15027 net.cpp:415] conv2/3x3 -> conv2/3x3
I0107 20:52:41.748402 15027 net.cpp:160] Setting up conv2/3x3
I0107 20:52:41.748893 15027 net.cpp:167] Top shape: 1 192 56 56 (602112)
I0107 20:52:41.748898 15027 layer_factory.hpp:74] Creating layer conv2/3x3_bn
I0107 20:52:41.748901 15027 layer_factory.cpp:177] Layer conv2/3x3_bn is using CAFFE engine.
I0107 20:52:41.748906 15027 net.cpp:96] Creating Layer conv2/3x3_bn
I0107 20:52:41.748909 15027 net.cpp:459] conv2/3x3_bn <- conv2/3x3
I0107 20:52:41.748914 15027 net.cpp:415] conv2/3x3_bn -> conv2/3x3_bn
I0107 20:52:41.748919 15027 net.cpp:160] Setting up conv2/3x3_bn
I0107 20:52:41.748932 15027 net.cpp:167] Top shape: 1 192 56 56 (602112)
I0107 20:52:41.748939 15027 layer_factory.hpp:74] Creating layer conv2/relu_3x3
I0107 20:52:41.748944 15027 net.cpp:96] Creating Layer conv2/relu_3x3
I0107 20:52:41.748945 15027 net.cpp:459] conv2/relu_3x3 <- conv2/3x3_bn
I0107 20:52:41.748950 15027 net.cpp:404] conv2/relu_3x3 -> conv2/3x3_bn (in-place)
I0107 20:52:41.748955 15027 net.cpp:160] Setting up conv2/relu_3x3
I0107 20:52:41.748957 15027 net.cpp:167] Top shape: 1 192 56 56 (602112)
I0107 20:52:41.748960 15027 layer_factory.hpp:74] Creating layer pool2/3x3_s2
I0107 20:52:41.748963 15027 net.cpp:96] Creating Layer pool2/3x3_s2
I0107 20:52:41.748966 15027 net.cpp:459] pool2/3x3_s2 <- conv2/3x3_bn
I0107 20:52:41.748970 15027 net.cpp:415] pool2/3x3_s2 -> pool2/3x3_s2
I0107 20:52:41.748975 15027 net.cpp:160] Setting up pool2/3x3_s2
I0107 20:52:41.748978 15027 net.cpp:167] Top shape: 1 192 28 28 (150528)
I0107 20:52:41.748981 15027 layer_factory.hpp:74] Creating layer pool2/3x3_s2_pool2/3x3_s2_0_split
I0107 20:52:41.748986 15027 net.cpp:96] Creating Layer pool2/3x3_s2_pool2/3x3_s2_0_split
I0107 20:52:41.748989 15027 net.cpp:459] pool2/3x3_s2_pool2/3x3_s2_0_split <- pool2/3x3_s2
I0107 20:52:41.748992 15027 net.cpp:415] pool2/3x3_s2_pool2/3x3_s2_0_split -> pool2/3x3_s2_pool2/3x3_s2_0_split_0
I0107 20:52:41.748996 15027 net.cpp:415] pool2/3x3_s2_pool2/3x3_s2_0_split -> pool2/3x3_s2_pool2/3x3_s2_0_split_1
I0107 20:52:41.749001 15027 net.cpp:415] pool2/3x3_s2_pool2/3x3_s2_0_split -> pool2/3x3_s2_pool2/3x3_s2_0_split_2
I0107 20:52:41.749006 15027 net.cpp:415] pool2/3x3_s2_pool2/3x3_s2_0_split -> pool2/3x3_s2_pool2/3x3_s2_0_split_3
I0107 20:52:41.749008 15027 net.cpp:160] Setting up pool2/3x3_s2_pool2/3x3_s2_0_split
I0107 20:52:41.749013 15027 net.cpp:167] Top shape: 1 192 28 28 (150528)
I0107 20:52:41.749017 15027 net.cpp:167] Top shape: 1 192 28 28 (150528)
I0107 20:52:41.749019 15027 net.cpp:167] Top shape: 1 192 28 28 (150528)
I0107 20:52:41.749022 15027 net.cpp:167] Top shape: 1 192 28 28 (150528)
I0107 20:52:41.749024 15027 layer_factory.hpp:74] Creating layer inception_3a/1x1
I0107 20:52:41.749028 15027 net.cpp:96] Creating Layer inception_3a/1x1
I0107 20:52:41.749032 15027 net.cpp:459] inception_3a/1x1 <- pool2/3x3_s2_pool2/3x3_s2_0_split_0
I0107 20:52:41.749035 15027 net.cpp:415] inception_3a/1x1 -> inception_3a/1x1
I0107 20:52:41.749040 15027 net.cpp:160] Setting up inception_3a/1x1
I0107 20:52:41.749099 15027 net.cpp:167] Top shape: 1 64 28 28 (50176)
I0107 20:52:41.749104 15027 layer_factory.hpp:74] Creating layer inception_3a/1x1_bn
I0107 20:52:41.749109 15027 layer_factory.cpp:177] Layer inception_3a/1x1_bn is using CAFFE engine.
I0107 20:52:41.749114 15027 net.cpp:96] Creating Layer inception_3a/1x1_bn
I0107 20:52:41.749116 15027 net.cpp:459] inception_3a/1x1_bn <- inception_3a/1x1
I0107 20:52:41.749120 15027 net.cpp:415] inception_3a/1x1_bn -> inception_3a/1x1_bn
I0107 20:52:41.749125 15027 net.cpp:160] Setting up inception_3a/1x1_bn
I0107 20:52:41.749137 15027 net.cpp:167] Top shape: 1 64 28 28 (50176)
I0107 20:52:41.749143 15027 layer_factory.hpp:74] Creating layer inception_3a/relu_1x1
I0107 20:52:41.749146 15027 net.cpp:96] Creating Layer inception_3a/relu_1x1
I0107 20:52:41.749150 15027 net.cpp:459] inception_3a/relu_1x1 <- inception_3a/1x1_bn
I0107 20:52:41.749152 15027 net.cpp:404] inception_3a/relu_1x1 -> inception_3a/1x1_bn (in-place)
I0107 20:52:41.749156 15027 net.cpp:160] Setting up inception_3a/relu_1x1
I0107 20:52:41.749160 15027 net.cpp:167] Top shape: 1 64 28 28 (50176)
I0107 20:52:41.749162 15027 layer_factory.hpp:74] Creating layer inception_3a/3x3_reduce
I0107 20:52:41.749166 15027 net.cpp:96] Creating Layer inception_3a/3x3_reduce
I0107 20:52:41.749169 15027 net.cpp:459] inception_3a/3x3_reduce <- pool2/3x3_s2_pool2/3x3_s2_0_split_1
I0107 20:52:41.749176 15027 net.cpp:415] inception_3a/3x3_reduce -> inception_3a/3x3_reduce
I0107 20:52:41.749181 15027 net.cpp:160] Setting up inception_3a/3x3_reduce
I0107 20:52:41.749241 15027 net.cpp:167] Top shape: 1 64 28 28 (50176)
I0107 20:52:41.749245 15027 layer_factory.hpp:74] Creating layer inception_3a/3x3_reduce_bn
I0107 20:52:41.749248 15027 layer_factory.cpp:177] Layer inception_3a/3x3_reduce_bn is using CAFFE engine.
I0107 20:52:41.749253 15027 net.cpp:96] Creating Layer inception_3a/3x3_reduce_bn
I0107 20:52:41.749256 15027 net.cpp:459] inception_3a/3x3_reduce_bn <- inception_3a/3x3_reduce
I0107 20:52:41.749260 15027 net.cpp:415] inception_3a/3x3_reduce_bn -> inception_3a/3x3_reduce_bn
I0107 20:52:41.749266 15027 net.cpp:160] Setting up inception_3a/3x3_reduce_bn
I0107 20:52:41.749277 15027 net.cpp:167] Top shape: 1 64 28 28 (50176)
I0107 20:52:41.749282 15027 layer_factory.hpp:74] Creating layer inception_3a/relu_3x3_reduce
I0107 20:52:41.749285 15027 net.cpp:96] Creating Layer inception_3a/relu_3x3_reduce
I0107 20:52:41.749289 15027 net.cpp:459] inception_3a/relu_3x3_reduce <- inception_3a/3x3_reduce_bn
I0107 20:52:41.749292 15027 net.cpp:404] inception_3a/relu_3x3_reduce -> inception_3a/3x3_reduce_bn (in-place)
I0107 20:52:41.749296 15027 net.cpp:160] Setting up inception_3a/relu_3x3_reduce
I0107 20:52:41.749300 15027 net.cpp:167] Top shape: 1 64 28 28 (50176)
I0107 20:52:41.749302 15027 layer_factory.hpp:74] Creating layer inception_3a/3x3
I0107 20:52:41.749305 15027 net.cpp:96] Creating Layer inception_3a/3x3
I0107 20:52:41.749308 15027 net.cpp:459] inception_3a/3x3 <- inception_3a/3x3_reduce_bn
I0107 20:52:41.749313 15027 net.cpp:415] inception_3a/3x3 -> inception_3a/3x3
I0107 20:52:41.749317 15027 net.cpp:160] Setting up inception_3a/3x3
I0107 20:52:41.749485 15027 net.cpp:167] Top shape: 1 64 28 28 (50176)
I0107 20:52:41.749490 15027 layer_factory.hpp:74] Creating layer inception_3a/3x3_bn
I0107 20:52:41.749493 15027 layer_factory.cpp:177] Layer inception_3a/3x3_bn is using CAFFE engine.
I0107 20:52:41.749498 15027 net.cpp:96] Creating Layer inception_3a/3x3_bn
I0107 20:52:41.749501 15027 net.cpp:459] inception_3a/3x3_bn <- inception_3a/3x3
I0107 20:52:41.749505 15027 net.cpp:415] inception_3a/3x3_bn -> inception_3a/3x3_bn
I0107 20:52:41.749510 15027 net.cpp:160] Setting up inception_3a/3x3_bn
I0107 20:52:41.749519 15027 net.cpp:167] Top shape: 1 64 28 28 (50176)
I0107 20:52:41.749527 15027 layer_factory.hpp:74] Creating layer inception_3a/relu_3x3
I0107 20:52:41.749531 15027 net.cpp:96] Creating Layer inception_3a/relu_3x3
I0107 20:52:41.749533 15027 net.cpp:459] inception_3a/relu_3x3 <- inception_3a/3x3_bn
I0107 20:52:41.749537 15027 net.cpp:404] inception_3a/relu_3x3 -> inception_3a/3x3_bn (in-place)
I0107 20:52:41.749541 15027 net.cpp:160] Setting up inception_3a/relu_3x3
I0107 20:52:41.749547 15027 net.cpp:167] Top shape: 1 64 28 28 (50176)
I0107 20:52:41.749550 15027 layer_factory.hpp:74] Creating layer inception_3a/double_3x3_reduce
I0107 20:52:41.749553 15027 net.cpp:96] Creating Layer inception_3a/double_3x3_reduce
I0107 20:52:41.749557 15027 net.cpp:459] inception_3a/double_3x3_reduce <- pool2/3x3_s2_pool2/3x3_s2_0_split_2
I0107 20:52:41.749562 15027 net.cpp:415] inception_3a/double_3x3_reduce -> inception_3a/double_3x3_reduce
I0107 20:52:41.749565 15027 net.cpp:160] Setting up inception_3a/double_3x3_reduce
I0107 20:52:41.749627 15027 net.cpp:167] Top shape: 1 64 28 28 (50176)
I0107 20:52:41.749632 15027 layer_factory.hpp:74] Creating layer inception_3a/double_3x3_reduce_bn
I0107 20:52:41.749634 15027 layer_factory.cpp:177] Layer inception_3a/double_3x3_reduce_bn is using CAFFE engine.
I0107 20:52:41.749639 15027 net.cpp:96] Creating Layer inception_3a/double_3x3_reduce_bn
I0107 20:52:41.749642 15027 net.cpp:459] inception_3a/double_3x3_reduce_bn <- inception_3a/double_3x3_reduce
I0107 20:52:41.749645 15027 net.cpp:415] inception_3a/double_3x3_reduce_bn -> inception_3a/double_3x3_reduce_bn
I0107 20:52:41.749650 15027 net.cpp:160] Setting up inception_3a/double_3x3_reduce_bn
I0107 20:52:41.749660 15027 net.cpp:167] Top shape: 1 64 28 28 (50176)
I0107 20:52:41.749666 15027 layer_factory.hpp:74] Creating layer inception_3a/relu_double_3x3_reduce
I0107 20:52:41.749670 15027 net.cpp:96] Creating Layer inception_3a/relu_double_3x3_reduce
I0107 20:52:41.749672 15027 net.cpp:459] inception_3a/relu_double_3x3_reduce <- inception_3a/double_3x3_reduce_bn
I0107 20:52:41.749675 15027 net.cpp:404] inception_3a/relu_double_3x3_reduce -> inception_3a/double_3x3_reduce_bn (in-place)
I0107 20:52:41.749680 15027 net.cpp:160] Setting up inception_3a/relu_double_3x3_reduce
I0107 20:52:41.749683 15027 net.cpp:167] Top shape: 1 64 28 28 (50176)
I0107 20:52:41.749686 15027 layer_factory.hpp:74] Creating layer inception_3a/double_3x3_1
I0107 20:52:41.749689 15027 net.cpp:96] Creating Layer inception_3a/double_3x3_1
I0107 20:52:41.749692 15027 net.cpp:459] inception_3a/double_3x3_1 <- inception_3a/double_3x3_reduce_bn
I0107 20:52:41.749696 15027 net.cpp:415] inception_3a/double_3x3_1 -> inception_3a/double_3x3_1
I0107 20:52:41.749701 15027 net.cpp:160] Setting up inception_3a/double_3x3_1
I0107 20:52:41.749958 15027 net.cpp:167] Top shape: 1 96 28 28 (75264)
I0107 20:52:41.749964 15027 layer_factory.hpp:74] Creating layer inception_3a/double_3x3_1_bn
I0107 20:52:41.749968 15027 layer_factory.cpp:177] Layer inception_3a/double_3x3_1_bn is using CAFFE engine.
I0107 20:52:41.749972 15027 net.cpp:96] Creating Layer inception_3a/double_3x3_1_bn
I0107 20:52:41.749975 15027 net.cpp:459] inception_3a/double_3x3_1_bn <- inception_3a/double_3x3_1
I0107 20:52:41.749980 15027 net.cpp:415] inception_3a/double_3x3_1_bn -> inception_3a/double_3x3_1_bn
I0107 20:52:41.749984 15027 net.cpp:160] Setting up inception_3a/double_3x3_1_bn
I0107 20:52:41.749996 15027 net.cpp:167] Top shape: 1 96 28 28 (75264)
I0107 20:52:41.750001 15027 layer_factory.hpp:74] Creating layer inception_3a/relu_double_3x3_1
I0107 20:52:41.750005 15027 net.cpp:96] Creating Layer inception_3a/relu_double_3x3_1
I0107 20:52:41.750007 15027 net.cpp:459] inception_3a/relu_double_3x3_1 <- inception_3a/double_3x3_1_bn
I0107 20:52:41.750010 15027 net.cpp:404] inception_3a/relu_double_3x3_1 -> inception_3a/double_3x3_1_bn (in-place)
I0107 20:52:41.750015 15027 net.cpp:160] Setting up inception_3a/relu_double_3x3_1
I0107 20:52:41.750017 15027 net.cpp:167] Top shape: 1 96 28 28 (75264)
I0107 20:52:41.750020 15027 layer_factory.hpp:74] Creating layer inception_3a/double_3x3_2
I0107 20:52:41.750025 15027 net.cpp:96] Creating Layer inception_3a/double_3x3_2
I0107 20:52:41.750027 15027 net.cpp:459] inception_3a/double_3x3_2 <- inception_3a/double_3x3_1_bn
I0107 20:52:41.750031 15027 net.cpp:415] inception_3a/double_3x3_2 -> inception_3a/double_3x3_2
I0107 20:52:41.750036 15027 net.cpp:160] Setting up inception_3a/double_3x3_2
I0107 20:52:41.750404 15027 net.cpp:167] Top shape: 1 96 28 28 (75264)
I0107 20:52:41.750409 15027 layer_factory.hpp:74] Creating layer inception_3a/double_3x3_2_bn
I0107 20:52:41.750412 15027 layer_factory.cpp:177] Layer inception_3a/double_3x3_2_bn is using CAFFE engine.
I0107 20:52:41.750416 15027 net.cpp:96] Creating Layer inception_3a/double_3x3_2_bn
I0107 20:52:41.750419 15027 net.cpp:459] inception_3a/double_3x3_2_bn <- inception_3a/double_3x3_2
I0107 20:52:41.750425 15027 net.cpp:415] inception_3a/double_3x3_2_bn -> inception_3a/double_3x3_2_bn
I0107 20:52:41.750430 15027 net.cpp:160] Setting up inception_3a/double_3x3_2_bn
I0107 20:52:41.750442 15027 net.cpp:167] Top shape: 1 96 28 28 (75264)
I0107 20:52:41.750447 15027 layer_factory.hpp:74] Creating layer inception_3a/relu_double_3x3_2
I0107 20:52:41.750450 15027 net.cpp:96] Creating Layer inception_3a/relu_double_3x3_2
I0107 20:52:41.750453 15027 net.cpp:459] inception_3a/relu_double_3x3_2 <- inception_3a/double_3x3_2_bn
I0107 20:52:41.750458 15027 net.cpp:404] inception_3a/relu_double_3x3_2 -> inception_3a/double_3x3_2_bn (in-place)
I0107 20:52:41.750460 15027 net.cpp:160] Setting up inception_3a/relu_double_3x3_2
I0107 20:52:41.750463 15027 net.cpp:167] Top shape: 1 96 28 28 (75264)
I0107 20:52:41.750466 15027 layer_factory.hpp:74] Creating layer inception_3a/pool
I0107 20:52:41.750470 15027 net.cpp:96] Creating Layer inception_3a/pool
I0107 20:52:41.750473 15027 net.cpp:459] inception_3a/pool <- pool2/3x3_s2_pool2/3x3_s2_0_split_3
I0107 20:52:41.750478 15027 net.cpp:415] inception_3a/pool -> inception_3a/pool
I0107 20:52:41.750481 15027 net.cpp:160] Setting up inception_3a/pool
I0107 20:52:41.750485 15027 net.cpp:167] Top shape: 1 192 28 28 (150528)
I0107 20:52:41.750488 15027 layer_factory.hpp:74] Creating layer inception_3a/pool_proj
I0107 20:52:41.750491 15027 net.cpp:96] Creating Layer inception_3a/pool_proj
I0107 20:52:41.750494 15027 net.cpp:459] inception_3a/pool_proj <- inception_3a/pool
I0107 20:52:41.750499 15027 net.cpp:415] inception_3a/pool_proj -> inception_3a/pool_proj
I0107 20:52:41.750504 15027 net.cpp:160] Setting up inception_3a/pool_proj
I0107 20:52:41.750537 15027 net.cpp:167] Top shape: 1 32 28 28 (25088)
I0107 20:52:41.750541 15027 layer_factory.hpp:74] Creating layer inception_3a/pool_proj_bn
I0107 20:52:41.750545 15027 layer_factory.cpp:177] Layer inception_3a/pool_proj_bn is using CAFFE engine.
I0107 20:52:41.750550 15027 net.cpp:96] Creating Layer inception_3a/pool_proj_bn
I0107 20:52:41.750552 15027 net.cpp:459] inception_3a/pool_proj_bn <- inception_3a/pool_proj
I0107 20:52:41.750557 15027 net.cpp:415] inception_3a/pool_proj_bn -> inception_3a/pool_proj_bn
I0107 20:52:41.750561 15027 net.cpp:160] Setting up inception_3a/pool_proj_bn
I0107 20:52:41.750572 15027 net.cpp:167] Top shape: 1 32 28 28 (25088)
I0107 20:52:41.750577 15027 layer_factory.hpp:74] Creating layer inception_3a/relu_pool_proj
I0107 20:52:41.750581 15027 net.cpp:96] Creating Layer inception_3a/relu_pool_proj
I0107 20:52:41.750583 15027 net.cpp:459] inception_3a/relu_pool_proj <- inception_3a/pool_proj_bn
I0107 20:52:41.750587 15027 net.cpp:404] inception_3a/relu_pool_proj -> inception_3a/pool_proj_bn (in-place)
I0107 20:52:41.750591 15027 net.cpp:160] Setting up inception_3a/relu_pool_proj
I0107 20:52:41.750594 15027 net.cpp:167] Top shape: 1 32 28 28 (25088)
I0107 20:52:41.750597 15027 layer_factory.hpp:74] Creating layer inception_3a/output
I0107 20:52:41.750600 15027 net.cpp:96] Creating Layer inception_3a/output
I0107 20:52:41.750603 15027 net.cpp:459] inception_3a/output <- inception_3a/1x1_bn
I0107 20:52:41.750607 15027 net.cpp:459] inception_3a/output <- inception_3a/3x3_bn
I0107 20:52:41.750609 15027 net.cpp:459] inception_3a/output <- inception_3a/double_3x3_2_bn
I0107 20:52:41.750612 15027 net.cpp:459] inception_3a/output <- inception_3a/pool_proj_bn
I0107 20:52:41.750617 15027 net.cpp:415] inception_3a/output -> inception_3a/output
I0107 20:52:41.750620 15027 net.cpp:160] Setting up inception_3a/output
I0107 20:52:41.750624 15027 net.cpp:167] Top shape: 1 256 28 28 (200704)
I0107 20:52:41.750629 15027 layer_factory.hpp:74] Creating layer inception_3a/output_inception_3a/output_0_split
I0107 20:52:41.750635 15027 net.cpp:96] Creating Layer inception_3a/output_inception_3a/output_0_split
I0107 20:52:41.750638 15027 net.cpp:459] inception_3a/output_inception_3a/output_0_split <- inception_3a/output
I0107 20:52:41.750641 15027 net.cpp:415] inception_3a/output_inception_3a/output_0_split -> inception_3a/output_inception_3a/output_0_split_0
I0107 20:52:41.750646 15027 net.cpp:415] inception_3a/output_inception_3a/output_0_split -> inception_3a/output_inception_3a/output_0_split_1
I0107 20:52:41.750650 15027 net.cpp:415] inception_3a/output_inception_3a/output_0_split -> inception_3a/output_inception_3a/output_0_split_2
I0107 20:52:41.750654 15027 net.cpp:415] inception_3a/output_inception_3a/output_0_split -> inception_3a/output_inception_3a/output_0_split_3
I0107 20:52:41.750660 15027 net.cpp:160] Setting up inception_3a/output_inception_3a/output_0_split
I0107 20:52:41.750665 15027 net.cpp:167] Top shape: 1 256 28 28 (200704)
I0107 20:52:41.750669 15027 net.cpp:167] Top shape: 1 256 28 28 (200704)
I0107 20:52:41.750671 15027 net.cpp:167] Top shape: 1 256 28 28 (200704)
I0107 20:52:41.750675 15027 net.cpp:167] Top shape: 1 256 28 28 (200704)
I0107 20:52:41.750679 15027 layer_factory.hpp:74] Creating layer inception_3b/1x1
I0107 20:52:41.750682 15027 net.cpp:96] Creating Layer inception_3b/1x1
I0107 20:52:41.750685 15027 net.cpp:459] inception_3b/1x1 <- inception_3a/output_inception_3a/output_0_split_0
I0107 20:52:41.750689 15027 net.cpp:415] inception_3b/1x1 -> inception_3b/1x1
I0107 20:52:41.750694 15027 net.cpp:160] Setting up inception_3b/1x1
I0107 20:52:41.750772 15027 net.cpp:167] Top shape: 1 64 28 28 (50176)
I0107 20:52:41.750777 15027 layer_factory.hpp:74] Creating layer inception_3b/1x1_bn
I0107 20:52:41.750780 15027 layer_factory.cpp:177] Layer inception_3b/1x1_bn is using CAFFE engine.
I0107 20:52:41.750784 15027 net.cpp:96] Creating Layer inception_3b/1x1_bn
I0107 20:52:41.750787 15027 net.cpp:459] inception_3b/1x1_bn <- inception_3b/1x1
I0107 20:52:41.750792 15027 net.cpp:415] inception_3b/1x1_bn -> inception_3b/1x1_bn
I0107 20:52:41.750797 15027 net.cpp:160] Setting up inception_3b/1x1_bn
I0107 20:52:41.750807 15027 net.cpp:167] Top shape: 1 64 28 28 (50176)
I0107 20:52:41.750816 15027 layer_factory.hpp:74] Creating layer inception_3b/relu_1x1
I0107 20:52:41.750820 15027 net.cpp:96] Creating Layer inception_3b/relu_1x1
I0107 20:52:41.750823 15027 net.cpp:459] inception_3b/relu_1x1 <- inception_3b/1x1_bn
I0107 20:52:41.750828 15027 net.cpp:404] inception_3b/relu_1x1 -> inception_3b/1x1_bn (in-place)
I0107 20:52:41.750831 15027 net.cpp:160] Setting up inception_3b/relu_1x1
I0107 20:52:41.750834 15027 net.cpp:167] Top shape: 1 64 28 28 (50176)
I0107 20:52:41.750838 15027 layer_factory.hpp:74] Creating layer inception_3b/3x3_reduce
I0107 20:52:41.750841 15027 net.cpp:96] Creating Layer inception_3b/3x3_reduce
I0107 20:52:41.750844 15027 net.cpp:459] inception_3b/3x3_reduce <- inception_3a/output_inception_3a/output_0_split_1
I0107 20:52:41.750847 15027 net.cpp:415] inception_3b/3x3_reduce -> inception_3b/3x3_reduce
I0107 20:52:41.750851 15027 net.cpp:160] Setting up inception_3b/3x3_reduce
I0107 20:52:41.750928 15027 net.cpp:167] Top shape: 1 64 28 28 (50176)
I0107 20:52:41.750933 15027 layer_factory.hpp:74] Creating layer inception_3b/3x3_reduce_bn
I0107 20:52:41.750936 15027 layer_factory.cpp:177] Layer inception_3b/3x3_reduce_bn is using CAFFE engine.
I0107 20:52:41.750941 15027 net.cpp:96] Creating Layer inception_3b/3x3_reduce_bn
I0107 20:52:41.750943 15027 net.cpp:459] inception_3b/3x3_reduce_bn <- inception_3b/3x3_reduce
I0107 20:52:41.750948 15027 net.cpp:415] inception_3b/3x3_reduce_bn -> inception_3b/3x3_reduce_bn
I0107 20:52:41.750952 15027 net.cpp:160] Setting up inception_3b/3x3_reduce_bn
I0107 20:52:41.750962 15027 net.cpp:167] Top shape: 1 64 28 28 (50176)
I0107 20:52:41.750967 15027 layer_factory.hpp:74] Creating layer inception_3b/relu_3x3_reduce
I0107 20:52:41.750973 15027 net.cpp:96] Creating Layer inception_3b/relu_3x3_reduce
I0107 20:52:41.750977 15027 net.cpp:459] inception_3b/relu_3x3_reduce <- inception_3b/3x3_reduce_bn
I0107 20:52:41.750982 15027 net.cpp:404] inception_3b/relu_3x3_reduce -> inception_3b/3x3_reduce_bn (in-place)
I0107 20:52:41.750984 15027 net.cpp:160] Setting up inception_3b/relu_3x3_reduce
I0107 20:52:41.750988 15027 net.cpp:167] Top shape: 1 64 28 28 (50176)
I0107 20:52:41.750990 15027 layer_factory.hpp:74] Creating layer inception_3b/3x3
I0107 20:52:41.750994 15027 net.cpp:96] Creating Layer inception_3b/3x3
I0107 20:52:41.750998 15027 net.cpp:459] inception_3b/3x3 <- inception_3b/3x3_reduce_bn
I0107 20:52:41.751003 15027 net.cpp:415] inception_3b/3x3 -> inception_3b/3x3
I0107 20:52:41.751006 15027 net.cpp:160] Setting up inception_3b/3x3
I0107 20:52:41.751257 15027 net.cpp:167] Top shape: 1 96 28 28 (75264)
I0107 20:52:41.751263 15027 layer_factory.hpp:74] Creating layer inception_3b/3x3_bn
I0107 20:52:41.751266 15027 layer_factory.cpp:177] Layer inception_3b/3x3_bn is using CAFFE engine.
I0107 20:52:41.751271 15027 net.cpp:96] Creating Layer inception_3b/3x3_bn
I0107 20:52:41.751274 15027 net.cpp:459] inception_3b/3x3_bn <- inception_3b/3x3
I0107 20:52:41.751278 15027 net.cpp:415] inception_3b/3x3_bn -> inception_3b/3x3_bn
I0107 20:52:41.751282 15027 net.cpp:160] Setting up inception_3b/3x3_bn
I0107 20:52:41.751293 15027 net.cpp:167] Top shape: 1 96 28 28 (75264)
I0107 20:52:41.751298 15027 layer_factory.hpp:74] Creating layer inception_3b/relu_3x3
I0107 20:52:41.751302 15027 net.cpp:96] Creating Layer inception_3b/relu_3x3
I0107 20:52:41.751304 15027 net.cpp:459] inception_3b/relu_3x3 <- inception_3b/3x3_bn
I0107 20:52:41.751307 15027 net.cpp:404] inception_3b/relu_3x3 -> inception_3b/3x3_bn (in-place)
I0107 20:52:41.751312 15027 net.cpp:160] Setting up inception_3b/relu_3x3
I0107 20:52:41.751314 15027 net.cpp:167] Top shape: 1 96 28 28 (75264)
I0107 20:52:41.751317 15027 layer_factory.hpp:74] Creating layer inception_3b/double_3x3_reduce
I0107 20:52:41.751322 15027 net.cpp:96] Creating Layer inception_3b/double_3x3_reduce
I0107 20:52:41.751324 15027 net.cpp:459] inception_3b/double_3x3_reduce <- inception_3a/output_inception_3a/output_0_split_2
I0107 20:52:41.751328 15027 net.cpp:415] inception_3b/double_3x3_reduce -> inception_3b/double_3x3_reduce
I0107 20:52:41.751333 15027 net.cpp:160] Setting up inception_3b/double_3x3_reduce
I0107 20:52:41.751411 15027 net.cpp:167] Top shape: 1 64 28 28 (50176)
I0107 20:52:41.751415 15027 layer_factory.hpp:74] Creating layer inception_3b/double_3x3_reduce_bn
I0107 20:52:41.751418 15027 layer_factory.cpp:177] Layer inception_3b/double_3x3_reduce_bn is using CAFFE engine.
I0107 20:52:41.751422 15027 net.cpp:96] Creating Layer inception_3b/double_3x3_reduce_bn
I0107 20:52:41.751425 15027 net.cpp:459] inception_3b/double_3x3_reduce_bn <- inception_3b/double_3x3_reduce
I0107 20:52:41.751430 15027 net.cpp:415] inception_3b/double_3x3_reduce_bn -> inception_3b/double_3x3_reduce_bn
I0107 20:52:41.751433 15027 net.cpp:160] Setting up inception_3b/double_3x3_reduce_bn
I0107 20:52:41.751444 15027 net.cpp:167] Top shape: 1 64 28 28 (50176)
I0107 20:52:41.751449 15027 layer_factory.hpp:74] Creating layer inception_3b/relu_double_3x3_reduce
I0107 20:52:41.751453 15027 net.cpp:96] Creating Layer inception_3b/relu_double_3x3_reduce
I0107 20:52:41.751456 15027 net.cpp:459] inception_3b/relu_double_3x3_reduce <- inception_3b/double_3x3_reduce_bn
I0107 20:52:41.751461 15027 net.cpp:404] inception_3b/relu_double_3x3_reduce -> inception_3b/double_3x3_reduce_bn (in-place)
I0107 20:52:41.751463 15027 net.cpp:160] Setting up inception_3b/relu_double_3x3_reduce
I0107 20:52:41.751466 15027 net.cpp:167] Top shape: 1 64 28 28 (50176)
I0107 20:52:41.751469 15027 layer_factory.hpp:74] Creating layer inception_3b/double_3x3_1
I0107 20:52:41.751473 15027 net.cpp:96] Creating Layer inception_3b/double_3x3_1
I0107 20:52:41.751477 15027 net.cpp:459] inception_3b/double_3x3_1 <- inception_3b/double_3x3_reduce_bn
I0107 20:52:41.751482 15027 net.cpp:415] inception_3b/double_3x3_1 -> inception_3b/double_3x3_1
I0107 20:52:41.751487 15027 net.cpp:160] Setting up inception_3b/double_3x3_1
I0107 20:52:41.751734 15027 net.cpp:167] Top shape: 1 96 28 28 (75264)
I0107 20:52:41.751739 15027 layer_factory.hpp:74] Creating layer inception_3b/double_3x3_1_bn
I0107 20:52:41.751742 15027 layer_factory.cpp:177] Layer inception_3b/double_3x3_1_bn is using CAFFE engine.
I0107 20:52:41.751746 15027 net.cpp:96] Creating Layer inception_3b/double_3x3_1_bn
I0107 20:52:41.751750 15027 net.cpp:459] inception_3b/double_3x3_1_bn <- inception_3b/double_3x3_1
I0107 20:52:41.751754 15027 net.cpp:415] inception_3b/double_3x3_1_bn -> inception_3b/double_3x3_1_bn
I0107 20:52:41.751758 15027 net.cpp:160] Setting up inception_3b/double_3x3_1_bn
I0107 20:52:41.751768 15027 net.cpp:167] Top shape: 1 96 28 28 (75264)
I0107 20:52:41.751775 15027 layer_factory.hpp:74] Creating layer inception_3b/relu_double_3x3_1
I0107 20:52:41.751778 15027 net.cpp:96] Creating Layer inception_3b/relu_double_3x3_1
I0107 20:52:41.751781 15027 net.cpp:459] inception_3b/relu_double_3x3_1 <- inception_3b/double_3x3_1_bn
I0107 20:52:41.751785 15027 net.cpp:404] inception_3b/relu_double_3x3_1 -> inception_3b/double_3x3_1_bn (in-place)
I0107 20:52:41.751787 15027 net.cpp:160] Setting up inception_3b/relu_double_3x3_1
I0107 20:52:41.751791 15027 net.cpp:167] Top shape: 1 96 28 28 (75264)
I0107 20:52:41.751793 15027 layer_factory.hpp:74] Creating layer inception_3b/double_3x3_2
I0107 20:52:41.751796 15027 net.cpp:96] Creating Layer inception_3b/double_3x3_2
I0107 20:52:41.751799 15027 net.cpp:459] inception_3b/double_3x3_2 <- inception_3b/double_3x3_1_bn
I0107 20:52:41.751804 15027 net.cpp:415] inception_3b/double_3x3_2 -> inception_3b/double_3x3_2
I0107 20:52:41.751808 15027 net.cpp:160] Setting up inception_3b/double_3x3_2
I0107 20:52:41.752176 15027 net.cpp:167] Top shape: 1 96 28 28 (75264)
I0107 20:52:41.752180 15027 layer_factory.hpp:74] Creating layer inception_3b/double_3x3_2_bn
I0107 20:52:41.752183 15027 layer_factory.cpp:177] Layer inception_3b/double_3x3_2_bn is using CAFFE engine.
I0107 20:52:41.752187 15027 net.cpp:96] Creating Layer inception_3b/double_3x3_2_bn
I0107 20:52:41.752190 15027 net.cpp:459] inception_3b/double_3x3_2_bn <- inception_3b/double_3x3_2
I0107 20:52:41.752195 15027 net.cpp:415] inception_3b/double_3x3_2_bn -> inception_3b/double_3x3_2_bn
I0107 20:52:41.752199 15027 net.cpp:160] Setting up inception_3b/double_3x3_2_bn
I0107 20:52:41.752210 15027 net.cpp:167] Top shape: 1 96 28 28 (75264)
I0107 20:52:41.752216 15027 layer_factory.hpp:74] Creating layer inception_3b/relu_double_3x3_2
I0107 20:52:41.752219 15027 net.cpp:96] Creating Layer inception_3b/relu_double_3x3_2
I0107 20:52:41.752221 15027 net.cpp:459] inception_3b/relu_double_3x3_2 <- inception_3b/double_3x3_2_bn
I0107 20:52:41.752226 15027 net.cpp:404] inception_3b/relu_double_3x3_2 -> inception_3b/double_3x3_2_bn (in-place)
I0107 20:52:41.752229 15027 net.cpp:160] Setting up inception_3b/relu_double_3x3_2
I0107 20:52:41.752233 15027 net.cpp:167] Top shape: 1 96 28 28 (75264)
I0107 20:52:41.752235 15027 layer_factory.hpp:74] Creating layer inception_3b/pool
I0107 20:52:41.752238 15027 net.cpp:96] Creating Layer inception_3b/pool
I0107 20:52:41.752241 15027 net.cpp:459] inception_3b/pool <- inception_3a/output_inception_3a/output_0_split_3
I0107 20:52:41.752246 15027 net.cpp:415] inception_3b/pool -> inception_3b/pool
I0107 20:52:41.752250 15027 net.cpp:160] Setting up inception_3b/pool
I0107 20:52:41.752254 15027 net.cpp:167] Top shape: 1 256 28 28 (200704)
I0107 20:52:41.752257 15027 layer_factory.hpp:74] Creating layer inception_3b/pool_proj
I0107 20:52:41.752261 15027 net.cpp:96] Creating Layer inception_3b/pool_proj
I0107 20:52:41.752264 15027 net.cpp:459] inception_3b/pool_proj <- inception_3b/pool
I0107 20:52:41.752269 15027 net.cpp:415] inception_3b/pool_proj -> inception_3b/pool_proj
I0107 20:52:41.752272 15027 net.cpp:160] Setting up inception_3b/pool_proj
I0107 20:52:41.752348 15027 net.cpp:167] Top shape: 1 64 28 28 (50176)
I0107 20:52:41.752355 15027 layer_factory.hpp:74] Creating layer inception_3b/pool_proj_bn
I0107 20:52:41.752358 15027 layer_factory.cpp:177] Layer inception_3b/pool_proj_bn is using CAFFE engine.
I0107 20:52:41.752363 15027 net.cpp:96] Creating Layer inception_3b/pool_proj_bn
I0107 20:52:41.752367 15027 net.cpp:459] inception_3b/pool_proj_bn <- inception_3b/pool_proj
I0107 20:52:41.752370 15027 net.cpp:415] inception_3b/pool_proj_bn -> inception_3b/pool_proj_bn
I0107 20:52:41.752374 15027 net.cpp:160] Setting up inception_3b/pool_proj_bn
I0107 20:52:41.752385 15027 net.cpp:167] Top shape: 1 64 28 28 (50176)
I0107 20:52:41.752390 15027 layer_factory.hpp:74] Creating layer inception_3b/relu_pool_proj
I0107 20:52:41.752393 15027 net.cpp:96] Creating Layer inception_3b/relu_pool_proj
I0107 20:52:41.752396 15027 net.cpp:459] inception_3b/relu_pool_proj <- inception_3b/pool_proj_bn
I0107 20:52:41.752399 15027 net.cpp:404] inception_3b/relu_pool_proj -> inception_3b/pool_proj_bn (in-place)
I0107 20:52:41.752403 15027 net.cpp:160] Setting up inception_3b/relu_pool_proj
I0107 20:52:41.752406 15027 net.cpp:167] Top shape: 1 64 28 28 (50176)
I0107 20:52:41.752408 15027 layer_factory.hpp:74] Creating layer inception_3b/output
I0107 20:52:41.752414 15027 net.cpp:96] Creating Layer inception_3b/output
I0107 20:52:41.752418 15027 net.cpp:459] inception_3b/output <- inception_3b/1x1_bn
I0107 20:52:41.752420 15027 net.cpp:459] inception_3b/output <- inception_3b/3x3_bn
I0107 20:52:41.752424 15027 net.cpp:459] inception_3b/output <- inception_3b/double_3x3_2_bn
I0107 20:52:41.752426 15027 net.cpp:459] inception_3b/output <- inception_3b/pool_proj_bn
I0107 20:52:41.752430 15027 net.cpp:415] inception_3b/output -> inception_3b/output
I0107 20:52:41.752434 15027 net.cpp:160] Setting up inception_3b/output
I0107 20:52:41.752439 15027 net.cpp:167] Top shape: 1 320 28 28 (250880)
I0107 20:52:41.752440 15027 layer_factory.hpp:74] Creating layer inception_3b/output_inception_3b/output_0_split
I0107 20:52:41.752444 15027 net.cpp:96] Creating Layer inception_3b/output_inception_3b/output_0_split
I0107 20:52:41.752447 15027 net.cpp:459] inception_3b/output_inception_3b/output_0_split <- inception_3b/output
I0107 20:52:41.752451 15027 net.cpp:415] inception_3b/output_inception_3b/output_0_split -> inception_3b/output_inception_3b/output_0_split_0
I0107 20:52:41.752455 15027 net.cpp:415] inception_3b/output_inception_3b/output_0_split -> inception_3b/output_inception_3b/output_0_split_1
I0107 20:52:41.752460 15027 net.cpp:415] inception_3b/output_inception_3b/output_0_split -> inception_3b/output_inception_3b/output_0_split_2
I0107 20:52:41.752463 15027 net.cpp:160] Setting up inception_3b/output_inception_3b/output_0_split
I0107 20:52:41.752467 15027 net.cpp:167] Top shape: 1 320 28 28 (250880)
I0107 20:52:41.752471 15027 net.cpp:167] Top shape: 1 320 28 28 (250880)
I0107 20:52:41.752473 15027 net.cpp:167] Top shape: 1 320 28 28 (250880)
I0107 20:52:41.752476 15027 layer_factory.hpp:74] Creating layer inception_3c/3x3_reduce
I0107 20:52:41.752481 15027 net.cpp:96] Creating Layer inception_3c/3x3_reduce
I0107 20:52:41.752485 15027 net.cpp:459] inception_3c/3x3_reduce <- inception_3b/output_inception_3b/output_0_split_0
I0107 20:52:41.752488 15027 net.cpp:415] inception_3c/3x3_reduce -> inception_3c/3x3_reduce
I0107 20:52:41.752493 15027 net.cpp:160] Setting up inception_3c/3x3_reduce
I0107 20:52:41.752678 15027 net.cpp:167] Top shape: 1 128 28 28 (100352)
I0107 20:52:41.752684 15027 layer_factory.hpp:74] Creating layer inception_3c/3x3_reduce_bn
I0107 20:52:41.752686 15027 layer_factory.cpp:177] Layer inception_3c/3x3_reduce_bn is using CAFFE engine.
I0107 20:52:41.752691 15027 net.cpp:96] Creating Layer inception_3c/3x3_reduce_bn
I0107 20:52:41.752693 15027 net.cpp:459] inception_3c/3x3_reduce_bn <- inception_3c/3x3_reduce
I0107 20:52:41.752697 15027 net.cpp:415] inception_3c/3x3_reduce_bn -> inception_3c/3x3_reduce_bn
I0107 20:52:41.752702 15027 net.cpp:160] Setting up inception_3c/3x3_reduce_bn
I0107 20:52:41.752712 15027 net.cpp:167] Top shape: 1 128 28 28 (100352)
I0107 20:52:41.752722 15027 layer_factory.hpp:74] Creating layer inception_3c/relu_3x3_reduce
I0107 20:52:41.752725 15027 net.cpp:96] Creating Layer inception_3c/relu_3x3_reduce
I0107 20:52:41.752728 15027 net.cpp:459] inception_3c/relu_3x3_reduce <- inception_3c/3x3_reduce_bn
I0107 20:52:41.752732 15027 net.cpp:404] inception_3c/relu_3x3_reduce -> inception_3c/3x3_reduce_bn (in-place)
I0107 20:52:41.752735 15027 net.cpp:160] Setting up inception_3c/relu_3x3_reduce
I0107 20:52:41.752739 15027 net.cpp:167] Top shape: 1 128 28 28 (100352)
I0107 20:52:41.752743 15027 layer_factory.hpp:74] Creating layer inception_3c/3x3
I0107 20:52:41.752745 15027 net.cpp:96] Creating Layer inception_3c/3x3
I0107 20:52:41.752748 15027 net.cpp:459] inception_3c/3x3 <- inception_3c/3x3_reduce_bn
I0107 20:52:41.752753 15027 net.cpp:415] inception_3c/3x3 -> inception_3c/3x3
I0107 20:52:41.752758 15027 net.cpp:160] Setting up inception_3c/3x3
I0107 20:52:41.753540 15027 net.cpp:167] Top shape: 1 160 14 14 (31360)
I0107 20:52:41.753545 15027 layer_factory.hpp:74] Creating layer inception_3c/3x3_bn
I0107 20:52:41.753548 15027 layer_factory.cpp:177] Layer inception_3c/3x3_bn is using CAFFE engine.
I0107 20:52:41.753556 15027 net.cpp:96] Creating Layer inception_3c/3x3_bn
I0107 20:52:41.753558 15027 net.cpp:459] inception_3c/3x3_bn <- inception_3c/3x3
I0107 20:52:41.753563 15027 net.cpp:415] inception_3c/3x3_bn -> inception_3c/3x3_bn
I0107 20:52:41.753568 15027 net.cpp:160] Setting up inception_3c/3x3_bn
I0107 20:52:41.753578 15027 net.cpp:167] Top shape: 1 160 14 14 (31360)
I0107 20:52:41.753583 15027 layer_factory.hpp:74] Creating layer inception_3c/relu_3x3
I0107 20:52:41.753587 15027 net.cpp:96] Creating Layer inception_3c/relu_3x3
I0107 20:52:41.753589 15027 net.cpp:459] inception_3c/relu_3x3 <- inception_3c/3x3_bn
I0107 20:52:41.753593 15027 net.cpp:404] inception_3c/relu_3x3 -> inception_3c/3x3_bn (in-place)
I0107 20:52:41.753597 15027 net.cpp:160] Setting up inception_3c/relu_3x3
I0107 20:52:41.753600 15027 net.cpp:167] Top shape: 1 160 14 14 (31360)
I0107 20:52:41.753603 15027 layer_factory.hpp:74] Creating layer inception_3c/double_3x3_reduce
I0107 20:52:41.753607 15027 net.cpp:96] Creating Layer inception_3c/double_3x3_reduce
I0107 20:52:41.753609 15027 net.cpp:459] inception_3c/double_3x3_reduce <- inception_3b/output_inception_3b/output_0_split_1
I0107 20:52:41.753614 15027 net.cpp:415] inception_3c/double_3x3_reduce -> inception_3c/double_3x3_reduce
I0107 20:52:41.753618 15027 net.cpp:160] Setting up inception_3c/double_3x3_reduce
I0107 20:52:41.753712 15027 net.cpp:167] Top shape: 1 64 28 28 (50176)
I0107 20:52:41.753717 15027 layer_factory.hpp:74] Creating layer inception_3c/double_3x3_reduce_bn
I0107 20:52:41.753720 15027 layer_factory.cpp:177] Layer inception_3c/double_3x3_reduce_bn is using CAFFE engine.
I0107 20:52:41.753726 15027 net.cpp:96] Creating Layer inception_3c/double_3x3_reduce_bn
I0107 20:52:41.753729 15027 net.cpp:459] inception_3c/double_3x3_reduce_bn <- inception_3c/double_3x3_reduce
I0107 20:52:41.753733 15027 net.cpp:415] inception_3c/double_3x3_reduce_bn -> inception_3c/double_3x3_reduce_bn
I0107 20:52:41.753737 15027 net.cpp:160] Setting up inception_3c/double_3x3_reduce_bn
I0107 20:52:41.753747 15027 net.cpp:167] Top shape: 1 64 28 28 (50176)
I0107 20:52:41.753753 15027 layer_factory.hpp:74] Creating layer inception_3c/relu_double_3x3_reduce
I0107 20:52:41.753757 15027 net.cpp:96] Creating Layer inception_3c/relu_double_3x3_reduce
I0107 20:52:41.753759 15027 net.cpp:459] inception_3c/relu_double_3x3_reduce <- inception_3c/double_3x3_reduce_bn
I0107 20:52:41.753763 15027 net.cpp:404] inception_3c/relu_double_3x3_reduce -> inception_3c/double_3x3_reduce_bn (in-place)
I0107 20:52:41.753767 15027 net.cpp:160] Setting up inception_3c/relu_double_3x3_reduce
I0107 20:52:41.753769 15027 net.cpp:167] Top shape: 1 64 28 28 (50176)
I0107 20:52:41.753772 15027 layer_factory.hpp:74] Creating layer inception_3c/double_3x3_1
I0107 20:52:41.753775 15027 net.cpp:96] Creating Layer inception_3c/double_3x3_1
I0107 20:52:41.753780 15027 net.cpp:459] inception_3c/double_3x3_1 <- inception_3c/double_3x3_reduce_bn
I0107 20:52:41.753785 15027 net.cpp:415] inception_3c/double_3x3_1 -> inception_3c/double_3x3_1
I0107 20:52:41.753790 15027 net.cpp:160] Setting up inception_3c/double_3x3_1
I0107 20:52:41.754040 15027 net.cpp:167] Top shape: 1 96 28 28 (75264)
I0107 20:52:41.754047 15027 layer_factory.hpp:74] Creating layer inception_3c/double_3x3_1_bn
I0107 20:52:41.754050 15027 layer_factory.cpp:177] Layer inception_3c/double_3x3_1_bn is using CAFFE engine.
I0107 20:52:41.754055 15027 net.cpp:96] Creating Layer inception_3c/double_3x3_1_bn
I0107 20:52:41.754058 15027 net.cpp:459] inception_3c/double_3x3_1_bn <- inception_3c/double_3x3_1
I0107 20:52:41.754063 15027 net.cpp:415] inception_3c/double_3x3_1_bn -> inception_3c/double_3x3_1_bn
I0107 20:52:41.754067 15027 net.cpp:160] Setting up inception_3c/double_3x3_1_bn
I0107 20:52:41.754078 15027 net.cpp:167] Top shape: 1 96 28 28 (75264)
I0107 20:52:41.754084 15027 layer_factory.hpp:74] Creating layer inception_3c/relu_double_3x3_1
I0107 20:52:41.754087 15027 net.cpp:96] Creating Layer inception_3c/relu_double_3x3_1
I0107 20:52:41.754091 15027 net.cpp:459] inception_3c/relu_double_3x3_1 <- inception_3c/double_3x3_1_bn
I0107 20:52:41.754094 15027 net.cpp:404] inception_3c/relu_double_3x3_1 -> inception_3c/double_3x3_1_bn (in-place)
I0107 20:52:41.754097 15027 net.cpp:160] Setting up inception_3c/relu_double_3x3_1
I0107 20:52:41.754101 15027 net.cpp:167] Top shape: 1 96 28 28 (75264)
I0107 20:52:41.754103 15027 layer_factory.hpp:74] Creating layer inception_3c/double_3x3_2
I0107 20:52:41.754108 15027 net.cpp:96] Creating Layer inception_3c/double_3x3_2
I0107 20:52:41.754112 15027 net.cpp:459] inception_3c/double_3x3_2 <- inception_3c/double_3x3_1_bn
I0107 20:52:41.754115 15027 net.cpp:415] inception_3c/double_3x3_2 -> inception_3c/double_3x3_2
I0107 20:52:41.754118 15027 net.cpp:160] Setting up inception_3c/double_3x3_2
I0107 20:52:41.754474 15027 net.cpp:167] Top shape: 1 96 14 14 (18816)
I0107 20:52:41.754479 15027 layer_factory.hpp:74] Creating layer inception_3c/double_3x3_2_bn
I0107 20:52:41.754482 15027 layer_factory.cpp:177] Layer inception_3c/double_3x3_2_bn is using CAFFE engine.
I0107 20:52:41.754487 15027 net.cpp:96] Creating Layer inception_3c/double_3x3_2_bn
I0107 20:52:41.754489 15027 net.cpp:459] inception_3c/double_3x3_2_bn <- inception_3c/double_3x3_2
I0107 20:52:41.754493 15027 net.cpp:415] inception_3c/double_3x3_2_bn -> inception_3c/double_3x3_2_bn
I0107 20:52:41.754498 15027 net.cpp:160] Setting up inception_3c/double_3x3_2_bn
I0107 20:52:41.754508 15027 net.cpp:167] Top shape: 1 96 14 14 (18816)
I0107 20:52:41.754520 15027 layer_factory.hpp:74] Creating layer inception_3c/relu_double_3x3_2
I0107 20:52:41.754524 15027 net.cpp:96] Creating Layer inception_3c/relu_double_3x3_2
I0107 20:52:41.754526 15027 net.cpp:459] inception_3c/relu_double_3x3_2 <- inception_3c/double_3x3_2_bn
I0107 20:52:41.754530 15027 net.cpp:404] inception_3c/relu_double_3x3_2 -> inception_3c/double_3x3_2_bn (in-place)
I0107 20:52:41.754534 15027 net.cpp:160] Setting up inception_3c/relu_double_3x3_2
I0107 20:52:41.754537 15027 net.cpp:167] Top shape: 1 96 14 14 (18816)
I0107 20:52:41.754539 15027 layer_factory.hpp:74] Creating layer inception_3c/pool
I0107 20:52:41.754544 15027 net.cpp:96] Creating Layer inception_3c/pool
I0107 20:52:41.754546 15027 net.cpp:459] inception_3c/pool <- inception_3b/output_inception_3b/output_0_split_2
I0107 20:52:41.754549 15027 net.cpp:415] inception_3c/pool -> inception_3c/pool
I0107 20:52:41.754554 15027 net.cpp:160] Setting up inception_3c/pool
I0107 20:52:41.754559 15027 net.cpp:167] Top shape: 1 320 14 14 (62720)
I0107 20:52:41.754560 15027 layer_factory.hpp:74] Creating layer inception_3c/output
I0107 20:52:41.754565 15027 net.cpp:96] Creating Layer inception_3c/output
I0107 20:52:41.754568 15027 net.cpp:459] inception_3c/output <- inception_3c/3x3_bn
I0107 20:52:41.754571 15027 net.cpp:459] inception_3c/output <- inception_3c/double_3x3_2_bn
I0107 20:52:41.754577 15027 net.cpp:459] inception_3c/output <- inception_3c/pool
I0107 20:52:41.754580 15027 net.cpp:415] inception_3c/output -> inception_3c/output
I0107 20:52:41.754585 15027 net.cpp:160] Setting up inception_3c/output
I0107 20:52:41.754590 15027 net.cpp:167] Top shape: 1 576 14 14 (112896)
I0107 20:52:41.754591 15027 layer_factory.hpp:74] Creating layer inception_3c/output_inception_3c/output_0_split
I0107 20:52:41.754596 15027 net.cpp:96] Creating Layer inception_3c/output_inception_3c/output_0_split
I0107 20:52:41.754600 15027 net.cpp:459] inception_3c/output_inception_3c/output_0_split <- inception_3c/output
I0107 20:52:41.754603 15027 net.cpp:415] inception_3c/output_inception_3c/output_0_split -> inception_3c/output_inception_3c/output_0_split_0
I0107 20:52:41.754611 15027 net.cpp:415] inception_3c/output_inception_3c/output_0_split -> inception_3c/output_inception_3c/output_0_split_1
I0107 20:52:41.754616 15027 net.cpp:415] inception_3c/output_inception_3c/output_0_split -> inception_3c/output_inception_3c/output_0_split_2
I0107 20:52:41.754621 15027 net.cpp:415] inception_3c/output_inception_3c/output_0_split -> inception_3c/output_inception_3c/output_0_split_3
I0107 20:52:41.754624 15027 net.cpp:160] Setting up inception_3c/output_inception_3c/output_0_split
I0107 20:52:41.754629 15027 net.cpp:167] Top shape: 1 576 14 14 (112896)
I0107 20:52:41.754632 15027 net.cpp:167] Top shape: 1 576 14 14 (112896)
I0107 20:52:41.754636 15027 net.cpp:167] Top shape: 1 576 14 14 (112896)
I0107 20:52:41.754638 15027 net.cpp:167] Top shape: 1 576 14 14 (112896)
I0107 20:52:41.754640 15027 layer_factory.hpp:74] Creating layer inception_4a/1x1
I0107 20:52:41.754644 15027 net.cpp:96] Creating Layer inception_4a/1x1
I0107 20:52:41.754647 15027 net.cpp:459] inception_4a/1x1 <- inception_3c/output_inception_3c/output_0_split_0
I0107 20:52:41.754652 15027 net.cpp:415] inception_4a/1x1 -> inception_4a/1x1
I0107 20:52:41.754657 15027 net.cpp:160] Setting up inception_4a/1x1
I0107 20:52:41.755208 15027 net.cpp:167] Top shape: 1 224 14 14 (43904)
I0107 20:52:41.755214 15027 layer_factory.hpp:74] Creating layer inception_4a/1x1_bn
I0107 20:52:41.755216 15027 layer_factory.cpp:177] Layer inception_4a/1x1_bn is using CAFFE engine.
I0107 20:52:41.755221 15027 net.cpp:96] Creating Layer inception_4a/1x1_bn
I0107 20:52:41.755224 15027 net.cpp:459] inception_4a/1x1_bn <- inception_4a/1x1
I0107 20:52:41.755229 15027 net.cpp:415] inception_4a/1x1_bn -> inception_4a/1x1_bn
I0107 20:52:41.755234 15027 net.cpp:160] Setting up inception_4a/1x1_bn
I0107 20:52:41.755244 15027 net.cpp:167] Top shape: 1 224 14 14 (43904)
I0107 20:52:41.755249 15027 layer_factory.hpp:74] Creating layer inception_4a/relu_1x1
I0107 20:52:41.755254 15027 net.cpp:96] Creating Layer inception_4a/relu_1x1
I0107 20:52:41.755256 15027 net.cpp:459] inception_4a/relu_1x1 <- inception_4a/1x1_bn
I0107 20:52:41.755259 15027 net.cpp:404] inception_4a/relu_1x1 -> inception_4a/1x1_bn (in-place)
I0107 20:52:41.755264 15027 net.cpp:160] Setting up inception_4a/relu_1x1
I0107 20:52:41.755266 15027 net.cpp:167] Top shape: 1 224 14 14 (43904)
I0107 20:52:41.755270 15027 layer_factory.hpp:74] Creating layer inception_4a/3x3_reduce
I0107 20:52:41.755273 15027 net.cpp:96] Creating Layer inception_4a/3x3_reduce
I0107 20:52:41.755275 15027 net.cpp:459] inception_4a/3x3_reduce <- inception_3c/output_inception_3c/output_0_split_1
I0107 20:52:41.755280 15027 net.cpp:415] inception_4a/3x3_reduce -> inception_4a/3x3_reduce
I0107 20:52:41.755285 15027 net.cpp:160] Setting up inception_4a/3x3_reduce
I0107 20:52:41.755448 15027 net.cpp:167] Top shape: 1 64 14 14 (12544)
I0107 20:52:41.755453 15027 layer_factory.hpp:74] Creating layer inception_4a/3x3_reduce_bn
I0107 20:52:41.755456 15027 layer_factory.cpp:177] Layer inception_4a/3x3_reduce_bn is using CAFFE engine.
I0107 20:52:41.755460 15027 net.cpp:96] Creating Layer inception_4a/3x3_reduce_bn
I0107 20:52:41.755465 15027 net.cpp:459] inception_4a/3x3_reduce_bn <- inception_4a/3x3_reduce
I0107 20:52:41.755468 15027 net.cpp:415] inception_4a/3x3_reduce_bn -> inception_4a/3x3_reduce_bn
I0107 20:52:41.755475 15027 net.cpp:160] Setting up inception_4a/3x3_reduce_bn
I0107 20:52:41.755484 15027 net.cpp:167] Top shape: 1 64 14 14 (12544)
I0107 20:52:41.755491 15027 layer_factory.hpp:74] Creating layer inception_4a/relu_3x3_reduce
I0107 20:52:41.755493 15027 net.cpp:96] Creating Layer inception_4a/relu_3x3_reduce
I0107 20:52:41.755496 15027 net.cpp:459] inception_4a/relu_3x3_reduce <- inception_4a/3x3_reduce_bn
I0107 20:52:41.755499 15027 net.cpp:404] inception_4a/relu_3x3_reduce -> inception_4a/3x3_reduce_bn (in-place)
I0107 20:52:41.755503 15027 net.cpp:160] Setting up inception_4a/relu_3x3_reduce
I0107 20:52:41.755506 15027 net.cpp:167] Top shape: 1 64 14 14 (12544)
I0107 20:52:41.755508 15027 layer_factory.hpp:74] Creating layer inception_4a/3x3
I0107 20:52:41.755513 15027 net.cpp:96] Creating Layer inception_4a/3x3
I0107 20:52:41.755517 15027 net.cpp:459] inception_4a/3x3 <- inception_4a/3x3_reduce_bn
I0107 20:52:41.755520 15027 net.cpp:415] inception_4a/3x3 -> inception_4a/3x3
I0107 20:52:41.755524 15027 net.cpp:160] Setting up inception_4a/3x3
I0107 20:52:41.755765 15027 net.cpp:167] Top shape: 1 96 14 14 (18816)
I0107 20:52:41.755771 15027 layer_factory.hpp:74] Creating layer inception_4a/3x3_bn
I0107 20:52:41.755774 15027 layer_factory.cpp:177] Layer inception_4a/3x3_bn is using CAFFE engine.
I0107 20:52:41.755779 15027 net.cpp:96] Creating Layer inception_4a/3x3_bn
I0107 20:52:41.755781 15027 net.cpp:459] inception_4a/3x3_bn <- inception_4a/3x3
I0107 20:52:41.755786 15027 net.cpp:415] inception_4a/3x3_bn -> inception_4a/3x3_bn
I0107 20:52:41.755790 15027 net.cpp:160] Setting up inception_4a/3x3_bn
I0107 20:52:41.755800 15027 net.cpp:167] Top shape: 1 96 14 14 (18816)
I0107 20:52:41.755805 15027 layer_factory.hpp:74] Creating layer inception_4a/relu_3x3
I0107 20:52:41.755808 15027 net.cpp:96] Creating Layer inception_4a/relu_3x3
I0107 20:52:41.755811 15027 net.cpp:459] inception_4a/relu_3x3 <- inception_4a/3x3_bn
I0107 20:52:41.755815 15027 net.cpp:404] inception_4a/relu_3x3 -> inception_4a/3x3_bn (in-place)
I0107 20:52:41.755818 15027 net.cpp:160] Setting up inception_4a/relu_3x3
I0107 20:52:41.755822 15027 net.cpp:167] Top shape: 1 96 14 14 (18816)
I0107 20:52:41.755825 15027 layer_factory.hpp:74] Creating layer inception_4a/double_3x3_reduce
I0107 20:52:41.755828 15027 net.cpp:96] Creating Layer inception_4a/double_3x3_reduce
I0107 20:52:41.755831 15027 net.cpp:459] inception_4a/double_3x3_reduce <- inception_3c/output_inception_3c/output_0_split_2
I0107 20:52:41.755836 15027 net.cpp:415] inception_4a/double_3x3_reduce -> inception_4a/double_3x3_reduce
I0107 20:52:41.755839 15027 net.cpp:160] Setting up inception_4a/double_3x3_reduce
I0107 20:52:41.756081 15027 net.cpp:167] Top shape: 1 96 14 14 (18816)
I0107 20:52:41.756088 15027 layer_factory.hpp:74] Creating layer inception_4a/double_3x3_reduce_bn
I0107 20:52:41.756090 15027 layer_factory.cpp:177] Layer inception_4a/double_3x3_reduce_bn is using CAFFE engine.
I0107 20:52:41.756095 15027 net.cpp:96] Creating Layer inception_4a/double_3x3_reduce_bn
I0107 20:52:41.756098 15027 net.cpp:459] inception_4a/double_3x3_reduce_bn <- inception_4a/double_3x3_reduce
I0107 20:52:41.756103 15027 net.cpp:415] inception_4a/double_3x3_reduce_bn -> inception_4a/double_3x3_reduce_bn
I0107 20:52:41.756106 15027 net.cpp:160] Setting up inception_4a/double_3x3_reduce_bn
I0107 20:52:41.756116 15027 net.cpp:167] Top shape: 1 96 14 14 (18816)
I0107 20:52:41.756121 15027 layer_factory.hpp:74] Creating layer inception_4a/relu_double_3x3_reduce
I0107 20:52:41.756125 15027 net.cpp:96] Creating Layer inception_4a/relu_double_3x3_reduce
I0107 20:52:41.756129 15027 net.cpp:459] inception_4a/relu_double_3x3_reduce <- inception_4a/double_3x3_reduce_bn
I0107 20:52:41.756132 15027 net.cpp:404] inception_4a/relu_double_3x3_reduce -> inception_4a/double_3x3_reduce_bn (in-place)
I0107 20:52:41.756136 15027 net.cpp:160] Setting up inception_4a/relu_double_3x3_reduce
I0107 20:52:41.756139 15027 net.cpp:167] Top shape: 1 96 14 14 (18816)
I0107 20:52:41.756145 15027 layer_factory.hpp:74] Creating layer inception_4a/double_3x3_1
I0107 20:52:41.756148 15027 net.cpp:96] Creating Layer inception_4a/double_3x3_1
I0107 20:52:41.756151 15027 net.cpp:459] inception_4a/double_3x3_1 <- inception_4a/double_3x3_reduce_bn
I0107 20:52:41.756155 15027 net.cpp:415] inception_4a/double_3x3_1 -> inception_4a/double_3x3_1
I0107 20:52:41.756160 15027 net.cpp:160] Setting up inception_4a/double_3x3_1
I0107 20:52:41.756630 15027 net.cpp:167] Top shape: 1 128 14 14 (25088)
I0107 20:52:41.756636 15027 layer_factory.hpp:74] Creating layer inception_4a/double_3x3_1_bn
I0107 20:52:41.756639 15027 layer_factory.cpp:177] Layer inception_4a/double_3x3_1_bn is using CAFFE engine.
I0107 20:52:41.756644 15027 net.cpp:96] Creating Layer inception_4a/double_3x3_1_bn
I0107 20:52:41.756645 15027 net.cpp:459] inception_4a/double_3x3_1_bn <- inception_4a/double_3x3_1
I0107 20:52:41.756650 15027 net.cpp:415] inception_4a/double_3x3_1_bn -> inception_4a/double_3x3_1_bn
I0107 20:52:41.756655 15027 net.cpp:160] Setting up inception_4a/double_3x3_1_bn
I0107 20:52:41.756666 15027 net.cpp:167] Top shape: 1 128 14 14 (25088)
I0107 20:52:41.756671 15027 layer_factory.hpp:74] Creating layer inception_4a/relu_double_3x3_1
I0107 20:52:41.756675 15027 net.cpp:96] Creating Layer inception_4a/relu_double_3x3_1
I0107 20:52:41.756677 15027 net.cpp:459] inception_4a/relu_double_3x3_1 <- inception_4a/double_3x3_1_bn
I0107 20:52:41.756681 15027 net.cpp:404] inception_4a/relu_double_3x3_1 -> inception_4a/double_3x3_1_bn (in-place)
I0107 20:52:41.756685 15027 net.cpp:160] Setting up inception_4a/relu_double_3x3_1
I0107 20:52:41.756687 15027 net.cpp:167] Top shape: 1 128 14 14 (25088)
I0107 20:52:41.756690 15027 layer_factory.hpp:74] Creating layer inception_4a/double_3x3_2
I0107 20:52:41.756695 15027 net.cpp:96] Creating Layer inception_4a/double_3x3_2
I0107 20:52:41.756697 15027 net.cpp:459] inception_4a/double_3x3_2 <- inception_4a/double_3x3_1_bn
I0107 20:52:41.756701 15027 net.cpp:415] inception_4a/double_3x3_2 -> inception_4a/double_3x3_2
I0107 20:52:41.756706 15027 net.cpp:160] Setting up inception_4a/double_3x3_2
I0107 20:52:41.757349 15027 net.cpp:167] Top shape: 1 128 14 14 (25088)
I0107 20:52:41.757355 15027 layer_factory.hpp:74] Creating layer inception_4a/double_3x3_2_bn
I0107 20:52:41.757359 15027 layer_factory.cpp:177] Layer inception_4a/double_3x3_2_bn is using CAFFE engine.
I0107 20:52:41.757362 15027 net.cpp:96] Creating Layer inception_4a/double_3x3_2_bn
I0107 20:52:41.757365 15027 net.cpp:459] inception_4a/double_3x3_2_bn <- inception_4a/double_3x3_2
I0107 20:52:41.757370 15027 net.cpp:415] inception_4a/double_3x3_2_bn -> inception_4a/double_3x3_2_bn
I0107 20:52:41.757375 15027 net.cpp:160] Setting up inception_4a/double_3x3_2_bn
I0107 20:52:41.757385 15027 net.cpp:167] Top shape: 1 128 14 14 (25088)
I0107 20:52:41.757390 15027 layer_factory.hpp:74] Creating layer inception_4a/relu_double_3x3_2
I0107 20:52:41.757395 15027 net.cpp:96] Creating Layer inception_4a/relu_double_3x3_2
I0107 20:52:41.757396 15027 net.cpp:459] inception_4a/relu_double_3x3_2 <- inception_4a/double_3x3_2_bn
I0107 20:52:41.757400 15027 net.cpp:404] inception_4a/relu_double_3x3_2 -> inception_4a/double_3x3_2_bn (in-place)
I0107 20:52:41.757403 15027 net.cpp:160] Setting up inception_4a/relu_double_3x3_2
I0107 20:52:41.757407 15027 net.cpp:167] Top shape: 1 128 14 14 (25088)
I0107 20:52:41.757410 15027 layer_factory.hpp:74] Creating layer inception_4a/pool
I0107 20:52:41.757414 15027 net.cpp:96] Creating Layer inception_4a/pool
I0107 20:52:41.757418 15027 net.cpp:459] inception_4a/pool <- inception_3c/output_inception_3c/output_0_split_3
I0107 20:52:41.757421 15027 net.cpp:415] inception_4a/pool -> inception_4a/pool
I0107 20:52:41.757426 15027 net.cpp:160] Setting up inception_4a/pool
I0107 20:52:41.757429 15027 net.cpp:167] Top shape: 1 576 14 14 (112896)
I0107 20:52:41.757432 15027 layer_factory.hpp:74] Creating layer inception_4a/pool_proj
I0107 20:52:41.757436 15027 net.cpp:96] Creating Layer inception_4a/pool_proj
I0107 20:52:41.757441 15027 net.cpp:459] inception_4a/pool_proj <- inception_4a/pool
I0107 20:52:41.757448 15027 net.cpp:415] inception_4a/pool_proj -> inception_4a/pool_proj
I0107 20:52:41.757453 15027 net.cpp:160] Setting up inception_4a/pool_proj
I0107 20:52:41.757779 15027 net.cpp:167] Top shape: 1 128 14 14 (25088)
I0107 20:52:41.757784 15027 layer_factory.hpp:74] Creating layer inception_4a/pool_proj_bn
I0107 20:52:41.757787 15027 layer_factory.cpp:177] Layer inception_4a/pool_proj_bn is using CAFFE engine.
I0107 20:52:41.757792 15027 net.cpp:96] Creating Layer inception_4a/pool_proj_bn
I0107 20:52:41.757796 15027 net.cpp:459] inception_4a/pool_proj_bn <- inception_4a/pool_proj
I0107 20:52:41.757799 15027 net.cpp:415] inception_4a/pool_proj_bn -> inception_4a/pool_proj_bn
I0107 20:52:41.757804 15027 net.cpp:160] Setting up inception_4a/pool_proj_bn
I0107 20:52:41.757813 15027 net.cpp:167] Top shape: 1 128 14 14 (25088)
I0107 20:52:41.757818 15027 layer_factory.hpp:74] Creating layer inception_4a/relu_pool_proj
I0107 20:52:41.757822 15027 net.cpp:96] Creating Layer inception_4a/relu_pool_proj
I0107 20:52:41.757825 15027 net.cpp:459] inception_4a/relu_pool_proj <- inception_4a/pool_proj_bn
I0107 20:52:41.757829 15027 net.cpp:404] inception_4a/relu_pool_proj -> inception_4a/pool_proj_bn (in-place)
I0107 20:52:41.757838 15027 net.cpp:160] Setting up inception_4a/relu_pool_proj
I0107 20:52:41.757843 15027 net.cpp:167] Top shape: 1 128 14 14 (25088)
I0107 20:52:41.757845 15027 layer_factory.hpp:74] Creating layer inception_4a/output
I0107 20:52:41.757848 15027 net.cpp:96] Creating Layer inception_4a/output
I0107 20:52:41.757851 15027 net.cpp:459] inception_4a/output <- inception_4a/1x1_bn
I0107 20:52:41.757854 15027 net.cpp:459] inception_4a/output <- inception_4a/3x3_bn
I0107 20:52:41.757858 15027 net.cpp:459] inception_4a/output <- inception_4a/double_3x3_2_bn
I0107 20:52:41.757860 15027 net.cpp:459] inception_4a/output <- inception_4a/pool_proj_bn
I0107 20:52:41.757865 15027 net.cpp:415] inception_4a/output -> inception_4a/output
I0107 20:52:41.757869 15027 net.cpp:160] Setting up inception_4a/output
I0107 20:52:41.757874 15027 net.cpp:167] Top shape: 1 576 14 14 (112896)
I0107 20:52:41.757876 15027 layer_factory.hpp:74] Creating layer inception_4a/output_inception_4a/output_0_split
I0107 20:52:41.757879 15027 net.cpp:96] Creating Layer inception_4a/output_inception_4a/output_0_split
I0107 20:52:41.757882 15027 net.cpp:459] inception_4a/output_inception_4a/output_0_split <- inception_4a/output
I0107 20:52:41.757886 15027 net.cpp:415] inception_4a/output_inception_4a/output_0_split -> inception_4a/output_inception_4a/output_0_split_0
I0107 20:52:41.757890 15027 net.cpp:415] inception_4a/output_inception_4a/output_0_split -> inception_4a/output_inception_4a/output_0_split_1
I0107 20:52:41.757894 15027 net.cpp:415] inception_4a/output_inception_4a/output_0_split -> inception_4a/output_inception_4a/output_0_split_2
I0107 20:52:41.757899 15027 net.cpp:415] inception_4a/output_inception_4a/output_0_split -> inception_4a/output_inception_4a/output_0_split_3
I0107 20:52:41.757903 15027 net.cpp:160] Setting up inception_4a/output_inception_4a/output_0_split
I0107 20:52:41.757908 15027 net.cpp:167] Top shape: 1 576 14 14 (112896)
I0107 20:52:41.757911 15027 net.cpp:167] Top shape: 1 576 14 14 (112896)
I0107 20:52:41.757915 15027 net.cpp:167] Top shape: 1 576 14 14 (112896)
I0107 20:52:41.757917 15027 net.cpp:167] Top shape: 1 576 14 14 (112896)
I0107 20:52:41.757920 15027 layer_factory.hpp:74] Creating layer inception_4b/1x1
I0107 20:52:41.757925 15027 net.cpp:96] Creating Layer inception_4b/1x1
I0107 20:52:41.757927 15027 net.cpp:459] inception_4b/1x1 <- inception_4a/output_inception_4a/output_0_split_0
I0107 20:52:41.757931 15027 net.cpp:415] inception_4b/1x1 -> inception_4b/1x1
I0107 20:52:41.757936 15027 net.cpp:160] Setting up inception_4b/1x1
I0107 20:52:41.758421 15027 net.cpp:167] Top shape: 1 192 14 14 (37632)
I0107 20:52:41.758426 15027 layer_factory.hpp:74] Creating layer inception_4b/1x1_bn
I0107 20:52:41.758430 15027 layer_factory.cpp:177] Layer inception_4b/1x1_bn is using CAFFE engine.
I0107 20:52:41.758435 15027 net.cpp:96] Creating Layer inception_4b/1x1_bn
I0107 20:52:41.758440 15027 net.cpp:459] inception_4b/1x1_bn <- inception_4b/1x1
I0107 20:52:41.758443 15027 net.cpp:415] inception_4b/1x1_bn -> inception_4b/1x1_bn
I0107 20:52:41.758448 15027 net.cpp:160] Setting up inception_4b/1x1_bn
I0107 20:52:41.758461 15027 net.cpp:167] Top shape: 1 192 14 14 (37632)
I0107 20:52:41.758466 15027 layer_factory.hpp:74] Creating layer inception_4b/relu_1x1
I0107 20:52:41.758469 15027 net.cpp:96] Creating Layer inception_4b/relu_1x1
I0107 20:52:41.758472 15027 net.cpp:459] inception_4b/relu_1x1 <- inception_4b/1x1_bn
I0107 20:52:41.758476 15027 net.cpp:404] inception_4b/relu_1x1 -> inception_4b/1x1_bn (in-place)
I0107 20:52:41.758481 15027 net.cpp:160] Setting up inception_4b/relu_1x1
I0107 20:52:41.758483 15027 net.cpp:167] Top shape: 1 192 14 14 (37632)
I0107 20:52:41.758486 15027 layer_factory.hpp:74] Creating layer inception_4b/3x3_reduce
I0107 20:52:41.758491 15027 net.cpp:96] Creating Layer inception_4b/3x3_reduce
I0107 20:52:41.758493 15027 net.cpp:459] inception_4b/3x3_reduce <- inception_4a/output_inception_4a/output_0_split_1
I0107 20:52:41.758498 15027 net.cpp:415] inception_4b/3x3_reduce -> inception_4b/3x3_reduce
I0107 20:52:41.758502 15027 net.cpp:160] Setting up inception_4b/3x3_reduce
I0107 20:52:41.758746 15027 net.cpp:167] Top shape: 1 96 14 14 (18816)
I0107 20:52:41.758752 15027 layer_factory.hpp:74] Creating layer inception_4b/3x3_reduce_bn
I0107 20:52:41.758755 15027 layer_factory.cpp:177] Layer inception_4b/3x3_reduce_bn is using CAFFE engine.
I0107 20:52:41.758760 15027 net.cpp:96] Creating Layer inception_4b/3x3_reduce_bn
I0107 20:52:41.758764 15027 net.cpp:459] inception_4b/3x3_reduce_bn <- inception_4b/3x3_reduce
I0107 20:52:41.758767 15027 net.cpp:415] inception_4b/3x3_reduce_bn -> inception_4b/3x3_reduce_bn
I0107 20:52:41.758771 15027 net.cpp:160] Setting up inception_4b/3x3_reduce_bn
I0107 20:52:41.758781 15027 net.cpp:167] Top shape: 1 96 14 14 (18816)
I0107 20:52:41.758786 15027 layer_factory.hpp:74] Creating layer inception_4b/relu_3x3_reduce
I0107 20:52:41.758790 15027 net.cpp:96] Creating Layer inception_4b/relu_3x3_reduce
I0107 20:52:41.758793 15027 net.cpp:459] inception_4b/relu_3x3_reduce <- inception_4b/3x3_reduce_bn
I0107 20:52:41.758797 15027 net.cpp:404] inception_4b/relu_3x3_reduce -> inception_4b/3x3_reduce_bn (in-place)
I0107 20:52:41.758800 15027 net.cpp:160] Setting up inception_4b/relu_3x3_reduce
I0107 20:52:41.758805 15027 net.cpp:167] Top shape: 1 96 14 14 (18816)
I0107 20:52:41.758807 15027 layer_factory.hpp:74] Creating layer inception_4b/3x3
I0107 20:52:41.758812 15027 net.cpp:96] Creating Layer inception_4b/3x3
I0107 20:52:41.758815 15027 net.cpp:459] inception_4b/3x3 <- inception_4b/3x3_reduce_bn
I0107 20:52:41.758818 15027 net.cpp:415] inception_4b/3x3 -> inception_4b/3x3
I0107 20:52:41.758822 15027 net.cpp:160] Setting up inception_4b/3x3
I0107 20:52:41.759310 15027 net.cpp:167] Top shape: 1 128 14 14 (25088)
I0107 20:52:41.759315 15027 layer_factory.hpp:74] Creating layer inception_4b/3x3_bn
I0107 20:52:41.759317 15027 layer_factory.cpp:177] Layer inception_4b/3x3_bn is using CAFFE engine.
I0107 20:52:41.759321 15027 net.cpp:96] Creating Layer inception_4b/3x3_bn
I0107 20:52:41.759325 15027 net.cpp:459] inception_4b/3x3_bn <- inception_4b/3x3
I0107 20:52:41.759330 15027 net.cpp:415] inception_4b/3x3_bn -> inception_4b/3x3_bn
I0107 20:52:41.759335 15027 net.cpp:160] Setting up inception_4b/3x3_bn
I0107 20:52:41.759344 15027 net.cpp:167] Top shape: 1 128 14 14 (25088)
I0107 20:52:41.759349 15027 layer_factory.hpp:74] Creating layer inception_4b/relu_3x3
I0107 20:52:41.759352 15027 net.cpp:96] Creating Layer inception_4b/relu_3x3
I0107 20:52:41.759356 15027 net.cpp:459] inception_4b/relu_3x3 <- inception_4b/3x3_bn
I0107 20:52:41.759358 15027 net.cpp:404] inception_4b/relu_3x3 -> inception_4b/3x3_bn (in-place)
I0107 20:52:41.759362 15027 net.cpp:160] Setting up inception_4b/relu_3x3
I0107 20:52:41.759367 15027 net.cpp:167] Top shape: 1 128 14 14 (25088)
I0107 20:52:41.759371 15027 layer_factory.hpp:74] Creating layer inception_4b/double_3x3_reduce
I0107 20:52:41.759377 15027 net.cpp:96] Creating Layer inception_4b/double_3x3_reduce
I0107 20:52:41.759379 15027 net.cpp:459] inception_4b/double_3x3_reduce <- inception_4a/output_inception_4a/output_0_split_2
I0107 20:52:41.759383 15027 net.cpp:415] inception_4b/double_3x3_reduce -> inception_4b/double_3x3_reduce
I0107 20:52:41.759387 15027 net.cpp:160] Setting up inception_4b/double_3x3_reduce
I0107 20:52:41.759635 15027 net.cpp:167] Top shape: 1 96 14 14 (18816)
I0107 20:52:41.759641 15027 layer_factory.hpp:74] Creating layer inception_4b/double_3x3_reduce_bn
I0107 20:52:41.759644 15027 layer_factory.cpp:177] Layer inception_4b/double_3x3_reduce_bn is using CAFFE engine.
I0107 20:52:41.759649 15027 net.cpp:96] Creating Layer inception_4b/double_3x3_reduce_bn
I0107 20:52:41.759651 15027 net.cpp:459] inception_4b/double_3x3_reduce_bn <- inception_4b/double_3x3_reduce
I0107 20:52:41.759656 15027 net.cpp:415] inception_4b/double_3x3_reduce_bn -> inception_4b/double_3x3_reduce_bn
I0107 20:52:41.759661 15027 net.cpp:160] Setting up inception_4b/double_3x3_reduce_bn
I0107 20:52:41.759670 15027 net.cpp:167] Top shape: 1 96 14 14 (18816)
I0107 20:52:41.759675 15027 layer_factory.hpp:74] Creating layer inception_4b/relu_double_3x3_reduce
I0107 20:52:41.759680 15027 net.cpp:96] Creating Layer inception_4b/relu_double_3x3_reduce
I0107 20:52:41.759681 15027 net.cpp:459] inception_4b/relu_double_3x3_reduce <- inception_4b/double_3x3_reduce_bn
I0107 20:52:41.759686 15027 net.cpp:404] inception_4b/relu_double_3x3_reduce -> inception_4b/double_3x3_reduce_bn (in-place)
I0107 20:52:41.759690 15027 net.cpp:160] Setting up inception_4b/relu_double_3x3_reduce
I0107 20:52:41.759693 15027 net.cpp:167] Top shape: 1 96 14 14 (18816)
I0107 20:52:41.759696 15027 layer_factory.hpp:74] Creating layer inception_4b/double_3x3_1
I0107 20:52:41.759701 15027 net.cpp:96] Creating Layer inception_4b/double_3x3_1
I0107 20:52:41.759703 15027 net.cpp:459] inception_4b/double_3x3_1 <- inception_4b/double_3x3_reduce_bn
I0107 20:52:41.759707 15027 net.cpp:415] inception_4b/double_3x3_1 -> inception_4b/double_3x3_1
I0107 20:52:41.759711 15027 net.cpp:160] Setting up inception_4b/double_3x3_1
I0107 20:52:41.760193 15027 net.cpp:167] Top shape: 1 128 14 14 (25088)
I0107 20:52:41.760200 15027 layer_factory.hpp:74] Creating layer inception_4b/double_3x3_1_bn
I0107 20:52:41.760203 15027 layer_factory.cpp:177] Layer inception_4b/double_3x3_1_bn is using CAFFE engine.
I0107 20:52:41.760210 15027 net.cpp:96] Creating Layer inception_4b/double_3x3_1_bn
I0107 20:52:41.760213 15027 net.cpp:459] inception_4b/double_3x3_1_bn <- inception_4b/double_3x3_1
I0107 20:52:41.760217 15027 net.cpp:415] inception_4b/double_3x3_1_bn -> inception_4b/double_3x3_1_bn
I0107 20:52:41.760221 15027 net.cpp:160] Setting up inception_4b/double_3x3_1_bn
I0107 20:52:41.760231 15027 net.cpp:167] Top shape: 1 128 14 14 (25088)
I0107 20:52:41.760236 15027 layer_factory.hpp:74] Creating layer inception_4b/relu_double_3x3_1
I0107 20:52:41.760239 15027 net.cpp:96] Creating Layer inception_4b/relu_double_3x3_1
I0107 20:52:41.760243 15027 net.cpp:459] inception_4b/relu_double_3x3_1 <- inception_4b/double_3x3_1_bn
I0107 20:52:41.760247 15027 net.cpp:404] inception_4b/relu_double_3x3_1 -> inception_4b/double_3x3_1_bn (in-place)
I0107 20:52:41.760251 15027 net.cpp:160] Setting up inception_4b/relu_double_3x3_1
I0107 20:52:41.760254 15027 net.cpp:167] Top shape: 1 128 14 14 (25088)
I0107 20:52:41.760257 15027 layer_factory.hpp:74] Creating layer inception_4b/double_3x3_2
I0107 20:52:41.760260 15027 net.cpp:96] Creating Layer inception_4b/double_3x3_2
I0107 20:52:41.760263 15027 net.cpp:459] inception_4b/double_3x3_2 <- inception_4b/double_3x3_1_bn
I0107 20:52:41.760267 15027 net.cpp:415] inception_4b/double_3x3_2 -> inception_4b/double_3x3_2
I0107 20:52:41.760272 15027 net.cpp:160] Setting up inception_4b/double_3x3_2
I0107 20:52:41.760915 15027 net.cpp:167] Top shape: 1 128 14 14 (25088)
I0107 20:52:41.760922 15027 layer_factory.hpp:74] Creating layer inception_4b/double_3x3_2_bn
I0107 20:52:41.760926 15027 layer_factory.cpp:177] Layer inception_4b/double_3x3_2_bn is using CAFFE engine.
I0107 20:52:41.760929 15027 net.cpp:96] Creating Layer inception_4b/double_3x3_2_bn
I0107 20:52:41.760933 15027 net.cpp:459] inception_4b/double_3x3_2_bn <- inception_4b/double_3x3_2
I0107 20:52:41.760937 15027 net.cpp:415] inception_4b/double_3x3_2_bn -> inception_4b/double_3x3_2_bn
I0107 20:52:41.760941 15027 net.cpp:160] Setting up inception_4b/double_3x3_2_bn
I0107 20:52:41.760951 15027 net.cpp:167] Top shape: 1 128 14 14 (25088)
I0107 20:52:41.760957 15027 layer_factory.hpp:74] Creating layer inception_4b/relu_double_3x3_2
I0107 20:52:41.760959 15027 net.cpp:96] Creating Layer inception_4b/relu_double_3x3_2
I0107 20:52:41.760962 15027 net.cpp:459] inception_4b/relu_double_3x3_2 <- inception_4b/double_3x3_2_bn
I0107 20:52:41.760967 15027 net.cpp:404] inception_4b/relu_double_3x3_2 -> inception_4b/double_3x3_2_bn (in-place)
I0107 20:52:41.760970 15027 net.cpp:160] Setting up inception_4b/relu_double_3x3_2
I0107 20:52:41.760973 15027 net.cpp:167] Top shape: 1 128 14 14 (25088)
I0107 20:52:41.760977 15027 layer_factory.hpp:74] Creating layer inception_4b/pool
I0107 20:52:41.760980 15027 net.cpp:96] Creating Layer inception_4b/pool
I0107 20:52:41.760983 15027 net.cpp:459] inception_4b/pool <- inception_4a/output_inception_4a/output_0_split_3
I0107 20:52:41.760987 15027 net.cpp:415] inception_4b/pool -> inception_4b/pool
I0107 20:52:41.760990 15027 net.cpp:160] Setting up inception_4b/pool
I0107 20:52:41.760994 15027 net.cpp:167] Top shape: 1 576 14 14 (112896)
I0107 20:52:41.760998 15027 layer_factory.hpp:74] Creating layer inception_4b/pool_proj
I0107 20:52:41.761003 15027 net.cpp:96] Creating Layer inception_4b/pool_proj
I0107 20:52:41.761005 15027 net.cpp:459] inception_4b/pool_proj <- inception_4b/pool
I0107 20:52:41.761013 15027 net.cpp:415] inception_4b/pool_proj -> inception_4b/pool_proj
I0107 20:52:41.761016 15027 net.cpp:160] Setting up inception_4b/pool_proj
I0107 20:52:41.761342 15027 net.cpp:167] Top shape: 1 128 14 14 (25088)
I0107 20:52:41.761348 15027 layer_factory.hpp:74] Creating layer inception_4b/pool_proj_bn
I0107 20:52:41.761350 15027 layer_factory.cpp:177] Layer inception_4b/pool_proj_bn is using CAFFE engine.
I0107 20:52:41.761354 15027 net.cpp:96] Creating Layer inception_4b/pool_proj_bn
I0107 20:52:41.761358 15027 net.cpp:459] inception_4b/pool_proj_bn <- inception_4b/pool_proj
I0107 20:52:41.761363 15027 net.cpp:415] inception_4b/pool_proj_bn -> inception_4b/pool_proj_bn
I0107 20:52:41.761366 15027 net.cpp:160] Setting up inception_4b/pool_proj_bn
I0107 20:52:41.761378 15027 net.cpp:167] Top shape: 1 128 14 14 (25088)
I0107 20:52:41.761382 15027 layer_factory.hpp:74] Creating layer inception_4b/relu_pool_proj
I0107 20:52:41.761385 15027 net.cpp:96] Creating Layer inception_4b/relu_pool_proj
I0107 20:52:41.761389 15027 net.cpp:459] inception_4b/relu_pool_proj <- inception_4b/pool_proj_bn
I0107 20:52:41.761391 15027 net.cpp:404] inception_4b/relu_pool_proj -> inception_4b/pool_proj_bn (in-place)
I0107 20:52:41.761395 15027 net.cpp:160] Setting up inception_4b/relu_pool_proj
I0107 20:52:41.761399 15027 net.cpp:167] Top shape: 1 128 14 14 (25088)
I0107 20:52:41.761401 15027 layer_factory.hpp:74] Creating layer inception_4b/output
I0107 20:52:41.761405 15027 net.cpp:96] Creating Layer inception_4b/output
I0107 20:52:41.761409 15027 net.cpp:459] inception_4b/output <- inception_4b/1x1_bn
I0107 20:52:41.761412 15027 net.cpp:459] inception_4b/output <- inception_4b/3x3_bn
I0107 20:52:41.761415 15027 net.cpp:459] inception_4b/output <- inception_4b/double_3x3_2_bn
I0107 20:52:41.761418 15027 net.cpp:459] inception_4b/output <- inception_4b/pool_proj_bn
I0107 20:52:41.761421 15027 net.cpp:415] inception_4b/output -> inception_4b/output
I0107 20:52:41.761425 15027 net.cpp:160] Setting up inception_4b/output
I0107 20:52:41.761430 15027 net.cpp:167] Top shape: 1 576 14 14 (112896)
I0107 20:52:41.761435 15027 layer_factory.hpp:74] Creating layer inception_4b/output_inception_4b/output_0_split
I0107 20:52:41.761440 15027 net.cpp:96] Creating Layer inception_4b/output_inception_4b/output_0_split
I0107 20:52:41.761441 15027 net.cpp:459] inception_4b/output_inception_4b/output_0_split <- inception_4b/output
I0107 20:52:41.761446 15027 net.cpp:415] inception_4b/output_inception_4b/output_0_split -> inception_4b/output_inception_4b/output_0_split_0
I0107 20:52:41.761451 15027 net.cpp:415] inception_4b/output_inception_4b/output_0_split -> inception_4b/output_inception_4b/output_0_split_1
I0107 20:52:41.761456 15027 net.cpp:415] inception_4b/output_inception_4b/output_0_split -> inception_4b/output_inception_4b/output_0_split_2
I0107 20:52:41.761459 15027 net.cpp:415] inception_4b/output_inception_4b/output_0_split -> inception_4b/output_inception_4b/output_0_split_3
I0107 20:52:41.761463 15027 net.cpp:160] Setting up inception_4b/output_inception_4b/output_0_split
I0107 20:52:41.761467 15027 net.cpp:167] Top shape: 1 576 14 14 (112896)
I0107 20:52:41.761471 15027 net.cpp:167] Top shape: 1 576 14 14 (112896)
I0107 20:52:41.761473 15027 net.cpp:167] Top shape: 1 576 14 14 (112896)
I0107 20:52:41.761476 15027 net.cpp:167] Top shape: 1 576 14 14 (112896)
I0107 20:52:41.761479 15027 layer_factory.hpp:74] Creating layer inception_4c/1x1
I0107 20:52:41.761484 15027 net.cpp:96] Creating Layer inception_4c/1x1
I0107 20:52:41.761487 15027 net.cpp:459] inception_4c/1x1 <- inception_4b/output_inception_4b/output_0_split_0
I0107 20:52:41.761492 15027 net.cpp:415] inception_4c/1x1 -> inception_4c/1x1
I0107 20:52:41.761497 15027 net.cpp:160] Setting up inception_4c/1x1
I0107 20:52:41.761904 15027 net.cpp:167] Top shape: 1 160 14 14 (31360)
I0107 20:52:41.761912 15027 layer_factory.hpp:74] Creating layer inception_4c/1x1_bn
I0107 20:52:41.761915 15027 layer_factory.cpp:177] Layer inception_4c/1x1_bn is using CAFFE engine.
I0107 20:52:41.761919 15027 net.cpp:96] Creating Layer inception_4c/1x1_bn
I0107 20:52:41.761924 15027 net.cpp:459] inception_4c/1x1_bn <- inception_4c/1x1
I0107 20:52:41.761927 15027 net.cpp:415] inception_4c/1x1_bn -> inception_4c/1x1_bn
I0107 20:52:41.761931 15027 net.cpp:160] Setting up inception_4c/1x1_bn
I0107 20:52:41.761941 15027 net.cpp:167] Top shape: 1 160 14 14 (31360)
I0107 20:52:41.761946 15027 layer_factory.hpp:74] Creating layer inception_4c/relu_1x1
I0107 20:52:41.761958 15027 net.cpp:96] Creating Layer inception_4c/relu_1x1
I0107 20:52:41.761962 15027 net.cpp:459] inception_4c/relu_1x1 <- inception_4c/1x1_bn
I0107 20:52:41.761966 15027 net.cpp:404] inception_4c/relu_1x1 -> inception_4c/1x1_bn (in-place)
I0107 20:52:41.761970 15027 net.cpp:160] Setting up inception_4c/relu_1x1
I0107 20:52:41.761973 15027 net.cpp:167] Top shape: 1 160 14 14 (31360)
I0107 20:52:41.761976 15027 layer_factory.hpp:74] Creating layer inception_4c/3x3_reduce
I0107 20:52:41.761981 15027 net.cpp:96] Creating Layer inception_4c/3x3_reduce
I0107 20:52:41.761983 15027 net.cpp:459] inception_4c/3x3_reduce <- inception_4b/output_inception_4b/output_0_split_1
I0107 20:52:41.761987 15027 net.cpp:415] inception_4c/3x3_reduce -> inception_4c/3x3_reduce
I0107 20:52:41.761991 15027 net.cpp:160] Setting up inception_4c/3x3_reduce
I0107 20:52:41.762320 15027 net.cpp:167] Top shape: 1 128 14 14 (25088)
I0107 20:52:41.762326 15027 layer_factory.hpp:74] Creating layer inception_4c/3x3_reduce_bn
I0107 20:52:41.762329 15027 layer_factory.cpp:177] Layer inception_4c/3x3_reduce_bn is using CAFFE engine.
I0107 20:52:41.762333 15027 net.cpp:96] Creating Layer inception_4c/3x3_reduce_bn
I0107 20:52:41.762336 15027 net.cpp:459] inception_4c/3x3_reduce_bn <- inception_4c/3x3_reduce
I0107 20:52:41.762341 15027 net.cpp:415] inception_4c/3x3_reduce_bn -> inception_4c/3x3_reduce_bn
I0107 20:52:41.762346 15027 net.cpp:160] Setting up inception_4c/3x3_reduce_bn
I0107 20:52:41.762356 15027 net.cpp:167] Top shape: 1 128 14 14 (25088)
I0107 20:52:41.762362 15027 layer_factory.hpp:74] Creating layer inception_4c/relu_3x3_reduce
I0107 20:52:41.762369 15027 net.cpp:96] Creating Layer inception_4c/relu_3x3_reduce
I0107 20:52:41.762372 15027 net.cpp:459] inception_4c/relu_3x3_reduce <- inception_4c/3x3_reduce_bn
I0107 20:52:41.762375 15027 net.cpp:404] inception_4c/relu_3x3_reduce -> inception_4c/3x3_reduce_bn (in-place)
I0107 20:52:41.762379 15027 net.cpp:160] Setting up inception_4c/relu_3x3_reduce
I0107 20:52:41.762382 15027 net.cpp:167] Top shape: 1 128 14 14 (25088)
I0107 20:52:41.762385 15027 layer_factory.hpp:74] Creating layer inception_4c/3x3
I0107 20:52:41.762390 15027 net.cpp:96] Creating Layer inception_4c/3x3
I0107 20:52:41.762393 15027 net.cpp:459] inception_4c/3x3 <- inception_4c/3x3_reduce_bn
I0107 20:52:41.762398 15027 net.cpp:415] inception_4c/3x3 -> inception_4c/3x3
I0107 20:52:41.762401 15027 net.cpp:160] Setting up inception_4c/3x3
I0107 20:52:41.763201 15027 net.cpp:167] Top shape: 1 160 14 14 (31360)
I0107 20:52:41.763206 15027 layer_factory.hpp:74] Creating layer inception_4c/3x3_bn
I0107 20:52:41.763209 15027 layer_factory.cpp:177] Layer inception_4c/3x3_bn is using CAFFE engine.
I0107 20:52:41.763214 15027 net.cpp:96] Creating Layer inception_4c/3x3_bn
I0107 20:52:41.763217 15027 net.cpp:459] inception_4c/3x3_bn <- inception_4c/3x3
I0107 20:52:41.763222 15027 net.cpp:415] inception_4c/3x3_bn -> inception_4c/3x3_bn
I0107 20:52:41.763227 15027 net.cpp:160] Setting up inception_4c/3x3_bn
I0107 20:52:41.763236 15027 net.cpp:167] Top shape: 1 160 14 14 (31360)
I0107 20:52:41.763242 15027 layer_factory.hpp:74] Creating layer inception_4c/relu_3x3
I0107 20:52:41.763247 15027 net.cpp:96] Creating Layer inception_4c/relu_3x3
I0107 20:52:41.763249 15027 net.cpp:459] inception_4c/relu_3x3 <- inception_4c/3x3_bn
I0107 20:52:41.763255 15027 net.cpp:404] inception_4c/relu_3x3 -> inception_4c/3x3_bn (in-place)
I0107 20:52:41.763259 15027 net.cpp:160] Setting up inception_4c/relu_3x3
I0107 20:52:41.763262 15027 net.cpp:167] Top shape: 1 160 14 14 (31360)
I0107 20:52:41.763265 15027 layer_factory.hpp:74] Creating layer inception_4c/double_3x3_reduce
I0107 20:52:41.763269 15027 net.cpp:96] Creating Layer inception_4c/double_3x3_reduce
I0107 20:52:41.763273 15027 net.cpp:459] inception_4c/double_3x3_reduce <- inception_4b/output_inception_4b/output_0_split_2
I0107 20:52:41.763275 15027 net.cpp:415] inception_4c/double_3x3_reduce -> inception_4c/double_3x3_reduce
I0107 20:52:41.763279 15027 net.cpp:160] Setting up inception_4c/double_3x3_reduce
I0107 20:52:41.763605 15027 net.cpp:167] Top shape: 1 128 14 14 (25088)
I0107 20:52:41.763612 15027 layer_factory.hpp:74] Creating layer inception_4c/double_3x3_reduce_bn
I0107 20:52:41.763613 15027 layer_factory.cpp:177] Layer inception_4c/double_3x3_reduce_bn is using CAFFE engine.
I0107 20:52:41.763617 15027 net.cpp:96] Creating Layer inception_4c/double_3x3_reduce_bn
I0107 20:52:41.763620 15027 net.cpp:459] inception_4c/double_3x3_reduce_bn <- inception_4c/double_3x3_reduce
I0107 20:52:41.763625 15027 net.cpp:415] inception_4c/double_3x3_reduce_bn -> inception_4c/double_3x3_reduce_bn
I0107 20:52:41.763630 15027 net.cpp:160] Setting up inception_4c/double_3x3_reduce_bn
I0107 20:52:41.763640 15027 net.cpp:167] Top shape: 1 128 14 14 (25088)
I0107 20:52:41.763645 15027 layer_factory.hpp:74] Creating layer inception_4c/relu_double_3x3_reduce
I0107 20:52:41.763648 15027 net.cpp:96] Creating Layer inception_4c/relu_double_3x3_reduce
I0107 20:52:41.763651 15027 net.cpp:459] inception_4c/relu_double_3x3_reduce <- inception_4c/double_3x3_reduce_bn
I0107 20:52:41.763654 15027 net.cpp:404] inception_4c/relu_double_3x3_reduce -> inception_4c/double_3x3_reduce_bn (in-place)
I0107 20:52:41.763659 15027 net.cpp:160] Setting up inception_4c/relu_double_3x3_reduce
I0107 20:52:41.763661 15027 net.cpp:167] Top shape: 1 128 14 14 (25088)
I0107 20:52:41.763664 15027 layer_factory.hpp:74] Creating layer inception_4c/double_3x3_1
I0107 20:52:41.763669 15027 net.cpp:96] Creating Layer inception_4c/double_3x3_1
I0107 20:52:41.763672 15027 net.cpp:459] inception_4c/double_3x3_1 <- inception_4c/double_3x3_reduce_bn
I0107 20:52:41.763679 15027 net.cpp:415] inception_4c/double_3x3_1 -> inception_4c/double_3x3_1
I0107 20:52:41.763684 15027 net.cpp:160] Setting up inception_4c/double_3x3_1
I0107 20:52:41.764483 15027 net.cpp:167] Top shape: 1 160 14 14 (31360)
I0107 20:52:41.764489 15027 layer_factory.hpp:74] Creating layer inception_4c/double_3x3_1_bn
I0107 20:52:41.764492 15027 layer_factory.cpp:177] Layer inception_4c/double_3x3_1_bn is using CAFFE engine.
I0107 20:52:41.764497 15027 net.cpp:96] Creating Layer inception_4c/double_3x3_1_bn
I0107 20:52:41.764500 15027 net.cpp:459] inception_4c/double_3x3_1_bn <- inception_4c/double_3x3_1
I0107 20:52:41.764505 15027 net.cpp:415] inception_4c/double_3x3_1_bn -> inception_4c/double_3x3_1_bn
I0107 20:52:41.764509 15027 net.cpp:160] Setting up inception_4c/double_3x3_1_bn
I0107 20:52:41.764519 15027 net.cpp:167] Top shape: 1 160 14 14 (31360)
I0107 20:52:41.764524 15027 layer_factory.hpp:74] Creating layer inception_4c/relu_double_3x3_1
I0107 20:52:41.764528 15027 net.cpp:96] Creating Layer inception_4c/relu_double_3x3_1
I0107 20:52:41.764530 15027 net.cpp:459] inception_4c/relu_double_3x3_1 <- inception_4c/double_3x3_1_bn
I0107 20:52:41.764535 15027 net.cpp:404] inception_4c/relu_double_3x3_1 -> inception_4c/double_3x3_1_bn (in-place)
I0107 20:52:41.764539 15027 net.cpp:160] Setting up inception_4c/relu_double_3x3_1
I0107 20:52:41.764542 15027 net.cpp:167] Top shape: 1 160 14 14 (31360)
I0107 20:52:41.764544 15027 layer_factory.hpp:74] Creating layer inception_4c/double_3x3_2
I0107 20:52:41.764549 15027 net.cpp:96] Creating Layer inception_4c/double_3x3_2
I0107 20:52:41.764551 15027 net.cpp:459] inception_4c/double_3x3_2 <- inception_4c/double_3x3_1_bn
I0107 20:52:41.764556 15027 net.cpp:415] inception_4c/double_3x3_2 -> inception_4c/double_3x3_2
I0107 20:52:41.764560 15027 net.cpp:160] Setting up inception_4c/double_3x3_2
I0107 20:52:41.765558 15027 net.cpp:167] Top shape: 1 160 14 14 (31360)
I0107 20:52:41.765563 15027 layer_factory.hpp:74] Creating layer inception_4c/double_3x3_2_bn
I0107 20:52:41.765566 15027 layer_factory.cpp:177] Layer inception_4c/double_3x3_2_bn is using CAFFE engine.
I0107 20:52:41.765570 15027 net.cpp:96] Creating Layer inception_4c/double_3x3_2_bn
I0107 20:52:41.765573 15027 net.cpp:459] inception_4c/double_3x3_2_bn <- inception_4c/double_3x3_2
I0107 20:52:41.765578 15027 net.cpp:415] inception_4c/double_3x3_2_bn -> inception_4c/double_3x3_2_bn
I0107 20:52:41.765583 15027 net.cpp:160] Setting up inception_4c/double_3x3_2_bn
I0107 20:52:41.765594 15027 net.cpp:167] Top shape: 1 160 14 14 (31360)
I0107 20:52:41.765599 15027 layer_factory.hpp:74] Creating layer inception_4c/relu_double_3x3_2
I0107 20:52:41.765601 15027 net.cpp:96] Creating Layer inception_4c/relu_double_3x3_2
I0107 20:52:41.765604 15027 net.cpp:459] inception_4c/relu_double_3x3_2 <- inception_4c/double_3x3_2_bn
I0107 20:52:41.765609 15027 net.cpp:404] inception_4c/relu_double_3x3_2 -> inception_4c/double_3x3_2_bn (in-place)
I0107 20:52:41.765612 15027 net.cpp:160] Setting up inception_4c/relu_double_3x3_2
I0107 20:52:41.765616 15027 net.cpp:167] Top shape: 1 160 14 14 (31360)
I0107 20:52:41.765619 15027 layer_factory.hpp:74] Creating layer inception_4c/pool
I0107 20:52:41.765622 15027 net.cpp:96] Creating Layer inception_4c/pool
I0107 20:52:41.765625 15027 net.cpp:459] inception_4c/pool <- inception_4b/output_inception_4b/output_0_split_3
I0107 20:52:41.765630 15027 net.cpp:415] inception_4c/pool -> inception_4c/pool
I0107 20:52:41.765633 15027 net.cpp:160] Setting up inception_4c/pool
I0107 20:52:41.765638 15027 net.cpp:167] Top shape: 1 576 14 14 (112896)
I0107 20:52:41.765640 15027 layer_factory.hpp:74] Creating layer inception_4c/pool_proj
I0107 20:52:41.765645 15027 net.cpp:96] Creating Layer inception_4c/pool_proj
I0107 20:52:41.765648 15027 net.cpp:459] inception_4c/pool_proj <- inception_4c/pool
I0107 20:52:41.765652 15027 net.cpp:415] inception_4c/pool_proj -> inception_4c/pool_proj
I0107 20:52:41.765657 15027 net.cpp:160] Setting up inception_4c/pool_proj
I0107 20:52:41.765987 15027 net.cpp:167] Top shape: 1 128 14 14 (25088)
I0107 20:52:41.765996 15027 layer_factory.hpp:74] Creating layer inception_4c/pool_proj_bn
I0107 20:52:41.766000 15027 layer_factory.cpp:177] Layer inception_4c/pool_proj_bn is using CAFFE engine.
I0107 20:52:41.766003 15027 net.cpp:96] Creating Layer inception_4c/pool_proj_bn
I0107 20:52:41.766006 15027 net.cpp:459] inception_4c/pool_proj_bn <- inception_4c/pool_proj
I0107 20:52:41.766011 15027 net.cpp:415] inception_4c/pool_proj_bn -> inception_4c/pool_proj_bn
I0107 20:52:41.766016 15027 net.cpp:160] Setting up inception_4c/pool_proj_bn
I0107 20:52:41.766026 15027 net.cpp:167] Top shape: 1 128 14 14 (25088)
I0107 20:52:41.766048 15027 layer_factory.hpp:74] Creating layer inception_4c/relu_pool_proj
I0107 20:52:41.766052 15027 net.cpp:96] Creating Layer inception_4c/relu_pool_proj
I0107 20:52:41.766055 15027 net.cpp:459] inception_4c/relu_pool_proj <- inception_4c/pool_proj_bn
I0107 20:52:41.766059 15027 net.cpp:404] inception_4c/relu_pool_proj -> inception_4c/pool_proj_bn (in-place)
I0107 20:52:41.766063 15027 net.cpp:160] Setting up inception_4c/relu_pool_proj
I0107 20:52:41.766067 15027 net.cpp:167] Top shape: 1 128 14 14 (25088)
I0107 20:52:41.766069 15027 layer_factory.hpp:74] Creating layer inception_4c/output
I0107 20:52:41.766073 15027 net.cpp:96] Creating Layer inception_4c/output
I0107 20:52:41.766077 15027 net.cpp:459] inception_4c/output <- inception_4c/1x1_bn
I0107 20:52:41.766079 15027 net.cpp:459] inception_4c/output <- inception_4c/3x3_bn
I0107 20:52:41.766083 15027 net.cpp:459] inception_4c/output <- inception_4c/double_3x3_2_bn
I0107 20:52:41.766085 15027 net.cpp:459] inception_4c/output <- inception_4c/pool_proj_bn
I0107 20:52:41.766089 15027 net.cpp:415] inception_4c/output -> inception_4c/output
I0107 20:52:41.766093 15027 net.cpp:160] Setting up inception_4c/output
I0107 20:52:41.766098 15027 net.cpp:167] Top shape: 1 608 14 14 (119168)
I0107 20:52:41.766100 15027 layer_factory.hpp:74] Creating layer inception_4c/output_inception_4c/output_0_split
I0107 20:52:41.766104 15027 net.cpp:96] Creating Layer inception_4c/output_inception_4c/output_0_split
I0107 20:52:41.766108 15027 net.cpp:459] inception_4c/output_inception_4c/output_0_split <- inception_4c/output
I0107 20:52:41.766111 15027 net.cpp:415] inception_4c/output_inception_4c/output_0_split -> inception_4c/output_inception_4c/output_0_split_0
I0107 20:52:41.766115 15027 net.cpp:415] inception_4c/output_inception_4c/output_0_split -> inception_4c/output_inception_4c/output_0_split_1
I0107 20:52:41.766120 15027 net.cpp:415] inception_4c/output_inception_4c/output_0_split -> inception_4c/output_inception_4c/output_0_split_2
I0107 20:52:41.766125 15027 net.cpp:415] inception_4c/output_inception_4c/output_0_split -> inception_4c/output_inception_4c/output_0_split_3
I0107 20:52:41.766129 15027 net.cpp:160] Setting up inception_4c/output_inception_4c/output_0_split
I0107 20:52:41.766134 15027 net.cpp:167] Top shape: 1 608 14 14 (119168)
I0107 20:52:41.766136 15027 net.cpp:167] Top shape: 1 608 14 14 (119168)
I0107 20:52:41.766139 15027 net.cpp:167] Top shape: 1 608 14 14 (119168)
I0107 20:52:41.766142 15027 net.cpp:167] Top shape: 1 608 14 14 (119168)
I0107 20:52:41.766145 15027 layer_factory.hpp:74] Creating layer inception_4d/1x1
I0107 20:52:41.766150 15027 net.cpp:96] Creating Layer inception_4d/1x1
I0107 20:52:41.766154 15027 net.cpp:459] inception_4d/1x1 <- inception_4c/output_inception_4c/output_0_split_0
I0107 20:52:41.766157 15027 net.cpp:415] inception_4d/1x1 -> inception_4d/1x1
I0107 20:52:41.766170 15027 net.cpp:160] Setting up inception_4d/1x1
I0107 20:52:41.766430 15027 net.cpp:167] Top shape: 1 96 14 14 (18816)
I0107 20:52:41.766436 15027 layer_factory.hpp:74] Creating layer inception_4d/1x1_bn
I0107 20:52:41.766438 15027 layer_factory.cpp:177] Layer inception_4d/1x1_bn is using CAFFE engine.
I0107 20:52:41.766443 15027 net.cpp:96] Creating Layer inception_4d/1x1_bn
I0107 20:52:41.766446 15027 net.cpp:459] inception_4d/1x1_bn <- inception_4d/1x1
I0107 20:52:41.766451 15027 net.cpp:415] inception_4d/1x1_bn -> inception_4d/1x1_bn
I0107 20:52:41.766458 15027 net.cpp:160] Setting up inception_4d/1x1_bn
I0107 20:52:41.766469 15027 net.cpp:167] Top shape: 1 96 14 14 (18816)
I0107 20:52:41.766474 15027 layer_factory.hpp:74] Creating layer inception_4d/relu_1x1
I0107 20:52:41.766479 15027 net.cpp:96] Creating Layer inception_4d/relu_1x1
I0107 20:52:41.766482 15027 net.cpp:459] inception_4d/relu_1x1 <- inception_4d/1x1_bn
I0107 20:52:41.766485 15027 net.cpp:404] inception_4d/relu_1x1 -> inception_4d/1x1_bn (in-place)
I0107 20:52:41.766489 15027 net.cpp:160] Setting up inception_4d/relu_1x1
I0107 20:52:41.766492 15027 net.cpp:167] Top shape: 1 96 14 14 (18816)
I0107 20:52:41.766495 15027 layer_factory.hpp:74] Creating layer inception_4d/3x3_reduce
I0107 20:52:41.766499 15027 net.cpp:96] Creating Layer inception_4d/3x3_reduce
I0107 20:52:41.766502 15027 net.cpp:459] inception_4d/3x3_reduce <- inception_4c/output_inception_4c/output_0_split_1
I0107 20:52:41.766506 15027 net.cpp:415] inception_4d/3x3_reduce -> inception_4d/3x3_reduce
I0107 20:52:41.766511 15027 net.cpp:160] Setting up inception_4d/3x3_reduce
I0107 20:52:41.766855 15027 net.cpp:167] Top shape: 1 128 14 14 (25088)
I0107 20:52:41.766860 15027 layer_factory.hpp:74] Creating layer inception_4d/3x3_reduce_bn
I0107 20:52:41.766862 15027 layer_factory.cpp:177] Layer inception_4d/3x3_reduce_bn is using CAFFE engine.
I0107 20:52:41.766867 15027 net.cpp:96] Creating Layer inception_4d/3x3_reduce_bn
I0107 20:52:41.766870 15027 net.cpp:459] inception_4d/3x3_reduce_bn <- inception_4d/3x3_reduce
I0107 20:52:41.766877 15027 net.cpp:415] inception_4d/3x3_reduce_bn -> inception_4d/3x3_reduce_bn
I0107 20:52:41.766881 15027 net.cpp:160] Setting up inception_4d/3x3_reduce_bn
I0107 20:52:41.766891 15027 net.cpp:167] Top shape: 1 128 14 14 (25088)
I0107 20:52:41.766896 15027 layer_factory.hpp:74] Creating layer inception_4d/relu_3x3_reduce
I0107 20:52:41.766901 15027 net.cpp:96] Creating Layer inception_4d/relu_3x3_reduce
I0107 20:52:41.766904 15027 net.cpp:459] inception_4d/relu_3x3_reduce <- inception_4d/3x3_reduce_bn
I0107 20:52:41.766908 15027 net.cpp:404] inception_4d/relu_3x3_reduce -> inception_4d/3x3_reduce_bn (in-place)
I0107 20:52:41.766911 15027 net.cpp:160] Setting up inception_4d/relu_3x3_reduce
I0107 20:52:41.766916 15027 net.cpp:167] Top shape: 1 128 14 14 (25088)
I0107 20:52:41.766917 15027 layer_factory.hpp:74] Creating layer inception_4d/3x3
I0107 20:52:41.766922 15027 net.cpp:96] Creating Layer inception_4d/3x3
I0107 20:52:41.766926 15027 net.cpp:459] inception_4d/3x3 <- inception_4d/3x3_reduce_bn
I0107 20:52:41.766929 15027 net.cpp:415] inception_4d/3x3 -> inception_4d/3x3
I0107 20:52:41.766933 15027 net.cpp:160] Setting up inception_4d/3x3
I0107 20:52:41.767894 15027 net.cpp:167] Top shape: 1 192 14 14 (37632)
I0107 20:52:41.767900 15027 layer_factory.hpp:74] Creating layer inception_4d/3x3_bn
I0107 20:52:41.767904 15027 layer_factory.cpp:177] Layer inception_4d/3x3_bn is using CAFFE engine.
I0107 20:52:41.767907 15027 net.cpp:96] Creating Layer inception_4d/3x3_bn
I0107 20:52:41.767911 15027 net.cpp:459] inception_4d/3x3_bn <- inception_4d/3x3
I0107 20:52:41.767915 15027 net.cpp:415] inception_4d/3x3_bn -> inception_4d/3x3_bn
I0107 20:52:41.767920 15027 net.cpp:160] Setting up inception_4d/3x3_bn
I0107 20:52:41.767930 15027 net.cpp:167] Top shape: 1 192 14 14 (37632)
I0107 20:52:41.767935 15027 layer_factory.hpp:74] Creating layer inception_4d/relu_3x3
I0107 20:52:41.767938 15027 net.cpp:96] Creating Layer inception_4d/relu_3x3
I0107 20:52:41.767941 15027 net.cpp:459] inception_4d/relu_3x3 <- inception_4d/3x3_bn
I0107 20:52:41.767945 15027 net.cpp:404] inception_4d/relu_3x3 -> inception_4d/3x3_bn (in-place)
I0107 20:52:41.767947 15027 net.cpp:160] Setting up inception_4d/relu_3x3
I0107 20:52:41.767951 15027 net.cpp:167] Top shape: 1 192 14 14 (37632)
I0107 20:52:41.767953 15027 layer_factory.hpp:74] Creating layer inception_4d/double_3x3_reduce
I0107 20:52:41.767959 15027 net.cpp:96] Creating Layer inception_4d/double_3x3_reduce
I0107 20:52:41.767962 15027 net.cpp:459] inception_4d/double_3x3_reduce <- inception_4c/output_inception_4c/output_0_split_2
I0107 20:52:41.767969 15027 net.cpp:415] inception_4d/double_3x3_reduce -> inception_4d/double_3x3_reduce
I0107 20:52:41.767973 15027 net.cpp:160] Setting up inception_4d/double_3x3_reduce
I0107 20:52:41.768401 15027 net.cpp:167] Top shape: 1 160 14 14 (31360)
I0107 20:52:41.768407 15027 layer_factory.hpp:74] Creating layer inception_4d/double_3x3_reduce_bn
I0107 20:52:41.768410 15027 layer_factory.cpp:177] Layer inception_4d/double_3x3_reduce_bn is using CAFFE engine.
I0107 20:52:41.768415 15027 net.cpp:96] Creating Layer inception_4d/double_3x3_reduce_bn
I0107 20:52:41.768419 15027 net.cpp:459] inception_4d/double_3x3_reduce_bn <- inception_4d/double_3x3_reduce
I0107 20:52:41.768422 15027 net.cpp:415] inception_4d/double_3x3_reduce_bn -> inception_4d/double_3x3_reduce_bn
I0107 20:52:41.768427 15027 net.cpp:160] Setting up inception_4d/double_3x3_reduce_bn
I0107 20:52:41.768436 15027 net.cpp:167] Top shape: 1 160 14 14 (31360)
I0107 20:52:41.768441 15027 layer_factory.hpp:74] Creating layer inception_4d/relu_double_3x3_reduce
I0107 20:52:41.768445 15027 net.cpp:96] Creating Layer inception_4d/relu_double_3x3_reduce
I0107 20:52:41.768450 15027 net.cpp:459] inception_4d/relu_double_3x3_reduce <- inception_4d/double_3x3_reduce_bn
I0107 20:52:41.768452 15027 net.cpp:404] inception_4d/relu_double_3x3_reduce -> inception_4d/double_3x3_reduce_bn (in-place)
I0107 20:52:41.768456 15027 net.cpp:160] Setting up inception_4d/relu_double_3x3_reduce
I0107 20:52:41.768460 15027 net.cpp:167] Top shape: 1 160 14 14 (31360)
I0107 20:52:41.768462 15027 layer_factory.hpp:74] Creating layer inception_4d/double_3x3_1
I0107 20:52:41.768466 15027 net.cpp:96] Creating Layer inception_4d/double_3x3_1
I0107 20:52:41.768470 15027 net.cpp:459] inception_4d/double_3x3_1 <- inception_4d/double_3x3_reduce_bn
I0107 20:52:41.768474 15027 net.cpp:415] inception_4d/double_3x3_1 -> inception_4d/double_3x3_1
I0107 20:52:41.768479 15027 net.cpp:160] Setting up inception_4d/double_3x3_1
I0107 20:52:41.769675 15027 net.cpp:167] Top shape: 1 192 14 14 (37632)
I0107 20:52:41.769680 15027 layer_factory.hpp:74] Creating layer inception_4d/double_3x3_1_bn
I0107 20:52:41.769683 15027 layer_factory.cpp:177] Layer inception_4d/double_3x3_1_bn is using CAFFE engine.
I0107 20:52:41.769688 15027 net.cpp:96] Creating Layer inception_4d/double_3x3_1_bn
I0107 20:52:41.769691 15027 net.cpp:459] inception_4d/double_3x3_1_bn <- inception_4d/double_3x3_1
I0107 20:52:41.769695 15027 net.cpp:415] inception_4d/double_3x3_1_bn -> inception_4d/double_3x3_1_bn
I0107 20:52:41.769701 15027 net.cpp:160] Setting up inception_4d/double_3x3_1_bn
I0107 20:52:41.769711 15027 net.cpp:167] Top shape: 1 192 14 14 (37632)
I0107 20:52:41.769716 15027 layer_factory.hpp:74] Creating layer inception_4d/relu_double_3x3_1
I0107 20:52:41.769719 15027 net.cpp:96] Creating Layer inception_4d/relu_double_3x3_1
I0107 20:52:41.769722 15027 net.cpp:459] inception_4d/relu_double_3x3_1 <- inception_4d/double_3x3_1_bn
I0107 20:52:41.769726 15027 net.cpp:404] inception_4d/relu_double_3x3_1 -> inception_4d/double_3x3_1_bn (in-place)
I0107 20:52:41.769729 15027 net.cpp:160] Setting up inception_4d/relu_double_3x3_1
I0107 20:52:41.769732 15027 net.cpp:167] Top shape: 1 192 14 14 (37632)
I0107 20:52:41.769736 15027 layer_factory.hpp:74] Creating layer inception_4d/double_3x3_2
I0107 20:52:41.769740 15027 net.cpp:96] Creating Layer inception_4d/double_3x3_2
I0107 20:52:41.769743 15027 net.cpp:459] inception_4d/double_3x3_2 <- inception_4d/double_3x3_1_bn
I0107 20:52:41.769747 15027 net.cpp:415] inception_4d/double_3x3_2 -> inception_4d/double_3x3_2
I0107 20:52:41.769750 15027 net.cpp:160] Setting up inception_4d/double_3x3_2
I0107 20:52:41.771190 15027 net.cpp:167] Top shape: 1 192 14 14 (37632)
I0107 20:52:41.771196 15027 layer_factory.hpp:74] Creating layer inception_4d/double_3x3_2_bn
I0107 20:52:41.771199 15027 layer_factory.cpp:177] Layer inception_4d/double_3x3_2_bn is using CAFFE engine.
I0107 20:52:41.771203 15027 net.cpp:96] Creating Layer inception_4d/double_3x3_2_bn
I0107 20:52:41.771209 15027 net.cpp:459] inception_4d/double_3x3_2_bn <- inception_4d/double_3x3_2
I0107 20:52:41.771215 15027 net.cpp:415] inception_4d/double_3x3_2_bn -> inception_4d/double_3x3_2_bn
I0107 20:52:41.771220 15027 net.cpp:160] Setting up inception_4d/double_3x3_2_bn
I0107 20:52:41.771232 15027 net.cpp:167] Top shape: 1 192 14 14 (37632)
I0107 20:52:41.771237 15027 layer_factory.hpp:74] Creating layer inception_4d/relu_double_3x3_2
I0107 20:52:41.771241 15027 net.cpp:96] Creating Layer inception_4d/relu_double_3x3_2
I0107 20:52:41.771244 15027 net.cpp:459] inception_4d/relu_double_3x3_2 <- inception_4d/double_3x3_2_bn
I0107 20:52:41.771247 15027 net.cpp:404] inception_4d/relu_double_3x3_2 -> inception_4d/double_3x3_2_bn (in-place)
I0107 20:52:41.771251 15027 net.cpp:160] Setting up inception_4d/relu_double_3x3_2
I0107 20:52:41.771255 15027 net.cpp:167] Top shape: 1 192 14 14 (37632)
I0107 20:52:41.771257 15027 layer_factory.hpp:74] Creating layer inception_4d/pool
I0107 20:52:41.771261 15027 net.cpp:96] Creating Layer inception_4d/pool
I0107 20:52:41.771265 15027 net.cpp:459] inception_4d/pool <- inception_4c/output_inception_4c/output_0_split_3
I0107 20:52:41.771268 15027 net.cpp:415] inception_4d/pool -> inception_4d/pool
I0107 20:52:41.771272 15027 net.cpp:160] Setting up inception_4d/pool
I0107 20:52:41.771277 15027 net.cpp:167] Top shape: 1 608 14 14 (119168)
I0107 20:52:41.771281 15027 layer_factory.hpp:74] Creating layer inception_4d/pool_proj
I0107 20:52:41.771284 15027 net.cpp:96] Creating Layer inception_4d/pool_proj
I0107 20:52:41.771287 15027 net.cpp:459] inception_4d/pool_proj <- inception_4d/pool
I0107 20:52:41.771291 15027 net.cpp:415] inception_4d/pool_proj -> inception_4d/pool_proj
I0107 20:52:41.771296 15027 net.cpp:160] Setting up inception_4d/pool_proj
I0107 20:52:41.771638 15027 net.cpp:167] Top shape: 1 128 14 14 (25088)
I0107 20:52:41.771644 15027 layer_factory.hpp:74] Creating layer inception_4d/pool_proj_bn
I0107 20:52:41.771646 15027 layer_factory.cpp:177] Layer inception_4d/pool_proj_bn is using CAFFE engine.
I0107 20:52:41.771651 15027 net.cpp:96] Creating Layer inception_4d/pool_proj_bn
I0107 20:52:41.771653 15027 net.cpp:459] inception_4d/pool_proj_bn <- inception_4d/pool_proj
I0107 20:52:41.771658 15027 net.cpp:415] inception_4d/pool_proj_bn -> inception_4d/pool_proj_bn
I0107 20:52:41.771663 15027 net.cpp:160] Setting up inception_4d/pool_proj_bn
I0107 20:52:41.771673 15027 net.cpp:167] Top shape: 1 128 14 14 (25088)
I0107 20:52:41.771678 15027 layer_factory.hpp:74] Creating layer inception_4d/relu_pool_proj
I0107 20:52:41.771682 15027 net.cpp:96] Creating Layer inception_4d/relu_pool_proj
I0107 20:52:41.771685 15027 net.cpp:459] inception_4d/relu_pool_proj <- inception_4d/pool_proj_bn
I0107 20:52:41.771689 15027 net.cpp:404] inception_4d/relu_pool_proj -> inception_4d/pool_proj_bn (in-place)
I0107 20:52:41.771693 15027 net.cpp:160] Setting up inception_4d/relu_pool_proj
I0107 20:52:41.771697 15027 net.cpp:167] Top shape: 1 128 14 14 (25088)
I0107 20:52:41.771699 15027 layer_factory.hpp:74] Creating layer inception_4d/output
I0107 20:52:41.771703 15027 net.cpp:96] Creating Layer inception_4d/output
I0107 20:52:41.771706 15027 net.cpp:459] inception_4d/output <- inception_4d/1x1_bn
I0107 20:52:41.771709 15027 net.cpp:459] inception_4d/output <- inception_4d/3x3_bn
I0107 20:52:41.771713 15027 net.cpp:459] inception_4d/output <- inception_4d/double_3x3_2_bn
I0107 20:52:41.771715 15027 net.cpp:459] inception_4d/output <- inception_4d/pool_proj_bn
I0107 20:52:41.771718 15027 net.cpp:415] inception_4d/output -> inception_4d/output
I0107 20:52:41.771723 15027 net.cpp:160] Setting up inception_4d/output
I0107 20:52:41.771728 15027 net.cpp:167] Top shape: 1 608 14 14 (119168)
I0107 20:52:41.771729 15027 layer_factory.hpp:74] Creating layer inception_4d/output_inception_4d/output_0_split
I0107 20:52:41.771734 15027 net.cpp:96] Creating Layer inception_4d/output_inception_4d/output_0_split
I0107 20:52:41.771737 15027 net.cpp:459] inception_4d/output_inception_4d/output_0_split <- inception_4d/output
I0107 20:52:41.771744 15027 net.cpp:415] inception_4d/output_inception_4d/output_0_split -> inception_4d/output_inception_4d/output_0_split_0
I0107 20:52:41.771749 15027 net.cpp:415] inception_4d/output_inception_4d/output_0_split -> inception_4d/output_inception_4d/output_0_split_1
I0107 20:52:41.771752 15027 net.cpp:415] inception_4d/output_inception_4d/output_0_split -> inception_4d/output_inception_4d/output_0_split_2
I0107 20:52:41.771756 15027 net.cpp:160] Setting up inception_4d/output_inception_4d/output_0_split
I0107 20:52:41.771760 15027 net.cpp:167] Top shape: 1 608 14 14 (119168)
I0107 20:52:41.771764 15027 net.cpp:167] Top shape: 1 608 14 14 (119168)
I0107 20:52:41.771766 15027 net.cpp:167] Top shape: 1 608 14 14 (119168)
I0107 20:52:41.771770 15027 layer_factory.hpp:74] Creating layer inception_4e/3x3_reduce
I0107 20:52:41.771775 15027 net.cpp:96] Creating Layer inception_4e/3x3_reduce
I0107 20:52:41.771778 15027 net.cpp:459] inception_4e/3x3_reduce <- inception_4d/output_inception_4d/output_0_split_0
I0107 20:52:41.771783 15027 net.cpp:415] inception_4e/3x3_reduce -> inception_4e/3x3_reduce
I0107 20:52:41.771787 15027 net.cpp:160] Setting up inception_4e/3x3_reduce
I0107 20:52:41.772128 15027 net.cpp:167] Top shape: 1 128 14 14 (25088)
I0107 20:52:41.772135 15027 layer_factory.hpp:74] Creating layer inception_4e/3x3_reduce_bn
I0107 20:52:41.772137 15027 layer_factory.cpp:177] Layer inception_4e/3x3_reduce_bn is using CAFFE engine.
I0107 20:52:41.772142 15027 net.cpp:96] Creating Layer inception_4e/3x3_reduce_bn
I0107 20:52:41.772145 15027 net.cpp:459] inception_4e/3x3_reduce_bn <- inception_4e/3x3_reduce
I0107 20:52:41.772150 15027 net.cpp:415] inception_4e/3x3_reduce_bn -> inception_4e/3x3_reduce_bn
I0107 20:52:41.772155 15027 net.cpp:160] Setting up inception_4e/3x3_reduce_bn
I0107 20:52:41.772163 15027 net.cpp:167] Top shape: 1 128 14 14 (25088)
I0107 20:52:41.772169 15027 layer_factory.hpp:74] Creating layer inception_4e/relu_3x3_reduce
I0107 20:52:41.772173 15027 net.cpp:96] Creating Layer inception_4e/relu_3x3_reduce
I0107 20:52:41.772176 15027 net.cpp:459] inception_4e/relu_3x3_reduce <- inception_4e/3x3_reduce_bn
I0107 20:52:41.772181 15027 net.cpp:404] inception_4e/relu_3x3_reduce -> inception_4e/3x3_reduce_bn (in-place)
I0107 20:52:41.772186 15027 net.cpp:160] Setting up inception_4e/relu_3x3_reduce
I0107 20:52:41.772188 15027 net.cpp:167] Top shape: 1 128 14 14 (25088)
I0107 20:52:41.772191 15027 layer_factory.hpp:74] Creating layer inception_4e/3x3
I0107 20:52:41.772195 15027 net.cpp:96] Creating Layer inception_4e/3x3
I0107 20:52:41.772198 15027 net.cpp:459] inception_4e/3x3 <- inception_4e/3x3_reduce_bn
I0107 20:52:41.772202 15027 net.cpp:415] inception_4e/3x3 -> inception_4e/3x3
I0107 20:52:41.772205 15027 net.cpp:160] Setting up inception_4e/3x3
I0107 20:52:41.773164 15027 net.cpp:167] Top shape: 1 192 7 7 (9408)
I0107 20:52:41.773170 15027 layer_factory.hpp:74] Creating layer inception_4e/3x3_bn
I0107 20:52:41.773174 15027 layer_factory.cpp:177] Layer inception_4e/3x3_bn is using CAFFE engine.
I0107 20:52:41.773177 15027 net.cpp:96] Creating Layer inception_4e/3x3_bn
I0107 20:52:41.773180 15027 net.cpp:459] inception_4e/3x3_bn <- inception_4e/3x3
I0107 20:52:41.773185 15027 net.cpp:415] inception_4e/3x3_bn -> inception_4e/3x3_bn
I0107 20:52:41.773190 15027 net.cpp:160] Setting up inception_4e/3x3_bn
I0107 20:52:41.773200 15027 net.cpp:167] Top shape: 1 192 7 7 (9408)
I0107 20:52:41.773205 15027 layer_factory.hpp:74] Creating layer inception_4e/relu_3x3
I0107 20:52:41.773210 15027 net.cpp:96] Creating Layer inception_4e/relu_3x3
I0107 20:52:41.773212 15027 net.cpp:459] inception_4e/relu_3x3 <- inception_4e/3x3_bn
I0107 20:52:41.773216 15027 net.cpp:404] inception_4e/relu_3x3 -> inception_4e/3x3_bn (in-place)
I0107 20:52:41.773218 15027 net.cpp:160] Setting up inception_4e/relu_3x3
I0107 20:52:41.773221 15027 net.cpp:167] Top shape: 1 192 7 7 (9408)
I0107 20:52:41.773224 15027 layer_factory.hpp:74] Creating layer inception_4e/double_3x3_reduce
I0107 20:52:41.773232 15027 net.cpp:96] Creating Layer inception_4e/double_3x3_reduce
I0107 20:52:41.773236 15027 net.cpp:459] inception_4e/double_3x3_reduce <- inception_4d/output_inception_4d/output_0_split_1
I0107 20:52:41.773241 15027 net.cpp:415] inception_4e/double_3x3_reduce -> inception_4e/double_3x3_reduce
I0107 20:52:41.773244 15027 net.cpp:160] Setting up inception_4e/double_3x3_reduce
I0107 20:52:41.773756 15027 net.cpp:167] Top shape: 1 192 14 14 (37632)
I0107 20:52:41.773761 15027 layer_factory.hpp:74] Creating layer inception_4e/double_3x3_reduce_bn
I0107 20:52:41.773763 15027 layer_factory.cpp:177] Layer inception_4e/double_3x3_reduce_bn is using CAFFE engine.
I0107 20:52:41.773769 15027 net.cpp:96] Creating Layer inception_4e/double_3x3_reduce_bn
I0107 20:52:41.773772 15027 net.cpp:459] inception_4e/double_3x3_reduce_bn <- inception_4e/double_3x3_reduce
I0107 20:52:41.773777 15027 net.cpp:415] inception_4e/double_3x3_reduce_bn -> inception_4e/double_3x3_reduce_bn
I0107 20:52:41.773782 15027 net.cpp:160] Setting up inception_4e/double_3x3_reduce_bn
I0107 20:52:41.773792 15027 net.cpp:167] Top shape: 1 192 14 14 (37632)
I0107 20:52:41.773797 15027 layer_factory.hpp:74] Creating layer inception_4e/relu_double_3x3_reduce
I0107 20:52:41.773800 15027 net.cpp:96] Creating Layer inception_4e/relu_double_3x3_reduce
I0107 20:52:41.773803 15027 net.cpp:459] inception_4e/relu_double_3x3_reduce <- inception_4e/double_3x3_reduce_bn
I0107 20:52:41.773808 15027 net.cpp:404] inception_4e/relu_double_3x3_reduce -> inception_4e/double_3x3_reduce_bn (in-place)
I0107 20:52:41.773810 15027 net.cpp:160] Setting up inception_4e/relu_double_3x3_reduce
I0107 20:52:41.773813 15027 net.cpp:167] Top shape: 1 192 14 14 (37632)
I0107 20:52:41.773816 15027 layer_factory.hpp:74] Creating layer inception_4e/double_3x3_1
I0107 20:52:41.773820 15027 net.cpp:96] Creating Layer inception_4e/double_3x3_1
I0107 20:52:41.773823 15027 net.cpp:459] inception_4e/double_3x3_1 <- inception_4e/double_3x3_reduce_bn
I0107 20:52:41.773828 15027 net.cpp:415] inception_4e/double_3x3_1 -> inception_4e/double_3x3_1
I0107 20:52:41.773836 15027 net.cpp:160] Setting up inception_4e/double_3x3_1
I0107 20:52:41.775710 15027 net.cpp:167] Top shape: 1 256 14 14 (50176)
I0107 20:52:41.775717 15027 layer_factory.hpp:74] Creating layer inception_4e/double_3x3_1_bn
I0107 20:52:41.775719 15027 layer_factory.cpp:177] Layer inception_4e/double_3x3_1_bn is using CAFFE engine.
I0107 20:52:41.775724 15027 net.cpp:96] Creating Layer inception_4e/double_3x3_1_bn
I0107 20:52:41.775727 15027 net.cpp:459] inception_4e/double_3x3_1_bn <- inception_4e/double_3x3_1
I0107 20:52:41.775732 15027 net.cpp:415] inception_4e/double_3x3_1_bn -> inception_4e/double_3x3_1_bn
I0107 20:52:41.775737 15027 net.cpp:160] Setting up inception_4e/double_3x3_1_bn
I0107 20:52:41.775746 15027 net.cpp:167] Top shape: 1 256 14 14 (50176)
I0107 20:52:41.775751 15027 layer_factory.hpp:74] Creating layer inception_4e/relu_double_3x3_1
I0107 20:52:41.775755 15027 net.cpp:96] Creating Layer inception_4e/relu_double_3x3_1
I0107 20:52:41.775758 15027 net.cpp:459] inception_4e/relu_double_3x3_1 <- inception_4e/double_3x3_1_bn
I0107 20:52:41.775761 15027 net.cpp:404] inception_4e/relu_double_3x3_1 -> inception_4e/double_3x3_1_bn (in-place)
I0107 20:52:41.775765 15027 net.cpp:160] Setting up inception_4e/relu_double_3x3_1
I0107 20:52:41.775768 15027 net.cpp:167] Top shape: 1 256 14 14 (50176)
I0107 20:52:41.775770 15027 layer_factory.hpp:74] Creating layer inception_4e/double_3x3_2
I0107 20:52:41.775775 15027 net.cpp:96] Creating Layer inception_4e/double_3x3_2
I0107 20:52:41.775777 15027 net.cpp:459] inception_4e/double_3x3_2 <- inception_4e/double_3x3_1_bn
I0107 20:52:41.775782 15027 net.cpp:415] inception_4e/double_3x3_2 -> inception_4e/double_3x3_2
I0107 20:52:41.775786 15027 net.cpp:160] Setting up inception_4e/double_3x3_2
I0107 20:52:41.778292 15027 net.cpp:167] Top shape: 1 256 7 7 (12544)
I0107 20:52:41.778300 15027 layer_factory.hpp:74] Creating layer inception_4e/double_3x3_2_bn
I0107 20:52:41.778306 15027 layer_factory.cpp:177] Layer inception_4e/double_3x3_2_bn is using CAFFE engine.
I0107 20:52:41.778311 15027 net.cpp:96] Creating Layer inception_4e/double_3x3_2_bn
I0107 20:52:41.778313 15027 net.cpp:459] inception_4e/double_3x3_2_bn <- inception_4e/double_3x3_2
I0107 20:52:41.778318 15027 net.cpp:415] inception_4e/double_3x3_2_bn -> inception_4e/double_3x3_2_bn
I0107 20:52:41.778323 15027 net.cpp:160] Setting up inception_4e/double_3x3_2_bn
I0107 20:52:41.778333 15027 net.cpp:167] Top shape: 1 256 7 7 (12544)
I0107 20:52:41.778338 15027 layer_factory.hpp:74] Creating layer inception_4e/relu_double_3x3_2
I0107 20:52:41.778342 15027 net.cpp:96] Creating Layer inception_4e/relu_double_3x3_2
I0107 20:52:41.778345 15027 net.cpp:459] inception_4e/relu_double_3x3_2 <- inception_4e/double_3x3_2_bn
I0107 20:52:41.778349 15027 net.cpp:404] inception_4e/relu_double_3x3_2 -> inception_4e/double_3x3_2_bn (in-place)
I0107 20:52:41.778352 15027 net.cpp:160] Setting up inception_4e/relu_double_3x3_2
I0107 20:52:41.778357 15027 net.cpp:167] Top shape: 1 256 7 7 (12544)
I0107 20:52:41.778359 15027 layer_factory.hpp:74] Creating layer inception_4e/pool
I0107 20:52:41.778363 15027 net.cpp:96] Creating Layer inception_4e/pool
I0107 20:52:41.778365 15027 net.cpp:459] inception_4e/pool <- inception_4d/output_inception_4d/output_0_split_2
I0107 20:52:41.778369 15027 net.cpp:415] inception_4e/pool -> inception_4e/pool
I0107 20:52:41.778373 15027 net.cpp:160] Setting up inception_4e/pool
I0107 20:52:41.778378 15027 net.cpp:167] Top shape: 1 608 7 7 (29792)
I0107 20:52:41.778380 15027 layer_factory.hpp:74] Creating layer inception_4e/output
I0107 20:52:41.778386 15027 net.cpp:96] Creating Layer inception_4e/output
I0107 20:52:41.778389 15027 net.cpp:459] inception_4e/output <- inception_4e/3x3_bn
I0107 20:52:41.778393 15027 net.cpp:459] inception_4e/output <- inception_4e/double_3x3_2_bn
I0107 20:52:41.778395 15027 net.cpp:459] inception_4e/output <- inception_4e/pool
I0107 20:52:41.778399 15027 net.cpp:415] inception_4e/output -> inception_4e/output
I0107 20:52:41.778403 15027 net.cpp:160] Setting up inception_4e/output
I0107 20:52:41.778408 15027 net.cpp:167] Top shape: 1 1056 7 7 (51744)
I0107 20:52:41.778410 15027 layer_factory.hpp:74] Creating layer inception_4e/output_inception_4e/output_0_split
I0107 20:52:41.778415 15027 net.cpp:96] Creating Layer inception_4e/output_inception_4e/output_0_split
I0107 20:52:41.778419 15027 net.cpp:459] inception_4e/output_inception_4e/output_0_split <- inception_4e/output
I0107 20:52:41.778422 15027 net.cpp:415] inception_4e/output_inception_4e/output_0_split -> inception_4e/output_inception_4e/output_0_split_0
I0107 20:52:41.778426 15027 net.cpp:415] inception_4e/output_inception_4e/output_0_split -> inception_4e/output_inception_4e/output_0_split_1
I0107 20:52:41.778430 15027 net.cpp:415] inception_4e/output_inception_4e/output_0_split -> inception_4e/output_inception_4e/output_0_split_2
I0107 20:52:41.778434 15027 net.cpp:415] inception_4e/output_inception_4e/output_0_split -> inception_4e/output_inception_4e/output_0_split_3
I0107 20:52:41.778439 15027 net.cpp:160] Setting up inception_4e/output_inception_4e/output_0_split
I0107 20:52:41.778442 15027 net.cpp:167] Top shape: 1 1056 7 7 (51744)
I0107 20:52:41.778445 15027 net.cpp:167] Top shape: 1 1056 7 7 (51744)
I0107 20:52:41.778448 15027 net.cpp:167] Top shape: 1 1056 7 7 (51744)
I0107 20:52:41.778451 15027 net.cpp:167] Top shape: 1 1056 7 7 (51744)
I0107 20:52:41.778455 15027 layer_factory.hpp:74] Creating layer inception_5a/1x1
I0107 20:52:41.778460 15027 net.cpp:96] Creating Layer inception_5a/1x1
I0107 20:52:41.778462 15027 net.cpp:459] inception_5a/1x1 <- inception_4e/output_inception_4e/output_0_split_0
I0107 20:52:41.778466 15027 net.cpp:415] inception_5a/1x1 -> inception_5a/1x1
I0107 20:52:41.778471 15027 net.cpp:160] Setting up inception_5a/1x1
I0107 20:52:41.780079 15027 net.cpp:167] Top shape: 1 352 7 7 (17248)
I0107 20:52:41.780086 15027 layer_factory.hpp:74] Creating layer inception_5a/1x1_bn
I0107 20:52:41.780088 15027 layer_factory.cpp:177] Layer inception_5a/1x1_bn is using CAFFE engine.
I0107 20:52:41.780095 15027 net.cpp:96] Creating Layer inception_5a/1x1_bn
I0107 20:52:41.780099 15027 net.cpp:459] inception_5a/1x1_bn <- inception_5a/1x1
I0107 20:52:41.780103 15027 net.cpp:415] inception_5a/1x1_bn -> inception_5a/1x1_bn
I0107 20:52:41.780107 15027 net.cpp:160] Setting up inception_5a/1x1_bn
I0107 20:52:41.780118 15027 net.cpp:167] Top shape: 1 352 7 7 (17248)
I0107 20:52:41.780124 15027 layer_factory.hpp:74] Creating layer inception_5a/relu_1x1
I0107 20:52:41.780128 15027 net.cpp:96] Creating Layer inception_5a/relu_1x1
I0107 20:52:41.780131 15027 net.cpp:459] inception_5a/relu_1x1 <- inception_5a/1x1_bn
I0107 20:52:41.780135 15027 net.cpp:404] inception_5a/relu_1x1 -> inception_5a/1x1_bn (in-place)
I0107 20:52:41.780138 15027 net.cpp:160] Setting up inception_5a/relu_1x1
I0107 20:52:41.780141 15027 net.cpp:167] Top shape: 1 352 7 7 (17248)
I0107 20:52:41.780144 15027 layer_factory.hpp:74] Creating layer inception_5a/3x3_reduce
I0107 20:52:41.780149 15027 net.cpp:96] Creating Layer inception_5a/3x3_reduce
I0107 20:52:41.780153 15027 net.cpp:459] inception_5a/3x3_reduce <- inception_4e/output_inception_4e/output_0_split_1
I0107 20:52:41.780156 15027 net.cpp:415] inception_5a/3x3_reduce -> inception_5a/3x3_reduce
I0107 20:52:41.780160 15027 net.cpp:160] Setting up inception_5a/3x3_reduce
I0107 20:52:41.781040 15027 net.cpp:167] Top shape: 1 192 7 7 (9408)
I0107 20:52:41.781046 15027 layer_factory.hpp:74] Creating layer inception_5a/3x3_reduce_bn
I0107 20:52:41.781049 15027 layer_factory.cpp:177] Layer inception_5a/3x3_reduce_bn is using CAFFE engine.
I0107 20:52:41.781054 15027 net.cpp:96] Creating Layer inception_5a/3x3_reduce_bn
I0107 20:52:41.781056 15027 net.cpp:459] inception_5a/3x3_reduce_bn <- inception_5a/3x3_reduce
I0107 20:52:41.781061 15027 net.cpp:415] inception_5a/3x3_reduce_bn -> inception_5a/3x3_reduce_bn
I0107 20:52:41.781066 15027 net.cpp:160] Setting up inception_5a/3x3_reduce_bn
I0107 20:52:41.781078 15027 net.cpp:167] Top shape: 1 192 7 7 (9408)
I0107 20:52:41.781083 15027 layer_factory.hpp:74] Creating layer inception_5a/relu_3x3_reduce
I0107 20:52:41.781087 15027 net.cpp:96] Creating Layer inception_5a/relu_3x3_reduce
I0107 20:52:41.781090 15027 net.cpp:459] inception_5a/relu_3x3_reduce <- inception_5a/3x3_reduce_bn
I0107 20:52:41.781093 15027 net.cpp:404] inception_5a/relu_3x3_reduce -> inception_5a/3x3_reduce_bn (in-place)
I0107 20:52:41.781097 15027 net.cpp:160] Setting up inception_5a/relu_3x3_reduce
I0107 20:52:41.781100 15027 net.cpp:167] Top shape: 1 192 7 7 (9408)
I0107 20:52:41.781103 15027 layer_factory.hpp:74] Creating layer inception_5a/3x3
I0107 20:52:41.781108 15027 net.cpp:96] Creating Layer inception_5a/3x3
I0107 20:52:41.781111 15027 net.cpp:459] inception_5a/3x3 <- inception_5a/3x3_reduce_bn
I0107 20:52:41.781116 15027 net.cpp:415] inception_5a/3x3 -> inception_5a/3x3
I0107 20:52:41.781119 15027 net.cpp:160] Setting up inception_5a/3x3
I0107 20:52:41.783509 15027 net.cpp:167] Top shape: 1 320 7 7 (15680)
I0107 20:52:41.783517 15027 layer_factory.hpp:74] Creating layer inception_5a/3x3_bn
I0107 20:52:41.783521 15027 layer_factory.cpp:177] Layer inception_5a/3x3_bn is using CAFFE engine.
I0107 20:52:41.783526 15027 net.cpp:96] Creating Layer inception_5a/3x3_bn
I0107 20:52:41.783529 15027 net.cpp:459] inception_5a/3x3_bn <- inception_5a/3x3
I0107 20:52:41.783535 15027 net.cpp:415] inception_5a/3x3_bn -> inception_5a/3x3_bn
I0107 20:52:41.783540 15027 net.cpp:160] Setting up inception_5a/3x3_bn
I0107 20:52:41.783550 15027 net.cpp:167] Top shape: 1 320 7 7 (15680)
I0107 20:52:41.783555 15027 layer_factory.hpp:74] Creating layer inception_5a/relu_3x3
I0107 20:52:41.783558 15027 net.cpp:96] Creating Layer inception_5a/relu_3x3
I0107 20:52:41.783561 15027 net.cpp:459] inception_5a/relu_3x3 <- inception_5a/3x3_bn
I0107 20:52:41.783565 15027 net.cpp:404] inception_5a/relu_3x3 -> inception_5a/3x3_bn (in-place)
I0107 20:52:41.783568 15027 net.cpp:160] Setting up inception_5a/relu_3x3
I0107 20:52:41.783574 15027 net.cpp:167] Top shape: 1 320 7 7 (15680)
I0107 20:52:41.783577 15027 layer_factory.hpp:74] Creating layer inception_5a/double_3x3_reduce
I0107 20:52:41.783582 15027 net.cpp:96] Creating Layer inception_5a/double_3x3_reduce
I0107 20:52:41.783586 15027 net.cpp:459] inception_5a/double_3x3_reduce <- inception_4e/output_inception_4e/output_0_split_2
I0107 20:52:41.783591 15027 net.cpp:415] inception_5a/double_3x3_reduce -> inception_5a/double_3x3_reduce
I0107 20:52:41.783596 15027 net.cpp:160] Setting up inception_5a/double_3x3_reduce
I0107 20:52:41.784333 15027 net.cpp:167] Top shape: 1 160 7 7 (7840)
I0107 20:52:41.784339 15027 layer_factory.hpp:74] Creating layer inception_5a/double_3x3_reduce_bn
I0107 20:52:41.784343 15027 layer_factory.cpp:177] Layer inception_5a/double_3x3_reduce_bn is using CAFFE engine.
I0107 20:52:41.784348 15027 net.cpp:96] Creating Layer inception_5a/double_3x3_reduce_bn
I0107 20:52:41.784350 15027 net.cpp:459] inception_5a/double_3x3_reduce_bn <- inception_5a/double_3x3_reduce
I0107 20:52:41.784355 15027 net.cpp:415] inception_5a/double_3x3_reduce_bn -> inception_5a/double_3x3_reduce_bn
I0107 20:52:41.784359 15027 net.cpp:160] Setting up inception_5a/double_3x3_reduce_bn
I0107 20:52:41.784369 15027 net.cpp:167] Top shape: 1 160 7 7 (7840)
I0107 20:52:41.784374 15027 layer_factory.hpp:74] Creating layer inception_5a/relu_double_3x3_reduce
I0107 20:52:41.784379 15027 net.cpp:96] Creating Layer inception_5a/relu_double_3x3_reduce
I0107 20:52:41.784382 15027 net.cpp:459] inception_5a/relu_double_3x3_reduce <- inception_5a/double_3x3_reduce_bn
I0107 20:52:41.784385 15027 net.cpp:404] inception_5a/relu_double_3x3_reduce -> inception_5a/double_3x3_reduce_bn (in-place)
I0107 20:52:41.784389 15027 net.cpp:160] Setting up inception_5a/relu_double_3x3_reduce
I0107 20:52:41.784392 15027 net.cpp:167] Top shape: 1 160 7 7 (7840)
I0107 20:52:41.784395 15027 layer_factory.hpp:74] Creating layer inception_5a/double_3x3_1
I0107 20:52:41.784400 15027 net.cpp:96] Creating Layer inception_5a/double_3x3_1
I0107 20:52:41.784404 15027 net.cpp:459] inception_5a/double_3x3_1 <- inception_5a/double_3x3_reduce_bn
I0107 20:52:41.784406 15027 net.cpp:415] inception_5a/double_3x3_1 -> inception_5a/double_3x3_1
I0107 20:52:41.784411 15027 net.cpp:160] Setting up inception_5a/double_3x3_1
I0107 20:52:41.785804 15027 net.cpp:167] Top shape: 1 224 7 7 (10976)
I0107 20:52:41.785809 15027 layer_factory.hpp:74] Creating layer inception_5a/double_3x3_1_bn
I0107 20:52:41.785812 15027 layer_factory.cpp:177] Layer inception_5a/double_3x3_1_bn is using CAFFE engine.
I0107 20:52:41.785817 15027 net.cpp:96] Creating Layer inception_5a/double_3x3_1_bn
I0107 20:52:41.785820 15027 net.cpp:459] inception_5a/double_3x3_1_bn <- inception_5a/double_3x3_1
I0107 20:52:41.785825 15027 net.cpp:415] inception_5a/double_3x3_1_bn -> inception_5a/double_3x3_1_bn
I0107 20:52:41.785828 15027 net.cpp:160] Setting up inception_5a/double_3x3_1_bn
I0107 20:52:41.785842 15027 net.cpp:167] Top shape: 1 224 7 7 (10976)
I0107 20:52:41.785848 15027 layer_factory.hpp:74] Creating layer inception_5a/relu_double_3x3_1
I0107 20:52:41.785852 15027 net.cpp:96] Creating Layer inception_5a/relu_double_3x3_1
I0107 20:52:41.785856 15027 net.cpp:459] inception_5a/relu_double_3x3_1 <- inception_5a/double_3x3_1_bn
I0107 20:52:41.785858 15027 net.cpp:404] inception_5a/relu_double_3x3_1 -> inception_5a/double_3x3_1_bn (in-place)
I0107 20:52:41.785862 15027 net.cpp:160] Setting up inception_5a/relu_double_3x3_1
I0107 20:52:41.785866 15027 net.cpp:167] Top shape: 1 224 7 7 (10976)
I0107 20:52:41.785868 15027 layer_factory.hpp:74] Creating layer inception_5a/double_3x3_2
I0107 20:52:41.785873 15027 net.cpp:96] Creating Layer inception_5a/double_3x3_2
I0107 20:52:41.785876 15027 net.cpp:459] inception_5a/double_3x3_2 <- inception_5a/double_3x3_1_bn
I0107 20:52:41.785881 15027 net.cpp:415] inception_5a/double_3x3_2 -> inception_5a/double_3x3_2
I0107 20:52:41.785886 15027 net.cpp:160] Setting up inception_5a/double_3x3_2
I0107 20:52:41.787837 15027 net.cpp:167] Top shape: 1 224 7 7 (10976)
I0107 20:52:41.787845 15027 layer_factory.hpp:74] Creating layer inception_5a/double_3x3_2_bn
I0107 20:52:41.787848 15027 layer_factory.cpp:177] Layer inception_5a/double_3x3_2_bn is using CAFFE engine.
I0107 20:52:41.787855 15027 net.cpp:96] Creating Layer inception_5a/double_3x3_2_bn
I0107 20:52:41.787858 15027 net.cpp:459] inception_5a/double_3x3_2_bn <- inception_5a/double_3x3_2
I0107 20:52:41.787863 15027 net.cpp:415] inception_5a/double_3x3_2_bn -> inception_5a/double_3x3_2_bn
I0107 20:52:41.787868 15027 net.cpp:160] Setting up inception_5a/double_3x3_2_bn
I0107 20:52:41.787878 15027 net.cpp:167] Top shape: 1 224 7 7 (10976)
I0107 20:52:41.787883 15027 layer_factory.hpp:74] Creating layer inception_5a/relu_double_3x3_2
I0107 20:52:41.787886 15027 net.cpp:96] Creating Layer inception_5a/relu_double_3x3_2
I0107 20:52:41.787889 15027 net.cpp:459] inception_5a/relu_double_3x3_2 <- inception_5a/double_3x3_2_bn
I0107 20:52:41.787894 15027 net.cpp:404] inception_5a/relu_double_3x3_2 -> inception_5a/double_3x3_2_bn (in-place)
I0107 20:52:41.787897 15027 net.cpp:160] Setting up inception_5a/relu_double_3x3_2
I0107 20:52:41.787900 15027 net.cpp:167] Top shape: 1 224 7 7 (10976)
I0107 20:52:41.787904 15027 layer_factory.hpp:74] Creating layer inception_5a/pool
I0107 20:52:41.787907 15027 net.cpp:96] Creating Layer inception_5a/pool
I0107 20:52:41.787910 15027 net.cpp:459] inception_5a/pool <- inception_4e/output_inception_4e/output_0_split_3
I0107 20:52:41.787914 15027 net.cpp:415] inception_5a/pool -> inception_5a/pool
I0107 20:52:41.787919 15027 net.cpp:160] Setting up inception_5a/pool
I0107 20:52:41.787924 15027 net.cpp:167] Top shape: 1 1056 7 7 (51744)
I0107 20:52:41.787925 15027 layer_factory.hpp:74] Creating layer inception_5a/pool_proj
I0107 20:52:41.787931 15027 net.cpp:96] Creating Layer inception_5a/pool_proj
I0107 20:52:41.787935 15027 net.cpp:459] inception_5a/pool_proj <- inception_5a/pool
I0107 20:52:41.787940 15027 net.cpp:415] inception_5a/pool_proj -> inception_5a/pool_proj
I0107 20:52:41.787943 15027 net.cpp:160] Setting up inception_5a/pool_proj
I0107 20:52:41.788532 15027 net.cpp:167] Top shape: 1 128 7 7 (6272)
I0107 20:52:41.788537 15027 layer_factory.hpp:74] Creating layer inception_5a/pool_proj_bn
I0107 20:52:41.788540 15027 layer_factory.cpp:177] Layer inception_5a/pool_proj_bn is using CAFFE engine.
I0107 20:52:41.788545 15027 net.cpp:96] Creating Layer inception_5a/pool_proj_bn
I0107 20:52:41.788548 15027 net.cpp:459] inception_5a/pool_proj_bn <- inception_5a/pool_proj
I0107 20:52:41.788553 15027 net.cpp:415] inception_5a/pool_proj_bn -> inception_5a/pool_proj_bn
I0107 20:52:41.788558 15027 net.cpp:160] Setting up inception_5a/pool_proj_bn
I0107 20:52:41.788568 15027 net.cpp:167] Top shape: 1 128 7 7 (6272)
I0107 20:52:41.788573 15027 layer_factory.hpp:74] Creating layer inception_5a/relu_pool_proj
I0107 20:52:41.788576 15027 net.cpp:96] Creating Layer inception_5a/relu_pool_proj
I0107 20:52:41.788578 15027 net.cpp:459] inception_5a/relu_pool_proj <- inception_5a/pool_proj_bn
I0107 20:52:41.788583 15027 net.cpp:404] inception_5a/relu_pool_proj -> inception_5a/pool_proj_bn (in-place)
I0107 20:52:41.788586 15027 net.cpp:160] Setting up inception_5a/relu_pool_proj
I0107 20:52:41.788589 15027 net.cpp:167] Top shape: 1 128 7 7 (6272)
I0107 20:52:41.788592 15027 layer_factory.hpp:74] Creating layer inception_5a/output
I0107 20:52:41.788596 15027 net.cpp:96] Creating Layer inception_5a/output
I0107 20:52:41.788599 15027 net.cpp:459] inception_5a/output <- inception_5a/1x1_bn
I0107 20:52:41.788602 15027 net.cpp:459] inception_5a/output <- inception_5a/3x3_bn
I0107 20:52:41.788606 15027 net.cpp:459] inception_5a/output <- inception_5a/double_3x3_2_bn
I0107 20:52:41.788609 15027 net.cpp:459] inception_5a/output <- inception_5a/pool_proj_bn
I0107 20:52:41.788614 15027 net.cpp:415] inception_5a/output -> inception_5a/output
I0107 20:52:41.788617 15027 net.cpp:160] Setting up inception_5a/output
I0107 20:52:41.788622 15027 net.cpp:167] Top shape: 1 1024 7 7 (50176)
I0107 20:52:41.788625 15027 layer_factory.hpp:74] Creating layer inception_5a/output_inception_5a/output_0_split
I0107 20:52:41.788632 15027 net.cpp:96] Creating Layer inception_5a/output_inception_5a/output_0_split
I0107 20:52:41.788635 15027 net.cpp:459] inception_5a/output_inception_5a/output_0_split <- inception_5a/output
I0107 20:52:41.788640 15027 net.cpp:415] inception_5a/output_inception_5a/output_0_split -> inception_5a/output_inception_5a/output_0_split_0
I0107 20:52:41.788643 15027 net.cpp:415] inception_5a/output_inception_5a/output_0_split -> inception_5a/output_inception_5a/output_0_split_1
I0107 20:52:41.788647 15027 net.cpp:415] inception_5a/output_inception_5a/output_0_split -> inception_5a/output_inception_5a/output_0_split_2
I0107 20:52:41.788651 15027 net.cpp:415] inception_5a/output_inception_5a/output_0_split -> inception_5a/output_inception_5a/output_0_split_3
I0107 20:52:41.788655 15027 net.cpp:160] Setting up inception_5a/output_inception_5a/output_0_split
I0107 20:52:41.788661 15027 net.cpp:167] Top shape: 1 1024 7 7 (50176)
I0107 20:52:41.788664 15027 net.cpp:167] Top shape: 1 1024 7 7 (50176)
I0107 20:52:41.788667 15027 net.cpp:167] Top shape: 1 1024 7 7 (50176)
I0107 20:52:41.788671 15027 net.cpp:167] Top shape: 1 1024 7 7 (50176)
I0107 20:52:41.788673 15027 layer_factory.hpp:74] Creating layer inception_5b/1x1
I0107 20:52:41.788677 15027 net.cpp:96] Creating Layer inception_5b/1x1
I0107 20:52:41.788681 15027 net.cpp:459] inception_5b/1x1 <- inception_5a/output_inception_5a/output_0_split_0
I0107 20:52:41.788686 15027 net.cpp:415] inception_5b/1x1 -> inception_5b/1x1
I0107 20:52:41.788689 15027 net.cpp:160] Setting up inception_5b/1x1
I0107 20:52:41.790251 15027 net.cpp:167] Top shape: 1 352 7 7 (17248)
I0107 20:52:41.790256 15027 layer_factory.hpp:74] Creating layer inception_5b/1x1_bn
I0107 20:52:41.790259 15027 layer_factory.cpp:177] Layer inception_5b/1x1_bn is using CAFFE engine.
I0107 20:52:41.790266 15027 net.cpp:96] Creating Layer inception_5b/1x1_bn
I0107 20:52:41.790268 15027 net.cpp:459] inception_5b/1x1_bn <- inception_5b/1x1
I0107 20:52:41.790273 15027 net.cpp:415] inception_5b/1x1_bn -> inception_5b/1x1_bn
I0107 20:52:41.790278 15027 net.cpp:160] Setting up inception_5b/1x1_bn
I0107 20:52:41.790289 15027 net.cpp:167] Top shape: 1 352 7 7 (17248)
I0107 20:52:41.790295 15027 layer_factory.hpp:74] Creating layer inception_5b/relu_1x1
I0107 20:52:41.790298 15027 net.cpp:96] Creating Layer inception_5b/relu_1x1
I0107 20:52:41.790302 15027 net.cpp:459] inception_5b/relu_1x1 <- inception_5b/1x1_bn
I0107 20:52:41.790305 15027 net.cpp:404] inception_5b/relu_1x1 -> inception_5b/1x1_bn (in-place)
I0107 20:52:41.790309 15027 net.cpp:160] Setting up inception_5b/relu_1x1
I0107 20:52:41.790313 15027 net.cpp:167] Top shape: 1 352 7 7 (17248)
I0107 20:52:41.790315 15027 layer_factory.hpp:74] Creating layer inception_5b/3x3_reduce
I0107 20:52:41.790319 15027 net.cpp:96] Creating Layer inception_5b/3x3_reduce
I0107 20:52:41.790323 15027 net.cpp:459] inception_5b/3x3_reduce <- inception_5a/output_inception_5a/output_0_split_1
I0107 20:52:41.790328 15027 net.cpp:415] inception_5b/3x3_reduce -> inception_5b/3x3_reduce
I0107 20:52:41.790331 15027 net.cpp:160] Setting up inception_5b/3x3_reduce
I0107 20:52:41.791183 15027 net.cpp:167] Top shape: 1 192 7 7 (9408)
I0107 20:52:41.791189 15027 layer_factory.hpp:74] Creating layer inception_5b/3x3_reduce_bn
I0107 20:52:41.791193 15027 layer_factory.cpp:177] Layer inception_5b/3x3_reduce_bn is using CAFFE engine.
I0107 20:52:41.791196 15027 net.cpp:96] Creating Layer inception_5b/3x3_reduce_bn
I0107 20:52:41.791199 15027 net.cpp:459] inception_5b/3x3_reduce_bn <- inception_5b/3x3_reduce
I0107 20:52:41.791204 15027 net.cpp:415] inception_5b/3x3_reduce_bn -> inception_5b/3x3_reduce_bn
I0107 20:52:41.791209 15027 net.cpp:160] Setting up inception_5b/3x3_reduce_bn
I0107 20:52:41.791219 15027 net.cpp:167] Top shape: 1 192 7 7 (9408)
I0107 20:52:41.791224 15027 layer_factory.hpp:74] Creating layer inception_5b/relu_3x3_reduce
I0107 20:52:41.791229 15027 net.cpp:96] Creating Layer inception_5b/relu_3x3_reduce
I0107 20:52:41.791234 15027 net.cpp:459] inception_5b/relu_3x3_reduce <- inception_5b/3x3_reduce_bn
I0107 20:52:41.791237 15027 net.cpp:404] inception_5b/relu_3x3_reduce -> inception_5b/3x3_reduce_bn (in-place)
I0107 20:52:41.791241 15027 net.cpp:160] Setting up inception_5b/relu_3x3_reduce
I0107 20:52:41.791244 15027 net.cpp:167] Top shape: 1 192 7 7 (9408)
I0107 20:52:41.791247 15027 layer_factory.hpp:74] Creating layer inception_5b/3x3
I0107 20:52:41.791252 15027 net.cpp:96] Creating Layer inception_5b/3x3
I0107 20:52:41.791255 15027 net.cpp:459] inception_5b/3x3 <- inception_5b/3x3_reduce_bn
I0107 20:52:41.791260 15027 net.cpp:415] inception_5b/3x3 -> inception_5b/3x3
I0107 20:52:41.791265 15027 net.cpp:160] Setting up inception_5b/3x3
I0107 20:52:41.793406 15027 net.cpp:167] Top shape: 1 320 7 7 (15680)
I0107 20:52:41.793412 15027 layer_factory.hpp:74] Creating layer inception_5b/3x3_bn
I0107 20:52:41.793416 15027 layer_factory.cpp:177] Layer inception_5b/3x3_bn is using CAFFE engine.
I0107 20:52:41.793421 15027 net.cpp:96] Creating Layer inception_5b/3x3_bn
I0107 20:52:41.793423 15027 net.cpp:459] inception_5b/3x3_bn <- inception_5b/3x3
I0107 20:52:41.793427 15027 net.cpp:415] inception_5b/3x3_bn -> inception_5b/3x3_bn
I0107 20:52:41.793431 15027 net.cpp:160] Setting up inception_5b/3x3_bn
I0107 20:52:41.793439 15027 net.cpp:167] Top shape: 1 320 7 7 (15680)
I0107 20:52:41.793444 15027 layer_factory.hpp:74] Creating layer inception_5b/relu_3x3
I0107 20:52:41.793448 15027 net.cpp:96] Creating Layer inception_5b/relu_3x3
I0107 20:52:41.793450 15027 net.cpp:459] inception_5b/relu_3x3 <- inception_5b/3x3_bn
I0107 20:52:41.793454 15027 net.cpp:404] inception_5b/relu_3x3 -> inception_5b/3x3_bn (in-place)
I0107 20:52:41.793457 15027 net.cpp:160] Setting up inception_5b/relu_3x3
I0107 20:52:41.793460 15027 net.cpp:167] Top shape: 1 320 7 7 (15680)
I0107 20:52:41.793463 15027 layer_factory.hpp:74] Creating layer inception_5b/double_3x3_reduce
I0107 20:52:41.793467 15027 net.cpp:96] Creating Layer inception_5b/double_3x3_reduce
I0107 20:52:41.793470 15027 net.cpp:459] inception_5b/double_3x3_reduce <- inception_5a/output_inception_5a/output_0_split_2
I0107 20:52:41.793474 15027 net.cpp:415] inception_5b/double_3x3_reduce -> inception_5b/double_3x3_reduce
I0107 20:52:41.793478 15027 net.cpp:160] Setting up inception_5b/double_3x3_reduce
I0107 20:52:41.794306 15027 net.cpp:167] Top shape: 1 192 7 7 (9408)
I0107 20:52:41.794313 15027 layer_factory.hpp:74] Creating layer inception_5b/double_3x3_reduce_bn
I0107 20:52:41.794317 15027 layer_factory.cpp:177] Layer inception_5b/double_3x3_reduce_bn is using CAFFE engine.
I0107 20:52:41.794320 15027 net.cpp:96] Creating Layer inception_5b/double_3x3_reduce_bn
I0107 20:52:41.794324 15027 net.cpp:459] inception_5b/double_3x3_reduce_bn <- inception_5b/double_3x3_reduce
I0107 20:52:41.794328 15027 net.cpp:415] inception_5b/double_3x3_reduce_bn -> inception_5b/double_3x3_reduce_bn
I0107 20:52:41.794333 15027 net.cpp:160] Setting up inception_5b/double_3x3_reduce_bn
I0107 20:52:41.794342 15027 net.cpp:167] Top shape: 1 192 7 7 (9408)
I0107 20:52:41.794348 15027 layer_factory.hpp:74] Creating layer inception_5b/relu_double_3x3_reduce
I0107 20:52:41.794351 15027 net.cpp:96] Creating Layer inception_5b/relu_double_3x3_reduce
I0107 20:52:41.794354 15027 net.cpp:459] inception_5b/relu_double_3x3_reduce <- inception_5b/double_3x3_reduce_bn
I0107 20:52:41.794358 15027 net.cpp:404] inception_5b/relu_double_3x3_reduce -> inception_5b/double_3x3_reduce_bn (in-place)
I0107 20:52:41.794363 15027 net.cpp:160] Setting up inception_5b/relu_double_3x3_reduce
I0107 20:52:41.794365 15027 net.cpp:167] Top shape: 1 192 7 7 (9408)
I0107 20:52:41.794368 15027 layer_factory.hpp:74] Creating layer inception_5b/double_3x3_1
I0107 20:52:41.794373 15027 net.cpp:96] Creating Layer inception_5b/double_3x3_1
I0107 20:52:41.794374 15027 net.cpp:459] inception_5b/double_3x3_1 <- inception_5b/double_3x3_reduce_bn
I0107 20:52:41.794379 15027 net.cpp:415] inception_5b/double_3x3_1 -> inception_5b/double_3x3_1
I0107 20:52:41.794386 15027 net.cpp:160] Setting up inception_5b/double_3x3_1
I0107 20:52:41.796023 15027 net.cpp:167] Top shape: 1 224 7 7 (10976)
I0107 20:52:41.796030 15027 layer_factory.hpp:74] Creating layer inception_5b/double_3x3_1_bn
I0107 20:52:41.796032 15027 layer_factory.cpp:177] Layer inception_5b/double_3x3_1_bn is using CAFFE engine.
I0107 20:52:41.796036 15027 net.cpp:96] Creating Layer inception_5b/double_3x3_1_bn
I0107 20:52:41.796041 15027 net.cpp:459] inception_5b/double_3x3_1_bn <- inception_5b/double_3x3_1
I0107 20:52:41.796044 15027 net.cpp:415] inception_5b/double_3x3_1_bn -> inception_5b/double_3x3_1_bn
I0107 20:52:41.796049 15027 net.cpp:160] Setting up inception_5b/double_3x3_1_bn
I0107 20:52:41.796061 15027 net.cpp:167] Top shape: 1 224 7 7 (10976)
I0107 20:52:41.796066 15027 layer_factory.hpp:74] Creating layer inception_5b/relu_double_3x3_1
I0107 20:52:41.796070 15027 net.cpp:96] Creating Layer inception_5b/relu_double_3x3_1
I0107 20:52:41.796073 15027 net.cpp:459] inception_5b/relu_double_3x3_1 <- inception_5b/double_3x3_1_bn
I0107 20:52:41.796077 15027 net.cpp:404] inception_5b/relu_double_3x3_1 -> inception_5b/double_3x3_1_bn (in-place)
I0107 20:52:41.796080 15027 net.cpp:160] Setting up inception_5b/relu_double_3x3_1
I0107 20:52:41.796083 15027 net.cpp:167] Top shape: 1 224 7 7 (10976)
I0107 20:52:41.796087 15027 layer_factory.hpp:74] Creating layer inception_5b/double_3x3_2
I0107 20:52:41.796090 15027 net.cpp:96] Creating Layer inception_5b/double_3x3_2
I0107 20:52:41.796094 15027 net.cpp:459] inception_5b/double_3x3_2 <- inception_5b/double_3x3_1_bn
I0107 20:52:41.796098 15027 net.cpp:415] inception_5b/double_3x3_2 -> inception_5b/double_3x3_2
I0107 20:52:41.796103 15027 net.cpp:160] Setting up inception_5b/double_3x3_2
I0107 20:52:41.798039 15027 net.cpp:167] Top shape: 1 224 7 7 (10976)
I0107 20:52:41.798046 15027 layer_factory.hpp:74] Creating layer inception_5b/double_3x3_2_bn
I0107 20:52:41.798049 15027 layer_factory.cpp:177] Layer inception_5b/double_3x3_2_bn is using CAFFE engine.
I0107 20:52:41.798054 15027 net.cpp:96] Creating Layer inception_5b/double_3x3_2_bn
I0107 20:52:41.798058 15027 net.cpp:459] inception_5b/double_3x3_2_bn <- inception_5b/double_3x3_2
I0107 20:52:41.798061 15027 net.cpp:415] inception_5b/double_3x3_2_bn -> inception_5b/double_3x3_2_bn
I0107 20:52:41.798066 15027 net.cpp:160] Setting up inception_5b/double_3x3_2_bn
I0107 20:52:41.798076 15027 net.cpp:167] Top shape: 1 224 7 7 (10976)
I0107 20:52:41.798081 15027 layer_factory.hpp:74] Creating layer inception_5b/relu_double_3x3_2
I0107 20:52:41.798085 15027 net.cpp:96] Creating Layer inception_5b/relu_double_3x3_2
I0107 20:52:41.798089 15027 net.cpp:459] inception_5b/relu_double_3x3_2 <- inception_5b/double_3x3_2_bn
I0107 20:52:41.798091 15027 net.cpp:404] inception_5b/relu_double_3x3_2 -> inception_5b/double_3x3_2_bn (in-place)
I0107 20:52:41.798095 15027 net.cpp:160] Setting up inception_5b/relu_double_3x3_2
I0107 20:52:41.798099 15027 net.cpp:167] Top shape: 1 224 7 7 (10976)
I0107 20:52:41.798101 15027 layer_factory.hpp:74] Creating layer inception_5b/pool
I0107 20:52:41.798105 15027 net.cpp:96] Creating Layer inception_5b/pool
I0107 20:52:41.798108 15027 net.cpp:459] inception_5b/pool <- inception_5a/output_inception_5a/output_0_split_3
I0107 20:52:41.798113 15027 net.cpp:415] inception_5b/pool -> inception_5b/pool
I0107 20:52:41.798117 15027 net.cpp:160] Setting up inception_5b/pool
I0107 20:52:41.798123 15027 net.cpp:167] Top shape: 1 1024 7 7 (50176)
I0107 20:52:41.798126 15027 layer_factory.hpp:74] Creating layer inception_5b/pool_proj
I0107 20:52:41.798132 15027 net.cpp:96] Creating Layer inception_5b/pool_proj
I0107 20:52:41.798135 15027 net.cpp:459] inception_5b/pool_proj <- inception_5b/pool
I0107 20:52:41.798140 15027 net.cpp:415] inception_5b/pool_proj -> inception_5b/pool_proj
I0107 20:52:41.798143 15027 net.cpp:160] Setting up inception_5b/pool_proj
I0107 20:52:41.798718 15027 net.cpp:167] Top shape: 1 128 7 7 (6272)
I0107 20:52:41.798724 15027 layer_factory.hpp:74] Creating layer inception_5b/pool_proj_bn
I0107 20:52:41.798730 15027 layer_factory.cpp:177] Layer inception_5b/pool_proj_bn is using CAFFE engine.
I0107 20:52:41.798737 15027 net.cpp:96] Creating Layer inception_5b/pool_proj_bn
I0107 20:52:41.798739 15027 net.cpp:459] inception_5b/pool_proj_bn <- inception_5b/pool_proj
I0107 20:52:41.798743 15027 net.cpp:415] inception_5b/pool_proj_bn -> inception_5b/pool_proj_bn
I0107 20:52:41.798748 15027 net.cpp:160] Setting up inception_5b/pool_proj_bn
I0107 20:52:41.798758 15027 net.cpp:167] Top shape: 1 128 7 7 (6272)
I0107 20:52:41.798763 15027 layer_factory.hpp:74] Creating layer inception_5b/relu_pool_proj
I0107 20:52:41.798766 15027 net.cpp:96] Creating Layer inception_5b/relu_pool_proj
I0107 20:52:41.798769 15027 net.cpp:459] inception_5b/relu_pool_proj <- inception_5b/pool_proj_bn
I0107 20:52:41.798774 15027 net.cpp:404] inception_5b/relu_pool_proj -> inception_5b/pool_proj_bn (in-place)
I0107 20:52:41.798776 15027 net.cpp:160] Setting up inception_5b/relu_pool_proj
I0107 20:52:41.798780 15027 net.cpp:167] Top shape: 1 128 7 7 (6272)
I0107 20:52:41.798782 15027 layer_factory.hpp:74] Creating layer inception_5b/output
I0107 20:52:41.798787 15027 net.cpp:96] Creating Layer inception_5b/output
I0107 20:52:41.798789 15027 net.cpp:459] inception_5b/output <- inception_5b/1x1_bn
I0107 20:52:41.798794 15027 net.cpp:459] inception_5b/output <- inception_5b/3x3_bn
I0107 20:52:41.798796 15027 net.cpp:459] inception_5b/output <- inception_5b/double_3x3_2_bn
I0107 20:52:41.798799 15027 net.cpp:459] inception_5b/output <- inception_5b/pool_proj_bn
I0107 20:52:41.798802 15027 net.cpp:415] inception_5b/output -> inception_5b/output
I0107 20:52:41.798806 15027 net.cpp:160] Setting up inception_5b/output
I0107 20:52:41.798811 15027 net.cpp:167] Top shape: 1 1024 7 7 (50176)
I0107 20:52:41.798815 15027 layer_factory.hpp:74] Creating layer global_pool
I0107 20:52:41.798818 15027 net.cpp:96] Creating Layer global_pool
I0107 20:52:41.798820 15027 net.cpp:459] global_pool <- inception_5b/output
I0107 20:52:41.798825 15027 net.cpp:415] global_pool -> global_pool
I0107 20:52:41.798830 15027 net.cpp:160] Setting up global_pool
I0107 20:52:41.798833 15027 net.cpp:167] Top shape: 1 1024 1 1 (1024)
I0107 20:52:41.798836 15027 layer_factory.hpp:74] Creating layer dropout
I0107 20:52:41.798840 15027 net.cpp:96] Creating Layer dropout
I0107 20:52:41.798843 15027 net.cpp:459] dropout <- global_pool
I0107 20:52:41.798847 15027 net.cpp:404] dropout -> global_pool (in-place)
I0107 20:52:41.798851 15027 net.cpp:160] Setting up dropout
I0107 20:52:41.798856 15027 net.cpp:167] Top shape: 1 1024 1 1 (1024)
I0107 20:52:41.798858 15027 layer_factory.hpp:74] Creating layer fc-action
I0107 20:52:41.798864 15027 net.cpp:96] Creating Layer fc-action
I0107 20:52:41.798867 15027 net.cpp:459] fc-action <- global_pool
I0107 20:52:41.798871 15027 net.cpp:415] fc-action -> fc-action
I0107 20:52:41.798877 15027 net.cpp:160] Setting up fc-action
I0107 20:52:41.800683 15027 net.cpp:167] Top shape: 1 101 (101)
I0107 20:52:41.800688 15027 net.cpp:241] fc-action does not need backward computation.
I0107 20:52:41.800691 15027 net.cpp:241] dropout does not need backward computation.
I0107 20:52:41.800694 15027 net.cpp:241] global_pool does not need backward computation.
I0107 20:52:41.800696 15027 net.cpp:241] inception_5b/output does not need backward computation.
I0107 20:52:41.800700 15027 net.cpp:241] inception_5b/relu_pool_proj does not need backward computation.
…
