WARNING: Logging before InitGoogleLogging() is written to STDERR
I0107 20:03:19.447026 14736 net.cpp:46] Initializing net from parameters: 
name: "BN-Inception"
input: "data"
input_dim: 1
input_dim: 3
input_dim: 224
input_dim: 224
state {
  phase: TEST
}
layer {
  name: "conv1/7x7_s2"
  type: "Convolution"
  bottom: "data"
  top: "conv1/7x7_s2"
  param {
    lr_mult: 1
    decay_mult: 1
  }
  param {
    lr_mult: 2
    decay_mult: 0
  }
  convolution_param {
    num_output: 64
    pad: 3
    kernel_size: 7
    stride: 2
    weight_filler {
      type: "xavier"
    }
    bias_filler {
      type: "constant"
      value: 0.2
    }
  }
}
layer {
  name: "conv1/7x7_s2_bn"
  type: "BN"
  bottom: "conv1/7x7_s2"
  top: "conv1/7x7_s2_bn"
  param {
    lr_mult: 1
    decay_mult: 0
  }
  param {
    lr_mult: 1
    decay_mult: 0
  }
  bn_param {
    slope_filler {
      type: "constant"
      value: 1
    }
    bias_filler {
      type: "constant"
      value: 0
    }
    frozen: true
  }
}
layer {
  name: "conv1/relu_7x7"
  type: "ReLU"
  bottom: "conv1/7x7_s2_bn"
  top: "conv1/7x7_s2_bn"
}
layer {
  name: "pool1/3x3_s2"
  type: "Pooling"
  bottom: "conv1/7x7_s2_bn"
  top: "pool1/3x3_s2"
  pooling_param {
    pool: MAX
    kernel_size: 3
    stride: 2
  }
}
layer {
  name: "conv2/3x3_reduce"
  type: "Convolution"
  bottom: "pool1/3x3_s2"
  top: "conv2/3x3_reduce"
  param {
    lr_mult: 1
    decay_mult: 1
  }
  param {
    lr_mult: 2
    decay_mult: 0
  }
  convolution_param {
    num_output: 64
    kernel_size: 1
    weight_filler {
      type: "xavier"
    }
    bias_filler {
      type: "constant"
      value: 0.2
    }
  }
}
layer {
  name: "conv2/3x3_reduce_bn"
  type: "BN"
  bottom: "conv2/3x3_reduce"
  top: "conv2/3x3_reduce_bn"
  param {
    lr_mult: 1
    decay_mult: 0
  }
  param {
    lr_mult: 1
    decay_mult: 0
  }
  bn_param {
    slope_filler {
      type: "constant"
      value: 1
    }
    bias_filler {
      type: "constant"
      value: 0
    }
    frozen: true
  }
}
layer {
  name: "conv2/relu_3x3_reduce"
  type: "ReLU"
  bottom: "conv2/3x3_reduce_bn"
  top: "conv2/3x3_reduce_bn"
}
layer {
  name: "conv2/3x3"
  type: "Convolution"
  bottom: "conv2/3x3_reduce_bn"
  top: "conv2/3x3"
  param {
    lr_mult: 1
    decay_mult: 1
  }
  param {
    lr_mult: 2
    decay_mult: 0
  }
  convolution_param {
    num_output: 192
    pad: 1
    kernel_size: 3
    weight_filler {
      type: "xavier"
    }
    bias_filler {
      type: "constant"
      value: 0.2
    }
  }
}
layer {
  name: "conv2/3x3_bn"
  type: "BN"
  bottom: "conv2/3x3"
  top: "conv2/3x3_bn"
  param {
    lr_mult: 1
    decay_mult: 0
  }
  param {
    lr_mult: 1
    decay_mult: 0
  }
  bn_param {
    slope_filler {
      type: "constant"
      value: 1
    }
    bias_filler {
      type: "constant"
      value: 0
    }
    frozen: true
  }
}
layer {
  name: "conv2/relu_3x3"
  type: "ReLU"
  bottom: "conv2/3x3_bn"
  top: "conv2/3x3_bn"
}
layer {
  name: "pool2/3x3_s2"
  type: "Pooling"
  bottom: "conv2/3x3_bn"
  top: "pool2/3x3_s2"
  pooling_param {
    pool: MAX
    kernel_size: 3
    stride: 2
  }
}
layer {
  name: "inception_3a/1x1"
  type: "Convolution"
  bottom: "pool2/3x3_s2"
  top: "inception_3a/1x1"
  param {
    lr_mult: 1
    decay_mult: 1
  }
  param {
    lr_mult: 2
    decay_mult: 0
  }
  convolution_param {
    num_output: 64
    kernel_size: 1
    weight_filler {
      type: "xavier"
    }
    bias_filler {
      type: "constant"
      value: 0.2
    }
  }
}
layer {
  name: "inception_3a/1x1_bn"
  type: "BN"
  bottom: "inception_3a/1x1"
  top: "inception_3a/1x1_bn"
  param {
    lr_mult: 1
    decay_mult: 0
  }
  param {
    lr_mult: 1
    decay_mult: 0
  }
  bn_param {
    slope_filler {
      type: "constant"
      value: 1
    }
    bias_filler {
      type: "constant"
      value: 0
    }
    frozen: true
  }
}
layer {
  name: "inception_3a/relu_1x1"
  type: "ReLU"
  bottom: "inception_3a/1x1_bn"
  top: "inception_3a/1x1_bn"
}
layer {
  name: "inception_3a/3x3_reduce"
  type: "Convolution"
  bottom: "pool2/3x3_s2"
  top: "inception_3a/3x3_reduce"
  param {
    lr_mult: 1
    decay_mult: 1
  }
  param {
    lr_mult: 2
    decay_mult: 0
  }
  convolution_param {
    num_output: 64
    kernel_size: 1
    weight_filler {
      type: "xavier"
    }
    bias_filler {
      type: "constant"
      value: 0.2
    }
  }
}
layer {
  name: "inception_3a/3x3_reduce_bn"
  type: "BN"
  bottom: "inception_3a/3x3_reduce"
  top: "inception_3a/3x3_reduce_bn"
  param {
    lr_mult: 1
    decay_mult: 0
  }
  param {
    lr_mult: 1
    decay_mult: 0
  }
  bn_param {
    slope_filler {
      type: "constant"
      value: 1
    }
    bias_filler {
      type: "constant"
      value: 0
    }
    frozen: true
  }
}
layer {
  name: "inception_3a/relu_3x3_reduce"
  type: "ReLU"
  bottom: "inception_3a/3x3_reduce_bn"
  top: "inception_3a/3x3_reduce_bn"
}
layer {
  name: "inception_3a/3x3"
  type: "Convolution"
  bottom: "inception_3a/3x3_reduce_bn"
  top: "inception_3a/3x3"
  param {
    lr_mult: 1
    decay_mult: 1
  }
  param {
    lr_mult: 2
    decay_mult: 0
  }
  convolution_param {
    num_output: 64
    pad: 1
    kernel_size: 3
    weight_filler {
      type: "xavier"
    }
    bias_filler {
      type: "constant"
      value: 0.2
    }
  }
}
layer {
  name: "inception_3a/3x3_bn"
  type: "BN"
  bottom: "inception_3a/3x3"
  top: "inception_3a/3x3_bn"
  param {
    lr_mult: 1
    decay_mult: 0
  }
  param {
    lr_mult: 1
    decay_mult: 0
  }
  bn_param {
    slope_filler {
      type: "constant"
      value: 1
    }
    bias_filler {
      type: "constant"
      value: 0
    }
    frozen: true
  }
}
layer {
  name: "inception_3a/relu_3x3"
  type: "ReLU"
  bottom: "inception_3a/3x3_bn"
  top: "inception_3a/3x3_bn"
}
layer {
  name: "inception_3a/double_3x3_reduce"
  type: "Convolution"
  bottom: "pool2/3x3_s2"
  top: "inception_3a/double_3x3_reduce"
  param {
    lr_mult: 1
    decay_mult: 1
  }
  param {
    lr_mult: 2
    decay_mult: 0
  }
  convolution_param {
    num_output: 64
    kernel_size: 1
    weight_filler {
      type: "xavier"
    }
    bias_filler {
      type: "constant"
      value: 0.2
    }
  }
}
layer {
  name: "inception_3a/double_3x3_reduce_bn"
  type: "BN"
  bottom: "inception_3a/double_3x3_reduce"
  top: "inception_3a/double_3x3_reduce_bn"
  param {
    lr_mult: 1
    decay_mult: 0
  }
  param {
    lr_mult: 1
    decay_mult: 0
  }
  bn_param {
    slope_filler {
      type: "constant"
      value: 1
    }
    bias_filler {
      type: "constant"
      value: 0
    }
    frozen: true
  }
}
layer {
  name: "inception_3a/relu_double_3x3_reduce"
  type: "ReLU"
  bottom: "inception_3a/double_3x3_reduce_bn"
  top: "inception_3a/double_3x3_reduce_bn"
}
layer {
  name: "inception_3a/double_3x3_1"
  type: "Convolution"
  bottom: "inception_3a/double_3x3_reduce_bn"
  top: "inception_3a/double_3x3_1"
  param {
    lr_mult: 1
    decay_mult: 1
  }
  param {
    lr_mult: 2
    decay_mult: 0
  }
  convolution_param {
    num_output: 96
    pad: 1
    kernel_size: 3
    weight_filler {
      type: "xavier"
    }
    bias_filler {
      type: "constant"
      value: 0.2
    }
  }
}
layer {
  name: "inception_3a/double_3x3_1_bn"
  type: "BN"
  bottom: "inception_3a/double_3x3_1"
  top: "inception_3a/double_3x3_1_bn"
  param {
    lr_mult: 1
    decay_mult: 0
  }
  param {
    lr_mult: 1
    decay_mult: 0
  }
  bn_param {
    slope_filler {
      type: "constant"
      value: 1
    }
    bias_filler {
      type: "constant"
      value: 0
    }
    frozen: true
  }
}
layer {
  name: "inception_3a/relu_double_3x3_1"
  type: "ReLU"
  bottom: "inception_3a/double_3x3_1_bn"
  top: "inception_3a/double_3x3_1_bn"
}
layer {
  name: "inception_3a/double_3x3_2"
  type: "Convolution"
  bottom: "inception_3a/double_3x3_1_bn"
  top: "inception_3a/double_3x3_2"
  param {
    lr_mult: 1
    decay_mult: 1
  }
  param {
    lr_mult: 2
    decay_mult: 0
  }
  convolution_param {
    num_output: 96
    pad: 1
    kernel_size: 3
    weight_filler {
      type: "xavier"
    }
    bias_filler {
      type: "constant"
      value: 0.2
    }
  }
}
layer {
  name: "inception_3a/double_3x3_2_bn"
  type: "BN"
  bottom: "inception_3a/double_3x3_2"
  top: "inception_3a/double_3x3_2_bn"
  param {
    lr_mult: 1
    decay_mult: 0
  }
  param {
    lr_mult: 1
    decay_mult: 0
  }
  bn_param {
    slope_filler {
      type: "constant"
      value: 1
    }
    bias_filler {
      type: "constant"
      value: 0
    }
    frozen: true
  }
}
layer {
  name: "inception_3a/relu_double_3x3_2"
  type: "ReLU"
  bottom: "inception_3a/double_3x3_2_bn"
  top: "inception_3a/double_3x3_2_bn"
}
layer {
  name: "inception_3a/pool"
  type: "Pooling"
  bottom: "pool2/3x3_s2"
  top: "inception_3a/pool"
  pooling_param {
    pool: AVE
    kernel_size: 3
    stride: 1
    pad: 1
  }
}
layer {
  name: "inception_3a/pool_proj"
  type: "Convolution"
  bottom: "inception_3a/pool"
  top: "inception_3a/pool_proj"
  param {
    lr_mult: 1
    decay_mult: 1
  }
  param {
    lr_mult: 2
    decay_mult: 0
  }
  convolution_param {
    num_output: 32
    kernel_size: 1
    weight_filler {
      type: "xavier"
    }
    bias_filler {
      type: "constant"
      value: 0.2
    }
  }
}
layer {
  name: "inception_3a/pool_proj_bn"
  type: "BN"
  bottom: "inception_3a/pool_proj"
  top: "inception_3a/pool_proj_bn"
  param {
    lr_mult: 1
    decay_mult: 0
  }
  param {
    lr_mult: 1
    decay_mult: 0
  }
  bn_param {
    slope_filler {
      type: "constant"
      value: 1
    }
    bias_filler {
      type: "constant"
      value: 0
    }
    frozen: true
  }
}
layer {
  name: "inception_3a/relu_pool_proj"
  type: "ReLU"
  bottom: "inception_3a/pool_proj_bn"
  top: "inception_3a/pool_proj_bn"
}
layer {
  name: "inception_3a/output"
  type: "Concat"
  bottom: "inception_3a/1x1_bn"
  bottom: "inception_3a/3x3_bn"
  bottom: "inception_3a/double_3x3_2_bn"
  bottom: "inception_3a/pool_proj_bn"
  top: "inception_3a/output"
}
layer {
  name: "inception_3b/1x1"
  type: "Convolution"
  bottom: "inception_3a/output"
  top: "inception_3b/1x1"
  param {
    lr_mult: 1
    decay_mult: 1
  }
  param {
    lr_mult: 2
    decay_mult: 0
  }
  convolution_param {
    num_output: 64
    kernel_size: 1
    weight_filler {
      type: "xavier"
    }
    bias_filler {
      type: "constant"
      value: 0.2
    }
  }
}
layer {
  name: "inception_3b/1x1_bn"
  type: "BN"
  bottom: "inception_3b/1x1"
  top: "inception_3b/1x1_bn"
  param {
    lr_mult: 1
    decay_mult: 0
  }
  param {
    lr_mult: 1
    decay_mult: 0
  }
  bn_param {
    slope_filler {
      type: "constant"
      value: 1
    }
    bias_filler {
      type: "constant"
      value: 0
    }
    frozen: true
  }
}
layer {
  name: "inception_3b/relu_1x1"
  type: "ReLU"
  bottom: "inception_3b/1x1_bn"
  top: "inception_3b/1x1_bn"
}
layer {
  name: "inception_3b/3x3_reduce"
  type: "Convolution"
  bottom: "inception_3a/output"
  top: "inception_3b/3x3_reduce"
  param {
    lr_mult: 1
    decay_mult: 1
  }
  param {
    lr_mult: 2
    decay_mult: 0
  }
  convolution_param {
    num_output: 64
    kernel_size: 1
    weight_filler {
      type: "xavier"
    }
    bias_filler {
      type: "constant"
      value: 0.2
    }
  }
}
layer {
  name: "inception_3b/3x3_reduce_bn"
  type: "BN"
  bottom: "inception_3b/3x3_reduce"
  top: "inception_3b/3x3_reduce_bn"
  param {
    lr_mult: 1
    decay_mult: 0
  }
  param {
    lr_mult: 1
    decay_mult: 0
  }
  bn_param {
    slope_filler {
      type: "constant"
      value: 1
    }
    bias_filler {
      type: "constant"
      value: 0
    }
    frozen: true
  }
}
layer {
  name: "inception_3b/relu_3x3_reduce"
  type: "ReLU"
  bottom: "inception_3b/3x3_reduce_bn"
  top: "inception_3b/3x3_reduce_bn"
}
layer {
  name: "inception_3b/3x3"
  type: "Convolution"
  bottom: "inception_3b/3x3_reduce_bn"
  top: "inception_3b/3x3"
  param {
    lr_mult: 1
    decay_mult: 1
  }
  param {
    lr_mult: 2
    decay_mult: 0
  }
  convolution_param {
    num_output: 96
    pad: 1
    kernel_size: 3
    weight_filler {
      type: "xavier"
    }
    bias_filler {
      type: "constant"
      value: 0.2
    }
  }
}
layer {
  name: "inception_3b/3x3_bn"
  type: "BN"
  bottom: "inception_3b/3x3"
  top: "inception_3b/3x3_bn"
  param {
    lr_mult: 1
    decay_mult: 0
  }
  param {
    lr_mult: 1
    decay_mult: 0
  }
  bn_param {
    slope_filler {
      type: "constant"
      value: 1
    }
    bias_filler {
      type: "constant"
      value: 0
    }
    frozen: true
  }
}
layer {
  name: "inception_3b/relu_3x3"
  type: "ReLU"
  bottom: "inception_3b/3x3_bn"
  top: "inception_3b/3x3_bn"
}
layer {
  name: "inception_3b/double_3x3_reduce"
  type: "Convolution"
  bottom: "inception_3a/output"
  top: "inception_3b/double_3x3_reduce"
  param {
    lr_mult: 1
    decay_mult: 1
  }
  param {
    lr_mult: 2
    decay_mult: 0
  }
  convolution_param {
    num_output: 64
    kernel_size: 1
    weight_filler {
      type: "xavier"
    }
    bias_filler {
      type: "constant"
      value: 0.2
    }
  }
}
layer {
  name: "inception_3b/double_3x3_reduce_bn"
  type: "BN"
  bottom: "inception_3b/double_3x3_reduce"
  top: "inception_3b/double_3x3_reduce_bn"
  param {
    lr_mult: 1
    decay_mult: 0
  }
  param {
    lr_mult: 1
    decay_mult: 0
  }
  bn_param {
    slope_filler {
      type: "constant"
      value: 1
    }
    bias_filler {
      type: "constant"
      value: 0
    }
    frozen: true
  }
}
layer {
  name: "inception_3b/relu_double_3x3_reduce"
  type: "ReLU"
  bottom: "inception_3b/double_3x3_reduce_bn"
  top: "inception_3b/double_3x3_reduce_bn"
}
layer {
  name: "inception_3b/double_3x3_1"
  type: "Convolution"
  bottom: "inception_3b/double_3x3_reduce_bn"
  top: "inception_3b/double_3x3_1"
  param {
    lr_mult: 1
    decay_mult: 1
  }
  param {
    lr_mult: 2
    decay_mult: 0
  }
  convolution_param {
    num_output: 96
    pad: 1
    kernel_size: 3
    weight_filler {
      type: "xavier"
    }
    bias_filler {
      type: "constant"
      value: 0.2
    }
  }
}
layer {
  name: "inception_3b/double_3x3_1_bn"
  type: "BN"
  bottom: "inception_3b/double_3x3_1"
  top: "inception_3b/double_3x3_1_bn"
  param {
    lr_mult: 1
    decay_mult: 0
  }
  param {
    lr_mult: 1
    decay_mult: 0
  }
  bn_param {
    slope_filler {
      type: "constant"
      value: 1
    }
    bias_filler {
      type: "constant"
      value: 0
    }
    frozen: true
  }
}
layer {
  name: "inception_3b/relu_double_3x3_1"
  type: "ReLU"
  bottom: "inception_3b/double_3x3_1_bn"
  top: "inception_3b/double_3x3_1_bn"
}
layer {
  name: "inception_3b/double_3x3_2"
  type: "Convolution"
  bottom: "inception_3b/double_3x3_1_bn"
  top: "inception_3b/double_3x3_2"
  param {
    lr_mult: 1
    decay_mult: 1
  }
  param {
    lr_mult: 2
    decay_mult: 0
  }
  convolution_param {
    num_output: 96
    pad: 1
    kernel_size: 3
    weight_filler {
      type: "xavier"
    }
    bias_filler {
      type: "constant"
      value: 0.2
    }
  }
}
layer {
  name: "inception_3b/double_3x3_2_bn"
  type: "BN"
  bottom: "inception_3b/double_3x3_2"
  top: "inception_3b/double_3x3_2_bn"
  param {
    lr_mult: 1
    decay_mult: 0
  }
  param {
    lr_mult: 1
    decay_mult: 0
  }
  bn_param {
    slope_filler {
      type: "constant"
      value: 1
    }
    bias_filler {
      type: "constant"
      value: 0
    }
    frozen: true
  }
}
layer {
  name: "inception_3b/relu_double_3x3_2"
  type: "ReLU"
  bottom: "inception_3b/double_3x3_2_bn"
  top: "inception_3b/double_3x3_2_bn"
}
layer {
  name: "inception_3b/pool"
  type: "Pooling"
  bottom: "inception_3a/output"
  top: "inception_3b/pool"
  pooling_param {
    pool: AVE
    kernel_size: 3
    stride: 1
    pad: 1
  }
}
layer {
  name: "inception_3b/pool_proj"
  type: "Convolution"
  bottom: "inception_3b/pool"
  top: "inception_3b/pool_proj"
  param {
    lr_mult: 1
    decay_mult: 1
  }
  param {
    lr_mult: 2
    decay_mult: 0
  }
  convolution_param {
    num_output: 64
    kernel_size: 1
    weight_filler {
      type: "xavier"
    }
    bias_filler {
      type: "constant"
      value: 0.2
    }
  }
}
layer {
  name: "inception_3b/pool_proj_bn"
  type: "BN"
  bottom: "inception_3b/pool_proj"
  top: "inception_3b/pool_proj_bn"
  param {
    lr_mult: 1
    decay_mult: 0
  }
  param {
    lr_mult: 1
    decay_mult: 0
  }
  bn_param {
    slope_filler {
      type: "constant"
      value: 1
    }
    bias_filler {
      type: "constant"
      value: 0
    }
    frozen: true
  }
}
layer {
  name: "inception_3b/relu_pool_proj"
  type: "ReLU"
  bottom: "inception_3b/pool_proj_bn"
  top: "inception_3b/pool_proj_bn"
}
layer {
  name: "inception_3b/output"
  type: "Concat"
  bottom: "inception_3b/1x1_bn"
  bottom: "inception_3b/3x3_bn"
  bottom: "inception_3b/double_3x3_2_bn"
  bottom: "inception_3b/pool_proj_bn"
  top: "inception_3b/output"
}
layer {
  name: "inception_3c/3x3_reduce"
  type: "Convolution"
  bottom: "inception_3b/output"
  top: "inception_3c/3x3_reduce"
  param {
    lr_mult: 1
    decay_mult: 1
  }
  param {
    lr_mult: 2
    decay_mult: 0
  }
  convolution_param {
    num_output: 128
    kernel_size: 1
    weight_filler {
      type: "xavier"
    }
    bias_filler {
      type: "constant"
      value: 0.2
    }
  }
}
layer {
  name: "inception_3c/3x3_reduce_bn"
  type: "BN"
  bottom: "inception_3c/3x3_reduce"
  top: "inception_3c/3x3_reduce_bn"
  param {
    lr_mult: 1
    decay_mult: 0
  }
  param {
    lr_mult: 1
    decay_mult: 0
  }
  bn_param {
    slope_filler {
      type: "constant"
      value: 1
    }
    bias_filler {
      type: "constant"
      value: 0
    }
    frozen: true
  }
}
layer {
  name: "inception_3c/relu_3x3_reduce"
  type: "ReLU"
  bottom: "inception_3c/3x3_reduce_bn"
  top: "inception_3c/3x3_reduce_bn"
}
layer {
  name: "inception_3c/3x3"
  type: "Convolution"
  bottom: "inception_3c/3x3_reduce_bn"
  top: "inception_3c/3x3"
  param {
    lr_mult: 1
    decay_mult: 1
  }
  param {
    lr_mult: 2
    decay_mult: 0
  }
  convolution_param {
    num_output: 160
    pad: 1
    kernel_size: 3
    stride: 2
    weight_filler {
      type: "xavier"
    }
    bias_filler {
      type: "constant"
      value: 0.2
    }
  }
}
layer {
  name: "inception_3c/3x3_bn"
  type: "BN"
  bottom: "inception_3c/3x3"
  top: "inception_3c/3x3_bn"
  param {
    lr_mult: 1
    decay_mult: 0
  }
  param {
    lr_mult: 1
    decay_mult: 0
  }
  bn_param {
    slope_filler {
      type: "constant"
      value: 1
    }
    bias_filler {
      type: "constant"
      value: 0
    }
    frozen: true
  }
}
layer {
  name: "inception_3c/relu_3x3"
  type: "ReLU"
  bottom: "inception_3c/3x3_bn"
  top: "inception_3c/3x3_bn"
}
layer {
  name: "inception_3c/double_3x3_reduce"
  type: "Convolution"
  bottom: "inception_3b/output"
  top: "inception_3c/double_3x3_reduce"
  param {
    lr_mult: 1
    decay_mult: 1
  }
  param {
    lr_mult: 2
    decay_mult: 0
  }
  convolution_param {
    num_output: 64
    kernel_size: 1
    weight_filler {
      type: "xavier"
    }
    bias_filler {
      type: "constant"
      value: 0.2
    }
  }
}
layer {
  name: "inception_3c/double_3x3_reduce_bn"
  type: "BN"
  bottom: "inception_3c/double_3x3_reduce"
  top: "inception_3c/double_3x3_reduce_bn"
  param {
    lr_mult: 1
    decay_mult: 0
  }
  param {
    lr_mult: 1
    decay_mult: 0
  }
  bn_param {
    slope_filler {
      type: "constant"
      value: 1
    }
    bias_filler {
      type: "constant"
      value: 0
    }
    frozen: true
  }
}
layer {
  name: "inception_3c/relu_double_3x3_reduce"
  type: "ReLU"
  bottom: "inception_3c/double_3x3_reduce_bn"
  top: "inception_3c/double_3x3_reduce_bn"
}
layer {
  name: "inception_3c/double_3x3_1"
  type: "Convolution"
  bottom: "inception_3c/double_3x3_reduce_bn"
  top: "inception_3c/double_3x3_1"
  param {
    lr_mult: 1
    decay_mult: 1
  }
  param {
    lr_mult: 2
    decay_mult: 0
  }
  convolution_param {
    num_output: 96
    pad: 1
    kernel_size: 3
    weight_filler {
      type: "xavier"
    }
    bias_filler {
      type: "constant"
      value: 0.2
    }
  }
}
layer {
  name: "inception_3c/double_3x3_1_bn"
  type: "BN"
  bottom: "inception_3c/double_3x3_1"
  top: "inception_3c/double_3x3_1_bn"
  param {
    lr_mult: 1
    decay_mult: 0
  }
  param {
    lr_mult: 1
    decay_mult: 0
  }
  bn_param {
    slope_filler {
      type: "constant"
      value: 1
    }
    bias_filler {
      type: "constant"
      value: 0
    }
    frozen: true
  }
}
layer {
  name: "inception_3c/relu_double_3x3_1"
  type: "ReLU"
  bottom: "inception_3c/double_3x3_1_bn"
  top: "inception_3c/double_3x3_1_bn"
}
layer {
  name: "inception_3c/double_3x3_2"
  type: "Convolution"
  bottom: "inception_3c/double_3x3_1_bn"
  top: "inception_3c/double_3x3_2"
  param {
    lr_mult: 1
    decay_mult: 1
  }
  param {
    lr_mult: 2
    decay_mult: 0
  }
  convolution_param {
    num_output: 96
    pad: 1
    kernel_size: 3
    stride: 2
    weight_filler {
      type: "xavier"
    }
    bias_filler {
      type: "constant"
      value: 0.2
    }
  }
}
layer {
  name: "inception_3c/double_3x3_2_bn"
  type: "BN"
  bottom: "inception_3c/double_3x3_2"
  top: "inception_3c/double_3x3_2_bn"
  param {
    lr_mult: 1
    decay_mult: 0
  }
  param {
    lr_mult: 1
    decay_mult: 0
  }
  bn_param {
    slope_filler {
      type: "constant"
      value: 1
    }
    bias_filler {
      type: "constant"
      value: 0
    }
    frozen: true
  }
}
layer {
  name: "inception_3c/relu_double_3x3_2"
  type: "ReLU"
  bottom: "inception_3c/double_3x3_2_bn"
  top: "inception_3c/double_3x3_2_bn"
}
layer {
  name: "inception_3c/pool"
  type: "Pooling"
  bottom: "inception_3b/output"
  top: "inception_3c/pool"
  pooling_param {
    pool: MAX
    kernel_size: 3
    stride: 2
  }
}
layer {
  name: "inception_3c/output"
  type: "Concat"
  bottom: "inception_3c/3x3_bn"
  bottom: "inception_3c/double_3x3_2_bn"
  bottom: "inception_3c/pool"
  top: "inception_3c/output"
}
layer {
  name: "inception_4a/1x1"
  type: "Convolution"
  bottom: "inception_3c/output"
  top: "inception_4a/1x1"
  param {
    lr_mult: 1
    decay_mult: 1
  }
  param {
    lr_mult: 2
    decay_mult: 0
  }
  convolution_param {
    num_output: 224
    kernel_size: 1
    weight_filler {
      type: "xavier"
    }
    bias_filler {
      type: "constant"
      value: 0.2
    }
  }
}
layer {
  name: "inception_4a/1x1_bn"
  type: "BN"
  bottom: "inception_4a/1x1"
  top: "inception_4a/1x1_bn"
  param {
    lr_mult: 1
    decay_mult: 0
  }
  param {
    lr_mult: 1
    decay_mult: 0
  }
  bn_param {
    slope_filler {
      type: "constant"
      value: 1
    }
    bias_filler {
      type: "constant"
      value: 0
    }
    frozen: true
  }
}
layer {
  name: "inception_4a/relu_1x1"
  type: "ReLU"
  bottom: "inception_4a/1x1_bn"
  top: "inception_4a/1x1_bn"
}
layer {
  name: "inception_4a/3x3_reduce"
  type: "Convolution"
  bottom: "inception_3c/output"
  top: "inception_4a/3x3_reduce"
  param {
    lr_mult: 1
    decay_mult: 1
  }
  param {
    lr_mult: 2
    decay_mult: 0
  }
  convolution_param {
    num_output: 64
    kernel_size: 1
    weight_filler {
      type: "xavier"
    }
    bias_filler {
      type: "constant"
      value: 0.2
    }
  }
}
layer {
  name: "inception_4a/3x3_reduce_bn"
  type: "BN"
  bottom: "inception_4a/3x3_reduce"
  top: "inception_4a/3x3_reduce_bn"
  param {
    lr_mult: 1
    decay_mult: 0
  }
  param {
    lr_mult: 1
    decay_mult: 0
  }
  bn_param {
    slope_filler {
      type: "constant"
      value: 1
    }
    bias_filler {
      type: "constant"
      value: 0
    }
    frozen: true
  }
}
layer {
  name: "inception_4a/relu_3x3_reduce"
  type: "ReLU"
  bottom: "inception_4a/3x3_reduce_bn"
  top: "inception_4a/3x3_reduce_bn"
}
layer {
  name: "inception_4a/3x3"
  type: "Convolution"
  bottom: "inception_4a/3x3_reduce_bn"
  top: "inception_4a/3x3"
  param {
    lr_mult: 1
    decay_mult: 1
  }
  param {
    lr_mult: 2
    decay_mult: 0
  }
  convolution_param {
    num_output: 96
    pad: 1
    kernel_size: 3
    weight_filler {
      type: "xavier"
    }
    bias_filler {
      type: "constant"
      value: 0.2
    }
  }
}
layer {
  name: "inception_4a/3x3_bn"
  type: "BN"
  bottom: "inception_4a/3x3"
  top: "inception_4a/3x3_bn"
  param {
    lr_mult: 1
    decay_mult: 0
  }
  param {
    lr_mult: 1
    decay_mult: 0
  }
  bn_param {
    slope_filler {
      type: "constant"
      value: 1
    }
    bias_filler {
      type: "constant"
      value: 0
    }
    frozen: true
  }
}
layer {
  name: "inception_4a/relu_3x3"
  type: "ReLU"
  bottom: "inception_4a/3x3_bn"
  top: "inception_4a/3x3_bn"
}
layer {
  name: "inception_4a/double_3x3_reduce"
  type: "Convolution"
  bottom: "inception_3c/output"
  top: "inception_4a/double_3x3_reduce"
  param {
    lr_mult: 1
    decay_mult: 1
  }
  param {
    lr_mult: 2
    decay_mult: 0
  }
  convolution_param {
    num_output: 96
    kernel_size: 1
    weight_filler {
      type: "xavier"
    }
    bias_filler {
      type: "constant"
      value: 0.2
    }
  }
}
layer {
  name: "inception_4a/double_3x3_reduce_bn"
  type: "BN"
  bottom: "inception_4a/double_3x3_reduce"
  top: "inception_4a/double_3x3_reduce_bn"
  param {
    lr_mult: 1
    decay_mult: 0
  }
  param {
    lr_mult: 1
    decay_mult: 0
  }
  bn_param {
    slope_filler {
      type: "constant"
      value: 1
    }
    bias_filler {
      type: "constant"
      value: 0
    }
    frozen: true
  }
}
layer {
  name: "inception_4a/relu_double_3x3_reduce"
  type: "ReLU"
  bottom: "inception_4a/double_3x3_reduce_bn"
  top: "inception_4a/double_3x3_reduce_bn"
}
layer {
  name: "inception_4a/double_3x3_1"
  type: "Convolution"
  bottom: "inception_4a/double_3x3_reduce_bn"
  top: "inception_4a/double_3x3_1"
  param {
    lr_mult: 1
    decay_mult: 1
  }
  param {
    lr_mult: 2
    decay_mult: 0
  }
  convolution_param {
    num_output: 128
    pad: 1
    kernel_size: 3
    weight_filler {
      type: "xavier"
    }
    bias_filler {
      type: "constant"
      value: 0.2
    }
  }
}
layer {
  name: "inception_4a/double_3x3_1_bn"
  type: "BN"
  bottom: "inception_4a/double_3x3_1"
  top: "inception_4a/double_3x3_1_bn"
  param {
    lr_mult: 1
    decay_mult: 0
  }
  param {
    lr_mult: 1
    decay_mult: 0
  }
  bn_param {
    slope_filler {
      type: "constant"
      value: 1
    }
    bias_filler {
      type: "constant"
      value: 0
    }
    frozen: true
  }
}
layer {
  name: "inception_4a/relu_double_3x3_1"
  type: "ReLU"
  bottom: "inception_4a/double_3x3_1_bn"
  top: "inception_4a/double_3x3_1_bn"
}
layer {
  name: "inception_4a/double_3x3_2"
  type: "Convolution"
  bottom: "inception_4a/double_3x3_1_bn"
  top: "inception_4a/double_3x3_2"
  param {
    lr_mult: 1
    decay_mult: 1
  }
  param {
    lr_mult: 2
    decay_mult: 0
  }
  convolution_param {
    num_output: 128
    pad: 1
    kernel_size: 3
    weight_filler {
      type: "xavier"
    }
    bias_filler {
      type: "constant"
      value: 0.2
    }
  }
}
layer {
  name: "inception_4a/double_3x3_2_bn"
  type: "BN"
  bottom: "inception_4a/double_3x3_2"
  top: "inception_4a/double_3x3_2_bn"
  param {
    lr_mult: 1
    decay_mult: 0
  }
  param {
    lr_mult: 1
    decay_mult: 0
  }
  bn_param {
    slope_filler {
      type: "constant"
      value: 1
    }
    bias_filler {
      type: "constant"
      value: 0
    }
    frozen: true
  }
}
layer {
  name: "inception_4a/relu_double_3x3_2"
  type: "ReLU"
  bottom: "inception_4a/double_3x3_2_bn"
  top: "inception_4a/double_3x3_2_bn"
}
layer {
  name: "inception_4a/pool"
  type: "Pooling"
  bottom: "inception_3c/output"
  top: "inception_4a/pool"
  pooling_param {
    pool: AVE
    kernel_size: 3
    stride: 1
    pad: 1
  }
}
layer {
  name: "inception_4a/pool_proj"
  type: "Convolution"
  bottom: "inception_4a/pool"
  top: "inception_4a/pool_proj"
  param {
    lr_mult: 1
    decay_mult: 1
  }
  param {
    lr_mult: 2
    decay_mult: 0
  }
  convolution_param {
    num_output: 128
    kernel_size: 1
    weight_filler {
      type: "xavier"
    }
    bias_filler {
      type: "constant"
      value: 0.2
    }
  }
}
layer {
  name: "inception_4a/pool_proj_bn"
  type: "BN"
  bottom: "inception_4a/pool_proj"
  top: "inception_4a/pool_proj_bn"
  param {
    lr_mult: 1
    decay_mult: 0
  }
  param {
    lr_mult: 1
    decay_mult: 0
  }
  bn_param {
    slope_filler {
      type: "constant"
      value: 1
    }
    bias_filler {
      type: "constant"
      value: 0
    }
    frozen: true
  }
}
layer {
  name: "inception_4a/relu_pool_proj"
  type: "ReLU"
  bottom: "inception_4a/pool_proj_bn"
  top: "inception_4a/pool_proj_bn"
}
layer {
  name: "inception_4a/output"
  type: "Concat"
  bottom: "inception_4a/1x1_bn"
  bottom: "inception_4a/3x3_bn"
  bottom: "inception_4a/double_3x3_2_bn"
  bottom: "inception_4a/pool_proj_bn"
  top: "inception_4a/output"
}
layer {
  name: "inception_4b/1x1"
  type: "Convolution"
  bottom: "inception_4a/output"
  top: "inception_4b/1x1"
  param {
    lr_mult: 1
    decay_mult: 1
  }
  param {
    lr_mult: 2
    decay_mult: 0
  }
  convolution_param {
    num_output: 192
    kernel_size: 1
    weight_filler {
      type: "xavier"
    }
    bias_filler {
      type: "constant"
      value: 0.2
    }
  }
}
layer {
  name: "inception_4b/1x1_bn"
  type: "BN"
  bottom: "inception_4b/1x1"
  top: "inception_4b/1x1_bn"
  param {
    lr_mult: 1
    decay_mult: 0
  }
  param {
    lr_mult: 1
    decay_mult: 0
  }
  bn_param {
    slope_filler {
      type: "constant"
      value: 1
    }
    bias_filler {
      type: "constant"
      value: 0
    }
    frozen: true
  }
}
layer {
  name: "inception_4b/relu_1x1"
  type: "ReLU"
  bottom: "inception_4b/1x1_bn"
  top: "inception_4b/1x1_bn"
}
layer {
  name: "inception_4b/3x3_reduce"
  type: "Convolution"
  bottom: "inception_4a/output"
  top: "inception_4b/3x3_reduce"
  param {
    lr_mult: 1
    decay_mult: 1
  }
  param {
    lr_mult: 2
    decay_mult: 
I0107 20:03:19.447691 14736 net.cpp:417] Input 0 -> data
I0107 20:03:19.447722 14736 layer_factory.hpp:74] Creating layer conv1/7x7_s2
I0107 20:03:19.447729 14736 net.cpp:96] Creating Layer conv1/7x7_s2
I0107 20:03:19.447733 14736 net.cpp:459] conv1/7x7_s2 <- data
I0107 20:03:19.447738 14736 net.cpp:415] conv1/7x7_s2 -> conv1/7x7_s2
I0107 20:03:19.447744 14736 net.cpp:160] Setting up conv1/7x7_s2
I0107 20:03:19.448092 14736 net.cpp:167] Top shape: 1 64 112 112 (802816)
I0107 20:03:19.448102 14736 layer_factory.hpp:74] Creating layer conv1/7x7_s2_bn
I0107 20:03:19.448106 14736 layer_factory.cpp:177] Layer conv1/7x7_s2_bn is using CAFFE engine.
I0107 20:03:19.448110 14736 net.cpp:96] Creating Layer conv1/7x7_s2_bn
I0107 20:03:19.448113 14736 net.cpp:459] conv1/7x7_s2_bn <- conv1/7x7_s2
I0107 20:03:19.448118 14736 net.cpp:415] conv1/7x7_s2_bn -> conv1/7x7_s2_bn
I0107 20:03:19.448123 14736 net.cpp:160] Setting up conv1/7x7_s2_bn
I0107 20:03:19.448148 14736 net.cpp:167] Top shape: 1 64 112 112 (802816)
I0107 20:03:19.448156 14736 layer_factory.hpp:74] Creating layer conv1/relu_7x7
I0107 20:03:19.448160 14736 net.cpp:96] Creating Layer conv1/relu_7x7
I0107 20:03:19.448163 14736 net.cpp:459] conv1/relu_7x7 <- conv1/7x7_s2_bn
I0107 20:03:19.448168 14736 net.cpp:404] conv1/relu_7x7 -> conv1/7x7_s2_bn (in-place)
I0107 20:03:19.448171 14736 net.cpp:160] Setting up conv1/relu_7x7
I0107 20:03:19.448175 14736 net.cpp:167] Top shape: 1 64 112 112 (802816)
I0107 20:03:19.448179 14736 layer_factory.hpp:74] Creating layer pool1/3x3_s2
I0107 20:03:19.448182 14736 net.cpp:96] Creating Layer pool1/3x3_s2
I0107 20:03:19.448185 14736 net.cpp:459] pool1/3x3_s2 <- conv1/7x7_s2_bn
I0107 20:03:19.448189 14736 net.cpp:415] pool1/3x3_s2 -> pool1/3x3_s2
I0107 20:03:19.448194 14736 net.cpp:160] Setting up pool1/3x3_s2
I0107 20:03:19.448199 14736 net.cpp:167] Top shape: 1 64 56 56 (200704)
I0107 20:03:19.448201 14736 layer_factory.hpp:74] Creating layer conv2/3x3_reduce
I0107 20:03:19.448206 14736 net.cpp:96] Creating Layer conv2/3x3_reduce
I0107 20:03:19.448210 14736 net.cpp:459] conv2/3x3_reduce <- pool1/3x3_s2
I0107 20:03:19.448213 14736 net.cpp:415] conv2/3x3_reduce -> conv2/3x3_reduce
I0107 20:03:19.448218 14736 net.cpp:160] Setting up conv2/3x3_reduce
I0107 20:03:19.448247 14736 net.cpp:167] Top shape: 1 64 56 56 (200704)
I0107 20:03:19.448252 14736 layer_factory.hpp:74] Creating layer conv2/3x3_reduce_bn
I0107 20:03:19.448256 14736 layer_factory.cpp:177] Layer conv2/3x3_reduce_bn is using CAFFE engine.
I0107 20:03:19.448259 14736 net.cpp:96] Creating Layer conv2/3x3_reduce_bn
I0107 20:03:19.448262 14736 net.cpp:459] conv2/3x3_reduce_bn <- conv2/3x3_reduce
I0107 20:03:19.448266 14736 net.cpp:415] conv2/3x3_reduce_bn -> conv2/3x3_reduce_bn
I0107 20:03:19.448273 14736 net.cpp:160] Setting up conv2/3x3_reduce_bn
I0107 20:03:19.448289 14736 net.cpp:167] Top shape: 1 64 56 56 (200704)
I0107 20:03:19.448297 14736 layer_factory.hpp:74] Creating layer conv2/relu_3x3_reduce
I0107 20:03:19.448300 14736 net.cpp:96] Creating Layer conv2/relu_3x3_reduce
I0107 20:03:19.448303 14736 net.cpp:459] conv2/relu_3x3_reduce <- conv2/3x3_reduce_bn
I0107 20:03:19.448307 14736 net.cpp:404] conv2/relu_3x3_reduce -> conv2/3x3_reduce_bn (in-place)
I0107 20:03:19.448310 14736 net.cpp:160] Setting up conv2/relu_3x3_reduce
I0107 20:03:19.448313 14736 net.cpp:167] Top shape: 1 64 56 56 (200704)
I0107 20:03:19.448317 14736 layer_factory.hpp:74] Creating layer conv2/3x3
I0107 20:03:19.448321 14736 net.cpp:96] Creating Layer conv2/3x3
I0107 20:03:19.448324 14736 net.cpp:459] conv2/3x3 <- conv2/3x3_reduce_bn
I0107 20:03:19.448328 14736 net.cpp:415] conv2/3x3 -> conv2/3x3
I0107 20:03:19.448333 14736 net.cpp:160] Setting up conv2/3x3
I0107 20:03:19.448820 14736 net.cpp:167] Top shape: 1 192 56 56 (602112)
I0107 20:03:19.448827 14736 layer_factory.hpp:74] Creating layer conv2/3x3_bn
I0107 20:03:19.448829 14736 layer_factory.cpp:177] Layer conv2/3x3_bn is using CAFFE engine.
I0107 20:03:19.448835 14736 net.cpp:96] Creating Layer conv2/3x3_bn
I0107 20:03:19.448838 14736 net.cpp:459] conv2/3x3_bn <- conv2/3x3
I0107 20:03:19.448843 14736 net.cpp:415] conv2/3x3_bn -> conv2/3x3_bn
I0107 20:03:19.448848 14736 net.cpp:160] Setting up conv2/3x3_bn
I0107 20:03:19.448861 14736 net.cpp:167] Top shape: 1 192 56 56 (602112)
I0107 20:03:19.448868 14736 layer_factory.hpp:74] Creating layer conv2/relu_3x3
I0107 20:03:19.448873 14736 net.cpp:96] Creating Layer conv2/relu_3x3
I0107 20:03:19.448875 14736 net.cpp:459] conv2/relu_3x3 <- conv2/3x3_bn
I0107 20:03:19.448879 14736 net.cpp:404] conv2/relu_3x3 -> conv2/3x3_bn (in-place)
I0107 20:03:19.448882 14736 net.cpp:160] Setting up conv2/relu_3x3
I0107 20:03:19.448886 14736 net.cpp:167] Top shape: 1 192 56 56 (602112)
I0107 20:03:19.448889 14736 layer_factory.hpp:74] Creating layer pool2/3x3_s2
I0107 20:03:19.448892 14736 net.cpp:96] Creating Layer pool2/3x3_s2
I0107 20:03:19.448895 14736 net.cpp:459] pool2/3x3_s2 <- conv2/3x3_bn
I0107 20:03:19.448900 14736 net.cpp:415] pool2/3x3_s2 -> pool2/3x3_s2
I0107 20:03:19.448905 14736 net.cpp:160] Setting up pool2/3x3_s2
I0107 20:03:19.448910 14736 net.cpp:167] Top shape: 1 192 28 28 (150528)
I0107 20:03:19.448914 14736 layer_factory.hpp:74] Creating layer pool2/3x3_s2_pool2/3x3_s2_0_split
I0107 20:03:19.448917 14736 net.cpp:96] Creating Layer pool2/3x3_s2_pool2/3x3_s2_0_split
I0107 20:03:19.448920 14736 net.cpp:459] pool2/3x3_s2_pool2/3x3_s2_0_split <- pool2/3x3_s2
I0107 20:03:19.448923 14736 net.cpp:415] pool2/3x3_s2_pool2/3x3_s2_0_split -> pool2/3x3_s2_pool2/3x3_s2_0_split_0
I0107 20:03:19.448928 14736 net.cpp:415] pool2/3x3_s2_pool2/3x3_s2_0_split -> pool2/3x3_s2_pool2/3x3_s2_0_split_1
I0107 20:03:19.448932 14736 net.cpp:415] pool2/3x3_s2_pool2/3x3_s2_0_split -> pool2/3x3_s2_pool2/3x3_s2_0_split_2
I0107 20:03:19.448936 14736 net.cpp:415] pool2/3x3_s2_pool2/3x3_s2_0_split -> pool2/3x3_s2_pool2/3x3_s2_0_split_3
I0107 20:03:19.448940 14736 net.cpp:160] Setting up pool2/3x3_s2_pool2/3x3_s2_0_split
I0107 20:03:19.448945 14736 net.cpp:167] Top shape: 1 192 28 28 (150528)
I0107 20:03:19.448948 14736 net.cpp:167] Top shape: 1 192 28 28 (150528)
I0107 20:03:19.448951 14736 net.cpp:167] Top shape: 1 192 28 28 (150528)
I0107 20:03:19.448954 14736 net.cpp:167] Top shape: 1 192 28 28 (150528)
I0107 20:03:19.448957 14736 layer_factory.hpp:74] Creating layer inception_3a/1x1
I0107 20:03:19.448964 14736 net.cpp:96] Creating Layer inception_3a/1x1
I0107 20:03:19.448967 14736 net.cpp:459] inception_3a/1x1 <- pool2/3x3_s2_pool2/3x3_s2_0_split_0
I0107 20:03:19.448972 14736 net.cpp:415] inception_3a/1x1 -> inception_3a/1x1
I0107 20:03:19.448976 14736 net.cpp:160] Setting up inception_3a/1x1
I0107 20:03:19.449036 14736 net.cpp:167] Top shape: 1 64 28 28 (50176)
I0107 20:03:19.449041 14736 layer_factory.hpp:74] Creating layer inception_3a/1x1_bn
I0107 20:03:19.449046 14736 layer_factory.cpp:177] Layer inception_3a/1x1_bn is using CAFFE engine.
I0107 20:03:19.449050 14736 net.cpp:96] Creating Layer inception_3a/1x1_bn
I0107 20:03:19.449054 14736 net.cpp:459] inception_3a/1x1_bn <- inception_3a/1x1
I0107 20:03:19.449059 14736 net.cpp:415] inception_3a/1x1_bn -> inception_3a/1x1_bn
I0107 20:03:19.449064 14736 net.cpp:160] Setting up inception_3a/1x1_bn
I0107 20:03:19.449076 14736 net.cpp:167] Top shape: 1 64 28 28 (50176)
I0107 20:03:19.449082 14736 layer_factory.hpp:74] Creating layer inception_3a/relu_1x1
I0107 20:03:19.449086 14736 net.cpp:96] Creating Layer inception_3a/relu_1x1
I0107 20:03:19.449090 14736 net.cpp:459] inception_3a/relu_1x1 <- inception_3a/1x1_bn
I0107 20:03:19.449093 14736 net.cpp:404] inception_3a/relu_1x1 -> inception_3a/1x1_bn (in-place)
I0107 20:03:19.449096 14736 net.cpp:160] Setting up inception_3a/relu_1x1
I0107 20:03:19.449100 14736 net.cpp:167] Top shape: 1 64 28 28 (50176)
I0107 20:03:19.449103 14736 layer_factory.hpp:74] Creating layer inception_3a/3x3_reduce
I0107 20:03:19.449108 14736 net.cpp:96] Creating Layer inception_3a/3x3_reduce
I0107 20:03:19.449111 14736 net.cpp:459] inception_3a/3x3_reduce <- pool2/3x3_s2_pool2/3x3_s2_0_split_1
I0107 20:03:19.449115 14736 net.cpp:415] inception_3a/3x3_reduce -> inception_3a/3x3_reduce
I0107 20:03:19.449120 14736 net.cpp:160] Setting up inception_3a/3x3_reduce
I0107 20:03:19.449180 14736 net.cpp:167] Top shape: 1 64 28 28 (50176)
I0107 20:03:19.449185 14736 layer_factory.hpp:74] Creating layer inception_3a/3x3_reduce_bn
I0107 20:03:19.449188 14736 layer_factory.cpp:177] Layer inception_3a/3x3_reduce_bn is using CAFFE engine.
I0107 20:03:19.449194 14736 net.cpp:96] Creating Layer inception_3a/3x3_reduce_bn
I0107 20:03:19.449198 14736 net.cpp:459] inception_3a/3x3_reduce_bn <- inception_3a/3x3_reduce
I0107 20:03:19.449203 14736 net.cpp:415] inception_3a/3x3_reduce_bn -> inception_3a/3x3_reduce_bn
I0107 20:03:19.449209 14736 net.cpp:160] Setting up inception_3a/3x3_reduce_bn
I0107 20:03:19.449220 14736 net.cpp:167] Top shape: 1 64 28 28 (50176)
I0107 20:03:19.449226 14736 layer_factory.hpp:74] Creating layer inception_3a/relu_3x3_reduce
I0107 20:03:19.449230 14736 net.cpp:96] Creating Layer inception_3a/relu_3x3_reduce
I0107 20:03:19.449234 14736 net.cpp:459] inception_3a/relu_3x3_reduce <- inception_3a/3x3_reduce_bn
I0107 20:03:19.449236 14736 net.cpp:404] inception_3a/relu_3x3_reduce -> inception_3a/3x3_reduce_bn (in-place)
I0107 20:03:19.449240 14736 net.cpp:160] Setting up inception_3a/relu_3x3_reduce
I0107 20:03:19.449244 14736 net.cpp:167] Top shape: 1 64 28 28 (50176)
I0107 20:03:19.449246 14736 layer_factory.hpp:74] Creating layer inception_3a/3x3
I0107 20:03:19.449251 14736 net.cpp:96] Creating Layer inception_3a/3x3
I0107 20:03:19.449254 14736 net.cpp:459] inception_3a/3x3 <- inception_3a/3x3_reduce_bn
I0107 20:03:19.449259 14736 net.cpp:415] inception_3a/3x3 -> inception_3a/3x3
I0107 20:03:19.449262 14736 net.cpp:160] Setting up inception_3a/3x3
I0107 20:03:19.449429 14736 net.cpp:167] Top shape: 1 64 28 28 (50176)
I0107 20:03:19.449434 14736 layer_factory.hpp:74] Creating layer inception_3a/3x3_bn
I0107 20:03:19.449436 14736 layer_factory.cpp:177] Layer inception_3a/3x3_bn is using CAFFE engine.
I0107 20:03:19.449441 14736 net.cpp:96] Creating Layer inception_3a/3x3_bn
I0107 20:03:19.449445 14736 net.cpp:459] inception_3a/3x3_bn <- inception_3a/3x3
I0107 20:03:19.449450 14736 net.cpp:415] inception_3a/3x3_bn -> inception_3a/3x3_bn
I0107 20:03:19.449455 14736 net.cpp:160] Setting up inception_3a/3x3_bn
I0107 20:03:19.449465 14736 net.cpp:167] Top shape: 1 64 28 28 (50176)
I0107 20:03:19.449471 14736 layer_factory.hpp:74] Creating layer inception_3a/relu_3x3
I0107 20:03:19.449476 14736 net.cpp:96] Creating Layer inception_3a/relu_3x3
I0107 20:03:19.449479 14736 net.cpp:459] inception_3a/relu_3x3 <- inception_3a/3x3_bn
I0107 20:03:19.449482 14736 net.cpp:404] inception_3a/relu_3x3 -> inception_3a/3x3_bn (in-place)
I0107 20:03:19.449486 14736 net.cpp:160] Setting up inception_3a/relu_3x3
I0107 20:03:19.449492 14736 net.cpp:167] Top shape: 1 64 28 28 (50176)
I0107 20:03:19.449496 14736 layer_factory.hpp:74] Creating layer inception_3a/double_3x3_reduce
I0107 20:03:19.449501 14736 net.cpp:96] Creating Layer inception_3a/double_3x3_reduce
I0107 20:03:19.449503 14736 net.cpp:459] inception_3a/double_3x3_reduce <- pool2/3x3_s2_pool2/3x3_s2_0_split_2
I0107 20:03:19.449507 14736 net.cpp:415] inception_3a/double_3x3_reduce -> inception_3a/double_3x3_reduce
I0107 20:03:19.449512 14736 net.cpp:160] Setting up inception_3a/double_3x3_reduce
I0107 20:03:19.449571 14736 net.cpp:167] Top shape: 1 64 28 28 (50176)
I0107 20:03:19.449576 14736 layer_factory.hpp:74] Creating layer inception_3a/double_3x3_reduce_bn
I0107 20:03:19.449579 14736 layer_factory.cpp:177] Layer inception_3a/double_3x3_reduce_bn is using CAFFE engine.
I0107 20:03:19.449584 14736 net.cpp:96] Creating Layer inception_3a/double_3x3_reduce_bn
I0107 20:03:19.449586 14736 net.cpp:459] inception_3a/double_3x3_reduce_bn <- inception_3a/double_3x3_reduce
I0107 20:03:19.449591 14736 net.cpp:415] inception_3a/double_3x3_reduce_bn -> inception_3a/double_3x3_reduce_bn
I0107 20:03:19.449596 14736 net.cpp:160] Setting up inception_3a/double_3x3_reduce_bn
I0107 20:03:19.449606 14736 net.cpp:167] Top shape: 1 64 28 28 (50176)
I0107 20:03:19.449611 14736 layer_factory.hpp:74] Creating layer inception_3a/relu_double_3x3_reduce
I0107 20:03:19.449615 14736 net.cpp:96] Creating Layer inception_3a/relu_double_3x3_reduce
I0107 20:03:19.449618 14736 net.cpp:459] inception_3a/relu_double_3x3_reduce <- inception_3a/double_3x3_reduce_bn
I0107 20:03:19.449622 14736 net.cpp:404] inception_3a/relu_double_3x3_reduce -> inception_3a/double_3x3_reduce_bn (in-place)
I0107 20:03:19.449625 14736 net.cpp:160] Setting up inception_3a/relu_double_3x3_reduce
I0107 20:03:19.449630 14736 net.cpp:167] Top shape: 1 64 28 28 (50176)
I0107 20:03:19.449632 14736 layer_factory.hpp:74] Creating layer inception_3a/double_3x3_1
I0107 20:03:19.449635 14736 net.cpp:96] Creating Layer inception_3a/double_3x3_1
I0107 20:03:19.449638 14736 net.cpp:459] inception_3a/double_3x3_1 <- inception_3a/double_3x3_reduce_bn
I0107 20:03:19.449645 14736 net.cpp:415] inception_3a/double_3x3_1 -> inception_3a/double_3x3_1
I0107 20:03:19.449650 14736 net.cpp:160] Setting up inception_3a/double_3x3_1
I0107 20:03:19.449903 14736 net.cpp:167] Top shape: 1 96 28 28 (75264)
I0107 20:03:19.449910 14736 layer_factory.hpp:74] Creating layer inception_3a/double_3x3_1_bn
I0107 20:03:19.449913 14736 layer_factory.cpp:177] Layer inception_3a/double_3x3_1_bn is using CAFFE engine.
I0107 20:03:19.449918 14736 net.cpp:96] Creating Layer inception_3a/double_3x3_1_bn
I0107 20:03:19.449921 14736 net.cpp:459] inception_3a/double_3x3_1_bn <- inception_3a/double_3x3_1
I0107 20:03:19.449926 14736 net.cpp:415] inception_3a/double_3x3_1_bn -> inception_3a/double_3x3_1_bn
I0107 20:03:19.449931 14736 net.cpp:160] Setting up inception_3a/double_3x3_1_bn
I0107 20:03:19.449944 14736 net.cpp:167] Top shape: 1 96 28 28 (75264)
I0107 20:03:19.449949 14736 layer_factory.hpp:74] Creating layer inception_3a/relu_double_3x3_1
I0107 20:03:19.449954 14736 net.cpp:96] Creating Layer inception_3a/relu_double_3x3_1
I0107 20:03:19.449956 14736 net.cpp:459] inception_3a/relu_double_3x3_1 <- inception_3a/double_3x3_1_bn
I0107 20:03:19.449960 14736 net.cpp:404] inception_3a/relu_double_3x3_1 -> inception_3a/double_3x3_1_bn (in-place)
I0107 20:03:19.449965 14736 net.cpp:160] Setting up inception_3a/relu_double_3x3_1
I0107 20:03:19.449968 14736 net.cpp:167] Top shape: 1 96 28 28 (75264)
I0107 20:03:19.449970 14736 layer_factory.hpp:74] Creating layer inception_3a/double_3x3_2
I0107 20:03:19.449975 14736 net.cpp:96] Creating Layer inception_3a/double_3x3_2
I0107 20:03:19.449977 14736 net.cpp:459] inception_3a/double_3x3_2 <- inception_3a/double_3x3_1_bn
I0107 20:03:19.449982 14736 net.cpp:415] inception_3a/double_3x3_2 -> inception_3a/double_3x3_2
I0107 20:03:19.449986 14736 net.cpp:160] Setting up inception_3a/double_3x3_2
I0107 20:03:19.450356 14736 net.cpp:167] Top shape: 1 96 28 28 (75264)
I0107 20:03:19.450361 14736 layer_factory.hpp:74] Creating layer inception_3a/double_3x3_2_bn
I0107 20:03:19.450364 14736 layer_factory.cpp:177] Layer inception_3a/double_3x3_2_bn is using CAFFE engine.
I0107 20:03:19.450368 14736 net.cpp:96] Creating Layer inception_3a/double_3x3_2_bn
I0107 20:03:19.450371 14736 net.cpp:459] inception_3a/double_3x3_2_bn <- inception_3a/double_3x3_2
I0107 20:03:19.450376 14736 net.cpp:415] inception_3a/double_3x3_2_bn -> inception_3a/double_3x3_2_bn
I0107 20:03:19.450381 14736 net.cpp:160] Setting up inception_3a/double_3x3_2_bn
I0107 20:03:19.450392 14736 net.cpp:167] Top shape: 1 96 28 28 (75264)
I0107 20:03:19.450397 14736 layer_factory.hpp:74] Creating layer inception_3a/relu_double_3x3_2
I0107 20:03:19.450400 14736 net.cpp:96] Creating Layer inception_3a/relu_double_3x3_2
I0107 20:03:19.450403 14736 net.cpp:459] inception_3a/relu_double_3x3_2 <- inception_3a/double_3x3_2_bn
I0107 20:03:19.450407 14736 net.cpp:404] inception_3a/relu_double_3x3_2 -> inception_3a/double_3x3_2_bn (in-place)
I0107 20:03:19.450412 14736 net.cpp:160] Setting up inception_3a/relu_double_3x3_2
I0107 20:03:19.450415 14736 net.cpp:167] Top shape: 1 96 28 28 (75264)
I0107 20:03:19.450417 14736 layer_factory.hpp:74] Creating layer inception_3a/pool
I0107 20:03:19.450422 14736 net.cpp:96] Creating Layer inception_3a/pool
I0107 20:03:19.450424 14736 net.cpp:459] inception_3a/pool <- pool2/3x3_s2_pool2/3x3_s2_0_split_3
I0107 20:03:19.450428 14736 net.cpp:415] inception_3a/pool -> inception_3a/pool
I0107 20:03:19.450433 14736 net.cpp:160] Setting up inception_3a/pool
I0107 20:03:19.450438 14736 net.cpp:167] Top shape: 1 192 28 28 (150528)
I0107 20:03:19.450440 14736 layer_factory.hpp:74] Creating layer inception_3a/pool_proj
I0107 20:03:19.450445 14736 net.cpp:96] Creating Layer inception_3a/pool_proj
I0107 20:03:19.450448 14736 net.cpp:459] inception_3a/pool_proj <- inception_3a/pool
I0107 20:03:19.450453 14736 net.cpp:415] inception_3a/pool_proj -> inception_3a/pool_proj
I0107 20:03:19.450458 14736 net.cpp:160] Setting up inception_3a/pool_proj
I0107 20:03:19.450490 14736 net.cpp:167] Top shape: 1 32 28 28 (25088)
I0107 20:03:19.450495 14736 layer_factory.hpp:74] Creating layer inception_3a/pool_proj_bn
I0107 20:03:19.450498 14736 layer_factory.cpp:177] Layer inception_3a/pool_proj_bn is using CAFFE engine.
I0107 20:03:19.450505 14736 net.cpp:96] Creating Layer inception_3a/pool_proj_bn
I0107 20:03:19.450507 14736 net.cpp:459] inception_3a/pool_proj_bn <- inception_3a/pool_proj
I0107 20:03:19.450511 14736 net.cpp:415] inception_3a/pool_proj_bn -> inception_3a/pool_proj_bn
I0107 20:03:19.450516 14736 net.cpp:160] Setting up inception_3a/pool_proj_bn
I0107 20:03:19.450528 14736 net.cpp:167] Top shape: 1 32 28 28 (25088)
I0107 20:03:19.450534 14736 layer_factory.hpp:74] Creating layer inception_3a/relu_pool_proj
I0107 20:03:19.450538 14736 net.cpp:96] Creating Layer inception_3a/relu_pool_proj
I0107 20:03:19.450541 14736 net.cpp:459] inception_3a/relu_pool_proj <- inception_3a/pool_proj_bn
I0107 20:03:19.450546 14736 net.cpp:404] inception_3a/relu_pool_proj -> inception_3a/pool_proj_bn (in-place)
I0107 20:03:19.450548 14736 net.cpp:160] Setting up inception_3a/relu_pool_proj
I0107 20:03:19.450552 14736 net.cpp:167] Top shape: 1 32 28 28 (25088)
I0107 20:03:19.450556 14736 layer_factory.hpp:74] Creating layer inception_3a/output
I0107 20:03:19.450559 14736 net.cpp:96] Creating Layer inception_3a/output
I0107 20:03:19.450562 14736 net.cpp:459] inception_3a/output <- inception_3a/1x1_bn
I0107 20:03:19.450567 14736 net.cpp:459] inception_3a/output <- inception_3a/3x3_bn
I0107 20:03:19.450569 14736 net.cpp:459] inception_3a/output <- inception_3a/double_3x3_2_bn
I0107 20:03:19.450572 14736 net.cpp:459] inception_3a/output <- inception_3a/pool_proj_bn
I0107 20:03:19.450577 14736 net.cpp:415] inception_3a/output -> inception_3a/output
I0107 20:03:19.450580 14736 net.cpp:160] Setting up inception_3a/output
I0107 20:03:19.450585 14736 net.cpp:167] Top shape: 1 256 28 28 (200704)
I0107 20:03:19.450592 14736 layer_factory.hpp:74] Creating layer inception_3a/output_inception_3a/output_0_split
I0107 20:03:19.450595 14736 net.cpp:96] Creating Layer inception_3a/output_inception_3a/output_0_split
I0107 20:03:19.450598 14736 net.cpp:459] inception_3a/output_inception_3a/output_0_split <- inception_3a/output
I0107 20:03:19.450601 14736 net.cpp:415] inception_3a/output_inception_3a/output_0_split -> inception_3a/output_inception_3a/output_0_split_0
I0107 20:03:19.450608 14736 net.cpp:415] inception_3a/output_inception_3a/output_0_split -> inception_3a/output_inception_3a/output_0_split_1
I0107 20:03:19.450611 14736 net.cpp:415] inception_3a/output_inception_3a/output_0_split -> inception_3a/output_inception_3a/output_0_split_2
I0107 20:03:19.450616 14736 net.cpp:415] inception_3a/output_inception_3a/output_0_split -> inception_3a/output_inception_3a/output_0_split_3
I0107 20:03:19.450623 14736 net.cpp:160] Setting up inception_3a/output_inception_3a/output_0_split
I0107 20:03:19.450628 14736 net.cpp:167] Top shape: 1 256 28 28 (200704)
I0107 20:03:19.450630 14736 net.cpp:167] Top shape: 1 256 28 28 (200704)
I0107 20:03:19.450634 14736 net.cpp:167] Top shape: 1 256 28 28 (200704)
I0107 20:03:19.450637 14736 net.cpp:167] Top shape: 1 256 28 28 (200704)
I0107 20:03:19.450640 14736 layer_factory.hpp:74] Creating layer inception_3b/1x1
I0107 20:03:19.450644 14736 net.cpp:96] Creating Layer inception_3b/1x1
I0107 20:03:19.450647 14736 net.cpp:459] inception_3b/1x1 <- inception_3a/output_inception_3a/output_0_split_0
I0107 20:03:19.450652 14736 net.cpp:415] inception_3b/1x1 -> inception_3b/1x1
I0107 20:03:19.450656 14736 net.cpp:160] Setting up inception_3b/1x1
I0107 20:03:19.450733 14736 net.cpp:167] Top shape: 1 64 28 28 (50176)
I0107 20:03:19.450738 14736 layer_factory.hpp:74] Creating layer inception_3b/1x1_bn
I0107 20:03:19.450742 14736 layer_factory.cpp:177] Layer inception_3b/1x1_bn is using CAFFE engine.
I0107 20:03:19.450745 14736 net.cpp:96] Creating Layer inception_3b/1x1_bn
I0107 20:03:19.450748 14736 net.cpp:459] inception_3b/1x1_bn <- inception_3b/1x1
I0107 20:03:19.450753 14736 net.cpp:415] inception_3b/1x1_bn -> inception_3b/1x1_bn
I0107 20:03:19.450757 14736 net.cpp:160] Setting up inception_3b/1x1_bn
I0107 20:03:19.450768 14736 net.cpp:167] Top shape: 1 64 28 28 (50176)
I0107 20:03:19.450778 14736 layer_factory.hpp:74] Creating layer inception_3b/relu_1x1
I0107 20:03:19.450783 14736 net.cpp:96] Creating Layer inception_3b/relu_1x1
I0107 20:03:19.450785 14736 net.cpp:459] inception_3b/relu_1x1 <- inception_3b/1x1_bn
I0107 20:03:19.450788 14736 net.cpp:404] inception_3b/relu_1x1 -> inception_3b/1x1_bn (in-place)
I0107 20:03:19.450793 14736 net.cpp:160] Setting up inception_3b/relu_1x1
I0107 20:03:19.450796 14736 net.cpp:167] Top shape: 1 64 28 28 (50176)
I0107 20:03:19.450799 14736 layer_factory.hpp:74] Creating layer inception_3b/3x3_reduce
I0107 20:03:19.450803 14736 net.cpp:96] Creating Layer inception_3b/3x3_reduce
I0107 20:03:19.450806 14736 net.cpp:459] inception_3b/3x3_reduce <- inception_3a/output_inception_3a/output_0_split_1
I0107 20:03:19.450811 14736 net.cpp:415] inception_3b/3x3_reduce -> inception_3b/3x3_reduce
I0107 20:03:19.450815 14736 net.cpp:160] Setting up inception_3b/3x3_reduce
I0107 20:03:19.450897 14736 net.cpp:167] Top shape: 1 64 28 28 (50176)
I0107 20:03:19.450902 14736 layer_factory.hpp:74] Creating layer inception_3b/3x3_reduce_bn
I0107 20:03:19.450906 14736 layer_factory.cpp:177] Layer inception_3b/3x3_reduce_bn is using CAFFE engine.
I0107 20:03:19.450911 14736 net.cpp:96] Creating Layer inception_3b/3x3_reduce_bn
I0107 20:03:19.450913 14736 net.cpp:459] inception_3b/3x3_reduce_bn <- inception_3b/3x3_reduce
I0107 20:03:19.450917 14736 net.cpp:415] inception_3b/3x3_reduce_bn -> inception_3b/3x3_reduce_bn
I0107 20:03:19.450922 14736 net.cpp:160] Setting up inception_3b/3x3_reduce_bn
I0107 20:03:19.450932 14736 net.cpp:167] Top shape: 1 64 28 28 (50176)
I0107 20:03:19.450938 14736 layer_factory.hpp:74] Creating layer inception_3b/relu_3x3_reduce
I0107 20:03:19.450944 14736 net.cpp:96] Creating Layer inception_3b/relu_3x3_reduce
I0107 20:03:19.450947 14736 net.cpp:459] inception_3b/relu_3x3_reduce <- inception_3b/3x3_reduce_bn
I0107 20:03:19.450950 14736 net.cpp:404] inception_3b/relu_3x3_reduce -> inception_3b/3x3_reduce_bn (in-place)
I0107 20:03:19.450954 14736 net.cpp:160] Setting up inception_3b/relu_3x3_reduce
I0107 20:03:19.450958 14736 net.cpp:167] Top shape: 1 64 28 28 (50176)
I0107 20:03:19.450961 14736 layer_factory.hpp:74] Creating layer inception_3b/3x3
I0107 20:03:19.450966 14736 net.cpp:96] Creating Layer inception_3b/3x3
I0107 20:03:19.450969 14736 net.cpp:459] inception_3b/3x3 <- inception_3b/3x3_reduce_bn
I0107 20:03:19.450973 14736 net.cpp:415] inception_3b/3x3 -> inception_3b/3x3
I0107 20:03:19.450978 14736 net.cpp:160] Setting up inception_3b/3x3
I0107 20:03:19.451225 14736 net.cpp:167] Top shape: 1 96 28 28 (75264)
I0107 20:03:19.451231 14736 layer_factory.hpp:74] Creating layer inception_3b/3x3_bn
I0107 20:03:19.451232 14736 layer_factory.cpp:177] Layer inception_3b/3x3_bn is using CAFFE engine.
I0107 20:03:19.451236 14736 net.cpp:96] Creating Layer inception_3b/3x3_bn
I0107 20:03:19.451239 14736 net.cpp:459] inception_3b/3x3_bn <- inception_3b/3x3
I0107 20:03:19.451246 14736 net.cpp:415] inception_3b/3x3_bn -> inception_3b/3x3_bn
I0107 20:03:19.451249 14736 net.cpp:160] Setting up inception_3b/3x3_bn
I0107 20:03:19.451261 14736 net.cpp:167] Top shape: 1 96 28 28 (75264)
I0107 20:03:19.451267 14736 layer_factory.hpp:74] Creating layer inception_3b/relu_3x3
I0107 20:03:19.451270 14736 net.cpp:96] Creating Layer inception_3b/relu_3x3
I0107 20:03:19.451273 14736 net.cpp:459] inception_3b/relu_3x3 <- inception_3b/3x3_bn
I0107 20:03:19.451277 14736 net.cpp:404] inception_3b/relu_3x3 -> inception_3b/3x3_bn (in-place)
I0107 20:03:19.451280 14736 net.cpp:160] Setting up inception_3b/relu_3x3
I0107 20:03:19.451283 14736 net.cpp:167] Top shape: 1 96 28 28 (75264)
I0107 20:03:19.451287 14736 layer_factory.hpp:74] Creating layer inception_3b/double_3x3_reduce
I0107 20:03:19.451292 14736 net.cpp:96] Creating Layer inception_3b/double_3x3_reduce
I0107 20:03:19.451294 14736 net.cpp:459] inception_3b/double_3x3_reduce <- inception_3a/output_inception_3a/output_0_split_2
I0107 20:03:19.451298 14736 net.cpp:415] inception_3b/double_3x3_reduce -> inception_3b/double_3x3_reduce
I0107 20:03:19.451303 14736 net.cpp:160] Setting up inception_3b/double_3x3_reduce
I0107 20:03:19.451380 14736 net.cpp:167] Top shape: 1 64 28 28 (50176)
I0107 20:03:19.451385 14736 layer_factory.hpp:74] Creating layer inception_3b/double_3x3_reduce_bn
I0107 20:03:19.451387 14736 layer_factory.cpp:177] Layer inception_3b/double_3x3_reduce_bn is using CAFFE engine.
I0107 20:03:19.451391 14736 net.cpp:96] Creating Layer inception_3b/double_3x3_reduce_bn
I0107 20:03:19.451395 14736 net.cpp:459] inception_3b/double_3x3_reduce_bn <- inception_3b/double_3x3_reduce
I0107 20:03:19.451400 14736 net.cpp:415] inception_3b/double_3x3_reduce_bn -> inception_3b/double_3x3_reduce_bn
I0107 20:03:19.451405 14736 net.cpp:160] Setting up inception_3b/double_3x3_reduce_bn
I0107 20:03:19.451416 14736 net.cpp:167] Top shape: 1 64 28 28 (50176)
I0107 20:03:19.451421 14736 layer_factory.hpp:74] Creating layer inception_3b/relu_double_3x3_reduce
I0107 20:03:19.451424 14736 net.cpp:96] Creating Layer inception_3b/relu_double_3x3_reduce
I0107 20:03:19.451427 14736 net.cpp:459] inception_3b/relu_double_3x3_reduce <- inception_3b/double_3x3_reduce_bn
I0107 20:03:19.451431 14736 net.cpp:404] inception_3b/relu_double_3x3_reduce -> inception_3b/double_3x3_reduce_bn (in-place)
I0107 20:03:19.451436 14736 net.cpp:160] Setting up inception_3b/relu_double_3x3_reduce
I0107 20:03:19.451439 14736 net.cpp:167] Top shape: 1 64 28 28 (50176)
I0107 20:03:19.451442 14736 layer_factory.hpp:74] Creating layer inception_3b/double_3x3_1
I0107 20:03:19.451445 14736 net.cpp:96] Creating Layer inception_3b/double_3x3_1
I0107 20:03:19.451448 14736 net.cpp:459] inception_3b/double_3x3_1 <- inception_3b/double_3x3_reduce_bn
I0107 20:03:19.451457 14736 net.cpp:415] inception_3b/double_3x3_1 -> inception_3b/double_3x3_1
I0107 20:03:19.451462 14736 net.cpp:160] Setting up inception_3b/double_3x3_1
I0107 20:03:19.451709 14736 net.cpp:167] Top shape: 1 96 28 28 (75264)
I0107 20:03:19.451714 14736 layer_factory.hpp:74] Creating layer inception_3b/double_3x3_1_bn
I0107 20:03:19.451716 14736 layer_factory.cpp:177] Layer inception_3b/double_3x3_1_bn is using CAFFE engine.
I0107 20:03:19.451721 14736 net.cpp:96] Creating Layer inception_3b/double_3x3_1_bn
I0107 20:03:19.451725 14736 net.cpp:459] inception_3b/double_3x3_1_bn <- inception_3b/double_3x3_1
I0107 20:03:19.451728 14736 net.cpp:415] inception_3b/double_3x3_1_bn -> inception_3b/double_3x3_1_bn
I0107 20:03:19.451732 14736 net.cpp:160] Setting up inception_3b/double_3x3_1_bn
I0107 20:03:19.451745 14736 net.cpp:167] Top shape: 1 96 28 28 (75264)
I0107 20:03:19.451750 14736 layer_factory.hpp:74] Creating layer inception_3b/relu_double_3x3_1
I0107 20:03:19.451753 14736 net.cpp:96] Creating Layer inception_3b/relu_double_3x3_1
I0107 20:03:19.451756 14736 net.cpp:459] inception_3b/relu_double_3x3_1 <- inception_3b/double_3x3_1_bn
I0107 20:03:19.451762 14736 net.cpp:404] inception_3b/relu_double_3x3_1 -> inception_3b/double_3x3_1_bn (in-place)
I0107 20:03:19.451766 14736 net.cpp:160] Setting up inception_3b/relu_double_3x3_1
I0107 20:03:19.451769 14736 net.cpp:167] Top shape: 1 96 28 28 (75264)
I0107 20:03:19.451772 14736 layer_factory.hpp:74] Creating layer inception_3b/double_3x3_2
I0107 20:03:19.451776 14736 net.cpp:96] Creating Layer inception_3b/double_3x3_2
I0107 20:03:19.451779 14736 net.cpp:459] inception_3b/double_3x3_2 <- inception_3b/double_3x3_1_bn
I0107 20:03:19.451783 14736 net.cpp:415] inception_3b/double_3x3_2 -> inception_3b/double_3x3_2
I0107 20:03:19.451787 14736 net.cpp:160] Setting up inception_3b/double_3x3_2
I0107 20:03:19.452150 14736 net.cpp:167] Top shape: 1 96 28 28 (75264)
I0107 20:03:19.452157 14736 layer_factory.hpp:74] Creating layer inception_3b/double_3x3_2_bn
I0107 20:03:19.452158 14736 layer_factory.cpp:177] Layer inception_3b/double_3x3_2_bn is using CAFFE engine.
I0107 20:03:19.452162 14736 net.cpp:96] Creating Layer inception_3b/double_3x3_2_bn
I0107 20:03:19.452165 14736 net.cpp:459] inception_3b/double_3x3_2_bn <- inception_3b/double_3x3_2
I0107 20:03:19.452170 14736 net.cpp:415] inception_3b/double_3x3_2_bn -> inception_3b/double_3x3_2_bn
I0107 20:03:19.452174 14736 net.cpp:160] Setting up inception_3b/double_3x3_2_bn
I0107 20:03:19.452186 14736 net.cpp:167] Top shape: 1 96 28 28 (75264)
I0107 20:03:19.452193 14736 layer_factory.hpp:74] Creating layer inception_3b/relu_double_3x3_2
I0107 20:03:19.452195 14736 net.cpp:96] Creating Layer inception_3b/relu_double_3x3_2
I0107 20:03:19.452198 14736 net.cpp:459] inception_3b/relu_double_3x3_2 <- inception_3b/double_3x3_2_bn
I0107 20:03:19.452203 14736 net.cpp:404] inception_3b/relu_double_3x3_2 -> inception_3b/double_3x3_2_bn (in-place)
I0107 20:03:19.452206 14736 net.cpp:160] Setting up inception_3b/relu_double_3x3_2
I0107 20:03:19.452210 14736 net.cpp:167] Top shape: 1 96 28 28 (75264)
I0107 20:03:19.452213 14736 layer_factory.hpp:74] Creating layer inception_3b/pool
I0107 20:03:19.452216 14736 net.cpp:96] Creating Layer inception_3b/pool
I0107 20:03:19.452219 14736 net.cpp:459] inception_3b/pool <- inception_3a/output_inception_3a/output_0_split_3
I0107 20:03:19.452224 14736 net.cpp:415] inception_3b/pool -> inception_3b/pool
I0107 20:03:19.452227 14736 net.cpp:160] Setting up inception_3b/pool
I0107 20:03:19.452231 14736 net.cpp:167] Top shape: 1 256 28 28 (200704)
I0107 20:03:19.452234 14736 layer_factory.hpp:74] Creating layer inception_3b/pool_proj
I0107 20:03:19.452239 14736 net.cpp:96] Creating Layer inception_3b/pool_proj
I0107 20:03:19.452242 14736 net.cpp:459] inception_3b/pool_proj <- inception_3b/pool
I0107 20:03:19.452247 14736 net.cpp:415] inception_3b/pool_proj -> inception_3b/pool_proj
I0107 20:03:19.452251 14736 net.cpp:160] Setting up inception_3b/pool_proj
I0107 20:03:19.452329 14736 net.cpp:167] Top shape: 1 64 28 28 (50176)
I0107 20:03:19.452337 14736 layer_factory.hpp:74] Creating layer inception_3b/pool_proj_bn
I0107 20:03:19.452340 14736 layer_factory.cpp:177] Layer inception_3b/pool_proj_bn is using CAFFE engine.
I0107 20:03:19.452344 14736 net.cpp:96] Creating Layer inception_3b/pool_proj_bn
I0107 20:03:19.452347 14736 net.cpp:459] inception_3b/pool_proj_bn <- inception_3b/pool_proj
I0107 20:03:19.452352 14736 net.cpp:415] inception_3b/pool_proj_bn -> inception_3b/pool_proj_bn
I0107 20:03:19.452356 14736 net.cpp:160] Setting up inception_3b/pool_proj_bn
I0107 20:03:19.452368 14736 net.cpp:167] Top shape: 1 64 28 28 (50176)
I0107 20:03:19.452373 14736 layer_factory.hpp:74] Creating layer inception_3b/relu_pool_proj
I0107 20:03:19.452375 14736 net.cpp:96] Creating Layer inception_3b/relu_pool_proj
I0107 20:03:19.452378 14736 net.cpp:459] inception_3b/relu_pool_proj <- inception_3b/pool_proj_bn
I0107 20:03:19.452384 14736 net.cpp:404] inception_3b/relu_pool_proj -> inception_3b/pool_proj_bn (in-place)
I0107 20:03:19.452389 14736 net.cpp:160] Setting up inception_3b/relu_pool_proj
I0107 20:03:19.452391 14736 net.cpp:167] Top shape: 1 64 28 28 (50176)
I0107 20:03:19.452394 14736 layer_factory.hpp:74] Creating layer inception_3b/output
I0107 20:03:19.452399 14736 net.cpp:96] Creating Layer inception_3b/output
I0107 20:03:19.452401 14736 net.cpp:459] inception_3b/output <- inception_3b/1x1_bn
I0107 20:03:19.452404 14736 net.cpp:459] inception_3b/output <- inception_3b/3x3_bn
I0107 20:03:19.452407 14736 net.cpp:459] inception_3b/output <- inception_3b/double_3x3_2_bn
I0107 20:03:19.452410 14736 net.cpp:459] inception_3b/output <- inception_3b/pool_proj_bn
I0107 20:03:19.452415 14736 net.cpp:415] inception_3b/output -> inception_3b/output
I0107 20:03:19.452419 14736 net.cpp:160] Setting up inception_3b/output
I0107 20:03:19.452424 14736 net.cpp:167] Top shape: 1 320 28 28 (250880)
I0107 20:03:19.452426 14736 layer_factory.hpp:74] Creating layer inception_3b/output_inception_3b/output_0_split
I0107 20:03:19.452430 14736 net.cpp:96] Creating Layer inception_3b/output_inception_3b/output_0_split
I0107 20:03:19.452433 14736 net.cpp:459] inception_3b/output_inception_3b/output_0_split <- inception_3b/output
I0107 20:03:19.452437 14736 net.cpp:415] inception_3b/output_inception_3b/output_0_split -> inception_3b/output_inception_3b/output_0_split_0
I0107 20:03:19.452441 14736 net.cpp:415] inception_3b/output_inception_3b/output_0_split -> inception_3b/output_inception_3b/output_0_split_1
I0107 20:03:19.452446 14736 net.cpp:415] inception_3b/output_inception_3b/output_0_split -> inception_3b/output_inception_3b/output_0_split_2
I0107 20:03:19.452450 14736 net.cpp:160] Setting up inception_3b/output_inception_3b/output_0_split
I0107 20:03:19.452455 14736 net.cpp:167] Top shape: 1 320 28 28 (250880)
I0107 20:03:19.452457 14736 net.cpp:167] Top shape: 1 320 28 28 (250880)
I0107 20:03:19.452461 14736 net.cpp:167] Top shape: 1 320 28 28 (250880)
I0107 20:03:19.452463 14736 layer_factory.hpp:74] Creating layer inception_3c/3x3_reduce
I0107 20:03:19.452469 14736 net.cpp:96] Creating Layer inception_3c/3x3_reduce
I0107 20:03:19.452472 14736 net.cpp:459] inception_3c/3x3_reduce <- inception_3b/output_inception_3b/output_0_split_0
I0107 20:03:19.452477 14736 net.cpp:415] inception_3c/3x3_reduce -> inception_3c/3x3_reduce
I0107 20:03:19.452482 14736 net.cpp:160] Setting up inception_3c/3x3_reduce
I0107 20:03:19.452664 14736 net.cpp:167] Top shape: 1 128 28 28 (100352)
I0107 20:03:19.452671 14736 layer_factory.hpp:74] Creating layer inception_3c/3x3_reduce_bn
I0107 20:03:19.452673 14736 layer_factory.cpp:177] Layer inception_3c/3x3_reduce_bn is using CAFFE engine.
I0107 20:03:19.452677 14736 net.cpp:96] Creating Layer inception_3c/3x3_reduce_bn
I0107 20:03:19.452680 14736 net.cpp:459] inception_3c/3x3_reduce_bn <- inception_3c/3x3_reduce
I0107 20:03:19.452685 14736 net.cpp:415] inception_3c/3x3_reduce_bn -> inception_3c/3x3_reduce_bn
I0107 20:03:19.452690 14736 net.cpp:160] Setting up inception_3c/3x3_reduce_bn
I0107 20:03:19.452700 14736 net.cpp:167] Top shape: 1 128 28 28 (100352)
I0107 20:03:19.452709 14736 layer_factory.hpp:74] Creating layer inception_3c/relu_3x3_reduce
I0107 20:03:19.452713 14736 net.cpp:96] Creating Layer inception_3c/relu_3x3_reduce
I0107 20:03:19.452716 14736 net.cpp:459] inception_3c/relu_3x3_reduce <- inception_3c/3x3_reduce_bn
I0107 20:03:19.452719 14736 net.cpp:404] inception_3c/relu_3x3_reduce -> inception_3c/3x3_reduce_bn (in-place)
I0107 20:03:19.452723 14736 net.cpp:160] Setting up inception_3c/relu_3x3_reduce
I0107 20:03:19.452726 14736 net.cpp:167] Top shape: 1 128 28 28 (100352)
I0107 20:03:19.452729 14736 layer_factory.hpp:74] Creating layer inception_3c/3x3
I0107 20:03:19.452733 14736 net.cpp:96] Creating Layer inception_3c/3x3
I0107 20:03:19.452736 14736 net.cpp:459] inception_3c/3x3 <- inception_3c/3x3_reduce_bn
I0107 20:03:19.452744 14736 net.cpp:415] inception_3c/3x3 -> inception_3c/3x3
I0107 20:03:19.452747 14736 net.cpp:160] Setting up inception_3c/3x3
I0107 20:03:19.453546 14736 net.cpp:167] Top shape: 1 160 14 14 (31360)
I0107 20:03:19.453552 14736 layer_factory.hpp:74] Creating layer inception_3c/3x3_bn
I0107 20:03:19.453554 14736 layer_factory.cpp:177] Layer inception_3c/3x3_bn is using CAFFE engine.
I0107 20:03:19.453562 14736 net.cpp:96] Creating Layer inception_3c/3x3_bn
I0107 20:03:19.453567 14736 net.cpp:459] inception_3c/3x3_bn <- inception_3c/3x3
I0107 20:03:19.453570 14736 net.cpp:415] inception_3c/3x3_bn -> inception_3c/3x3_bn
I0107 20:03:19.453575 14736 net.cpp:160] Setting up inception_3c/3x3_bn
I0107 20:03:19.453585 14736 net.cpp:167] Top shape: 1 160 14 14 (31360)
I0107 20:03:19.453590 14736 layer_factory.hpp:74] Creating layer inception_3c/relu_3x3
I0107 20:03:19.453595 14736 net.cpp:96] Creating Layer inception_3c/relu_3x3
I0107 20:03:19.453598 14736 net.cpp:459] inception_3c/relu_3x3 <- inception_3c/3x3_bn
I0107 20:03:19.453601 14736 net.cpp:404] inception_3c/relu_3x3 -> inception_3c/3x3_bn (in-place)
I0107 20:03:19.453605 14736 net.cpp:160] Setting up inception_3c/relu_3x3
I0107 20:03:19.453609 14736 net.cpp:167] Top shape: 1 160 14 14 (31360)
I0107 20:03:19.453613 14736 layer_factory.hpp:74] Creating layer inception_3c/double_3x3_reduce
I0107 20:03:19.453615 14736 net.cpp:96] Creating Layer inception_3c/double_3x3_reduce
I0107 20:03:19.453619 14736 net.cpp:459] inception_3c/double_3x3_reduce <- inception_3b/output_inception_3b/output_0_split_1
I0107 20:03:19.453624 14736 net.cpp:415] inception_3c/double_3x3_reduce -> inception_3c/double_3x3_reduce
I0107 20:03:19.453629 14736 net.cpp:160] Setting up inception_3c/double_3x3_reduce
I0107 20:03:19.453724 14736 net.cpp:167] Top shape: 1 64 28 28 (50176)
I0107 20:03:19.453730 14736 layer_factory.hpp:74] Creating layer inception_3c/double_3x3_reduce_bn
I0107 20:03:19.453732 14736 layer_factory.cpp:177] Layer inception_3c/double_3x3_reduce_bn is using CAFFE engine.
I0107 20:03:19.453737 14736 net.cpp:96] Creating Layer inception_3c/double_3x3_reduce_bn
I0107 20:03:19.453740 14736 net.cpp:459] inception_3c/double_3x3_reduce_bn <- inception_3c/double_3x3_reduce
I0107 20:03:19.453744 14736 net.cpp:415] inception_3c/double_3x3_reduce_bn -> inception_3c/double_3x3_reduce_bn
I0107 20:03:19.453749 14736 net.cpp:160] Setting up inception_3c/double_3x3_reduce_bn
I0107 20:03:19.453759 14736 net.cpp:167] Top shape: 1 64 28 28 (50176)
I0107 20:03:19.453765 14736 layer_factory.hpp:74] Creating layer inception_3c/relu_double_3x3_reduce
I0107 20:03:19.453768 14736 net.cpp:96] Creating Layer inception_3c/relu_double_3x3_reduce
I0107 20:03:19.453771 14736 net.cpp:459] inception_3c/relu_double_3x3_reduce <- inception_3c/double_3x3_reduce_bn
I0107 20:03:19.453776 14736 net.cpp:404] inception_3c/relu_double_3x3_reduce -> inception_3c/double_3x3_reduce_bn (in-place)
I0107 20:03:19.453780 14736 net.cpp:160] Setting up inception_3c/relu_double_3x3_reduce
I0107 20:03:19.453784 14736 net.cpp:167] Top shape: 1 64 28 28 (50176)
I0107 20:03:19.453786 14736 layer_factory.hpp:74] Creating layer inception_3c/double_3x3_1
I0107 20:03:19.453790 14736 net.cpp:96] Creating Layer inception_3c/double_3x3_1
I0107 20:03:19.453795 14736 net.cpp:459] inception_3c/double_3x3_1 <- inception_3c/double_3x3_reduce_bn
I0107 20:03:19.453800 14736 net.cpp:415] inception_3c/double_3x3_1 -> inception_3c/double_3x3_1
I0107 20:03:19.453805 14736 net.cpp:160] Setting up inception_3c/double_3x3_1
I0107 20:03:19.454062 14736 net.cpp:167] Top shape: 1 96 28 28 (75264)
I0107 20:03:19.454069 14736 layer_factory.hpp:74] Creating layer inception_3c/double_3x3_1_bn
I0107 20:03:19.454072 14736 layer_factory.cpp:177] Layer inception_3c/double_3x3_1_bn is using CAFFE engine.
I0107 20:03:19.454077 14736 net.cpp:96] Creating Layer inception_3c/double_3x3_1_bn
I0107 20:03:19.454079 14736 net.cpp:459] inception_3c/double_3x3_1_bn <- inception_3c/double_3x3_1
I0107 20:03:19.454084 14736 net.cpp:415] inception_3c/double_3x3_1_bn -> inception_3c/double_3x3_1_bn
I0107 20:03:19.454089 14736 net.cpp:160] Setting up inception_3c/double_3x3_1_bn
I0107 20:03:19.454099 14736 net.cpp:167] Top shape: 1 96 28 28 (75264)
I0107 20:03:19.454107 14736 layer_factory.hpp:74] Creating layer inception_3c/relu_double_3x3_1
I0107 20:03:19.454109 14736 net.cpp:96] Creating Layer inception_3c/relu_double_3x3_1
I0107 20:03:19.454113 14736 net.cpp:459] inception_3c/relu_double_3x3_1 <- inception_3c/double_3x3_1_bn
I0107 20:03:19.454116 14736 net.cpp:404] inception_3c/relu_double_3x3_1 -> inception_3c/double_3x3_1_bn (in-place)
I0107 20:03:19.454120 14736 net.cpp:160] Setting up inception_3c/relu_double_3x3_1
I0107 20:03:19.454124 14736 net.cpp:167] Top shape: 1 96 28 28 (75264)
I0107 20:03:19.454126 14736 layer_factory.hpp:74] Creating layer inception_3c/double_3x3_2
I0107 20:03:19.454130 14736 net.cpp:96] Creating Layer inception_3c/double_3x3_2
I0107 20:03:19.454133 14736 net.cpp:459] inception_3c/double_3x3_2 <- inception_3c/double_3x3_1_bn
I0107 20:03:19.454138 14736 net.cpp:415] inception_3c/double_3x3_2 -> inception_3c/double_3x3_2
I0107 20:03:19.454143 14736 net.cpp:160] Setting up inception_3c/double_3x3_2
I0107 20:03:19.454509 14736 net.cpp:167] Top shape: 1 96 14 14 (18816)
I0107 20:03:19.454514 14736 layer_factory.hpp:74] Creating layer inception_3c/double_3x3_2_bn
I0107 20:03:19.454516 14736 layer_factory.cpp:177] Layer inception_3c/double_3x3_2_bn is using CAFFE engine.
I0107 20:03:19.454520 14736 net.cpp:96] Creating Layer inception_3c/double_3x3_2_bn
I0107 20:03:19.454524 14736 net.cpp:459] inception_3c/double_3x3_2_bn <- inception_3c/double_3x3_2
I0107 20:03:19.454529 14736 net.cpp:415] inception_3c/double_3x3_2_bn -> inception_3c/double_3x3_2_bn
I0107 20:03:19.454533 14736 net.cpp:160] Setting up inception_3c/double_3x3_2_bn
I0107 20:03:19.454542 14736 net.cpp:167] Top shape: 1 96 14 14 (18816)
I0107 20:03:19.454555 14736 layer_factory.hpp:74] Creating layer inception_3c/relu_double_3x3_2
I0107 20:03:19.454560 14736 net.cpp:96] Creating Layer inception_3c/relu_double_3x3_2
I0107 20:03:19.454562 14736 net.cpp:459] inception_3c/relu_double_3x3_2 <- inception_3c/double_3x3_2_bn
I0107 20:03:19.454566 14736 net.cpp:404] inception_3c/relu_double_3x3_2 -> inception_3c/double_3x3_2_bn (in-place)
I0107 20:03:19.454569 14736 net.cpp:160] Setting up inception_3c/relu_double_3x3_2
I0107 20:03:19.454572 14736 net.cpp:167] Top shape: 1 96 14 14 (18816)
I0107 20:03:19.454576 14736 layer_factory.hpp:74] Creating layer inception_3c/pool
I0107 20:03:19.454581 14736 net.cpp:96] Creating Layer inception_3c/pool
I0107 20:03:19.454583 14736 net.cpp:459] inception_3c/pool <- inception_3b/output_inception_3b/output_0_split_2
I0107 20:03:19.454587 14736 net.cpp:415] inception_3c/pool -> inception_3c/pool
I0107 20:03:19.454591 14736 net.cpp:160] Setting up inception_3c/pool
I0107 20:03:19.454596 14736 net.cpp:167] Top shape: 1 320 14 14 (62720)
I0107 20:03:19.454599 14736 layer_factory.hpp:74] Creating layer inception_3c/output
I0107 20:03:19.454603 14736 net.cpp:96] Creating Layer inception_3c/output
I0107 20:03:19.454607 14736 net.cpp:459] inception_3c/output <- inception_3c/3x3_bn
I0107 20:03:19.454609 14736 net.cpp:459] inception_3c/output <- inception_3c/double_3x3_2_bn
I0107 20:03:19.454615 14736 net.cpp:459] inception_3c/output <- inception_3c/pool
I0107 20:03:19.454619 14736 net.cpp:415] inception_3c/output -> inception_3c/output
I0107 20:03:19.454623 14736 net.cpp:160] Setting up inception_3c/output
I0107 20:03:19.454628 14736 net.cpp:167] Top shape: 1 576 14 14 (112896)
I0107 20:03:19.454630 14736 layer_factory.hpp:74] Creating layer inception_3c/output_inception_3c/output_0_split
I0107 20:03:19.454634 14736 net.cpp:96] Creating Layer inception_3c/output_inception_3c/output_0_split
I0107 20:03:19.454638 14736 net.cpp:459] inception_3c/output_inception_3c/output_0_split <- inception_3c/output
I0107 20:03:19.454643 14736 net.cpp:415] inception_3c/output_inception_3c/output_0_split -> inception_3c/output_inception_3c/output_0_split_0
I0107 20:03:19.454650 14736 net.cpp:415] inception_3c/output_inception_3c/output_0_split -> inception_3c/output_inception_3c/output_0_split_1
I0107 20:03:19.454655 14736 net.cpp:415] inception_3c/output_inception_3c/output_0_split -> inception_3c/output_inception_3c/output_0_split_2
I0107 20:03:19.454659 14736 net.cpp:415] inception_3c/output_inception_3c/output_0_split -> inception_3c/output_inception_3c/output_0_split_3
I0107 20:03:19.454663 14736 net.cpp:160] Setting up inception_3c/output_inception_3c/output_0_split
I0107 20:03:19.454668 14736 net.cpp:167] Top shape: 1 576 14 14 (112896)
I0107 20:03:19.454671 14736 net.cpp:167] Top shape: 1 576 14 14 (112896)
I0107 20:03:19.454675 14736 net.cpp:167] Top shape: 1 576 14 14 (112896)
I0107 20:03:19.454679 14736 net.cpp:167] Top shape: 1 576 14 14 (112896)
I0107 20:03:19.454681 14736 layer_factory.hpp:74] Creating layer inception_4a/1x1
I0107 20:03:19.454687 14736 net.cpp:96] Creating Layer inception_4a/1x1
I0107 20:03:19.454690 14736 net.cpp:459] inception_4a/1x1 <- inception_3c/output_inception_3c/output_0_split_0
I0107 20:03:19.454695 14736 net.cpp:415] inception_4a/1x1 -> inception_4a/1x1
I0107 20:03:19.454699 14736 net.cpp:160] Setting up inception_4a/1x1
I0107 20:03:19.455255 14736 net.cpp:167] Top shape: 1 224 14 14 (43904)
I0107 20:03:19.455261 14736 layer_factory.hpp:74] Creating layer inception_4a/1x1_bn
I0107 20:03:19.455265 14736 layer_factory.cpp:177] Layer inception_4a/1x1_bn is using CAFFE engine.
I0107 20:03:19.455270 14736 net.cpp:96] Creating Layer inception_4a/1x1_bn
I0107 20:03:19.455272 14736 net.cpp:459] inception_4a/1x1_bn <- inception_4a/1x1
I0107 20:03:19.455277 14736 net.cpp:415] inception_4a/1x1_bn -> inception_4a/1x1_bn
I0107 20:03:19.455281 14736 net.cpp:160] Setting up inception_4a/1x1_bn
I0107 20:03:19.455292 14736 net.cpp:167] Top shape: 1 224 14 14 (43904)
I0107 20:03:19.455298 14736 layer_factory.hpp:74] Creating layer inception_4a/relu_1x1
I0107 20:03:19.455302 14736 net.cpp:96] Creating Layer inception_4a/relu_1x1
I0107 20:03:19.455305 14736 net.cpp:459] inception_4a/relu_1x1 <- inception_4a/1x1_bn
I0107 20:03:19.455308 14736 net.cpp:404] inception_4a/relu_1x1 -> inception_4a/1x1_bn (in-place)
I0107 20:03:19.455312 14736 net.cpp:160] Setting up inception_4a/relu_1x1
I0107 20:03:19.455317 14736 net.cpp:167] Top shape: 1 224 14 14 (43904)
I0107 20:03:19.455319 14736 layer_factory.hpp:74] Creating layer inception_4a/3x3_reduce
I0107 20:03:19.455324 14736 net.cpp:96] Creating Layer inception_4a/3x3_reduce
I0107 20:03:19.455327 14736 net.cpp:459] inception_4a/3x3_reduce <- inception_3c/output_inception_3c/output_0_split_1
I0107 20:03:19.455332 14736 net.cpp:415] inception_4a/3x3_reduce -> inception_4a/3x3_reduce
I0107 20:03:19.455337 14736 net.cpp:160] Setting up inception_4a/3x3_reduce
I0107 20:03:19.455498 14736 net.cpp:167] Top shape: 1 64 14 14 (12544)
I0107 20:03:19.455504 14736 layer_factory.hpp:74] Creating layer inception_4a/3x3_reduce_bn
I0107 20:03:19.455507 14736 layer_factory.cpp:177] Layer inception_4a/3x3_reduce_bn is using CAFFE engine.
I0107 20:03:19.455512 14736 net.cpp:96] Creating Layer inception_4a/3x3_reduce_bn
I0107 20:03:19.455515 14736 net.cpp:459] inception_4a/3x3_reduce_bn <- inception_4a/3x3_reduce
I0107 20:03:19.455519 14736 net.cpp:415] inception_4a/3x3_reduce_bn -> inception_4a/3x3_reduce_bn
I0107 20:03:19.455526 14736 net.cpp:160] Setting up inception_4a/3x3_reduce_bn
I0107 20:03:19.455536 14736 net.cpp:167] Top shape: 1 64 14 14 (12544)
I0107 20:03:19.455543 14736 layer_factory.hpp:74] Creating layer inception_4a/relu_3x3_reduce
I0107 20:03:19.455546 14736 net.cpp:96] Creating Layer inception_4a/relu_3x3_reduce
I0107 20:03:19.455549 14736 net.cpp:459] inception_4a/relu_3x3_reduce <- inception_4a/3x3_reduce_bn
I0107 20:03:19.455554 14736 net.cpp:404] inception_4a/relu_3x3_reduce -> inception_4a/3x3_reduce_bn (in-place)
I0107 20:03:19.455557 14736 net.cpp:160] Setting up inception_4a/relu_3x3_reduce
I0107 20:03:19.455561 14736 net.cpp:167] Top shape: 1 64 14 14 (12544)
I0107 20:03:19.455564 14736 layer_factory.hpp:74] Creating layer inception_4a/3x3
I0107 20:03:19.455569 14736 net.cpp:96] Creating Layer inception_4a/3x3
I0107 20:03:19.455570 14736 net.cpp:459] inception_4a/3x3 <- inception_4a/3x3_reduce_bn
I0107 20:03:19.455575 14736 net.cpp:415] inception_4a/3x3 -> inception_4a/3x3
I0107 20:03:19.455580 14736 net.cpp:160] Setting up inception_4a/3x3
I0107 20:03:19.455819 14736 net.cpp:167] Top shape: 1 96 14 14 (18816)
I0107 20:03:19.455826 14736 layer_factory.hpp:74] Creating layer inception_4a/3x3_bn
I0107 20:03:19.455828 14736 layer_factory.cpp:177] Layer inception_4a/3x3_bn is using CAFFE engine.
I0107 20:03:19.455833 14736 net.cpp:96] Creating Layer inception_4a/3x3_bn
I0107 20:03:19.455837 14736 net.cpp:459] inception_4a/3x3_bn <- inception_4a/3x3
I0107 20:03:19.455840 14736 net.cpp:415] inception_4a/3x3_bn -> inception_4a/3x3_bn
I0107 20:03:19.455845 14736 net.cpp:160] Setting up inception_4a/3x3_bn
I0107 20:03:19.455855 14736 net.cpp:167] Top shape: 1 96 14 14 (18816)
I0107 20:03:19.455860 14736 layer_factory.hpp:74] Creating layer inception_4a/relu_3x3
I0107 20:03:19.455864 14736 net.cpp:96] Creating Layer inception_4a/relu_3x3
I0107 20:03:19.455868 14736 net.cpp:459] inception_4a/relu_3x3 <- inception_4a/3x3_bn
I0107 20:03:19.455871 14736 net.cpp:404] inception_4a/relu_3x3 -> inception_4a/3x3_bn (in-place)
I0107 20:03:19.455874 14736 net.cpp:160] Setting up inception_4a/relu_3x3
I0107 20:03:19.455878 14736 net.cpp:167] Top shape: 1 96 14 14 (18816)
I0107 20:03:19.455880 14736 layer_factory.hpp:74] Creating layer inception_4a/double_3x3_reduce
I0107 20:03:19.455885 14736 net.cpp:96] Creating Layer inception_4a/double_3x3_reduce
I0107 20:03:19.455888 14736 net.cpp:459] inception_4a/double_3x3_reduce <- inception_3c/output_inception_3c/output_0_split_2
I0107 20:03:19.455893 14736 net.cpp:415] inception_4a/double_3x3_reduce -> inception_4a/double_3x3_reduce
I0107 20:03:19.455896 14736 net.cpp:160] Setting up inception_4a/double_3x3_reduce
I0107 20:03:19.456137 14736 net.cpp:167] Top shape: 1 96 14 14 (18816)
I0107 20:03:19.456143 14736 layer_factory.hpp:74] Creating layer inception_4a/double_3x3_reduce_bn
I0107 20:03:19.456146 14736 layer_factory.cpp:177] Layer inception_4a/double_3x3_reduce_bn is using CAFFE engine.
I0107 20:03:19.456151 14736 net.cpp:96] Creating Layer inception_4a/double_3x3_reduce_bn
I0107 20:03:19.456153 14736 net.cpp:459] inception_4a/double_3x3_reduce_bn <- inception_4a/double_3x3_reduce
I0107 20:03:19.456158 14736 net.cpp:415] inception_4a/double_3x3_reduce_bn -> inception_4a/double_3x3_reduce_bn
I0107 20:03:19.456163 14736 net.cpp:160] Setting up inception_4a/double_3x3_reduce_bn
I0107 20:03:19.456172 14736 net.cpp:167] Top shape: 1 96 14 14 (18816)
I0107 20:03:19.456177 14736 layer_factory.hpp:74] Creating layer inception_4a/relu_double_3x3_reduce
I0107 20:03:19.456182 14736 net.cpp:96] Creating Layer inception_4a/relu_double_3x3_reduce
I0107 20:03:19.456185 14736 net.cpp:459] inception_4a/relu_double_3x3_reduce <- inception_4a/double_3x3_reduce_bn
I0107 20:03:19.456188 14736 net.cpp:404] inception_4a/relu_double_3x3_reduce -> inception_4a/double_3x3_reduce_bn (in-place)
I0107 20:03:19.456192 14736 net.cpp:160] Setting up inception_4a/relu_double_3x3_reduce
I0107 20:03:19.456195 14736 net.cpp:167] Top shape: 1 96 14 14 (18816)
I0107 20:03:19.456200 14736 layer_factory.hpp:74] Creating layer inception_4a/double_3x3_1
I0107 20:03:19.456204 14736 net.cpp:96] Creating Layer inception_4a/double_3x3_1
I0107 20:03:19.456207 14736 net.cpp:459] inception_4a/double_3x3_1 <- inception_4a/double_3x3_reduce_bn
I0107 20:03:19.456212 14736 net.cpp:415] inception_4a/double_3x3_1 -> inception_4a/double_3x3_1
I0107 20:03:19.456217 14736 net.cpp:160] Setting up inception_4a/double_3x3_1
I0107 20:03:19.456689 14736 net.cpp:167] Top shape: 1 128 14 14 (25088)
I0107 20:03:19.456696 14736 layer_factory.hpp:74] Creating layer inception_4a/double_3x3_1_bn
I0107 20:03:19.456698 14736 layer_factory.cpp:177] Layer inception_4a/double_3x3_1_bn is using CAFFE engine.
I0107 20:03:19.456702 14736 net.cpp:96] Creating Layer inception_4a/double_3x3_1_bn
I0107 20:03:19.456707 14736 net.cpp:459] inception_4a/double_3x3_1_bn <- inception_4a/double_3x3_1
I0107 20:03:19.456712 14736 net.cpp:415] inception_4a/double_3x3_1_bn -> inception_4a/double_3x3_1_bn
I0107 20:03:19.456717 14736 net.cpp:160] Setting up inception_4a/double_3x3_1_bn
I0107 20:03:19.456725 14736 net.cpp:167] Top shape: 1 128 14 14 (25088)
I0107 20:03:19.456730 14736 layer_factory.hpp:74] Creating layer inception_4a/relu_double_3x3_1
I0107 20:03:19.456734 14736 net.cpp:96] Creating Layer inception_4a/relu_double_3x3_1
I0107 20:03:19.456737 14736 net.cpp:459] inception_4a/relu_double_3x3_1 <- inception_4a/double_3x3_1_bn
I0107 20:03:19.456742 14736 net.cpp:404] inception_4a/relu_double_3x3_1 -> inception_4a/double_3x3_1_bn (in-place)
I0107 20:03:19.456745 14736 net.cpp:160] Setting up inception_4a/relu_double_3x3_1
I0107 20:03:19.456748 14736 net.cpp:167] Top shape: 1 128 14 14 (25088)
I0107 20:03:19.456751 14736 layer_factory.hpp:74] Creating layer inception_4a/double_3x3_2
I0107 20:03:19.456755 14736 net.cpp:96] Creating Layer inception_4a/double_3x3_2
I0107 20:03:19.456758 14736 net.cpp:459] inception_4a/double_3x3_2 <- inception_4a/double_3x3_1_bn
I0107 20:03:19.456763 14736 net.cpp:415] inception_4a/double_3x3_2 -> inception_4a/double_3x3_2
I0107 20:03:19.456768 14736 net.cpp:160] Setting up inception_4a/double_3x3_2
I0107 20:03:19.457391 14736 net.cpp:167] Top shape: 1 128 14 14 (25088)
I0107 20:03:19.457396 14736 layer_factory.hpp:74] Creating layer inception_4a/double_3x3_2_bn
I0107 20:03:19.457399 14736 layer_factory.cpp:177] Layer inception_4a/double_3x3_2_bn is using CAFFE engine.
I0107 20:03:19.457403 14736 net.cpp:96] Creating Layer inception_4a/double_3x3_2_bn
I0107 20:03:19.457406 14736 net.cpp:459] inception_4a/double_3x3_2_bn <- inception_4a/double_3x3_2
I0107 20:03:19.457412 14736 net.cpp:415] inception_4a/double_3x3_2_bn -> inception_4a/double_3x3_2_bn
I0107 20:03:19.457415 14736 net.cpp:160] Setting up inception_4a/double_3x3_2_bn
I0107 20:03:19.457424 14736 net.cpp:167] Top shape: 1 128 14 14 (25088)
I0107 20:03:19.457429 14736 layer_factory.hpp:74] Creating layer inception_4a/relu_double_3x3_2
I0107 20:03:19.457434 14736 net.cpp:96] Creating Layer inception_4a/relu_double_3x3_2
I0107 20:03:19.457437 14736 net.cpp:459] inception_4a/relu_double_3x3_2 <- inception_4a/double_3x3_2_bn
I0107 20:03:19.457440 14736 net.cpp:404] inception_4a/relu_double_3x3_2 -> inception_4a/double_3x3_2_bn (in-place)
I0107 20:03:19.457444 14736 net.cpp:160] Setting up inception_4a/relu_double_3x3_2
I0107 20:03:19.457448 14736 net.cpp:167] Top shape: 1 128 14 14 (25088)
I0107 20:03:19.457450 14736 layer_factory.hpp:74] Creating layer inception_4a/pool
I0107 20:03:19.457454 14736 net.cpp:96] Creating Layer inception_4a/pool
I0107 20:03:19.457458 14736 net.cpp:459] inception_4a/pool <- inception_3c/output_inception_3c/output_0_split_3
I0107 20:03:19.457460 14736 net.cpp:415] inception_4a/pool -> inception_4a/pool
I0107 20:03:19.457464 14736 net.cpp:160] Setting up inception_4a/pool
I0107 20:03:19.457469 14736 net.cpp:167] Top shape: 1 576 14 14 (112896)
I0107 20:03:19.457473 14736 layer_factory.hpp:74] Creating layer inception_4a/pool_proj
I0107 20:03:19.457478 14736 net.cpp:96] Creating Layer inception_4a/pool_proj
I0107 20:03:19.457482 14736 net.cpp:459] inception_4a/pool_proj <- inception_4a/pool
I0107 20:03:19.457487 14736 net.cpp:415] inception_4a/pool_proj -> inception_4a/pool_proj
I0107 20:03:19.457492 14736 net.cpp:160] Setting up inception_4a/pool_proj
I0107 20:03:19.457809 14736 net.cpp:167] Top shape: 1 128 14 14 (25088)
I0107 20:03:19.457815 14736 layer_factory.hpp:74] Creating layer inception_4a/pool_proj_bn
I0107 20:03:19.457818 14736 layer_factory.cpp:177] Layer inception_4a/pool_proj_bn is using CAFFE engine.
I0107 20:03:19.457823 14736 net.cpp:96] Creating Layer inception_4a/pool_proj_bn
I0107 20:03:19.457826 14736 net.cpp:459] inception_4a/pool_proj_bn <- inception_4a/pool_proj
I0107 20:03:19.457834 14736 net.cpp:415] inception_4a/pool_proj_bn -> inception_4a/pool_proj_bn
I0107 20:03:19.457840 14736 net.cpp:160] Setting up inception_4a/pool_proj_bn
I0107 20:03:19.457850 14736 net.cpp:167] Top shape: 1 128 14 14 (25088)
I0107 20:03:19.457855 14736 layer_factory.hpp:74] Creating layer inception_4a/relu_pool_proj
I0107 20:03:19.457859 14736 net.cpp:96] Creating Layer inception_4a/relu_pool_proj
I0107 20:03:19.457861 14736 net.cpp:459] inception_4a/relu_pool_proj <- inception_4a/pool_proj_bn
I0107 20:03:19.457866 14736 net.cpp:404] inception_4a/relu_pool_proj -> inception_4a/pool_proj_bn (in-place)
I0107 20:03:19.457870 14736 net.cpp:160] Setting up inception_4a/relu_pool_proj
I0107 20:03:19.457873 14736 net.cpp:167] Top shape: 1 128 14 14 (25088)
I0107 20:03:19.457876 14736 layer_factory.hpp:74] Creating layer inception_4a/output
I0107 20:03:19.457880 14736 net.cpp:96] Creating Layer inception_4a/output
I0107 20:03:19.457882 14736 net.cpp:459] inception_4a/output <- inception_4a/1x1_bn
I0107 20:03:19.457885 14736 net.cpp:459] inception_4a/output <- inception_4a/3x3_bn
I0107 20:03:19.457890 14736 net.cpp:459] inception_4a/output <- inception_4a/double_3x3_2_bn
I0107 20:03:19.457892 14736 net.cpp:459] inception_4a/output <- inception_4a/pool_proj_bn
I0107 20:03:19.457896 14736 net.cpp:415] inception_4a/output -> inception_4a/output
I0107 20:03:19.457900 14736 net.cpp:160] Setting up inception_4a/output
I0107 20:03:19.457904 14736 net.cpp:167] Top shape: 1 576 14 14 (112896)
I0107 20:03:19.457907 14736 layer_factory.hpp:74] Creating layer inception_4a/output_inception_4a/output_0_split
I0107 20:03:19.457911 14736 net.cpp:96] Creating Layer inception_4a/output_inception_4a/output_0_split
I0107 20:03:19.457914 14736 net.cpp:459] inception_4a/output_inception_4a/output_0_split <- inception_4a/output
I0107 20:03:19.457918 14736 net.cpp:415] inception_4a/output_inception_4a/output_0_split -> inception_4a/output_inception_4a/output_0_split_0
I0107 20:03:19.457923 14736 net.cpp:415] inception_4a/output_inception_4a/output_0_split -> inception_4a/output_inception_4a/output_0_split_1
I0107 20:03:19.457927 14736 net.cpp:415] inception_4a/output_inception_4a/output_0_split -> inception_4a/output_inception_4a/output_0_split_2
I0107 20:03:19.457931 14736 net.cpp:415] inception_4a/output_inception_4a/output_0_split -> inception_4a/output_inception_4a/output_0_split_3
I0107 20:03:19.457936 14736 net.cpp:160] Setting up inception_4a/output_inception_4a/output_0_split
I0107 20:03:19.457940 14736 net.cpp:167] Top shape: 1 576 14 14 (112896)
I0107 20:03:19.457944 14736 net.cpp:167] Top shape: 1 576 14 14 (112896)
I0107 20:03:19.457947 14736 net.cpp:167] Top shape: 1 576 14 14 (112896)
I0107 20:03:19.457950 14736 net.cpp:167] Top shape: 1 576 14 14 (112896)
I0107 20:03:19.457953 14736 layer_factory.hpp:74] Creating layer inception_4b/1x1
I0107 20:03:19.457957 14736 net.cpp:96] Creating Layer inception_4b/1x1
I0107 20:03:19.457960 14736 net.cpp:459] inception_4b/1x1 <- inception_4a/output_inception_4a/output_0_split_0
I0107 20:03:19.457965 14736 net.cpp:415] inception_4b/1x1 -> inception_4b/1x1
I0107 20:03:19.457969 14736 net.cpp:160] Setting up inception_4b/1x1
I0107 20:03:19.458441 14736 net.cpp:167] Top shape: 1 192 14 14 (37632)
I0107 20:03:19.458447 14736 layer_factory.hpp:74] Creating layer inception_4b/1x1_bn
I0107 20:03:19.458451 14736 layer_factory.cpp:177] Layer inception_4b/1x1_bn is using CAFFE engine.
I0107 20:03:19.458457 14736 net.cpp:96] Creating Layer inception_4b/1x1_bn
I0107 20:03:19.458461 14736 net.cpp:459] inception_4b/1x1_bn <- inception_4b/1x1
I0107 20:03:19.458464 14736 net.cpp:415] inception_4b/1x1_bn -> inception_4b/1x1_bn
I0107 20:03:19.458469 14736 net.cpp:160] Setting up inception_4b/1x1_bn
I0107 20:03:19.458482 14736 net.cpp:167] Top shape: 1 192 14 14 (37632)
I0107 20:03:19.458487 14736 layer_factory.hpp:74] Creating layer inception_4b/relu_1x1
I0107 20:03:19.458492 14736 net.cpp:96] Creating Layer inception_4b/relu_1x1
I0107 20:03:19.458494 14736 net.cpp:459] inception_4b/relu_1x1 <- inception_4b/1x1_bn
I0107 20:03:19.458498 14736 net.cpp:404] inception_4b/relu_1x1 -> inception_4b/1x1_bn (in-place)
I0107 20:03:19.458501 14736 net.cpp:160] Setting up inception_4b/relu_1x1
I0107 20:03:19.458504 14736 net.cpp:167] Top shape: 1 192 14 14 (37632)
I0107 20:03:19.458508 14736 layer_factory.hpp:74] Creating layer inception_4b/3x3_reduce
I0107 20:03:19.458513 14736 net.cpp:96] Creating Layer inception_4b/3x3_reduce
I0107 20:03:19.458516 14736 net.cpp:459] inception_4b/3x3_reduce <- inception_4a/output_inception_4a/output_0_split_1
I0107 20:03:19.458520 14736 net.cpp:415] inception_4b/3x3_reduce -> inception_4b/3x3_reduce
I0107 20:03:19.458524 14736 net.cpp:160] Setting up inception_4b/3x3_reduce
I0107 20:03:19.458765 14736 net.cpp:167] Top shape: 1 96 14 14 (18816)
I0107 20:03:19.458770 14736 layer_factory.hpp:74] Creating layer inception_4b/3x3_reduce_bn
I0107 20:03:19.458772 14736 layer_factory.cpp:177] Layer inception_4b/3x3_reduce_bn is using CAFFE engine.
I0107 20:03:19.458777 14736 net.cpp:96] Creating Layer inception_4b/3x3_reduce_bn
I0107 20:03:19.458781 14736 net.cpp:459] inception_4b/3x3_reduce_bn <- inception_4b/3x3_reduce
I0107 20:03:19.458786 14736 net.cpp:415] inception_4b/3x3_reduce_bn -> inception_4b/3x3_reduce_bn
I0107 20:03:19.458791 14736 net.cpp:160] Setting up inception_4b/3x3_reduce_bn
I0107 20:03:19.458799 14736 net.cpp:167] Top shape: 1 96 14 14 (18816)
I0107 20:03:19.458806 14736 layer_factory.hpp:74] Creating layer inception_4b/relu_3x3_reduce
I0107 20:03:19.458809 14736 net.cpp:96] Creating Layer inception_4b/relu_3x3_reduce
I0107 20:03:19.458812 14736 net.cpp:459] inception_4b/relu_3x3_reduce <- inception_4b/3x3_reduce_bn
I0107 20:03:19.458817 14736 net.cpp:404] inception_4b/relu_3x3_reduce -> inception_4b/3x3_reduce_bn (in-place)
I0107 20:03:19.458819 14736 net.cpp:160] Setting up inception_4b/relu_3x3_reduce
I0107 20:03:19.458823 14736 net.cpp:167] Top shape: 1 96 14 14 (18816)
I0107 20:03:19.458827 14736 layer_factory.hpp:74] Creating layer inception_4b/3x3
I0107 20:03:19.458830 14736 net.cpp:96] Creating Layer inception_4b/3x3
I0107 20:03:19.458833 14736 net.cpp:459] inception_4b/3x3 <- inception_4b/3x3_reduce_bn
I0107 20:03:19.458837 14736 net.cpp:415] inception_4b/3x3 -> inception_4b/3x3
I0107 20:03:19.458842 14736 net.cpp:160] Setting up inception_4b/3x3
I0107 20:03:19.459322 14736 net.cpp:167] Top shape: 1 128 14 14 (25088)
I0107 20:03:19.459328 14736 layer_factory.hpp:74] Creating layer inception_4b/3x3_bn
I0107 20:03:19.459331 14736 layer_factory.cpp:177] Layer inception_4b/3x3_bn is using CAFFE engine.
I0107 20:03:19.459336 14736 net.cpp:96] Creating Layer inception_4b/3x3_bn
I0107 20:03:19.459339 14736 net.cpp:459] inception_4b/3x3_bn <- inception_4b/3x3
I0107 20:03:19.459343 14736 net.cpp:415] inception_4b/3x3_bn -> inception_4b/3x3_bn
I0107 20:03:19.459348 14736 net.cpp:160] Setting up inception_4b/3x3_bn
I0107 20:03:19.459358 14736 net.cpp:167] Top shape: 1 128 14 14 (25088)
I0107 20:03:19.459363 14736 layer_factory.hpp:74] Creating layer inception_4b/relu_3x3
I0107 20:03:19.459367 14736 net.cpp:96] Creating Layer inception_4b/relu_3x3
I0107 20:03:19.459370 14736 net.cpp:459] inception_4b/relu_3x3 <- inception_4b/3x3_bn
I0107 20:03:19.459374 14736 net.cpp:404] inception_4b/relu_3x3 -> inception_4b/3x3_bn (in-place)
I0107 20:03:19.459378 14736 net.cpp:160] Setting up inception_4b/relu_3x3
I0107 20:03:19.459384 14736 net.cpp:167] Top shape: 1 128 14 14 (25088)
I0107 20:03:19.459388 14736 layer_factory.hpp:74] Creating layer inception_4b/double_3x3_reduce
I0107 20:03:19.459391 14736 net.cpp:96] Creating Layer inception_4b/double_3x3_reduce
I0107 20:03:19.459394 14736 net.cpp:459] inception_4b/double_3x3_reduce <- inception_4a/output_inception_4a/output_0_split_2
I0107 20:03:19.459400 14736 net.cpp:415] inception_4b/double_3x3_reduce -> inception_4b/double_3x3_reduce
I0107 20:03:19.459404 14736 net.cpp:160] Setting up inception_4b/double_3x3_reduce
I0107 20:03:19.459650 14736 net.cpp:167] Top shape: 1 96 14 14 (18816)
I0107 20:03:19.459656 14736 layer_factory.hpp:74] Creating layer inception_4b/double_3x3_reduce_bn
I0107 20:03:19.459659 14736 layer_factory.cpp:177] Layer inception_4b/double_3x3_reduce_bn is using CAFFE engine.
I0107 20:03:19.459664 14736 net.cpp:96] Creating Layer inception_4b/double_3x3_reduce_bn
I0107 20:03:19.459667 14736 net.cpp:459] inception_4b/double_3x3_reduce_bn <- inception_4b/double_3x3_reduce
I0107 20:03:19.459671 14736 net.cpp:415] inception_4b/double_3x3_reduce_bn -> inception_4b/double_3x3_reduce_bn
I0107 20:03:19.459676 14736 net.cpp:160] Setting up inception_4b/double_3x3_reduce_bn
I0107 20:03:19.459687 14736 net.cpp:167] Top shape: 1 96 14 14 (18816)
I0107 20:03:19.459692 14736 layer_factory.hpp:74] Creating layer inception_4b/relu_double_3x3_reduce
I0107 20:03:19.459697 14736 net.cpp:96] Creating Layer inception_4b/relu_double_3x3_reduce
I0107 20:03:19.459700 14736 net.cpp:459] inception_4b/relu_double_3x3_reduce <- inception_4b/double_3x3_reduce_bn
I0107 20:03:19.459704 14736 net.cpp:404] inception_4b/relu_double_3x3_reduce -> inception_4b/double_3x3_reduce_bn (in-place)
I0107 20:03:19.459708 14736 net.cpp:160] Setting up inception_4b/relu_double_3x3_reduce
I0107 20:03:19.459712 14736 net.cpp:167] Top shape: 1 96 14 14 (18816)
I0107 20:03:19.459715 14736 layer_factory.hpp:74] Creating layer inception_4b/double_3x3_1
I0107 20:03:19.459719 14736 net.cpp:96] Creating Layer inception_4b/double_3x3_1
I0107 20:03:19.459722 14736 net.cpp:459] inception_4b/double_3x3_1 <- inception_4b/double_3x3_reduce_bn
I0107 20:03:19.459727 14736 net.cpp:415] inception_4b/double_3x3_1 -> inception_4b/double_3x3_1
I0107 20:03:19.459730 14736 net.cpp:160] Setting up inception_4b/double_3x3_1
I0107 20:03:19.460213 14736 net.cpp:167] Top shape: 1 128 14 14 (25088)
I0107 20:03:19.460219 14736 layer_factory.hpp:74] Creating layer inception_4b/double_3x3_1_bn
I0107 20:03:19.460222 14736 layer_factory.cpp:177] Layer inception_4b/double_3x3_1_bn is using CAFFE engine.
I0107 20:03:19.460227 14736 net.cpp:96] Creating Layer inception_4b/double_3x3_1_bn
I0107 20:03:19.460229 14736 net.cpp:459] inception_4b/double_3x3_1_bn <- inception_4b/double_3x3_1
I0107 20:03:19.460234 14736 net.cpp:415] inception_4b/double_3x3_1_bn -> inception_4b/double_3x3_1_bn
I0107 20:03:19.460239 14736 net.cpp:160] Setting up inception_4b/double_3x3_1_bn
I0107 20:03:19.460250 14736 net.cpp:167] Top shape: 1 128 14 14 (25088)
I0107 20:03:19.460255 14736 layer_factory.hpp:74] Creating layer inception_4b/relu_double_3x3_1
I0107 20:03:19.460259 14736 net.cpp:96] Creating Layer inception_4b/relu_double_3x3_1
I0107 20:03:19.460263 14736 net.cpp:459] inception_4b/relu_double_3x3_1 <- inception_4b/double_3x3_1_bn
I0107 20:03:19.460265 14736 net.cpp:404] inception_4b/relu_double_3x3_1 -> inception_4b/double_3x3_1_bn (in-place)
I0107 20:03:19.460269 14736 net.cpp:160] Setting up inception_4b/relu_double_3x3_1
I0107 20:03:19.460273 14736 net.cpp:167] Top shape: 1 128 14 14 (25088)
I0107 20:03:19.460275 14736 layer_factory.hpp:74] Creating layer inception_4b/double_3x3_2
I0107 20:03:19.460280 14736 net.cpp:96] Creating Layer inception_4b/double_3x3_2
I0107 20:03:19.460283 14736 net.cpp:459] inception_4b/double_3x3_2 <- inception_4b/double_3x3_1_bn
I0107 20:03:19.460288 14736 net.cpp:415] inception_4b/double_3x3_2 -> inception_4b/double_3x3_2
I0107 20:03:19.460292 14736 net.cpp:160] Setting up inception_4b/double_3x3_2
I0107 20:03:19.460934 14736 net.cpp:167] Top shape: 1 128 14 14 (25088)
I0107 20:03:19.460942 14736 layer_factory.hpp:74] Creating layer inception_4b/double_3x3_2_bn
I0107 20:03:19.460945 14736 layer_factory.cpp:177] Layer inception_4b/double_3x3_2_bn is using CAFFE engine.
I0107 20:03:19.460950 14736 net.cpp:96] Creating Layer inception_4b/double_3x3_2_bn
I0107 20:03:19.460953 14736 net.cpp:459] inception_4b/double_3x3_2_bn <- inception_4b/double_3x3_2
I0107 20:03:19.460958 14736 net.cpp:415] inception_4b/double_3x3_2_bn -> inception_4b/double_3x3_2_bn
I0107 20:03:19.460963 14736 net.cpp:160] Setting up inception_4b/double_3x3_2_bn
I0107 20:03:19.460973 14736 net.cpp:167] Top shape: 1 128 14 14 (25088)
I0107 20:03:19.460978 14736 layer_factory.hpp:74] Creating layer inception_4b/relu_double_3x3_2
I0107 20:03:19.460983 14736 net.cpp:96] Creating Layer inception_4b/relu_double_3x3_2
I0107 20:03:19.460985 14736 net.cpp:459] inception_4b/relu_double_3x3_2 <- inception_4b/double_3x3_2_bn
I0107 20:03:19.460989 14736 net.cpp:404] inception_4b/relu_double_3x3_2 -> inception_4b/double_3x3_2_bn (in-place)
I0107 20:03:19.460993 14736 net.cpp:160] Setting up inception_4b/relu_double_3x3_2
I0107 20:03:19.460996 14736 net.cpp:167] Top shape: 1 128 14 14 (25088)
I0107 20:03:19.460999 14736 layer_factory.hpp:74] Creating layer inception_4b/pool
I0107 20:03:19.461002 14736 net.cpp:96] Creating Layer inception_4b/pool
I0107 20:03:19.461006 14736 net.cpp:459] inception_4b/pool <- inception_4a/output_inception_4a/output_0_split_3
I0107 20:03:19.461010 14736 net.cpp:415] inception_4b/pool -> inception_4b/pool
I0107 20:03:19.461014 14736 net.cpp:160] Setting up inception_4b/pool
I0107 20:03:19.461019 14736 net.cpp:167] Top shape: 1 576 14 14 (112896)
I0107 20:03:19.461021 14736 layer_factory.hpp:74] Creating layer inception_4b/pool_proj
I0107 20:03:19.461026 14736 net.cpp:96] Creating Layer inception_4b/pool_proj
I0107 20:03:19.461030 14736 net.cpp:459] inception_4b/pool_proj <- inception_4b/pool
I0107 20:03:19.461035 14736 net.cpp:415] inception_4b/pool_proj -> inception_4b/pool_proj
I0107 20:03:19.461038 14736 net.cpp:160] Setting up inception_4b/pool_proj
I0107 20:03:19.461364 14736 net.cpp:167] Top shape: 1 128 14 14 (25088)
I0107 20:03:19.461369 14736 layer_factory.hpp:74] Creating layer inception_4b/pool_proj_bn
I0107 20:03:19.461372 14736 layer_factory.cpp:177] Layer inception_4b/pool_proj_bn is using CAFFE engine.
I0107 20:03:19.461377 14736 net.cpp:96] Creating Layer inception_4b/pool_proj_bn
I0107 20:03:19.461380 14736 net.cpp:459] inception_4b/pool_proj_bn <- inception_4b/pool_proj
I0107 20:03:19.461386 14736 net.cpp:415] inception_4b/pool_proj_bn -> inception_4b/pool_proj_bn
I0107 20:03:19.461391 14736 net.cpp:160] Setting up inception_4b/pool_proj_bn
I0107 20:03:19.461400 14736 net.cpp:167] Top shape: 1 128 14 14 (25088)
I0107 20:03:19.461405 14736 layer_factory.hpp:74] Creating layer inception_4b/relu_pool_proj
I0107 20:03:19.461410 14736 net.cpp:96] Creating Layer inception_4b/relu_pool_proj
I0107 20:03:19.461413 14736 net.cpp:459] inception_4b/relu_pool_proj <- inception_4b/pool_proj_bn
I0107 20:03:19.461417 14736 net.cpp:404] inception_4b/relu_pool_proj -> inception_4b/pool_proj_bn (in-place)
I0107 20:03:19.461421 14736 net.cpp:160] Setting up inception_4b/relu_pool_proj
I0107 20:03:19.461424 14736 net.cpp:167] Top shape: 1 128 14 14 (25088)
I0107 20:03:19.461426 14736 layer_factory.hpp:74] Creating layer inception_4b/output
I0107 20:03:19.461431 14736 net.cpp:96] Creating Layer inception_4b/output
I0107 20:03:19.461433 14736 net.cpp:459] inception_4b/output <- inception_4b/1x1_bn
I0107 20:03:19.461436 14736 net.cpp:459] inception_4b/output <- inception_4b/3x3_bn
I0107 20:03:19.461441 14736 net.cpp:459] inception_4b/output <- inception_4b/double_3x3_2_bn
I0107 20:03:19.461443 14736 net.cpp:459] inception_4b/output <- inception_4b/pool_proj_bn
I0107 20:03:19.461449 14736 net.cpp:415] inception_4b/output -> inception_4b/output
I0107 20:03:19.461453 14736 net.cpp:160] Setting up inception_4b/output
I0107 20:03:19.461458 14736 net.cpp:167] Top shape: 1 576 14 14 (112896)
I0107 20:03:19.461463 14736 layer_factory.hpp:74] Creating layer inception_4b/output_inception_4b/output_0_split
I0107 20:03:19.461467 14736 net.cpp:96] Creating Layer inception_4b/output_inception_4b/output_0_split
I0107 20:03:19.461470 14736 net.cpp:459] inception_4b/output_inception_4b/output_0_split <- inception_4b/output
I0107 20:03:19.461474 14736 net.cpp:415] inception_4b/output_inception_4b/output_0_split -> inception_4b/output_inception_4b/output_0_split_0
I0107 20:03:19.461478 14736 net.cpp:415] inception_4b/output_inception_4b/output_0_split -> inception_4b/output_inception_4b/output_0_split_1
I0107 20:03:19.461483 14736 net.cpp:415] inception_4b/output_inception_4b/output_0_split -> inception_4b/output_inception_4b/output_0_split_2
I0107 20:03:19.461488 14736 net.cpp:415] inception_4b/output_inception_4b/output_0_split -> inception_4b/output_inception_4b/output_0_split_3
I0107 20:03:19.461493 14736 net.cpp:160] Setting up inception_4b/output_inception_4b/output_0_split
I0107 20:03:19.461496 14736 net.cpp:167] Top shape: 1 576 14 14 (112896)
I0107 20:03:19.461500 14736 net.cpp:167] Top shape: 1 576 14 14 (112896)
I0107 20:03:19.461503 14736 net.cpp:167] Top shape: 1 576 14 14 (112896)
I0107 20:03:19.461506 14736 net.cpp:167] Top shape: 1 576 14 14 (112896)
I0107 20:03:19.461509 14736 layer_factory.hpp:74] Creating layer inception_4c/1x1
I0107 20:03:19.461514 14736 net.cpp:96] Creating Layer inception_4c/1x1
I0107 20:03:19.461518 14736 net.cpp:459] inception_4c/1x1 <- inception_4b/output_inception_4b/output_0_split_0
I0107 20:03:19.461521 14736 net.cpp:415] inception_4c/1x1 -> inception_4c/1x1
I0107 20:03:19.461526 14736 net.cpp:160] Setting up inception_4c/1x1
I0107 20:03:19.461930 14736 net.cpp:167] Top shape: 1 160 14 14 (31360)
I0107 20:03:19.461937 14736 layer_factory.hpp:74] Creating layer inception_4c/1x1_bn
I0107 20:03:19.461941 14736 layer_factory.cpp:177] Layer inception_4c/1x1_bn is using CAFFE engine.
I0107 20:03:19.461946 14736 net.cpp:96] Creating Layer inception_4c/1x1_bn
I0107 20:03:19.461948 14736 net.cpp:459] inception_4c/1x1_bn <- inception_4c/1x1
I0107 20:03:19.461952 14736 net.cpp:415] inception_4c/1x1_bn -> inception_4c/1x1_bn
I0107 20:03:19.461957 14736 net.cpp:160] Setting up inception_4c/1x1_bn
I0107 20:03:19.461969 14736 net.cpp:167] Top shape: 1 160 14 14 (31360)
I0107 20:03:19.461976 14736 layer_factory.hpp:74] Creating layer inception_4c/relu_1x1
I0107 20:03:19.461987 14736 net.cpp:96] Creating Layer inception_4c/relu_1x1
I0107 20:03:19.461990 14736 net.cpp:459] inception_4c/relu_1x1 <- inception_4c/1x1_bn
I0107 20:03:19.461994 14736 net.cpp:404] inception_4c/relu_1x1 -> inception_4c/1x1_bn (in-place)
I0107 20:03:19.461997 14736 net.cpp:160] Setting up inception_4c/relu_1x1
I0107 20:03:19.462002 14736 net.cpp:167] Top shape: 1 160 14 14 (31360)
I0107 20:03:19.462004 14736 layer_factory.hpp:74] Creating layer inception_4c/3x3_reduce
I0107 20:03:19.462009 14736 net.cpp:96] Creating Layer inception_4c/3x3_reduce
I0107 20:03:19.462013 14736 net.cpp:459] inception_4c/3x3_reduce <- inception_4b/output_inception_4b/output_0_split_1
I0107 20:03:19.462018 14736 net.cpp:415] inception_4c/3x3_reduce -> inception_4c/3x3_reduce
I0107 20:03:19.462023 14736 net.cpp:160] Setting up inception_4c/3x3_reduce
I0107 20:03:19.462348 14736 net.cpp:167] Top shape: 1 128 14 14 (25088)
I0107 20:03:19.462354 14736 layer_factory.hpp:74] Creating layer inception_4c/3x3_reduce_bn
I0107 20:03:19.462357 14736 layer_factory.cpp:177] Layer inception_4c/3x3_reduce_bn is using CAFFE engine.
I0107 20:03:19.462363 14736 net.cpp:96] Creating Layer inception_4c/3x3_reduce_bn
I0107 20:03:19.462365 14736 net.cpp:459] inception_4c/3x3_reduce_bn <- inception_4c/3x3_reduce
I0107 20:03:19.462369 14736 net.cpp:415] inception_4c/3x3_reduce_bn -> inception_4c/3x3_reduce_bn
I0107 20:03:19.462374 14736 net.cpp:160] Setting up inception_4c/3x3_reduce_bn
I0107 20:03:19.462384 14736 net.cpp:167] Top shape: 1 128 14 14 (25088)
I0107 20:03:19.462390 14736 layer_factory.hpp:74] Creating layer inception_4c/relu_3x3_reduce
I0107 20:03:19.462396 14736 net.cpp:96] Creating Layer inception_4c/relu_3x3_reduce
I0107 20:03:19.462399 14736 net.cpp:459] inception_4c/relu_3x3_reduce <- inception_4c/3x3_reduce_bn
I0107 20:03:19.462404 14736 net.cpp:404] inception_4c/relu_3x3_reduce -> inception_4c/3x3_reduce_bn (in-place)
I0107 20:03:19.462409 14736 net.cpp:160] Setting up inception_4c/relu_3x3_reduce
I0107 20:03:19.462411 14736 net.cpp:167] Top shape: 1 128 14 14 (25088)
I0107 20:03:19.462414 14736 layer_factory.hpp:74] Creating layer inception_4c/3x3
I0107 20:03:19.462419 14736 net.cpp:96] Creating Layer inception_4c/3x3
I0107 20:03:19.462422 14736 net.cpp:459] inception_4c/3x3 <- inception_4c/3x3_reduce_bn
I0107 20:03:19.462426 14736 net.cpp:415] inception_4c/3x3 -> inception_4c/3x3
I0107 20:03:19.462431 14736 net.cpp:160] Setting up inception_4c/3x3
I0107 20:03:19.463230 14736 net.cpp:167] Top shape: 1 160 14 14 (31360)
I0107 20:03:19.463238 14736 layer_factory.hpp:74] Creating layer inception_4c/3x3_bn
I0107 20:03:19.463240 14736 layer_factory.cpp:177] Layer inception_4c/3x3_bn is using CAFFE engine.
I0107 20:03:19.463245 14736 net.cpp:96] Creating Layer inception_4c/3x3_bn
I0107 20:03:19.463248 14736 net.cpp:459] inception_4c/3x3_bn <- inception_4c/3x3
I0107 20:03:19.463253 14736 net.cpp:415] inception_4c/3x3_bn -> inception_4c/3x3_bn
I0107 20:03:19.463258 14736 net.cpp:160] Setting up inception_4c/3x3_bn
I0107 20:03:19.463266 14736 net.cpp:167] Top shape: 1 160 14 14 (31360)
I0107 20:03:19.463273 14736 layer_factory.hpp:74] Creating layer inception_4c/relu_3x3
I0107 20:03:19.463276 14736 net.cpp:96] Creating Layer inception_4c/relu_3x3
I0107 20:03:19.463279 14736 net.cpp:459] inception_4c/relu_3x3 <- inception_4c/3x3_bn
I0107 20:03:19.463284 14736 net.cpp:404] inception_4c/relu_3x3 -> inception_4c/3x3_bn (in-place)
I0107 20:03:19.463286 14736 net.cpp:160] Setting up inception_4c/relu_3x3
I0107 20:03:19.463290 14736 net.cpp:167] Top shape: 1 160 14 14 (31360)
I0107 20:03:19.463292 14736 layer_factory.hpp:74] Creating layer inception_4c/double_3x3_reduce
I0107 20:03:19.463297 14736 net.cpp:96] Creating Layer inception_4c/double_3x3_reduce
I0107 20:03:19.463299 14736 net.cpp:459] inception_4c/double_3x3_reduce <- inception_4b/output_inception_4b/output_0_split_2
I0107 20:03:19.463305 14736 net.cpp:415] inception_4c/double_3x3_reduce -> inception_4c/double_3x3_reduce
I0107 20:03:19.463310 14736 net.cpp:160] Setting up inception_4c/double_3x3_reduce
I0107 20:03:19.463634 14736 net.cpp:167] Top shape: 1 128 14 14 (25088)
I0107 20:03:19.463639 14736 layer_factory.hpp:74] Creating layer inception_4c/double_3x3_reduce_bn
I0107 20:03:19.463642 14736 layer_factory.cpp:177] Layer inception_4c/double_3x3_reduce_bn is using CAFFE engine.
I0107 20:03:19.463649 14736 net.cpp:96] Creating Layer inception_4c/double_3x3_reduce_bn
I0107 20:03:19.463651 14736 net.cpp:459] inception_4c/double_3x3_reduce_bn <- inception_4c/double_3x3_reduce
I0107 20:03:19.463656 14736 net.cpp:415] inception_4c/double_3x3_reduce_bn -> inception_4c/double_3x3_reduce_bn
I0107 20:03:19.463661 14736 net.cpp:160] Setting up inception_4c/double_3x3_reduce_bn
I0107 20:03:19.463670 14736 net.cpp:167] Top shape: 1 128 14 14 (25088)
I0107 20:03:19.463675 14736 layer_factory.hpp:74] Creating layer inception_4c/relu_double_3x3_reduce
I0107 20:03:19.463680 14736 net.cpp:96] Creating Layer inception_4c/relu_double_3x3_reduce
I0107 20:03:19.463682 14736 net.cpp:459] inception_4c/relu_double_3x3_reduce <- inception_4c/double_3x3_reduce_bn
I0107 20:03:19.463688 14736 net.cpp:404] inception_4c/relu_double_3x3_reduce -> inception_4c/double_3x3_reduce_bn (in-place)
I0107 20:03:19.463692 14736 net.cpp:160] Setting up inception_4c/relu_double_3x3_reduce
I0107 20:03:19.463696 14736 net.cpp:167] Top shape: 1 128 14 14 (25088)
I0107 20:03:19.463698 14736 layer_factory.hpp:74] Creating layer inception_4c/double_3x3_1
I0107 20:03:19.463703 14736 net.cpp:96] Creating Layer inception_4c/double_3x3_1
I0107 20:03:19.463706 14736 net.cpp:459] inception_4c/double_3x3_1 <- inception_4c/double_3x3_reduce_bn
I0107 20:03:19.463713 14736 net.cpp:415] inception_4c/double_3x3_1 -> inception_4c/double_3x3_1
I0107 20:03:19.463717 14736 net.cpp:160] Setting up inception_4c/double_3x3_1
I0107 20:03:19.464515 14736 net.cpp:167] Top shape: 1 160 14 14 (31360)
I0107 20:03:19.464521 14736 layer_factory.hpp:74] Creating layer inception_4c/double_3x3_1_bn
I0107 20:03:19.464524 14736 layer_factory.cpp:177] Layer inception_4c/double_3x3_1_bn is using CAFFE engine.
I0107 20:03:19.464529 14736 net.cpp:96] Creating Layer inception_4c/double_3x3_1_bn
I0107 20:03:19.464532 14736 net.cpp:459] inception_4c/double_3x3_1_bn <- inception_4c/double_3x3_1
I0107 20:03:19.464536 14736 net.cpp:415] inception_4c/double_3x3_1_bn -> inception_4c/double_3x3_1_bn
I0107 20:03:19.464541 14736 net.cpp:160] Setting up inception_4c/double_3x3_1_bn
I0107 20:03:19.464555 14736 net.cpp:167] Top shape: 1 160 14 14 (31360)
I0107 20:03:19.464560 14736 layer_factory.hpp:74] Creating layer inception_4c/relu_double_3x3_1
I0107 20:03:19.464565 14736 net.cpp:96] Creating Layer inception_4c/relu_double_3x3_1
I0107 20:03:19.464568 14736 net.cpp:459] inception_4c/relu_double_3x3_1 <- inception_4c/double_3x3_1_bn
I0107 20:03:19.464571 14736 net.cpp:404] inception_4c/relu_double_3x3_1 -> inception_4c/double_3x3_1_bn (in-place)
I0107 20:03:19.464576 14736 net.cpp:160] Setting up inception_4c/relu_double_3x3_1
I0107 20:03:19.464579 14736 net.cpp:167] Top shape: 1 160 14 14 (31360)
I0107 20:03:19.464581 14736 layer_factory.hpp:74] Creating layer inception_4c/double_3x3_2
I0107 20:03:19.464586 14736 net.cpp:96] Creating Layer inception_4c/double_3x3_2
I0107 20:03:19.464589 14736 net.cpp:459] inception_4c/double_3x3_2 <- inception_4c/double_3x3_1_bn
I0107 20:03:19.464596 14736 net.cpp:415] inception_4c/double_3x3_2 -> inception_4c/double_3x3_2
I0107 20:03:19.464601 14736 net.cpp:160] Setting up inception_4c/double_3x3_2
I0107 20:03:19.465596 14736 net.cpp:167] Top shape: 1 160 14 14 (31360)
I0107 20:03:19.465601 14736 layer_factory.hpp:74] Creating layer inception_4c/double_3x3_2_bn
I0107 20:03:19.465605 14736 layer_factory.cpp:177] Layer inception_4c/double_3x3_2_bn is using CAFFE engine.
I0107 20:03:19.465610 14736 net.cpp:96] Creating Layer inception_4c/double_3x3_2_bn
I0107 20:03:19.465613 14736 net.cpp:459] inception_4c/double_3x3_2_bn <- inception_4c/double_3x3_2
I0107 20:03:19.465618 14736 net.cpp:415] inception_4c/double_3x3_2_bn -> inception_4c/double_3x3_2_bn
I0107 20:03:19.465622 14736 net.cpp:160] Setting up inception_4c/double_3x3_2_bn
I0107 20:03:19.465632 14736 net.cpp:167] Top shape: 1 160 14 14 (31360)
I0107 20:03:19.465637 14736 layer_factory.hpp:74] Creating layer inception_4c/relu_double_3x3_2
I0107 20:03:19.465642 14736 net.cpp:96] Creating Layer inception_4c/relu_double_3x3_2
I0107 20:03:19.465646 14736 net.cpp:459] inception_4c/relu_double_3x3_2 <- inception_4c/double_3x3_2_bn
I0107 20:03:19.465649 14736 net.cpp:404] inception_4c/relu_double_3x3_2 -> inception_4c/double_3x3_2_bn (in-place)
I0107 20:03:19.465652 14736 net.cpp:160] Setting up inception_4c/relu_double_3x3_2
I0107 20:03:19.465656 14736 net.cpp:167] Top shape: 1 160 14 14 (31360)
I0107 20:03:19.465658 14736 layer_factory.hpp:74] Creating layer inception_4c/pool
I0107 20:03:19.465663 14736 net.cpp:96] Creating Layer inception_4c/pool
I0107 20:03:19.465667 14736 net.cpp:459] inception_4c/pool <- inception_4b/output_inception_4b/output_0_split_3
I0107 20:03:19.465670 14736 net.cpp:415] inception_4c/pool -> inception_4c/pool
I0107 20:03:19.465674 14736 net.cpp:160] Setting up inception_4c/pool
I0107 20:03:19.465679 14736 net.cpp:167] Top shape: 1 576 14 14 (112896)
I0107 20:03:19.465682 14736 layer_factory.hpp:74] Creating layer inception_4c/pool_proj
I0107 20:03:19.465687 14736 net.cpp:96] Creating Layer inception_4c/pool_proj
I0107 20:03:19.465690 14736 net.cpp:459] inception_4c/pool_proj <- inception_4c/pool
I0107 20:03:19.465694 14736 net.cpp:415] inception_4c/pool_proj -> inception_4c/pool_proj
I0107 20:03:19.465699 14736 net.cpp:160] Setting up inception_4c/pool_proj
I0107 20:03:19.466027 14736 net.cpp:167] Top shape: 1 128 14 14 (25088)
I0107 20:03:19.466037 14736 layer_factory.hpp:74] Creating layer inception_4c/pool_proj_bn
I0107 20:03:19.466039 14736 layer_factory.cpp:177] Layer inception_4c/pool_proj_bn is using CAFFE engine.
I0107 20:03:19.466045 14736 net.cpp:96] Creating Layer inception_4c/pool_proj_bn
I0107 20:03:19.466048 14736 net.cpp:459] inception_4c/pool_proj_bn <- inception_4c/pool_proj
I0107 20:03:19.466053 14736 net.cpp:415] inception_4c/pool_proj_bn -> inception_4c/pool_proj_bn
I0107 20:03:19.466058 14736 net.cpp:160] Setting up inception_4c/pool_proj_bn
I0107 20:03:19.466068 14736 net.cpp:167] Top shape: 1 128 14 14 (25088)
I0107 20:03:19.466092 14736 layer_factory.hpp:74] Creating layer inception_4c/relu_pool_proj
I0107 20:03:19.466097 14736 net.cpp:96] Creating Layer inception_4c/relu_pool_proj
I0107 20:03:19.466100 14736 net.cpp:459] inception_4c/relu_pool_proj <- inception_4c/pool_proj_bn
I0107 20:03:19.466104 14736 net.cpp:404] inception_4c/relu_pool_proj -> inception_4c/pool_proj_bn (in-place)
I0107 20:03:19.466107 14736 net.cpp:160] Setting up inception_4c/relu_pool_proj
I0107 20:03:19.466111 14736 net.cpp:167] Top shape: 1 128 14 14 (25088)
I0107 20:03:19.466114 14736 layer_factory.hpp:74] Creating layer inception_4c/output
I0107 20:03:19.466119 14736 net.cpp:96] Creating Layer inception_4c/output
I0107 20:03:19.466121 14736 net.cpp:459] inception_4c/output <- inception_4c/1x1_bn
I0107 20:03:19.466125 14736 net.cpp:459] inception_4c/output <- inception_4c/3x3_bn
I0107 20:03:19.466128 14736 net.cpp:459] inception_4c/output <- inception_4c/double_3x3_2_bn
I0107 20:03:19.466131 14736 net.cpp:459] inception_4c/output <- inception_4c/pool_proj_bn
I0107 20:03:19.466135 14736 net.cpp:415] inception_4c/output -> inception_4c/output
I0107 20:03:19.466140 14736 net.cpp:160] Setting up inception_4c/output
I0107 20:03:19.466145 14736 net.cpp:167] Top shape: 1 608 14 14 (119168)
I0107 20:03:19.466147 14736 layer_factory.hpp:74] Creating layer inception_4c/output_inception_4c/output_0_split
I0107 20:03:19.466151 14736 net.cpp:96] Creating Layer inception_4c/output_inception_4c/output_0_split
I0107 20:03:19.466154 14736 net.cpp:459] inception_4c/output_inception_4c/output_0_split <- inception_4c/output
I0107 20:03:19.466159 14736 net.cpp:415] inception_4c/output_inception_4c/output_0_split -> inception_4c/output_inception_4c/output_0_split_0
I0107 20:03:19.466163 14736 net.cpp:415] inception_4c/output_inception_4c/output_0_split -> inception_4c/output_inception_4c/output_0_split_1
I0107 20:03:19.466168 14736 net.cpp:415] inception_4c/output_inception_4c/output_0_split -> inception_4c/output_inception_4c/output_0_split_2
I0107 20:03:19.466172 14736 net.cpp:415] inception_4c/output_inception_4c/output_0_split -> inception_4c/output_inception_4c/output_0_split_3
I0107 20:03:19.466176 14736 net.cpp:160] Setting up inception_4c/output_inception_4c/output_0_split
I0107 20:03:19.466182 14736 net.cpp:167] Top shape: 1 608 14 14 (119168)
I0107 20:03:19.466186 14736 net.cpp:167] Top shape: 1 608 14 14 (119168)
I0107 20:03:19.466188 14736 net.cpp:167] Top shape: 1 608 14 14 (119168)
I0107 20:03:19.466192 14736 net.cpp:167] Top shape: 1 608 14 14 (119168)
I0107 20:03:19.466194 14736 layer_factory.hpp:74] Creating layer inception_4d/1x1
I0107 20:03:19.466199 14736 net.cpp:96] Creating Layer inception_4d/1x1
I0107 20:03:19.466202 14736 net.cpp:459] inception_4d/1x1 <- inception_4c/output_inception_4c/output_0_split_0
I0107 20:03:19.466208 14736 net.cpp:415] inception_4d/1x1 -> inception_4d/1x1
I0107 20:03:19.466219 14736 net.cpp:160] Setting up inception_4d/1x1
I0107 20:03:19.466476 14736 net.cpp:167] Top shape: 1 96 14 14 (18816)
I0107 20:03:19.466482 14736 layer_factory.hpp:74] Creating layer inception_4d/1x1_bn
I0107 20:03:19.466485 14736 layer_factory.cpp:177] Layer inception_4d/1x1_bn is using CAFFE engine.
I0107 20:03:19.466490 14736 net.cpp:96] Creating Layer inception_4d/1x1_bn
I0107 20:03:19.466493 14736 net.cpp:459] inception_4d/1x1_bn <- inception_4d/1x1
I0107 20:03:19.466498 14736 net.cpp:415] inception_4d/1x1_bn -> inception_4d/1x1_bn
I0107 20:03:19.466506 14736 net.cpp:160] Setting up inception_4d/1x1_bn
I0107 20:03:19.466518 14736 net.cpp:167] Top shape: 1 96 14 14 (18816)
I0107 20:03:19.466524 14736 layer_factory.hpp:74] Creating layer inception_4d/relu_1x1
I0107 20:03:19.466528 14736 net.cpp:96] Creating Layer inception_4d/relu_1x1
I0107 20:03:19.466531 14736 net.cpp:459] inception_4d/relu_1x1 <- inception_4d/1x1_bn
I0107 20:03:19.466534 14736 net.cpp:404] inception_4d/relu_1x1 -> inception_4d/1x1_bn (in-place)
I0107 20:03:19.466538 14736 net.cpp:160] Setting up inception_4d/relu_1x1
I0107 20:03:19.466542 14736 net.cpp:167] Top shape: 1 96 14 14 (18816)
I0107 20:03:19.466544 14736 layer_factory.hpp:74] Creating layer inception_4d/3x3_reduce
I0107 20:03:19.466550 14736 net.cpp:96] Creating Layer inception_4d/3x3_reduce
I0107 20:03:19.466553 14736 net.cpp:459] inception_4d/3x3_reduce <- inception_4c/output_inception_4c/output_0_split_1
I0107 20:03:19.466558 14736 net.cpp:415] inception_4d/3x3_reduce -> inception_4d/3x3_reduce
I0107 20:03:19.466562 14736 net.cpp:160] Setting up inception_4d/3x3_reduce
I0107 20:03:19.466904 14736 net.cpp:167] Top shape: 1 128 14 14 (25088)
I0107 20:03:19.466912 14736 layer_factory.hpp:74] Creating layer inception_4d/3x3_reduce_bn
I0107 20:03:19.466914 14736 layer_factory.cpp:177] Layer inception_4d/3x3_reduce_bn is using CAFFE engine.
I0107 20:03:19.466918 14736 net.cpp:96] Creating Layer inception_4d/3x3_reduce_bn
I0107 20:03:19.466922 14736 net.cpp:459] inception_4d/3x3_reduce_bn <- inception_4d/3x3_reduce
I0107 20:03:19.466928 14736 net.cpp:415] inception_4d/3x3_reduce_bn -> inception_4d/3x3_reduce_bn
I0107 20:03:19.466931 14736 net.cpp:160] Setting up inception_4d/3x3_reduce_bn
I0107 20:03:19.466941 14736 net.cpp:167] Top shape: 1 128 14 14 (25088)
I0107 20:03:19.466948 14736 layer_factory.hpp:74] Creating layer inception_4d/relu_3x3_reduce
I0107 20:03:19.466953 14736 net.cpp:96] Creating Layer inception_4d/relu_3x3_reduce
I0107 20:03:19.466955 14736 net.cpp:459] inception_4d/relu_3x3_reduce <- inception_4d/3x3_reduce_bn
I0107 20:03:19.466959 14736 net.cpp:404] inception_4d/relu_3x3_reduce -> inception_4d/3x3_reduce_bn (in-place)
I0107 20:03:19.466964 14736 net.cpp:160] Setting up inception_4d/relu_3x3_reduce
I0107 20:03:19.466966 14736 net.cpp:167] Top shape: 1 128 14 14 (25088)
I0107 20:03:19.466969 14736 layer_factory.hpp:74] Creating layer inception_4d/3x3
I0107 20:03:19.466974 14736 net.cpp:96] Creating Layer inception_4d/3x3
I0107 20:03:19.466976 14736 net.cpp:459] inception_4d/3x3 <- inception_4d/3x3_reduce_bn
I0107 20:03:19.466980 14736 net.cpp:415] inception_4d/3x3 -> inception_4d/3x3
I0107 20:03:19.466985 14736 net.cpp:160] Setting up inception_4d/3x3
I0107 20:03:19.467943 14736 net.cpp:167] Top shape: 1 192 14 14 (37632)
I0107 20:03:19.467949 14736 layer_factory.hpp:74] Creating layer inception_4d/3x3_bn
I0107 20:03:19.467952 14736 layer_factory.cpp:177] Layer inception_4d/3x3_bn is using CAFFE engine.
I0107 20:03:19.467957 14736 net.cpp:96] Creating Layer inception_4d/3x3_bn
I0107 20:03:19.467960 14736 net.cpp:459] inception_4d/3x3_bn <- inception_4d/3x3
I0107 20:03:19.467965 14736 net.cpp:415] inception_4d/3x3_bn -> inception_4d/3x3_bn
I0107 20:03:19.467970 14736 net.cpp:160] Setting up inception_4d/3x3_bn
I0107 20:03:19.467980 14736 net.cpp:167] Top shape: 1 192 14 14 (37632)
I0107 20:03:19.467985 14736 layer_factory.hpp:74] Creating layer inception_4d/relu_3x3
I0107 20:03:19.467990 14736 net.cpp:96] Creating Layer inception_4d/relu_3x3
I0107 20:03:19.467993 14736 net.cpp:459] inception_4d/relu_3x3 <- inception_4d/3x3_bn
I0107 20:03:19.467998 14736 net.cpp:404] inception_4d/relu_3x3 -> inception_4d/3x3_bn (in-place)
I0107 20:03:19.468000 14736 net.cpp:160] Setting up inception_4d/relu_3x3
I0107 20:03:19.468004 14736 net.cpp:167] Top shape: 1 192 14 14 (37632)
I0107 20:03:19.468008 14736 layer_factory.hpp:74] Creating layer inception_4d/double_3x3_reduce
I0107 20:03:19.468013 14736 net.cpp:96] Creating Layer inception_4d/double_3x3_reduce
I0107 20:03:19.468015 14736 net.cpp:459] inception_4d/double_3x3_reduce <- inception_4c/output_inception_4c/output_0_split_2
I0107 20:03:19.468022 14736 net.cpp:415] inception_4d/double_3x3_reduce -> inception_4d/double_3x3_reduce
I0107 20:03:19.468026 14736 net.cpp:160] Setting up inception_4d/double_3x3_reduce
I0107 20:03:19.468451 14736 net.cpp:167] Top shape: 1 160 14 14 (31360)
I0107 20:03:19.468457 14736 layer_factory.hpp:74] Creating layer inception_4d/double_3x3_reduce_bn
I0107 20:03:19.468461 14736 layer_factory.cpp:177] Layer inception_4d/double_3x3_reduce_bn is using CAFFE engine.
I0107 20:03:19.468466 14736 net.cpp:96] Creating Layer inception_4d/double_3x3_reduce_bn
I0107 20:03:19.468468 14736 net.cpp:459] inception_4d/double_3x3_reduce_bn <- inception_4d/double_3x3_reduce
I0107 20:03:19.468473 14736 net.cpp:415] inception_4d/double_3x3_reduce_bn -> inception_4d/double_3x3_reduce_bn
I0107 20:03:19.468477 14736 net.cpp:160] Setting up inception_4d/double_3x3_reduce_bn
I0107 20:03:19.468492 14736 net.cpp:167] Top shape: 1 160 14 14 (31360)
I0107 20:03:19.468497 14736 layer_factory.hpp:74] Creating layer inception_4d/relu_double_3x3_reduce
I0107 20:03:19.468502 14736 net.cpp:96] Creating Layer inception_4d/relu_double_3x3_reduce
I0107 20:03:19.468504 14736 net.cpp:459] inception_4d/relu_double_3x3_reduce <- inception_4d/double_3x3_reduce_bn
I0107 20:03:19.468508 14736 net.cpp:404] inception_4d/relu_double_3x3_reduce -> inception_4d/double_3x3_reduce_bn (in-place)
I0107 20:03:19.468513 14736 net.cpp:160] Setting up inception_4d/relu_double_3x3_reduce
I0107 20:03:19.468515 14736 net.cpp:167] Top shape: 1 160 14 14 (31360)
I0107 20:03:19.468518 14736 layer_factory.hpp:74] Creating layer inception_4d/double_3x3_1
I0107 20:03:19.468523 14736 net.cpp:96] Creating Layer inception_4d/double_3x3_1
I0107 20:03:19.468526 14736 net.cpp:459] inception_4d/double_3x3_1 <- inception_4d/double_3x3_reduce_bn
I0107 20:03:19.468530 14736 net.cpp:415] inception_4d/double_3x3_1 -> inception_4d/double_3x3_1
I0107 20:03:19.468534 14736 net.cpp:160] Setting up inception_4d/double_3x3_1
I0107 20:03:19.469730 14736 net.cpp:167] Top shape: 1 192 14 14 (37632)
I0107 20:03:19.469736 14736 layer_factory.hpp:74] Creating layer inception_4d/double_3x3_1_bn
I0107 20:03:19.469739 14736 layer_factory.cpp:177] Layer inception_4d/double_3x3_1_bn is using CAFFE engine.
I0107 20:03:19.469744 14736 net.cpp:96] Creating Layer inception_4d/double_3x3_1_bn
I0107 20:03:19.469748 14736 net.cpp:459] inception_4d/double_3x3_1_bn <- inception_4d/double_3x3_1
I0107 20:03:19.469753 14736 net.cpp:415] inception_4d/double_3x3_1_bn -> inception_4d/double_3x3_1_bn
I0107 20:03:19.469758 14736 net.cpp:160] Setting up inception_4d/double_3x3_1_bn
I0107 20:03:19.469768 14736 net.cpp:167] Top shape: 1 192 14 14 (37632)
I0107 20:03:19.469772 14736 layer_factory.hpp:74] Creating layer inception_4d/relu_double_3x3_1
I0107 20:03:19.469777 14736 net.cpp:96] Creating Layer inception_4d/relu_double_3x3_1
I0107 20:03:19.469780 14736 net.cpp:459] inception_4d/relu_double_3x3_1 <- inception_4d/double_3x3_1_bn
I0107 20:03:19.469784 14736 net.cpp:404] inception_4d/relu_double_3x3_1 -> inception_4d/double_3x3_1_bn (in-place)
I0107 20:03:19.469787 14736 net.cpp:160] Setting up inception_4d/relu_double_3x3_1
I0107 20:03:19.469790 14736 net.cpp:167] Top shape: 1 192 14 14 (37632)
I0107 20:03:19.469794 14736 layer_factory.hpp:74] Creating layer inception_4d/double_3x3_2
I0107 20:03:19.469799 14736 net.cpp:96] Creating Layer inception_4d/double_3x3_2
I0107 20:03:19.469800 14736 net.cpp:459] inception_4d/double_3x3_2 <- inception_4d/double_3x3_1_bn
I0107 20:03:19.469805 14736 net.cpp:415] inception_4d/double_3x3_2 -> inception_4d/double_3x3_2
I0107 20:03:19.469810 14736 net.cpp:160] Setting up inception_4d/double_3x3_2
I0107 20:03:19.471246 14736 net.cpp:167] Top shape: 1 192 14 14 (37632)
I0107 20:03:19.471253 14736 layer_factory.hpp:74] Creating layer inception_4d/double_3x3_2_bn
I0107 20:03:19.471256 14736 layer_factory.cpp:177] Layer inception_4d/double_3x3_2_bn is using CAFFE engine.
I0107 20:03:19.471262 14736 net.cpp:96] Creating Layer inception_4d/double_3x3_2_bn
I0107 20:03:19.471267 14736 net.cpp:459] inception_4d/double_3x3_2_bn <- inception_4d/double_3x3_2
I0107 20:03:19.471273 14736 net.cpp:415] inception_4d/double_3x3_2_bn -> inception_4d/double_3x3_2_bn
I0107 20:03:19.471277 14736 net.cpp:160] Setting up inception_4d/double_3x3_2_bn
I0107 20:03:19.471287 14736 net.cpp:167] Top shape: 1 192 14 14 (37632)
I0107 20:03:19.471293 14736 layer_factory.hpp:74] Creating layer inception_4d/relu_double_3x3_2
I0107 20:03:19.471297 14736 net.cpp:96] Creating Layer inception_4d/relu_double_3x3_2
I0107 20:03:19.471300 14736 net.cpp:459] inception_4d/relu_double_3x3_2 <- inception_4d/double_3x3_2_bn
I0107 20:03:19.471304 14736 net.cpp:404] inception_4d/relu_double_3x3_2 -> inception_4d/double_3x3_2_bn (in-place)
I0107 20:03:19.471308 14736 net.cpp:160] Setting up inception_4d/relu_double_3x3_2
I0107 20:03:19.471312 14736 net.cpp:167] Top shape: 1 192 14 14 (37632)
I0107 20:03:19.471315 14736 layer_factory.hpp:74] Creating layer inception_4d/pool
I0107 20:03:19.471319 14736 net.cpp:96] Creating Layer inception_4d/pool
I0107 20:03:19.471323 14736 net.cpp:459] inception_4d/pool <- inception_4c/output_inception_4c/output_0_split_3
I0107 20:03:19.471326 14736 net.cpp:415] inception_4d/pool -> inception_4d/pool
I0107 20:03:19.471330 14736 net.cpp:160] Setting up inception_4d/pool
I0107 20:03:19.471334 14736 net.cpp:167] Top shape: 1 608 14 14 (119168)
I0107 20:03:19.471338 14736 layer_factory.hpp:74] Creating layer inception_4d/pool_proj
I0107 20:03:19.471343 14736 net.cpp:96] Creating Layer inception_4d/pool_proj
I0107 20:03:19.471346 14736 net.cpp:459] inception_4d/pool_proj <- inception_4d/pool
I0107 20:03:19.471350 14736 net.cpp:415] inception_4d/pool_proj -> inception_4d/pool_proj
I0107 20:03:19.471354 14736 net.cpp:160] Setting up inception_4d/pool_proj
I0107 20:03:19.471699 14736 net.cpp:167] Top shape: 1 128 14 14 (25088)
I0107 20:03:19.471704 14736 layer_factory.hpp:74] Creating layer inception_4d/pool_proj_bn
I0107 20:03:19.471707 14736 layer_factory.cpp:177] Layer inception_4d/pool_proj_bn is using CAFFE engine.
I0107 20:03:19.471714 14736 net.cpp:96] Creating Layer inception_4d/pool_proj_bn
I0107 20:03:19.471716 14736 net.cpp:459] inception_4d/pool_proj_bn <- inception_4d/pool_proj
I0107 20:03:19.471721 14736 net.cpp:415] inception_4d/pool_proj_bn -> inception_4d/pool_proj_bn
I0107 20:03:19.471725 14736 net.cpp:160] Setting up inception_4d/pool_proj_bn
I0107 20:03:19.471736 14736 net.cpp:167] Top shape: 1 128 14 14 (25088)
I0107 20:03:19.471741 14736 layer_factory.hpp:74] Creating layer inception_4d/relu_pool_proj
I0107 20:03:19.471745 14736 net.cpp:96] Creating Layer inception_4d/relu_pool_proj
I0107 20:03:19.471748 14736 net.cpp:459] inception_4d/relu_pool_proj <- inception_4d/pool_proj_bn
I0107 20:03:19.471752 14736 net.cpp:404] inception_4d/relu_pool_proj -> inception_4d/pool_proj_bn (in-place)
I0107 20:03:19.471756 14736 net.cpp:160] Setting up inception_4d/relu_pool_proj
I0107 20:03:19.471760 14736 net.cpp:167] Top shape: 1 128 14 14 (25088)
I0107 20:03:19.471762 14736 layer_factory.hpp:74] Creating layer inception_4d/output
I0107 20:03:19.471766 14736 net.cpp:96] Creating Layer inception_4d/output
I0107 20:03:19.471770 14736 net.cpp:459] inception_4d/output <- inception_4d/1x1_bn
I0107 20:03:19.471772 14736 net.cpp:459] inception_4d/output <- inception_4d/3x3_bn
I0107 20:03:19.471776 14736 net.cpp:459] inception_4d/output <- inception_4d/double_3x3_2_bn
I0107 20:03:19.471779 14736 net.cpp:459] inception_4d/output <- inception_4d/pool_proj_bn
I0107 20:03:19.471783 14736 net.cpp:415] inception_4d/output -> inception_4d/output
I0107 20:03:19.471787 14736 net.cpp:160] Setting up inception_4d/output
I0107 20:03:19.471792 14736 net.cpp:167] Top shape: 1 608 14 14 (119168)
I0107 20:03:19.471796 14736 layer_factory.hpp:74] Creating layer inception_4d/output_inception_4d/output_0_split
I0107 20:03:19.471799 14736 net.cpp:96] Creating Layer inception_4d/output_inception_4d/output_0_split
I0107 20:03:19.471802 14736 net.cpp:459] inception_4d/output_inception_4d/output_0_split <- inception_4d/output
I0107 20:03:19.471808 14736 net.cpp:415] inception_4d/output_inception_4d/output_0_split -> inception_4d/output_inception_4d/output_0_split_0
I0107 20:03:19.471813 14736 net.cpp:415] inception_4d/output_inception_4d/output_0_split -> inception_4d/output_inception_4d/output_0_split_1
I0107 20:03:19.471818 14736 net.cpp:415] inception_4d/output_inception_4d/output_0_split -> inception_4d/output_inception_4d/output_0_split_2
I0107 20:03:19.471822 14736 net.cpp:160] Setting up inception_4d/output_inception_4d/output_0_split
I0107 20:03:19.471827 14736 net.cpp:167] Top shape: 1 608 14 14 (119168)
I0107 20:03:19.471830 14736 net.cpp:167] Top shape: 1 608 14 14 (119168)
I0107 20:03:19.471833 14736 net.cpp:167] Top shape: 1 608 14 14 (119168)
I0107 20:03:19.471837 14736 layer_factory.hpp:74] Creating layer inception_4e/3x3_reduce
I0107 20:03:19.471842 14736 net.cpp:96] Creating Layer inception_4e/3x3_reduce
I0107 20:03:19.471845 14736 net.cpp:459] inception_4e/3x3_reduce <- inception_4d/output_inception_4d/output_0_split_0
I0107 20:03:19.471849 14736 net.cpp:415] inception_4e/3x3_reduce -> inception_4e/3x3_reduce
I0107 20:03:19.471854 14736 net.cpp:160] Setting up inception_4e/3x3_reduce
I0107 20:03:19.472194 14736 net.cpp:167] Top shape: 1 128 14 14 (25088)
I0107 20:03:19.472199 14736 layer_factory.hpp:74] Creating layer inception_4e/3x3_reduce_bn
I0107 20:03:19.472203 14736 layer_factory.cpp:177] Layer inception_4e/3x3_reduce_bn is using CAFFE engine.
I0107 20:03:19.472208 14736 net.cpp:96] Creating Layer inception_4e/3x3_reduce_bn
I0107 20:03:19.472211 14736 net.cpp:459] inception_4e/3x3_reduce_bn <- inception_4e/3x3_reduce
I0107 20:03:19.472215 14736 net.cpp:415] inception_4e/3x3_reduce_bn -> inception_4e/3x3_reduce_bn
I0107 20:03:19.472219 14736 net.cpp:160] Setting up inception_4e/3x3_reduce_bn
I0107 20:03:19.472229 14736 net.cpp:167] Top shape: 1 128 14 14 (25088)
I0107 20:03:19.472235 14736 layer_factory.hpp:74] Creating layer inception_4e/relu_3x3_reduce
I0107 20:03:19.472239 14736 net.cpp:96] Creating Layer inception_4e/relu_3x3_reduce
I0107 20:03:19.472242 14736 net.cpp:459] inception_4e/relu_3x3_reduce <- inception_4e/3x3_reduce_bn
I0107 20:03:19.472246 14736 net.cpp:404] inception_4e/relu_3x3_reduce -> inception_4e/3x3_reduce_bn (in-place)
I0107 20:03:19.472250 14736 net.cpp:160] Setting up inception_4e/relu_3x3_reduce
I0107 20:03:19.472254 14736 net.cpp:167] Top shape: 1 128 14 14 (25088)
I0107 20:03:19.472256 14736 layer_factory.hpp:74] Creating layer inception_4e/3x3
I0107 20:03:19.472261 14736 net.cpp:96] Creating Layer inception_4e/3x3
I0107 20:03:19.472264 14736 net.cpp:459] inception_4e/3x3 <- inception_4e/3x3_reduce_bn
I0107 20:03:19.472270 14736 net.cpp:415] inception_4e/3x3 -> inception_4e/3x3
I0107 20:03:19.472273 14736 net.cpp:160] Setting up inception_4e/3x3
I0107 20:03:19.473232 14736 net.cpp:167] Top shape: 1 192 7 7 (9408)
I0107 20:03:19.473237 14736 layer_factory.hpp:74] Creating layer inception_4e/3x3_bn
I0107 20:03:19.473240 14736 layer_factory.cpp:177] Layer inception_4e/3x3_bn is using CAFFE engine.
I0107 20:03:19.473245 14736 net.cpp:96] Creating Layer inception_4e/3x3_bn
I0107 20:03:19.473248 14736 net.cpp:459] inception_4e/3x3_bn <- inception_4e/3x3
I0107 20:03:19.473253 14736 net.cpp:415] inception_4e/3x3_bn -> inception_4e/3x3_bn
I0107 20:03:19.473258 14736 net.cpp:160] Setting up inception_4e/3x3_bn
I0107 20:03:19.473268 14736 net.cpp:167] Top shape: 1 192 7 7 (9408)
I0107 20:03:19.473273 14736 layer_factory.hpp:74] Creating layer inception_4e/relu_3x3
I0107 20:03:19.473278 14736 net.cpp:96] Creating Layer inception_4e/relu_3x3
I0107 20:03:19.473280 14736 net.cpp:459] inception_4e/relu_3x3 <- inception_4e/3x3_bn
I0107 20:03:19.473286 14736 net.cpp:404] inception_4e/relu_3x3 -> inception_4e/3x3_bn (in-place)
I0107 20:03:19.473290 14736 net.cpp:160] Setting up inception_4e/relu_3x3
I0107 20:03:19.473294 14736 net.cpp:167] Top shape: 1 192 7 7 (9408)
I0107 20:03:19.473296 14736 layer_factory.hpp:74] Creating layer inception_4e/double_3x3_reduce
I0107 20:03:19.473304 14736 net.cpp:96] Creating Layer inception_4e/double_3x3_reduce
I0107 20:03:19.473306 14736 net.cpp:459] inception_4e/double_3x3_reduce <- inception_4d/output_inception_4d/output_0_split_1
I0107 20:03:19.473311 14736 net.cpp:415] inception_4e/double_3x3_reduce -> inception_4e/double_3x3_reduce
I0107 20:03:19.473316 14736 net.cpp:160] Setting up inception_4e/double_3x3_reduce
I0107 20:03:19.473824 14736 net.cpp:167] Top shape: 1 192 14 14 (37632)
I0107 20:03:19.473829 14736 layer_factory.hpp:74] Creating layer inception_4e/double_3x3_reduce_bn
I0107 20:03:19.473837 14736 layer_factory.cpp:177] Layer inception_4e/double_3x3_reduce_bn is using CAFFE engine.
I0107 20:03:19.473844 14736 net.cpp:96] Creating Layer inception_4e/double_3x3_reduce_bn
I0107 20:03:19.473846 14736 net.cpp:459] inception_4e/double_3x3_reduce_bn <- inception_4e/double_3x3_reduce
I0107 20:03:19.473850 14736 net.cpp:415] inception_4e/double_3x3_reduce_bn -> inception_4e/double_3x3_reduce_bn
I0107 20:03:19.473855 14736 net.cpp:160] Setting up inception_4e/double_3x3_reduce_bn
I0107 20:03:19.473866 14736 net.cpp:167] Top shape: 1 192 14 14 (37632)
I0107 20:03:19.473871 14736 layer_factory.hpp:74] Creating layer inception_4e/relu_double_3x3_reduce
I0107 20:03:19.473875 14736 net.cpp:96] Creating Layer inception_4e/relu_double_3x3_reduce
I0107 20:03:19.473878 14736 net.cpp:459] inception_4e/relu_double_3x3_reduce <- inception_4e/double_3x3_reduce_bn
I0107 20:03:19.473881 14736 net.cpp:404] inception_4e/relu_double_3x3_reduce -> inception_4e/double_3x3_reduce_bn (in-place)
I0107 20:03:19.473886 14736 net.cpp:160] Setting up inception_4e/relu_double_3x3_reduce
I0107 20:03:19.473889 14736 net.cpp:167] Top shape: 1 192 14 14 (37632)
I0107 20:03:19.473891 14736 layer_factory.hpp:74] Creating layer inception_4e/double_3x3_1
I0107 20:03:19.473897 14736 net.cpp:96] Creating Layer inception_4e/double_3x3_1
I0107 20:03:19.473901 14736 net.cpp:459] inception_4e/double_3x3_1 <- inception_4e/double_3x3_reduce_bn
I0107 20:03:19.473904 14736 net.cpp:415] inception_4e/double_3x3_1 -> inception_4e/double_3x3_1
I0107 20:03:19.473909 14736 net.cpp:160] Setting up inception_4e/double_3x3_1
I0107 20:03:19.475816 14736 net.cpp:167] Top shape: 1 256 14 14 (50176)
I0107 20:03:19.475823 14736 layer_factory.hpp:74] Creating layer inception_4e/double_3x3_1_bn
I0107 20:03:19.475826 14736 layer_factory.cpp:177] Layer inception_4e/double_3x3_1_bn is using CAFFE engine.
I0107 20:03:19.475831 14736 net.cpp:96] Creating Layer inception_4e/double_3x3_1_bn
I0107 20:03:19.475834 14736 net.cpp:459] inception_4e/double_3x3_1_bn <- inception_4e/double_3x3_1
I0107 20:03:19.475839 14736 net.cpp:415] inception_4e/double_3x3_1_bn -> inception_4e/double_3x3_1_bn
I0107 20:03:19.475843 14736 net.cpp:160] Setting up inception_4e/double_3x3_1_bn
I0107 20:03:19.475857 14736 net.cpp:167] Top shape: 1 256 14 14 (50176)
I0107 20:03:19.475862 14736 layer_factory.hpp:74] Creating layer inception_4e/relu_double_3x3_1
I0107 20:03:19.475865 14736 net.cpp:96] Creating Layer inception_4e/relu_double_3x3_1
I0107 20:03:19.475868 14736 net.cpp:459] inception_4e/relu_double_3x3_1 <- inception_4e/double_3x3_1_bn
I0107 20:03:19.475873 14736 net.cpp:404] inception_4e/relu_double_3x3_1 -> inception_4e/double_3x3_1_bn (in-place)
I0107 20:03:19.475878 14736 net.cpp:160] Setting up inception_4e/relu_double_3x3_1
I0107 20:03:19.475881 14736 net.cpp:167] Top shape: 1 256 14 14 (50176)
I0107 20:03:19.475884 14736 layer_factory.hpp:74] Creating layer inception_4e/double_3x3_2
I0107 20:03:19.475888 14736 net.cpp:96] Creating Layer inception_4e/double_3x3_2
I0107 20:03:19.475891 14736 net.cpp:459] inception_4e/double_3x3_2 <- inception_4e/double_3x3_1_bn
I0107 20:03:19.475896 14736 net.cpp:415] inception_4e/double_3x3_2 -> inception_4e/double_3x3_2
I0107 20:03:19.475900 14736 net.cpp:160] Setting up inception_4e/double_3x3_2
I0107 20:03:19.478389 14736 net.cpp:167] Top shape: 1 256 7 7 (12544)
I0107 20:03:19.478397 14736 layer_factory.hpp:74] Creating layer inception_4e/double_3x3_2_bn
I0107 20:03:19.478404 14736 layer_factory.cpp:177] Layer inception_4e/double_3x3_2_bn is using CAFFE engine.
I0107 20:03:19.478409 14736 net.cpp:96] Creating Layer inception_4e/double_3x3_2_bn
I0107 20:03:19.478411 14736 net.cpp:459] inception_4e/double_3x3_2_bn <- inception_4e/double_3x3_2
I0107 20:03:19.478416 14736 net.cpp:415] inception_4e/double_3x3_2_bn -> inception_4e/double_3x3_2_bn
I0107 20:03:19.478420 14736 net.cpp:160] Setting up inception_4e/double_3x3_2_bn
I0107 20:03:19.478431 14736 net.cpp:167] Top shape: 1 256 7 7 (12544)
I0107 20:03:19.478436 14736 layer_factory.hpp:74] Creating layer inception_4e/relu_double_3x3_2
I0107 20:03:19.478440 14736 net.cpp:96] Creating Layer inception_4e/relu_double_3x3_2
I0107 20:03:19.478443 14736 net.cpp:459] inception_4e/relu_double_3x3_2 <- inception_4e/double_3x3_2_bn
I0107 20:03:19.478447 14736 net.cpp:404] inception_4e/relu_double_3x3_2 -> inception_4e/double_3x3_2_bn (in-place)
I0107 20:03:19.478451 14736 net.cpp:160] Setting up inception_4e/relu_double_3x3_2
I0107 20:03:19.478453 14736 net.cpp:167] Top shape: 1 256 7 7 (12544)
I0107 20:03:19.478456 14736 layer_factory.hpp:74] Creating layer inception_4e/pool
I0107 20:03:19.478461 14736 net.cpp:96] Creating Layer inception_4e/pool
I0107 20:03:19.478464 14736 net.cpp:459] inception_4e/pool <- inception_4d/output_inception_4d/output_0_split_2
I0107 20:03:19.478468 14736 net.cpp:415] inception_4e/pool -> inception_4e/pool
I0107 20:03:19.478473 14736 net.cpp:160] Setting up inception_4e/pool
I0107 20:03:19.478478 14736 net.cpp:167] Top shape: 1 608 7 7 (29792)
I0107 20:03:19.478482 14736 layer_factory.hpp:74] Creating layer inception_4e/output
I0107 20:03:19.478485 14736 net.cpp:96] Creating Layer inception_4e/output
I0107 20:03:19.478488 14736 net.cpp:459] inception_4e/output <- inception_4e/3x3_bn
I0107 20:03:19.478492 14736 net.cpp:459] inception_4e/output <- inception_4e/double_3x3_2_bn
I0107 20:03:19.478495 14736 net.cpp:459] inception_4e/output <- inception_4e/pool
I0107 20:03:19.478499 14736 net.cpp:415] inception_4e/output -> inception_4e/output
I0107 20:03:19.478504 14736 net.cpp:160] Setting up inception_4e/output
I0107 20:03:19.478508 14736 net.cpp:167] Top shape: 1 1056 7 7 (51744)
I0107 20:03:19.478512 14736 layer_factory.hpp:74] Creating layer inception_4e/output_inception_4e/output_0_split
I0107 20:03:19.478516 14736 net.cpp:96] Creating Layer inception_4e/output_inception_4e/output_0_split
I0107 20:03:19.478519 14736 net.cpp:459] inception_4e/output_inception_4e/output_0_split <- inception_4e/output
I0107 20:03:19.478523 14736 net.cpp:415] inception_4e/output_inception_4e/output_0_split -> inception_4e/output_inception_4e/output_0_split_0
I0107 20:03:19.478528 14736 net.cpp:415] inception_4e/output_inception_4e/output_0_split -> inception_4e/output_inception_4e/output_0_split_1
I0107 20:03:19.478533 14736 net.cpp:415] inception_4e/output_inception_4e/output_0_split -> inception_4e/output_inception_4e/output_0_split_2
I0107 20:03:19.478538 14736 net.cpp:415] inception_4e/output_inception_4e/output_0_split -> inception_4e/output_inception_4e/output_0_split_3
I0107 20:03:19.478541 14736 net.cpp:160] Setting up inception_4e/output_inception_4e/output_0_split
I0107 20:03:19.478545 14736 net.cpp:167] Top shape: 1 1056 7 7 (51744)
I0107 20:03:19.478549 14736 net.cpp:167] Top shape: 1 1056 7 7 (51744)
I0107 20:03:19.478552 14736 net.cpp:167] Top shape: 1 1056 7 7 (51744)
I0107 20:03:19.478555 14736 net.cpp:167] Top shape: 1 1056 7 7 (51744)
I0107 20:03:19.478559 14736 layer_factory.hpp:74] Creating layer inception_5a/1x1
I0107 20:03:19.478564 14736 net.cpp:96] Creating Layer inception_5a/1x1
I0107 20:03:19.478567 14736 net.cpp:459] inception_5a/1x1 <- inception_4e/output_inception_4e/output_0_split_0
I0107 20:03:19.478571 14736 net.cpp:415] inception_5a/1x1 -> inception_5a/1x1
I0107 20:03:19.478575 14736 net.cpp:160] Setting up inception_5a/1x1
I0107 20:03:19.480150 14736 net.cpp:167] Top shape: 1 352 7 7 (17248)
I0107 20:03:19.480156 14736 layer_factory.hpp:74] Creating layer inception_5a/1x1_bn
I0107 20:03:19.480159 14736 layer_factory.cpp:177] Layer inception_5a/1x1_bn is using CAFFE engine.
I0107 20:03:19.480166 14736 net.cpp:96] Creating Layer inception_5a/1x1_bn
I0107 20:03:19.480170 14736 net.cpp:459] inception_5a/1x1_bn <- inception_5a/1x1
I0107 20:03:19.480175 14736 net.cpp:415] inception_5a/1x1_bn -> inception_5a/1x1_bn
I0107 20:03:19.480180 14736 net.cpp:160] Setting up inception_5a/1x1_bn
I0107 20:03:19.480193 14736 net.cpp:167] Top shape: 1 352 7 7 (17248)
I0107 20:03:19.480199 14736 layer_factory.hpp:74] Creating layer inception_5a/relu_1x1
I0107 20:03:19.480203 14736 net.cpp:96] Creating Layer inception_5a/relu_1x1
I0107 20:03:19.480206 14736 net.cpp:459] inception_5a/relu_1x1 <- inception_5a/1x1_bn
I0107 20:03:19.480211 14736 net.cpp:404] inception_5a/relu_1x1 -> inception_5a/1x1_bn (in-place)
I0107 20:03:19.480214 14736 net.cpp:160] Setting up inception_5a/relu_1x1
I0107 20:03:19.480217 14736 net.cpp:167] Top shape: 1 352 7 7 (17248)
I0107 20:03:19.480221 14736 layer_factory.hpp:74] Creating layer inception_5a/3x3_reduce
I0107 20:03:19.480226 14736 net.cpp:96] Creating Layer inception_5a/3x3_reduce
I0107 20:03:19.480227 14736 net.cpp:459] inception_5a/3x3_reduce <- inception_4e/output_inception_4e/output_0_split_1
I0107 20:03:19.480232 14736 net.cpp:415] inception_5a/3x3_reduce -> inception_5a/3x3_reduce
I0107 20:03:19.480237 14736 net.cpp:160] Setting up inception_5a/3x3_reduce
I0107 20:03:19.481117 14736 net.cpp:167] Top shape: 1 192 7 7 (9408)
I0107 20:03:19.481122 14736 layer_factory.hpp:74] Creating layer inception_5a/3x3_reduce_bn
I0107 20:03:19.481125 14736 layer_factory.cpp:177] Layer inception_5a/3x3_reduce_bn is using CAFFE engine.
I0107 20:03:19.481129 14736 net.cpp:96] Creating Layer inception_5a/3x3_reduce_bn
I0107 20:03:19.481132 14736 net.cpp:459] inception_5a/3x3_reduce_bn <- inception_5a/3x3_reduce
I0107 20:03:19.481138 14736 net.cpp:415] inception_5a/3x3_reduce_bn -> inception_5a/3x3_reduce_bn
I0107 20:03:19.481142 14736 net.cpp:160] Setting up inception_5a/3x3_reduce_bn
I0107 20:03:19.481153 14736 net.cpp:167] Top shape: 1 192 7 7 (9408)
I0107 20:03:19.481158 14736 layer_factory.hpp:74] Creating layer inception_5a/relu_3x3_reduce
I0107 20:03:19.481163 14736 net.cpp:96] Creating Layer inception_5a/relu_3x3_reduce
I0107 20:03:19.481165 14736 net.cpp:459] inception_5a/relu_3x3_reduce <- inception_5a/3x3_reduce_bn
I0107 20:03:19.481170 14736 net.cpp:404] inception_5a/relu_3x3_reduce -> inception_5a/3x3_reduce_bn (in-place)
I0107 20:03:19.481173 14736 net.cpp:160] Setting up inception_5a/relu_3x3_reduce
I0107 20:03:19.481178 14736 net.cpp:167] Top shape: 1 192 7 7 (9408)
I0107 20:03:19.481180 14736 layer_factory.hpp:74] Creating layer inception_5a/3x3
I0107 20:03:19.481184 14736 net.cpp:96] Creating Layer inception_5a/3x3
I0107 20:03:19.481187 14736 net.cpp:459] inception_5a/3x3 <- inception_5a/3x3_reduce_bn
I0107 20:03:19.481192 14736 net.cpp:415] inception_5a/3x3 -> inception_5a/3x3
I0107 20:03:19.481196 14736 net.cpp:160] Setting up inception_5a/3x3
I0107 20:03:19.483590 14736 net.cpp:167] Top shape: 1 320 7 7 (15680)
I0107 20:03:19.483597 14736 layer_factory.hpp:74] Creating layer inception_5a/3x3_bn
I0107 20:03:19.483600 14736 layer_factory.cpp:177] Layer inception_5a/3x3_bn is using CAFFE engine.
I0107 20:03:19.483605 14736 net.cpp:96] Creating Layer inception_5a/3x3_bn
I0107 20:03:19.483608 14736 net.cpp:459] inception_5a/3x3_bn <- inception_5a/3x3
I0107 20:03:19.483613 14736 net.cpp:415] inception_5a/3x3_bn -> inception_5a/3x3_bn
I0107 20:03:19.483618 14736 net.cpp:160] Setting up inception_5a/3x3_bn
I0107 20:03:19.483628 14736 net.cpp:167] Top shape: 1 320 7 7 (15680)
I0107 20:03:19.483634 14736 layer_factory.hpp:74] Creating layer inception_5a/relu_3x3
I0107 20:03:19.483639 14736 net.cpp:96] Creating Layer inception_5a/relu_3x3
I0107 20:03:19.483641 14736 net.cpp:459] inception_5a/relu_3x3 <- inception_5a/3x3_bn
I0107 20:03:19.483645 14736 net.cpp:404] inception_5a/relu_3x3 -> inception_5a/3x3_bn (in-place)
I0107 20:03:19.483649 14736 net.cpp:160] Setting up inception_5a/relu_3x3
I0107 20:03:19.483655 14736 net.cpp:167] Top shape: 1 320 7 7 (15680)
I0107 20:03:19.483659 14736 layer_factory.hpp:74] Creating layer inception_5a/double_3x3_reduce
I0107 20:03:19.483664 14736 net.cpp:96] Creating Layer inception_5a/double_3x3_reduce
I0107 20:03:19.483666 14736 net.cpp:459] inception_5a/double_3x3_reduce <- inception_4e/output_inception_4e/output_0_split_2
I0107 20:03:19.483671 14736 net.cpp:415] inception_5a/double_3x3_reduce -> inception_5a/double_3x3_reduce
I0107 20:03:19.483675 14736 net.cpp:160] Setting up inception_5a/double_3x3_reduce
I0107 20:03:19.484416 14736 net.cpp:167] Top shape: 1 160 7 7 (7840)
I0107 20:03:19.484422 14736 layer_factory.hpp:74] Creating layer inception_5a/double_3x3_reduce_bn
I0107 20:03:19.484426 14736 layer_factory.cpp:177] Layer inception_5a/double_3x3_reduce_bn is using CAFFE engine.
I0107 20:03:19.484431 14736 net.cpp:96] Creating Layer inception_5a/double_3x3_reduce_bn
I0107 20:03:19.484433 14736 net.cpp:459] inception_5a/double_3x3_reduce_bn <- inception_5a/double_3x3_reduce
I0107 20:03:19.484437 14736 net.cpp:415] inception_5a/double_3x3_reduce_bn -> inception_5a/double_3x3_reduce_bn
I0107 20:03:19.484442 14736 net.cpp:160] Setting up inception_5a/double_3x3_reduce_bn
I0107 20:03:19.484452 14736 net.cpp:167] Top shape: 1 160 7 7 (7840)
I0107 20:03:19.484458 14736 layer_factory.hpp:74] Creating layer inception_5a/relu_double_3x3_reduce
I0107 20:03:19.484462 14736 net.cpp:96] Creating Layer inception_5a/relu_double_3x3_reduce
I0107 20:03:19.484464 14736 net.cpp:459] inception_5a/relu_double_3x3_reduce <- inception_5a/double_3x3_reduce_bn
I0107 20:03:19.484469 14736 net.cpp:404] inception_5a/relu_double_3x3_reduce -> inception_5a/double_3x3_reduce_bn (in-place)
I0107 20:03:19.484473 14736 net.cpp:160] Setting up inception_5a/relu_double_3x3_reduce
I0107 20:03:19.484477 14736 net.cpp:167] Top shape: 1 160 7 7 (7840)
I0107 20:03:19.484479 14736 layer_factory.hpp:74] Creating layer inception_5a/double_3x3_1
I0107 20:03:19.484484 14736 net.cpp:96] Creating Layer inception_5a/double_3x3_1
I0107 20:03:19.484488 14736 net.cpp:459] inception_5a/double_3x3_1 <- inception_5a/double_3x3_reduce_bn
I0107 20:03:19.484493 14736 net.cpp:415] inception_5a/double_3x3_1 -> inception_5a/double_3x3_1
I0107 20:03:19.484498 14736 net.cpp:160] Setting up inception_5a/double_3x3_1
I0107 20:03:19.485895 14736 net.cpp:167] Top shape: 1 224 7 7 (10976)
I0107 20:03:19.485903 14736 layer_factory.hpp:74] Creating layer inception_5a/double_3x3_1_bn
I0107 20:03:19.485905 14736 layer_factory.cpp:177] Layer inception_5a/double_3x3_1_bn is using CAFFE engine.
I0107 20:03:19.485909 14736 net.cpp:96] Creating Layer inception_5a/double_3x3_1_bn
I0107 20:03:19.485913 14736 net.cpp:459] inception_5a/double_3x3_1_bn <- inception_5a/double_3x3_1
I0107 20:03:19.485918 14736 net.cpp:415] inception_5a/double_3x3_1_bn -> inception_5a/double_3x3_1_bn
I0107 20:03:19.485926 14736 net.cpp:160] Setting up inception_5a/double_3x3_1_bn
I0107 20:03:19.485937 14736 net.cpp:167] Top shape: 1 224 7 7 (10976)
I0107 20:03:19.485942 14736 layer_factory.hpp:74] Creating layer inception_5a/relu_double_3x3_1
I0107 20:03:19.485946 14736 net.cpp:96] Creating Layer inception_5a/relu_double_3x3_1
I0107 20:03:19.485949 14736 net.cpp:459] inception_5a/relu_double_3x3_1 <- inception_5a/double_3x3_1_bn
I0107 20:03:19.485954 14736 net.cpp:404] inception_5a/relu_double_3x3_1 -> inception_5a/double_3x3_1_bn (in-place)
I0107 20:03:19.485958 14736 net.cpp:160] Setting up inception_5a/relu_double_3x3_1
I0107 20:03:19.485961 14736 net.cpp:167] Top shape: 1 224 7 7 (10976)
I0107 20:03:19.485965 14736 layer_factory.hpp:74] Creating layer inception_5a/double_3x3_2
I0107 20:03:19.485970 14736 net.cpp:96] Creating Layer inception_5a/double_3x3_2
I0107 20:03:19.485972 14736 net.cpp:459] inception_5a/double_3x3_2 <- inception_5a/double_3x3_1_bn
I0107 20:03:19.485976 14736 net.cpp:415] inception_5a/double_3x3_2 -> inception_5a/double_3x3_2
I0107 20:03:19.485981 14736 net.cpp:160] Setting up inception_5a/double_3x3_2
I0107 20:03:19.487926 14736 net.cpp:167] Top shape: 1 224 7 7 (10976)
I0107 20:03:19.487936 14736 layer_factory.hpp:74] Creating layer inception_5a/double_3x3_2_bn
I0107 20:03:19.487939 14736 layer_factory.cpp:177] Layer inception_5a/double_3x3_2_bn is using CAFFE engine.
I0107 20:03:19.487944 14736 net.cpp:96] Creating Layer inception_5a/double_3x3_2_bn
I0107 20:03:19.487947 14736 net.cpp:459] inception_5a/double_3x3_2_bn <- inception_5a/double_3x3_2
I0107 20:03:19.487952 14736 net.cpp:415] inception_5a/double_3x3_2_bn -> inception_5a/double_3x3_2_bn
I0107 20:03:19.487957 14736 net.cpp:160] Setting up inception_5a/double_3x3_2_bn
I0107 20:03:19.487967 14736 net.cpp:167] Top shape: 1 224 7 7 (10976)
I0107 20:03:19.487973 14736 layer_factory.hpp:74] Creating layer inception_5a/relu_double_3x3_2
I0107 20:03:19.487977 14736 net.cpp:96] Creating Layer inception_5a/relu_double_3x3_2
I0107 20:03:19.487980 14736 net.cpp:459] inception_5a/relu_double_3x3_2 <- inception_5a/double_3x3_2_bn
I0107 20:03:19.487983 14736 net.cpp:404] inception_5a/relu_double_3x3_2 -> inception_5a/double_3x3_2_bn (in-place)
I0107 20:03:19.487987 14736 net.cpp:160] Setting up inception_5a/relu_double_3x3_2
I0107 20:03:19.487990 14736 net.cpp:167] Top shape: 1 224 7 7 (10976)
I0107 20:03:19.487993 14736 layer_factory.hpp:74] Creating layer inception_5a/pool
I0107 20:03:19.487998 14736 net.cpp:96] Creating Layer inception_5a/pool
I0107 20:03:19.488001 14736 net.cpp:459] inception_5a/pool <- inception_4e/output_inception_4e/output_0_split_3
I0107 20:03:19.488006 14736 net.cpp:415] inception_5a/pool -> inception_5a/pool
I0107 20:03:19.488010 14736 net.cpp:160] Setting up inception_5a/pool
I0107 20:03:19.488015 14736 net.cpp:167] Top shape: 1 1056 7 7 (51744)
I0107 20:03:19.488018 14736 layer_factory.hpp:74] Creating layer inception_5a/pool_proj
I0107 20:03:19.488024 14736 net.cpp:96] Creating Layer inception_5a/pool_proj
I0107 20:03:19.488028 14736 net.cpp:459] inception_5a/pool_proj <- inception_5a/pool
I0107 20:03:19.488031 14736 net.cpp:415] inception_5a/pool_proj -> inception_5a/pool_proj
I0107 20:03:19.488035 14736 net.cpp:160] Setting up inception_5a/pool_proj
I0107 20:03:19.488626 14736 net.cpp:167] Top shape: 1 128 7 7 (6272)
I0107 20:03:19.488632 14736 layer_factory.hpp:74] Creating layer inception_5a/pool_proj_bn
I0107 20:03:19.488636 14736 layer_factory.cpp:177] Layer inception_5a/pool_proj_bn is using CAFFE engine.
I0107 20:03:19.488642 14736 net.cpp:96] Creating Layer inception_5a/pool_proj_bn
I0107 20:03:19.488646 14736 net.cpp:459] inception_5a/pool_proj_bn <- inception_5a/pool_proj
I0107 20:03:19.488651 14736 net.cpp:415] inception_5a/pool_proj_bn -> inception_5a/pool_proj_bn
I0107 20:03:19.488654 14736 net.cpp:160] Setting up inception_5a/pool_proj_bn
I0107 20:03:19.488664 14736 net.cpp:167] Top shape: 1 128 7 7 (6272)
I0107 20:03:19.488669 14736 layer_factory.hpp:74] Creating layer inception_5a/relu_pool_proj
I0107 20:03:19.488674 14736 net.cpp:96] Creating Layer inception_5a/relu_pool_proj
I0107 20:03:19.488677 14736 net.cpp:459] inception_5a/relu_pool_proj <- inception_5a/pool_proj_bn
I0107 20:03:19.488682 14736 net.cpp:404] inception_5a/relu_pool_proj -> inception_5a/pool_proj_bn (in-place)
I0107 20:03:19.488685 14736 net.cpp:160] Setting up inception_5a/relu_pool_proj
I0107 20:03:19.488689 14736 net.cpp:167] Top shape: 1 128 7 7 (6272)
I0107 20:03:19.488692 14736 layer_factory.hpp:74] Creating layer inception_5a/output
I0107 20:03:19.488697 14736 net.cpp:96] Creating Layer inception_5a/output
I0107 20:03:19.488699 14736 net.cpp:459] inception_5a/output <- inception_5a/1x1_bn
I0107 20:03:19.488703 14736 net.cpp:459] inception_5a/output <- inception_5a/3x3_bn
I0107 20:03:19.488706 14736 net.cpp:459] inception_5a/output <- inception_5a/double_3x3_2_bn
I0107 20:03:19.488709 14736 net.cpp:459] inception_5a/output <- inception_5a/pool_proj_bn
I0107 20:03:19.488713 14736 net.cpp:415] inception_5a/output -> inception_5a/output
I0107 20:03:19.488718 14736 net.cpp:160] Setting up inception_5a/output
I0107 20:03:19.488723 14736 net.cpp:167] Top shape: 1 1024 7 7 (50176)
I0107 20:03:19.488725 14736 layer_factory.hpp:74] Creating layer inception_5a/output_inception_5a/output_0_split
I0107 20:03:19.488732 14736 net.cpp:96] Creating Layer inception_5a/output_inception_5a/output_0_split
I0107 20:03:19.488735 14736 net.cpp:459] inception_5a/output_inception_5a/output_0_split <- inception_5a/output
I0107 20:03:19.488741 14736 net.cpp:415] inception_5a/output_inception_5a/output_0_split -> inception_5a/output_inception_5a/output_0_split_0
I0107 20:03:19.488746 14736 net.cpp:415] inception_5a/output_inception_5a/output_0_split -> inception_5a/output_inception_5a/output_0_split_1
I0107 20:03:19.488750 14736 net.cpp:415] inception_5a/output_inception_5a/output_0_split -> inception_5a/output_inception_5a/output_0_split_2
I0107 20:03:19.488755 14736 net.cpp:415] inception_5a/output_inception_5a/output_0_split -> inception_5a/output_inception_5a/output_0_split_3
I0107 20:03:19.488759 14736 net.cpp:160] Setting up inception_5a/output_inception_5a/output_0_split
I0107 20:03:19.488764 14736 net.cpp:167] Top shape: 1 1024 7 7 (50176)
I0107 20:03:19.488767 14736 net.cpp:167] Top shape: 1 1024 7 7 (50176)
I0107 20:03:19.488770 14736 net.cpp:167] Top shape: 1 1024 7 7 (50176)
I0107 20:03:19.488773 14736 net.cpp:167] Top shape: 1 1024 7 7 (50176)
I0107 20:03:19.488776 14736 layer_factory.hpp:74] Creating layer inception_5b/1x1
I0107 20:03:19.488782 14736 net.cpp:96] Creating Layer inception_5b/1x1
I0107 20:03:19.488785 14736 net.cpp:459] inception_5b/1x1 <- inception_5a/output_inception_5a/output_0_split_0
I0107 20:03:19.488790 14736 net.cpp:415] inception_5b/1x1 -> inception_5b/1x1
I0107 20:03:19.488793 14736 net.cpp:160] Setting up inception_5b/1x1
I0107 20:03:19.490355 14736 net.cpp:167] Top shape: 1 352 7 7 (17248)
I0107 20:03:19.490361 14736 layer_factory.hpp:74] Creating layer inception_5b/1x1_bn
I0107 20:03:19.490365 14736 layer_factory.cpp:177] Layer inception_5b/1x1_bn is using CAFFE engine.
I0107 20:03:19.490370 14736 net.cpp:96] Creating Layer inception_5b/1x1_bn
I0107 20:03:19.490372 14736 net.cpp:459] inception_5b/1x1_bn <- inception_5b/1x1
I0107 20:03:19.490377 14736 net.cpp:415] inception_5b/1x1_bn -> inception_5b/1x1_bn
I0107 20:03:19.490382 14736 net.cpp:160] Setting up inception_5b/1x1_bn
I0107 20:03:19.490393 14736 net.cpp:167] Top shape: 1 352 7 7 (17248)
I0107 20:03:19.490398 14736 layer_factory.hpp:74] Creating layer inception_5b/relu_1x1
I0107 20:03:19.490403 14736 net.cpp:96] Creating Layer inception_5b/relu_1x1
I0107 20:03:19.490406 14736 net.cpp:459] inception_5b/relu_1x1 <- inception_5b/1x1_bn
I0107 20:03:19.490411 14736 net.cpp:404] inception_5b/relu_1x1 -> inception_5b/1x1_bn (in-place)
I0107 20:03:19.490414 14736 net.cpp:160] Setting up inception_5b/relu_1x1
I0107 20:03:19.490417 14736 net.cpp:167] Top shape: 1 352 7 7 (17248)
I0107 20:03:19.490420 14736 layer_factory.hpp:74] Creating layer inception_5b/3x3_reduce
I0107 20:03:19.490425 14736 net.cpp:96] Creating Layer inception_5b/3x3_reduce
I0107 20:03:19.490428 14736 net.cpp:459] inception_5b/3x3_reduce <- inception_5a/output_inception_5a/output_0_split_1
I0107 20:03:19.490433 14736 net.cpp:415] inception_5b/3x3_reduce -> inception_5b/3x3_reduce
I0107 20:03:19.490437 14736 net.cpp:160] Setting up inception_5b/3x3_reduce
I0107 20:03:19.491289 14736 net.cpp:167] Top shape: 1 192 7 7 (9408)
I0107 20:03:19.491295 14736 layer_factory.hpp:74] Creating layer inception_5b/3x3_reduce_bn
I0107 20:03:19.491298 14736 layer_factory.cpp:177] Layer inception_5b/3x3_reduce_bn is using CAFFE engine.
I0107 20:03:19.491303 14736 net.cpp:96] Creating Layer inception_5b/3x3_reduce_bn
I0107 20:03:19.491307 14736 net.cpp:459] inception_5b/3x3_reduce_bn <- inception_5b/3x3_reduce
I0107 20:03:19.491312 14736 net.cpp:415] inception_5b/3x3_reduce_bn -> inception_5b/3x3_reduce_bn
I0107 20:03:19.491317 14736 net.cpp:160] Setting up inception_5b/3x3_reduce_bn
I0107 20:03:19.491328 14736 net.cpp:167] Top shape: 1 192 7 7 (9408)
I0107 20:03:19.491333 14736 layer_factory.hpp:74] Creating layer inception_5b/relu_3x3_reduce
I0107 20:03:19.491338 14736 net.cpp:96] Creating Layer inception_5b/relu_3x3_reduce
I0107 20:03:19.491343 14736 net.cpp:459] inception_5b/relu_3x3_reduce <- inception_5b/3x3_reduce_bn
I0107 20:03:19.491348 14736 net.cpp:404] inception_5b/relu_3x3_reduce -> inception_5b/3x3_reduce_bn (in-place)
I0107 20:03:19.491351 14736 net.cpp:160] Setting up inception_5b/relu_3x3_reduce
I0107 20:03:19.491355 14736 net.cpp:167] Top shape: 1 192 7 7 (9408)
I0107 20:03:19.491358 14736 layer_factory.hpp:74] Creating layer inception_5b/3x3
I0107 20:03:19.491363 14736 net.cpp:96] Creating Layer inception_5b/3x3
I0107 20:03:19.491366 14736 net.cpp:459] inception_5b/3x3 <- inception_5b/3x3_reduce_bn
I0107 20:03:19.491370 14736 net.cpp:415] inception_5b/3x3 -> inception_5b/3x3
I0107 20:03:19.491375 14736 net.cpp:160] Setting up inception_5b/3x3
I0107 20:03:19.493491 14736 net.cpp:167] Top shape: 1 320 7 7 (15680)
I0107 20:03:19.493497 14736 layer_factory.hpp:74] Creating layer inception_5b/3x3_bn
I0107 20:03:19.493500 14736 layer_factory.cpp:177] Layer inception_5b/3x3_bn is using CAFFE engine.
I0107 20:03:19.493505 14736 net.cpp:96] Creating Layer inception_5b/3x3_bn
I0107 20:03:19.493508 14736 net.cpp:459] inception_5b/3x3_bn <- inception_5b/3x3
I0107 20:03:19.493513 14736 net.cpp:415] inception_5b/3x3_bn -> inception_5b/3x3_bn
I0107 20:03:19.493517 14736 net.cpp:160] Setting up inception_5b/3x3_bn
I0107 20:03:19.493528 14736 net.cpp:167] Top shape: 1 320 7 7 (15680)
I0107 20:03:19.493533 14736 layer_factory.hpp:74] Creating layer inception_5b/relu_3x3
I0107 20:03:19.493538 14736 net.cpp:96] Creating Layer inception_5b/relu_3x3
I0107 20:03:19.493541 14736 net.cpp:459] inception_5b/relu_3x3 <- inception_5b/3x3_bn
I0107 20:03:19.493546 14736 net.cpp:404] inception_5b/relu_3x3 -> inception_5b/3x3_bn (in-place)
I0107 20:03:19.493548 14736 net.cpp:160] Setting up inception_5b/relu_3x3
I0107 20:03:19.493552 14736 net.cpp:167] Top shape: 1 320 7 7 (15680)
I0107 20:03:19.493556 14736 layer_factory.hpp:74] Creating layer inception_5b/double_3x3_reduce
I0107 20:03:19.493561 14736 net.cpp:96] Creating Layer inception_5b/double_3x3_reduce
I0107 20:03:19.493563 14736 net.cpp:459] inception_5b/double_3x3_reduce <- inception_5a/output_inception_5a/output_0_split_2
I0107 20:03:19.493567 14736 net.cpp:415] inception_5b/double_3x3_reduce -> inception_5b/double_3x3_reduce
I0107 20:03:19.493571 14736 net.cpp:160] Setting up inception_5b/double_3x3_reduce
I0107 20:03:19.494431 14736 net.cpp:167] Top shape: 1 192 7 7 (9408)
I0107 20:03:19.494436 14736 layer_factory.hpp:74] Creating layer inception_5b/double_3x3_reduce_bn
I0107 20:03:19.494439 14736 layer_factory.cpp:177] Layer inception_5b/double_3x3_reduce_bn is using CAFFE engine.
I0107 20:03:19.494446 14736 net.cpp:96] Creating Layer inception_5b/double_3x3_reduce_bn
I0107 20:03:19.494448 14736 net.cpp:459] inception_5b/double_3x3_reduce_bn <- inception_5b/double_3x3_reduce
I0107 20:03:19.494453 14736 net.cpp:415] inception_5b/double_3x3_reduce_bn -> inception_5b/double_3x3_reduce_bn
I0107 20:03:19.494457 14736 net.cpp:160] Setting up inception_5b/double_3x3_reduce_bn
I0107 20:03:19.494468 14736 net.cpp:167] Top shape: 1 192 7 7 (9408)
I0107 20:03:19.494473 14736 layer_factory.hpp:74] Creating layer inception_5b/relu_double_3x3_reduce
I0107 20:03:19.494477 14736 net.cpp:96] Creating Layer inception_5b/relu_double_3x3_reduce
I0107 20:03:19.494480 14736 net.cpp:459] inception_5b/relu_double_3x3_reduce <- inception_5b/double_3x3_reduce_bn
I0107 20:03:19.494483 14736 net.cpp:404] inception_5b/relu_double_3x3_reduce -> inception_5b/double_3x3_reduce_bn (in-place)
I0107 20:03:19.494488 14736 net.cpp:160] Setting up inception_5b/relu_double_3x3_reduce
I0107 20:03:19.494490 14736 net.cpp:167] Top shape: 1 192 7 7 (9408)
I0107 20:03:19.494493 14736 layer_factory.hpp:74] Creating layer inception_5b/double_3x3_1
I0107 20:03:19.494499 14736 net.cpp:96] Creating Layer inception_5b/double_3x3_1
I0107 20:03:19.494503 14736 net.cpp:459] inception_5b/double_3x3_1 <- inception_5b/double_3x3_reduce_bn
I0107 20:03:19.494506 14736 net.cpp:415] inception_5b/double_3x3_1 -> inception_5b/double_3x3_1
I0107 20:03:19.494513 14736 net.cpp:160] Setting up inception_5b/double_3x3_1
I0107 20:03:19.496176 14736 net.cpp:167] Top shape: 1 224 7 7 (10976)
I0107 20:03:19.496181 14736 layer_factory.hpp:74] Creating layer inception_5b/double_3x3_1_bn
I0107 20:03:19.496184 14736 layer_factory.cpp:177] Layer inception_5b/double_3x3_1_bn is using CAFFE engine.
I0107 20:03:19.496189 14736 net.cpp:96] Creating Layer inception_5b/double_3x3_1_bn
I0107 20:03:19.496193 14736 net.cpp:459] inception_5b/double_3x3_1_bn <- inception_5b/double_3x3_1
I0107 20:03:19.496198 14736 net.cpp:415] inception_5b/double_3x3_1_bn -> inception_5b/double_3x3_1_bn
I0107 20:03:19.496203 14736 net.cpp:160] Setting up inception_5b/double_3x3_1_bn
I0107 20:03:19.496213 14736 net.cpp:167] Top shape: 1 224 7 7 (10976)
I0107 20:03:19.496220 14736 layer_factory.hpp:74] Creating layer inception_5b/relu_double_3x3_1
I0107 20:03:19.496224 14736 net.cpp:96] Creating Layer inception_5b/relu_double_3x3_1
I0107 20:03:19.496227 14736 net.cpp:459] inception_5b/relu_double_3x3_1 <- inception_5b/double_3x3_1_bn
I0107 20:03:19.496232 14736 net.cpp:404] inception_5b/relu_double_3x3_1 -> inception_5b/double_3x3_1_bn (in-place)
I0107 20:03:19.496235 14736 net.cpp:160] Setting up inception_5b/relu_double_3x3_1
I0107 20:03:19.496238 14736 net.cpp:167] Top shape: 1 224 7 7 (10976)
I0107 20:03:19.496242 14736 layer_factory.hpp:74] Creating layer inception_5b/double_3x3_2
I0107 20:03:19.496246 14736 net.cpp:96] Creating Layer inception_5b/double_3x3_2
I0107 20:03:19.496249 14736 net.cpp:459] inception_5b/double_3x3_2 <- inception_5b/double_3x3_1_bn
I0107 20:03:19.496253 14736 net.cpp:415] inception_5b/double_3x3_2 -> inception_5b/double_3x3_2
I0107 20:03:19.496258 14736 net.cpp:160] Setting up inception_5b/double_3x3_2
I0107 20:03:19.498167 14736 net.cpp:167] Top shape: 1 224 7 7 (10976)
I0107 20:03:19.498173 14736 layer_factory.hpp:74] Creating layer inception_5b/double_3x3_2_bn
I0107 20:03:19.498177 14736 layer_factory.cpp:177] Layer inception_5b/double_3x3_2_bn is using CAFFE engine.
I0107 20:03:19.498180 14736 net.cpp:96] Creating Layer inception_5b/double_3x3_2_bn
I0107 20:03:19.498184 14736 net.cpp:459] inception_5b/double_3x3_2_bn <- inception_5b/double_3x3_2
I0107 20:03:19.498189 14736 net.cpp:415] inception_5b/double_3x3_2_bn -> inception_5b/double_3x3_2_bn
I0107 20:03:19.498194 14736 net.cpp:160] Setting up inception_5b/double_3x3_2_bn
I0107 20:03:19.498204 14736 net.cpp:167] Top shape: 1 224 7 7 (10976)
I0107 20:03:19.498210 14736 layer_factory.hpp:74] Creating layer inception_5b/relu_double_3x3_2
I0107 20:03:19.498214 14736 net.cpp:96] Creating Layer inception_5b/relu_double_3x3_2
I0107 20:03:19.498216 14736 net.cpp:459] inception_5b/relu_double_3x3_2 <- inception_5b/double_3x3_2_bn
I0107 20:03:19.498221 14736 net.cpp:404] inception_5b/relu_double_3x3_2 -> inception_5b/double_3x3_2_bn (in-place)
I0107 20:03:19.498224 14736 net.cpp:160] Setting up inception_5b/relu_double_3x3_2
I0107 20:03:19.498229 14736 net.cpp:167] Top shape: 1 224 7 7 (10976)
I0107 20:03:19.498231 14736 layer_factory.hpp:74] Creating layer inception_5b/pool
I0107 20:03:19.498236 14736 net.cpp:96] Creating Layer inception_5b/pool
I0107 20:03:19.498239 14736 net.cpp:459] inception_5b/pool <- inception_5a/output_inception_5a/output_0_split_3
I0107 20:03:19.498244 14736 net.cpp:415] inception_5b/pool -> inception_5b/pool
I0107 20:03:19.498248 14736 net.cpp:160] Setting up inception_5b/pool
I0107 20:03:19.498253 14736 net.cpp:167] Top shape: 1 1024 7 7 (50176)
I0107 20:03:19.498256 14736 layer_factory.hpp:74] Creating layer inception_5b/pool_proj
I0107 20:03:19.498261 14736 net.cpp:96] Creating Layer inception_5b/pool_proj
I0107 20:03:19.498265 14736 net.cpp:459] inception_5b/pool_proj <- inception_5b/pool
I0107 20:03:19.498270 14736 net.cpp:415] inception_5b/pool_proj -> inception_5b/pool_proj
I0107 20:03:19.498275 14736 net.cpp:160] Setting up inception_5b/pool_proj
I0107 20:03:19.498832 14736 net.cpp:167] Top shape: 1 128 7 7 (6272)
I0107 20:03:19.498838 14736 layer_factory.hpp:74] Creating layer inception_5b/pool_proj_bn
I0107 20:03:19.498844 14736 layer_factory.cpp:177] Layer inception_5b/pool_proj_bn is using CAFFE engine.
I0107 20:03:19.498848 14736 net.cpp:96] Creating Layer inception_5b/pool_proj_bn
I0107 20:03:19.498852 14736 net.cpp:459] inception_5b/pool_proj_bn <- inception_5b/pool_proj
I0107 20:03:19.498857 14736 net.cpp:415] inception_5b/pool_proj_bn -> inception_5b/pool_proj_bn
I0107 20:03:19.498862 14736 net.cpp:160] Setting up inception_5b/pool_proj_bn
I0107 20:03:19.498872 14736 net.cpp:167] Top shape: 1 128 7 7 (6272)
I0107 20:03:19.498878 14736 layer_factory.hpp:74] Creating layer inception_5b/relu_pool_proj
I0107 20:03:19.498881 14736 net.cpp:96] Creating Layer inception_5b/relu_pool_proj
I0107 20:03:19.498884 14736 net.cpp:459] inception_5b/relu_pool_proj <- inception_5b/pool_proj_bn
I0107 20:03:19.498888 14736 net.cpp:404] inception_5b/relu_pool_proj -> inception_5b/pool_proj_bn (in-place)
I0107 20:03:19.498893 14736 net.cpp:160] Setting up inception_5b/relu_pool_proj
I0107 20:03:19.498895 14736 net.cpp:167] Top shape: 1 128 7 7 (6272)
I0107 20:03:19.498898 14736 layer_factory.hpp:74] Creating layer inception_5b/output
I0107 20:03:19.498903 14736 net.cpp:96] Creating Layer inception_5b/output
I0107 20:03:19.498905 14736 net.cpp:459] inception_5b/output <- inception_5b/1x1_bn
I0107 20:03:19.498909 14736 net.cpp:459] inception_5b/output <- inception_5b/3x3_bn
I0107 20:03:19.498913 14736 net.cpp:459] inception_5b/output <- inception_5b/double_3x3_2_bn
I0107 20:03:19.498915 14736 net.cpp:459] inception_5b/output <- inception_5b/pool_proj_bn
I0107 20:03:19.498919 14736 net.cpp:415] inception_5b/output -> inception_5b/output
I0107 20:03:19.498924 14736 net.cpp:160] Setting up inception_5b/output
I0107 20:03:19.498929 14736 net.cpp:167] Top shape: 1 1024 7 7 (50176)
I0107 20:03:19.498931 14736 layer_factory.hpp:74] Creating layer global_pool
I0107 20:03:19.498936 14736 net.cpp:96] Creating Layer global_pool
I0107 20:03:19.498939 14736 net.cpp:459] global_pool <- inception_5b/output
I0107 20:03:19.498944 14736 net.cpp:415] global_pool -> global_pool
I0107 20:03:19.498949 14736 net.cpp:160] Setting up global_pool
I0107 20:03:19.498953 14736 net.cpp:167] Top shape: 1 1024 1 1 (1024)
I0107 20:03:19.498956 14736 layer_factory.hpp:74] Creating layer dropout
I0107 20:03:19.498960 14736 net.cpp:96] Creating Layer dropout
I0107 20:03:19.498963 14736 net.cpp:459] dropout <- global_pool
I0107 20:03:19.498966 14736 net.cpp:404] dropout -> global_pool (in-place)
I0107 20:03:19.498970 14736 net.cpp:160] Setting up dropout
I0107 20:03:19.498975 14736 net.cpp:167] Top shape: 1 1024 1 1 (1024)
I0107 20:03:19.498978 14736 layer_factory.hpp:74] Creating layer fc-action
I0107 20:03:19.498984 14736 net.cpp:96] Creating Layer fc-action
I0107 20:03:19.498987 14736 net.cpp:459] fc-action <- global_pool
I0107 20:03:19.498991 14736 net.cpp:415] fc-action -> fc-action
I0107 20:03:19.498996 14736 net.cpp:160] Setting up fc-action
I0107 20:03:19.500790 14736 net.cpp:167] Top shape: 1 101 (101)
I0107 20:03:19.500797 14736 net.cpp:241] fc-action does not need backward computation.
I0107 20:03:19.500799 14736 net.cpp:241] dropout does not need backward computation.
I0107 20:03:19.500802 14736 net.cpp:241] global_pool does not need backward computation.
I0107 20:03:19.500805 14736 net.cpp:241] inception_5b/output does not need backward computation.
I0107 20:03:19.500808 14736 net.cpp:241] inception_5b/relu_pool_proj does not need backward computation.
…
