WARNING: Logging before InitGoogleLogging() is written to STDERR
I0107 20:30:37.289940 14840 net.cpp:46] Initializing net from parameters: 
name: "BN-Inception"
input: "data"
input_dim: 1
input_dim: 3
input_dim: 224
input_dim: 224
state {
  phase: TEST
}
layer {
  name: "conv1/7x7_s2"
  type: "Convolution"
  bottom: "data"
  top: "conv1/7x7_s2"
  param {
    lr_mult: 1
    decay_mult: 1
  }
  param {
    lr_mult: 2
    decay_mult: 0
  }
  convolution_param {
    num_output: 64
    pad: 3
    kernel_size: 7
    stride: 2
    weight_filler {
      type: "xavier"
    }
    bias_filler {
      type: "constant"
      value: 0.2
    }
  }
}
layer {
  name: "conv1/7x7_s2_bn"
  type: "BN"
  bottom: "conv1/7x7_s2"
  top: "conv1/7x7_s2_bn"
  param {
    lr_mult: 1
    decay_mult: 0
  }
  param {
    lr_mult: 1
    decay_mult: 0
  }
  bn_param {
    slope_filler {
      type: "constant"
      value: 1
    }
    bias_filler {
      type: "constant"
      value: 0
    }
    frozen: true
  }
}
layer {
  name: "conv1/relu_7x7"
  type: "ReLU"
  bottom: "conv1/7x7_s2_bn"
  top: "conv1/7x7_s2_bn"
}
layer {
  name: "pool1/3x3_s2"
  type: "Pooling"
  bottom: "conv1/7x7_s2_bn"
  top: "pool1/3x3_s2"
  pooling_param {
    pool: MAX
    kernel_size: 3
    stride: 2
  }
}
layer {
  name: "conv2/3x3_reduce"
  type: "Convolution"
  bottom: "pool1/3x3_s2"
  top: "conv2/3x3_reduce"
  param {
    lr_mult: 1
    decay_mult: 1
  }
  param {
    lr_mult: 2
    decay_mult: 0
  }
  convolution_param {
    num_output: 64
    kernel_size: 1
    weight_filler {
      type: "xavier"
    }
    bias_filler {
      type: "constant"
      value: 0.2
    }
  }
}
layer {
  name: "conv2/3x3_reduce_bn"
  type: "BN"
  bottom: "conv2/3x3_reduce"
  top: "conv2/3x3_reduce_bn"
  param {
    lr_mult: 1
    decay_mult: 0
  }
  param {
    lr_mult: 1
    decay_mult: 0
  }
  bn_param {
    slope_filler {
      type: "constant"
      value: 1
    }
    bias_filler {
      type: "constant"
      value: 0
    }
    frozen: true
  }
}
layer {
  name: "conv2/relu_3x3_reduce"
  type: "ReLU"
  bottom: "conv2/3x3_reduce_bn"
  top: "conv2/3x3_reduce_bn"
}
layer {
  name: "conv2/3x3"
  type: "Convolution"
  bottom: "conv2/3x3_reduce_bn"
  top: "conv2/3x3"
  param {
    lr_mult: 1
    decay_mult: 1
  }
  param {
    lr_mult: 2
    decay_mult: 0
  }
  convolution_param {
    num_output: 192
    pad: 1
    kernel_size: 3
    weight_filler {
      type: "xavier"
    }
    bias_filler {
      type: "constant"
      value: 0.2
    }
  }
}
layer {
  name: "conv2/3x3_bn"
  type: "BN"
  bottom: "conv2/3x3"
  top: "conv2/3x3_bn"
  param {
    lr_mult: 1
    decay_mult: 0
  }
  param {
    lr_mult: 1
    decay_mult: 0
  }
  bn_param {
    slope_filler {
      type: "constant"
      value: 1
    }
    bias_filler {
      type: "constant"
      value: 0
    }
    frozen: true
  }
}
layer {
  name: "conv2/relu_3x3"
  type: "ReLU"
  bottom: "conv2/3x3_bn"
  top: "conv2/3x3_bn"
}
layer {
  name: "pool2/3x3_s2"
  type: "Pooling"
  bottom: "conv2/3x3_bn"
  top: "pool2/3x3_s2"
  pooling_param {
    pool: MAX
    kernel_size: 3
    stride: 2
  }
}
layer {
  name: "inception_3a/1x1"
  type: "Convolution"
  bottom: "pool2/3x3_s2"
  top: "inception_3a/1x1"
  param {
    lr_mult: 1
    decay_mult: 1
  }
  param {
    lr_mult: 2
    decay_mult: 0
  }
  convolution_param {
    num_output: 64
    kernel_size: 1
    weight_filler {
      type: "xavier"
    }
    bias_filler {
      type: "constant"
      value: 0.2
    }
  }
}
layer {
  name: "inception_3a/1x1_bn"
  type: "BN"
  bottom: "inception_3a/1x1"
  top: "inception_3a/1x1_bn"
  param {
    lr_mult: 1
    decay_mult: 0
  }
  param {
    lr_mult: 1
    decay_mult: 0
  }
  bn_param {
    slope_filler {
      type: "constant"
      value: 1
    }
    bias_filler {
      type: "constant"
      value: 0
    }
    frozen: true
  }
}
layer {
  name: "inception_3a/relu_1x1"
  type: "ReLU"
  bottom: "inception_3a/1x1_bn"
  top: "inception_3a/1x1_bn"
}
layer {
  name: "inception_3a/3x3_reduce"
  type: "Convolution"
  bottom: "pool2/3x3_s2"
  top: "inception_3a/3x3_reduce"
  param {
    lr_mult: 1
    decay_mult: 1
  }
  param {
    lr_mult: 2
    decay_mult: 0
  }
  convolution_param {
    num_output: 64
    kernel_size: 1
    weight_filler {
      type: "xavier"
    }
    bias_filler {
      type: "constant"
      value: 0.2
    }
  }
}
layer {
  name: "inception_3a/3x3_reduce_bn"
  type: "BN"
  bottom: "inception_3a/3x3_reduce"
  top: "inception_3a/3x3_reduce_bn"
  param {
    lr_mult: 1
    decay_mult: 0
  }
  param {
    lr_mult: 1
    decay_mult: 0
  }
  bn_param {
    slope_filler {
      type: "constant"
      value: 1
    }
    bias_filler {
      type: "constant"
      value: 0
    }
    frozen: true
  }
}
layer {
  name: "inception_3a/relu_3x3_reduce"
  type: "ReLU"
  bottom: "inception_3a/3x3_reduce_bn"
  top: "inception_3a/3x3_reduce_bn"
}
layer {
  name: "inception_3a/3x3"
  type: "Convolution"
  bottom: "inception_3a/3x3_reduce_bn"
  top: "inception_3a/3x3"
  param {
    lr_mult: 1
    decay_mult: 1
  }
  param {
    lr_mult: 2
    decay_mult: 0
  }
  convolution_param {
    num_output: 64
    pad: 1
    kernel_size: 3
    weight_filler {
      type: "xavier"
    }
    bias_filler {
      type: "constant"
      value: 0.2
    }
  }
}
layer {
  name: "inception_3a/3x3_bn"
  type: "BN"
  bottom: "inception_3a/3x3"
  top: "inception_3a/3x3_bn"
  param {
    lr_mult: 1
    decay_mult: 0
  }
  param {
    lr_mult: 1
    decay_mult: 0
  }
  bn_param {
    slope_filler {
      type: "constant"
      value: 1
    }
    bias_filler {
      type: "constant"
      value: 0
    }
    frozen: true
  }
}
layer {
  name: "inception_3a/relu_3x3"
  type: "ReLU"
  bottom: "inception_3a/3x3_bn"
  top: "inception_3a/3x3_bn"
}
layer {
  name: "inception_3a/double_3x3_reduce"
  type: "Convolution"
  bottom: "pool2/3x3_s2"
  top: "inception_3a/double_3x3_reduce"
  param {
    lr_mult: 1
    decay_mult: 1
  }
  param {
    lr_mult: 2
    decay_mult: 0
  }
  convolution_param {
    num_output: 64
    kernel_size: 1
    weight_filler {
      type: "xavier"
    }
    bias_filler {
      type: "constant"
      value: 0.2
    }
  }
}
layer {
  name: "inception_3a/double_3x3_reduce_bn"
  type: "BN"
  bottom: "inception_3a/double_3x3_reduce"
  top: "inception_3a/double_3x3_reduce_bn"
  param {
    lr_mult: 1
    decay_mult: 0
  }
  param {
    lr_mult: 1
    decay_mult: 0
  }
  bn_param {
    slope_filler {
      type: "constant"
      value: 1
    }
    bias_filler {
      type: "constant"
      value: 0
    }
    frozen: true
  }
}
layer {
  name: "inception_3a/relu_double_3x3_reduce"
  type: "ReLU"
  bottom: "inception_3a/double_3x3_reduce_bn"
  top: "inception_3a/double_3x3_reduce_bn"
}
layer {
  name: "inception_3a/double_3x3_1"
  type: "Convolution"
  bottom: "inception_3a/double_3x3_reduce_bn"
  top: "inception_3a/double_3x3_1"
  param {
    lr_mult: 1
    decay_mult: 1
  }
  param {
    lr_mult: 2
    decay_mult: 0
  }
  convolution_param {
    num_output: 96
    pad: 1
    kernel_size: 3
    weight_filler {
      type: "xavier"
    }
    bias_filler {
      type: "constant"
      value: 0.2
    }
  }
}
layer {
  name: "inception_3a/double_3x3_1_bn"
  type: "BN"
  bottom: "inception_3a/double_3x3_1"
  top: "inception_3a/double_3x3_1_bn"
  param {
    lr_mult: 1
    decay_mult: 0
  }
  param {
    lr_mult: 1
    decay_mult: 0
  }
  bn_param {
    slope_filler {
      type: "constant"
      value: 1
    }
    bias_filler {
      type: "constant"
      value: 0
    }
    frozen: true
  }
}
layer {
  name: "inception_3a/relu_double_3x3_1"
  type: "ReLU"
  bottom: "inception_3a/double_3x3_1_bn"
  top: "inception_3a/double_3x3_1_bn"
}
layer {
  name: "inception_3a/double_3x3_2"
  type: "Convolution"
  bottom: "inception_3a/double_3x3_1_bn"
  top: "inception_3a/double_3x3_2"
  param {
    lr_mult: 1
    decay_mult: 1
  }
  param {
    lr_mult: 2
    decay_mult: 0
  }
  convolution_param {
    num_output: 96
    pad: 1
    kernel_size: 3
    weight_filler {
      type: "xavier"
    }
    bias_filler {
      type: "constant"
      value: 0.2
    }
  }
}
layer {
  name: "inception_3a/double_3x3_2_bn"
  type: "BN"
  bottom: "inception_3a/double_3x3_2"
  top: "inception_3a/double_3x3_2_bn"
  param {
    lr_mult: 1
    decay_mult: 0
  }
  param {
    lr_mult: 1
    decay_mult: 0
  }
  bn_param {
    slope_filler {
      type: "constant"
      value: 1
    }
    bias_filler {
      type: "constant"
      value: 0
    }
    frozen: true
  }
}
layer {
  name: "inception_3a/relu_double_3x3_2"
  type: "ReLU"
  bottom: "inception_3a/double_3x3_2_bn"
  top: "inception_3a/double_3x3_2_bn"
}
layer {
  name: "inception_3a/pool"
  type: "Pooling"
  bottom: "pool2/3x3_s2"
  top: "inception_3a/pool"
  pooling_param {
    pool: AVE
    kernel_size: 3
    stride: 1
    pad: 1
  }
}
layer {
  name: "inception_3a/pool_proj"
  type: "Convolution"
  bottom: "inception_3a/pool"
  top: "inception_3a/pool_proj"
  param {
    lr_mult: 1
    decay_mult: 1
  }
  param {
    lr_mult: 2
    decay_mult: 0
  }
  convolution_param {
    num_output: 32
    kernel_size: 1
    weight_filler {
      type: "xavier"
    }
    bias_filler {
      type: "constant"
      value: 0.2
    }
  }
}
layer {
  name: "inception_3a/pool_proj_bn"
  type: "BN"
  bottom: "inception_3a/pool_proj"
  top: "inception_3a/pool_proj_bn"
  param {
    lr_mult: 1
    decay_mult: 0
  }
  param {
    lr_mult: 1
    decay_mult: 0
  }
  bn_param {
    slope_filler {
      type: "constant"
      value: 1
    }
    bias_filler {
      type: "constant"
      value: 0
    }
    frozen: true
  }
}
layer {
  name: "inception_3a/relu_pool_proj"
  type: "ReLU"
  bottom: "inception_3a/pool_proj_bn"
  top: "inception_3a/pool_proj_bn"
}
layer {
  name: "inception_3a/output"
  type: "Concat"
  bottom: "inception_3a/1x1_bn"
  bottom: "inception_3a/3x3_bn"
  bottom: "inception_3a/double_3x3_2_bn"
  bottom: "inception_3a/pool_proj_bn"
  top: "inception_3a/output"
}
layer {
  name: "inception_3b/1x1"
  type: "Convolution"
  bottom: "inception_3a/output"
  top: "inception_3b/1x1"
  param {
    lr_mult: 1
    decay_mult: 1
  }
  param {
    lr_mult: 2
    decay_mult: 0
  }
  convolution_param {
    num_output: 64
    kernel_size: 1
    weight_filler {
      type: "xavier"
    }
    bias_filler {
      type: "constant"
      value: 0.2
    }
  }
}
layer {
  name: "inception_3b/1x1_bn"
  type: "BN"
  bottom: "inception_3b/1x1"
  top: "inception_3b/1x1_bn"
  param {
    lr_mult: 1
    decay_mult: 0
  }
  param {
    lr_mult: 1
    decay_mult: 0
  }
  bn_param {
    slope_filler {
      type: "constant"
      value: 1
    }
    bias_filler {
      type: "constant"
      value: 0
    }
    frozen: true
  }
}
layer {
  name: "inception_3b/relu_1x1"
  type: "ReLU"
  bottom: "inception_3b/1x1_bn"
  top: "inception_3b/1x1_bn"
}
layer {
  name: "inception_3b/3x3_reduce"
  type: "Convolution"
  bottom: "inception_3a/output"
  top: "inception_3b/3x3_reduce"
  param {
    lr_mult: 1
    decay_mult: 1
  }
  param {
    lr_mult: 2
    decay_mult: 0
  }
  convolution_param {
    num_output: 64
    kernel_size: 1
    weight_filler {
      type: "xavier"
    }
    bias_filler {
      type: "constant"
      value: 0.2
    }
  }
}
layer {
  name: "inception_3b/3x3_reduce_bn"
  type: "BN"
  bottom: "inception_3b/3x3_reduce"
  top: "inception_3b/3x3_reduce_bn"
  param {
    lr_mult: 1
    decay_mult: 0
  }
  param {
    lr_mult: 1
    decay_mult: 0
  }
  bn_param {
    slope_filler {
      type: "constant"
      value: 1
    }
    bias_filler {
      type: "constant"
      value: 0
    }
    frozen: true
  }
}
layer {
  name: "inception_3b/relu_3x3_reduce"
  type: "ReLU"
  bottom: "inception_3b/3x3_reduce_bn"
  top: "inception_3b/3x3_reduce_bn"
}
layer {
  name: "inception_3b/3x3"
  type: "Convolution"
  bottom: "inception_3b/3x3_reduce_bn"
  top: "inception_3b/3x3"
  param {
    lr_mult: 1
    decay_mult: 1
  }
  param {
    lr_mult: 2
    decay_mult: 0
  }
  convolution_param {
    num_output: 96
    pad: 1
    kernel_size: 3
    weight_filler {
      type: "xavier"
    }
    bias_filler {
      type: "constant"
      value: 0.2
    }
  }
}
layer {
  name: "inception_3b/3x3_bn"
  type: "BN"
  bottom: "inception_3b/3x3"
  top: "inception_3b/3x3_bn"
  param {
    lr_mult: 1
    decay_mult: 0
  }
  param {
    lr_mult: 1
    decay_mult: 0
  }
  bn_param {
    slope_filler {
      type: "constant"
      value: 1
    }
    bias_filler {
      type: "constant"
      value: 0
    }
    frozen: true
  }
}
layer {
  name: "inception_3b/relu_3x3"
  type: "ReLU"
  bottom: "inception_3b/3x3_bn"
  top: "inception_3b/3x3_bn"
}
layer {
  name: "inception_3b/double_3x3_reduce"
  type: "Convolution"
  bottom: "inception_3a/output"
  top: "inception_3b/double_3x3_reduce"
  param {
    lr_mult: 1
    decay_mult: 1
  }
  param {
    lr_mult: 2
    decay_mult: 0
  }
  convolution_param {
    num_output: 64
    kernel_size: 1
    weight_filler {
      type: "xavier"
    }
    bias_filler {
      type: "constant"
      value: 0.2
    }
  }
}
layer {
  name: "inception_3b/double_3x3_reduce_bn"
  type: "BN"
  bottom: "inception_3b/double_3x3_reduce"
  top: "inception_3b/double_3x3_reduce_bn"
  param {
    lr_mult: 1
    decay_mult: 0
  }
  param {
    lr_mult: 1
    decay_mult: 0
  }
  bn_param {
    slope_filler {
      type: "constant"
      value: 1
    }
    bias_filler {
      type: "constant"
      value: 0
    }
    frozen: true
  }
}
layer {
  name: "inception_3b/relu_double_3x3_reduce"
  type: "ReLU"
  bottom: "inception_3b/double_3x3_reduce_bn"
  top: "inception_3b/double_3x3_reduce_bn"
}
layer {
  name: "inception_3b/double_3x3_1"
  type: "Convolution"
  bottom: "inception_3b/double_3x3_reduce_bn"
  top: "inception_3b/double_3x3_1"
  param {
    lr_mult: 1
    decay_mult: 1
  }
  param {
    lr_mult: 2
    decay_mult: 0
  }
  convolution_param {
    num_output: 96
    pad: 1
    kernel_size: 3
    weight_filler {
      type: "xavier"
    }
    bias_filler {
      type: "constant"
      value: 0.2
    }
  }
}
layer {
  name: "inception_3b/double_3x3_1_bn"
  type: "BN"
  bottom: "inception_3b/double_3x3_1"
  top: "inception_3b/double_3x3_1_bn"
  param {
    lr_mult: 1
    decay_mult: 0
  }
  param {
    lr_mult: 1
    decay_mult: 0
  }
  bn_param {
    slope_filler {
      type: "constant"
      value: 1
    }
    bias_filler {
      type: "constant"
      value: 0
    }
    frozen: true
  }
}
layer {
  name: "inception_3b/relu_double_3x3_1"
  type: "ReLU"
  bottom: "inception_3b/double_3x3_1_bn"
  top: "inception_3b/double_3x3_1_bn"
}
layer {
  name: "inception_3b/double_3x3_2"
  type: "Convolution"
  bottom: "inception_3b/double_3x3_1_bn"
  top: "inception_3b/double_3x3_2"
  param {
    lr_mult: 1
    decay_mult: 1
  }
  param {
    lr_mult: 2
    decay_mult: 0
  }
  convolution_param {
    num_output: 96
    pad: 1
    kernel_size: 3
    weight_filler {
      type: "xavier"
    }
    bias_filler {
      type: "constant"
      value: 0.2
    }
  }
}
layer {
  name: "inception_3b/double_3x3_2_bn"
  type: "BN"
  bottom: "inception_3b/double_3x3_2"
  top: "inception_3b/double_3x3_2_bn"
  param {
    lr_mult: 1
    decay_mult: 0
  }
  param {
    lr_mult: 1
    decay_mult: 0
  }
  bn_param {
    slope_filler {
      type: "constant"
      value: 1
    }
    bias_filler {
      type: "constant"
      value: 0
    }
    frozen: true
  }
}
layer {
  name: "inception_3b/relu_double_3x3_2"
  type: "ReLU"
  bottom: "inception_3b/double_3x3_2_bn"
  top: "inception_3b/double_3x3_2_bn"
}
layer {
  name: "inception_3b/pool"
  type: "Pooling"
  bottom: "inception_3a/output"
  top: "inception_3b/pool"
  pooling_param {
    pool: AVE
    kernel_size: 3
    stride: 1
    pad: 1
  }
}
layer {
  name: "inception_3b/pool_proj"
  type: "Convolution"
  bottom: "inception_3b/pool"
  top: "inception_3b/pool_proj"
  param {
    lr_mult: 1
    decay_mult: 1
  }
  param {
    lr_mult: 2
    decay_mult: 0
  }
  convolution_param {
    num_output: 64
    kernel_size: 1
    weight_filler {
      type: "xavier"
    }
    bias_filler {
      type: "constant"
      value: 0.2
    }
  }
}
layer {
  name: "inception_3b/pool_proj_bn"
  type: "BN"
  bottom: "inception_3b/pool_proj"
  top: "inception_3b/pool_proj_bn"
  param {
    lr_mult: 1
    decay_mult: 0
  }
  param {
    lr_mult: 1
    decay_mult: 0
  }
  bn_param {
    slope_filler {
      type: "constant"
      value: 1
    }
    bias_filler {
      type: "constant"
      value: 0
    }
    frozen: true
  }
}
layer {
  name: "inception_3b/relu_pool_proj"
  type: "ReLU"
  bottom: "inception_3b/pool_proj_bn"
  top: "inception_3b/pool_proj_bn"
}
layer {
  name: "inception_3b/output"
  type: "Concat"
  bottom: "inception_3b/1x1_bn"
  bottom: "inception_3b/3x3_bn"
  bottom: "inception_3b/double_3x3_2_bn"
  bottom: "inception_3b/pool_proj_bn"
  top: "inception_3b/output"
}
layer {
  name: "inception_3c/3x3_reduce"
  type: "Convolution"
  bottom: "inception_3b/output"
  top: "inception_3c/3x3_reduce"
  param {
    lr_mult: 1
    decay_mult: 1
  }
  param {
    lr_mult: 2
    decay_mult: 0
  }
  convolution_param {
    num_output: 128
    kernel_size: 1
    weight_filler {
      type: "xavier"
    }
    bias_filler {
      type: "constant"
      value: 0.2
    }
  }
}
layer {
  name: "inception_3c/3x3_reduce_bn"
  type: "BN"
  bottom: "inception_3c/3x3_reduce"
  top: "inception_3c/3x3_reduce_bn"
  param {
    lr_mult: 1
    decay_mult: 0
  }
  param {
    lr_mult: 1
    decay_mult: 0
  }
  bn_param {
    slope_filler {
      type: "constant"
      value: 1
    }
    bias_filler {
      type: "constant"
      value: 0
    }
    frozen: true
  }
}
layer {
  name: "inception_3c/relu_3x3_reduce"
  type: "ReLU"
  bottom: "inception_3c/3x3_reduce_bn"
  top: "inception_3c/3x3_reduce_bn"
}
layer {
  name: "inception_3c/3x3"
  type: "Convolution"
  bottom: "inception_3c/3x3_reduce_bn"
  top: "inception_3c/3x3"
  param {
    lr_mult: 1
    decay_mult: 1
  }
  param {
    lr_mult: 2
    decay_mult: 0
  }
  convolution_param {
    num_output: 160
    pad: 1
    kernel_size: 3
    stride: 2
    weight_filler {
      type: "xavier"
    }
    bias_filler {
      type: "constant"
      value: 0.2
    }
  }
}
layer {
  name: "inception_3c/3x3_bn"
  type: "BN"
  bottom: "inception_3c/3x3"
  top: "inception_3c/3x3_bn"
  param {
    lr_mult: 1
    decay_mult: 0
  }
  param {
    lr_mult: 1
    decay_mult: 0
  }
  bn_param {
    slope_filler {
      type: "constant"
      value: 1
    }
    bias_filler {
      type: "constant"
      value: 0
    }
    frozen: true
  }
}
layer {
  name: "inception_3c/relu_3x3"
  type: "ReLU"
  bottom: "inception_3c/3x3_bn"
  top: "inception_3c/3x3_bn"
}
layer {
  name: "inception_3c/double_3x3_reduce"
  type: "Convolution"
  bottom: "inception_3b/output"
  top: "inception_3c/double_3x3_reduce"
  param {
    lr_mult: 1
    decay_mult: 1
  }
  param {
    lr_mult: 2
    decay_mult: 0
  }
  convolution_param {
    num_output: 64
    kernel_size: 1
    weight_filler {
      type: "xavier"
    }
    bias_filler {
      type: "constant"
      value: 0.2
    }
  }
}
layer {
  name: "inception_3c/double_3x3_reduce_bn"
  type: "BN"
  bottom: "inception_3c/double_3x3_reduce"
  top: "inception_3c/double_3x3_reduce_bn"
  param {
    lr_mult: 1
    decay_mult: 0
  }
  param {
    lr_mult: 1
    decay_mult: 0
  }
  bn_param {
    slope_filler {
      type: "constant"
      value: 1
    }
    bias_filler {
      type: "constant"
      value: 0
    }
    frozen: true
  }
}
layer {
  name: "inception_3c/relu_double_3x3_reduce"
  type: "ReLU"
  bottom: "inception_3c/double_3x3_reduce_bn"
  top: "inception_3c/double_3x3_reduce_bn"
}
layer {
  name: "inception_3c/double_3x3_1"
  type: "Convolution"
  bottom: "inception_3c/double_3x3_reduce_bn"
  top: "inception_3c/double_3x3_1"
  param {
    lr_mult: 1
    decay_mult: 1
  }
  param {
    lr_mult: 2
    decay_mult: 0
  }
  convolution_param {
    num_output: 96
    pad: 1
    kernel_size: 3
    weight_filler {
      type: "xavier"
    }
    bias_filler {
      type: "constant"
      value: 0.2
    }
  }
}
layer {
  name: "inception_3c/double_3x3_1_bn"
  type: "BN"
  bottom: "inception_3c/double_3x3_1"
  top: "inception_3c/double_3x3_1_bn"
  param {
    lr_mult: 1
    decay_mult: 0
  }
  param {
    lr_mult: 1
    decay_mult: 0
  }
  bn_param {
    slope_filler {
      type: "constant"
      value: 1
    }
    bias_filler {
      type: "constant"
      value: 0
    }
    frozen: true
  }
}
layer {
  name: "inception_3c/relu_double_3x3_1"
  type: "ReLU"
  bottom: "inception_3c/double_3x3_1_bn"
  top: "inception_3c/double_3x3_1_bn"
}
layer {
  name: "inception_3c/double_3x3_2"
  type: "Convolution"
  bottom: "inception_3c/double_3x3_1_bn"
  top: "inception_3c/double_3x3_2"
  param {
    lr_mult: 1
    decay_mult: 1
  }
  param {
    lr_mult: 2
    decay_mult: 0
  }
  convolution_param {
    num_output: 96
    pad: 1
    kernel_size: 3
    stride: 2
    weight_filler {
      type: "xavier"
    }
    bias_filler {
      type: "constant"
      value: 0.2
    }
  }
}
layer {
  name: "inception_3c/double_3x3_2_bn"
  type: "BN"
  bottom: "inception_3c/double_3x3_2"
  top: "inception_3c/double_3x3_2_bn"
  param {
    lr_mult: 1
    decay_mult: 0
  }
  param {
    lr_mult: 1
    decay_mult: 0
  }
  bn_param {
    slope_filler {
      type: "constant"
      value: 1
    }
    bias_filler {
      type: "constant"
      value: 0
    }
    frozen: true
  }
}
layer {
  name: "inception_3c/relu_double_3x3_2"
  type: "ReLU"
  bottom: "inception_3c/double_3x3_2_bn"
  top: "inception_3c/double_3x3_2_bn"
}
layer {
  name: "inception_3c/pool"
  type: "Pooling"
  bottom: "inception_3b/output"
  top: "inception_3c/pool"
  pooling_param {
    pool: MAX
    kernel_size: 3
    stride: 2
  }
}
layer {
  name: "inception_3c/output"
  type: "Concat"
  bottom: "inception_3c/3x3_bn"
  bottom: "inception_3c/double_3x3_2_bn"
  bottom: "inception_3c/pool"
  top: "inception_3c/output"
}
layer {
  name: "inception_4a/1x1"
  type: "Convolution"
  bottom: "inception_3c/output"
  top: "inception_4a/1x1"
  param {
    lr_mult: 1
    decay_mult: 1
  }
  param {
    lr_mult: 2
    decay_mult: 0
  }
  convolution_param {
    num_output: 224
    kernel_size: 1
    weight_filler {
      type: "xavier"
    }
    bias_filler {
      type: "constant"
      value: 0.2
    }
  }
}
layer {
  name: "inception_4a/1x1_bn"
  type: "BN"
  bottom: "inception_4a/1x1"
  top: "inception_4a/1x1_bn"
  param {
    lr_mult: 1
    decay_mult: 0
  }
  param {
    lr_mult: 1
    decay_mult: 0
  }
  bn_param {
    slope_filler {
      type: "constant"
      value: 1
    }
    bias_filler {
      type: "constant"
      value: 0
    }
    frozen: true
  }
}
layer {
  name: "inception_4a/relu_1x1"
  type: "ReLU"
  bottom: "inception_4a/1x1_bn"
  top: "inception_4a/1x1_bn"
}
layer {
  name: "inception_4a/3x3_reduce"
  type: "Convolution"
  bottom: "inception_3c/output"
  top: "inception_4a/3x3_reduce"
  param {
    lr_mult: 1
    decay_mult: 1
  }
  param {
    lr_mult: 2
    decay_mult: 0
  }
  convolution_param {
    num_output: 64
    kernel_size: 1
    weight_filler {
      type: "xavier"
    }
    bias_filler {
      type: "constant"
      value: 0.2
    }
  }
}
layer {
  name: "inception_4a/3x3_reduce_bn"
  type: "BN"
  bottom: "inception_4a/3x3_reduce"
  top: "inception_4a/3x3_reduce_bn"
  param {
    lr_mult: 1
    decay_mult: 0
  }
  param {
    lr_mult: 1
    decay_mult: 0
  }
  bn_param {
    slope_filler {
      type: "constant"
      value: 1
    }
    bias_filler {
      type: "constant"
      value: 0
    }
    frozen: true
  }
}
layer {
  name: "inception_4a/relu_3x3_reduce"
  type: "ReLU"
  bottom: "inception_4a/3x3_reduce_bn"
  top: "inception_4a/3x3_reduce_bn"
}
layer {
  name: "inception_4a/3x3"
  type: "Convolution"
  bottom: "inception_4a/3x3_reduce_bn"
  top: "inception_4a/3x3"
  param {
    lr_mult: 1
    decay_mult: 1
  }
  param {
    lr_mult: 2
    decay_mult: 0
  }
  convolution_param {
    num_output: 96
    pad: 1
    kernel_size: 3
    weight_filler {
      type: "xavier"
    }
    bias_filler {
      type: "constant"
      value: 0.2
    }
  }
}
layer {
  name: "inception_4a/3x3_bn"
  type: "BN"
  bottom: "inception_4a/3x3"
  top: "inception_4a/3x3_bn"
  param {
    lr_mult: 1
    decay_mult: 0
  }
  param {
    lr_mult: 1
    decay_mult: 0
  }
  bn_param {
    slope_filler {
      type: "constant"
      value: 1
    }
    bias_filler {
      type: "constant"
      value: 0
    }
    frozen: true
  }
}
layer {
  name: "inception_4a/relu_3x3"
  type: "ReLU"
  bottom: "inception_4a/3x3_bn"
  top: "inception_4a/3x3_bn"
}
layer {
  name: "inception_4a/double_3x3_reduce"
  type: "Convolution"
  bottom: "inception_3c/output"
  top: "inception_4a/double_3x3_reduce"
  param {
    lr_mult: 1
    decay_mult: 1
  }
  param {
    lr_mult: 2
    decay_mult: 0
  }
  convolution_param {
    num_output: 96
    kernel_size: 1
    weight_filler {
      type: "xavier"
    }
    bias_filler {
      type: "constant"
      value: 0.2
    }
  }
}
layer {
  name: "inception_4a/double_3x3_reduce_bn"
  type: "BN"
  bottom: "inception_4a/double_3x3_reduce"
  top: "inception_4a/double_3x3_reduce_bn"
  param {
    lr_mult: 1
    decay_mult: 0
  }
  param {
    lr_mult: 1
    decay_mult: 0
  }
  bn_param {
    slope_filler {
      type: "constant"
      value: 1
    }
    bias_filler {
      type: "constant"
      value: 0
    }
    frozen: true
  }
}
layer {
  name: "inception_4a/relu_double_3x3_reduce"
  type: "ReLU"
  bottom: "inception_4a/double_3x3_reduce_bn"
  top: "inception_4a/double_3x3_reduce_bn"
}
layer {
  name: "inception_4a/double_3x3_1"
  type: "Convolution"
  bottom: "inception_4a/double_3x3_reduce_bn"
  top: "inception_4a/double_3x3_1"
  param {
    lr_mult: 1
    decay_mult: 1
  }
  param {
    lr_mult: 2
    decay_mult: 0
  }
  convolution_param {
    num_output: 128
    pad: 1
    kernel_size: 3
    weight_filler {
      type: "xavier"
    }
    bias_filler {
      type: "constant"
      value: 0.2
    }
  }
}
layer {
  name: "inception_4a/double_3x3_1_bn"
  type: "BN"
  bottom: "inception_4a/double_3x3_1"
  top: "inception_4a/double_3x3_1_bn"
  param {
    lr_mult: 1
    decay_mult: 0
  }
  param {
    lr_mult: 1
    decay_mult: 0
  }
  bn_param {
    slope_filler {
      type: "constant"
      value: 1
    }
    bias_filler {
      type: "constant"
      value: 0
    }
    frozen: true
  }
}
layer {
  name: "inception_4a/relu_double_3x3_1"
  type: "ReLU"
  bottom: "inception_4a/double_3x3_1_bn"
  top: "inception_4a/double_3x3_1_bn"
}
layer {
  name: "inception_4a/double_3x3_2"
  type: "Convolution"
  bottom: "inception_4a/double_3x3_1_bn"
  top: "inception_4a/double_3x3_2"
  param {
    lr_mult: 1
    decay_mult: 1
  }
  param {
    lr_mult: 2
    decay_mult: 0
  }
  convolution_param {
    num_output: 128
    pad: 1
    kernel_size: 3
    weight_filler {
      type: "xavier"
    }
    bias_filler {
      type: "constant"
      value: 0.2
    }
  }
}
layer {
  name: "inception_4a/double_3x3_2_bn"
  type: "BN"
  bottom: "inception_4a/double_3x3_2"
  top: "inception_4a/double_3x3_2_bn"
  param {
    lr_mult: 1
    decay_mult: 0
  }
  param {
    lr_mult: 1
    decay_mult: 0
  }
  bn_param {
    slope_filler {
      type: "constant"
      value: 1
    }
    bias_filler {
      type: "constant"
      value: 0
    }
    frozen: true
  }
}
layer {
  name: "inception_4a/relu_double_3x3_2"
  type: "ReLU"
  bottom: "inception_4a/double_3x3_2_bn"
  top: "inception_4a/double_3x3_2_bn"
}
layer {
  name: "inception_4a/pool"
  type: "Pooling"
  bottom: "inception_3c/output"
  top: "inception_4a/pool"
  pooling_param {
    pool: AVE
    kernel_size: 3
    stride: 1
    pad: 1
  }
}
layer {
  name: "inception_4a/pool_proj"
  type: "Convolution"
  bottom: "inception_4a/pool"
  top: "inception_4a/pool_proj"
  param {
    lr_mult: 1
    decay_mult: 1
  }
  param {
    lr_mult: 2
    decay_mult: 0
  }
  convolution_param {
    num_output: 128
    kernel_size: 1
    weight_filler {
      type: "xavier"
    }
    bias_filler {
      type: "constant"
      value: 0.2
    }
  }
}
layer {
  name: "inception_4a/pool_proj_bn"
  type: "BN"
  bottom: "inception_4a/pool_proj"
  top: "inception_4a/pool_proj_bn"
  param {
    lr_mult: 1
    decay_mult: 0
  }
  param {
    lr_mult: 1
    decay_mult: 0
  }
  bn_param {
    slope_filler {
      type: "constant"
      value: 1
    }
    bias_filler {
      type: "constant"
      value: 0
    }
    frozen: true
  }
}
layer {
  name: "inception_4a/relu_pool_proj"
  type: "ReLU"
  bottom: "inception_4a/pool_proj_bn"
  top: "inception_4a/pool_proj_bn"
}
layer {
  name: "inception_4a/output"
  type: "Concat"
  bottom: "inception_4a/1x1_bn"
  bottom: "inception_4a/3x3_bn"
  bottom: "inception_4a/double_3x3_2_bn"
  bottom: "inception_4a/pool_proj_bn"
  top: "inception_4a/output"
}
layer {
  name: "inception_4b/1x1"
  type: "Convolution"
  bottom: "inception_4a/output"
  top: "inception_4b/1x1"
  param {
    lr_mult: 1
    decay_mult: 1
  }
  param {
    lr_mult: 2
    decay_mult: 0
  }
  convolution_param {
    num_output: 192
    kernel_size: 1
    weight_filler {
      type: "xavier"
    }
    bias_filler {
      type: "constant"
      value: 0.2
    }
  }
}
layer {
  name: "inception_4b/1x1_bn"
  type: "BN"
  bottom: "inception_4b/1x1"
  top: "inception_4b/1x1_bn"
  param {
    lr_mult: 1
    decay_mult: 0
  }
  param {
    lr_mult: 1
    decay_mult: 0
  }
  bn_param {
    slope_filler {
      type: "constant"
      value: 1
    }
    bias_filler {
      type: "constant"
      value: 0
    }
    frozen: true
  }
}
layer {
  name: "inception_4b/relu_1x1"
  type: "ReLU"
  bottom: "inception_4b/1x1_bn"
  top: "inception_4b/1x1_bn"
}
layer {
  name: "inception_4b/3x3_reduce"
  type: "Convolution"
  bottom: "inception_4a/output"
  top: "inception_4b/3x3_reduce"
  param {
    lr_mult: 1
    decay_mult: 1
  }
  param {
    lr_mult: 2
    decay_mult: 
I0107 20:30:37.290609 14840 net.cpp:417] Input 0 -> data
I0107 20:30:37.290638 14840 layer_factory.hpp:74] Creating layer conv1/7x7_s2
I0107 20:30:37.290648 14840 net.cpp:96] Creating Layer conv1/7x7_s2
I0107 20:30:37.290652 14840 net.cpp:459] conv1/7x7_s2 <- data
I0107 20:30:37.290657 14840 net.cpp:415] conv1/7x7_s2 -> conv1/7x7_s2
I0107 20:30:37.290663 14840 net.cpp:160] Setting up conv1/7x7_s2
I0107 20:30:37.291010 14840 net.cpp:167] Top shape: 1 64 112 112 (802816)
I0107 20:30:37.291020 14840 layer_factory.hpp:74] Creating layer conv1/7x7_s2_bn
I0107 20:30:37.291023 14840 layer_factory.cpp:177] Layer conv1/7x7_s2_bn is using CAFFE engine.
I0107 20:30:37.291028 14840 net.cpp:96] Creating Layer conv1/7x7_s2_bn
I0107 20:30:37.291031 14840 net.cpp:459] conv1/7x7_s2_bn <- conv1/7x7_s2
I0107 20:30:37.291035 14840 net.cpp:415] conv1/7x7_s2_bn -> conv1/7x7_s2_bn
I0107 20:30:37.291040 14840 net.cpp:160] Setting up conv1/7x7_s2_bn
I0107 20:30:37.291067 14840 net.cpp:167] Top shape: 1 64 112 112 (802816)
I0107 20:30:37.291074 14840 layer_factory.hpp:74] Creating layer conv1/relu_7x7
I0107 20:30:37.291079 14840 net.cpp:96] Creating Layer conv1/relu_7x7
I0107 20:30:37.291082 14840 net.cpp:459] conv1/relu_7x7 <- conv1/7x7_s2_bn
I0107 20:30:37.291085 14840 net.cpp:404] conv1/relu_7x7 -> conv1/7x7_s2_bn (in-place)
I0107 20:30:37.291090 14840 net.cpp:160] Setting up conv1/relu_7x7
I0107 20:30:37.291093 14840 net.cpp:167] Top shape: 1 64 112 112 (802816)
I0107 20:30:37.291096 14840 layer_factory.hpp:74] Creating layer pool1/3x3_s2
I0107 20:30:37.291100 14840 net.cpp:96] Creating Layer pool1/3x3_s2
I0107 20:30:37.291102 14840 net.cpp:459] pool1/3x3_s2 <- conv1/7x7_s2_bn
I0107 20:30:37.291105 14840 net.cpp:415] pool1/3x3_s2 -> pool1/3x3_s2
I0107 20:30:37.291110 14840 net.cpp:160] Setting up pool1/3x3_s2
I0107 20:30:37.291115 14840 net.cpp:167] Top shape: 1 64 56 56 (200704)
I0107 20:30:37.291117 14840 layer_factory.hpp:74] Creating layer conv2/3x3_reduce
I0107 20:30:37.291122 14840 net.cpp:96] Creating Layer conv2/3x3_reduce
I0107 20:30:37.291124 14840 net.cpp:459] conv2/3x3_reduce <- pool1/3x3_s2
I0107 20:30:37.291128 14840 net.cpp:415] conv2/3x3_reduce -> conv2/3x3_reduce
I0107 20:30:37.291132 14840 net.cpp:160] Setting up conv2/3x3_reduce
I0107 20:30:37.291162 14840 net.cpp:167] Top shape: 1 64 56 56 (200704)
I0107 20:30:37.291167 14840 layer_factory.hpp:74] Creating layer conv2/3x3_reduce_bn
I0107 20:30:37.291169 14840 layer_factory.cpp:177] Layer conv2/3x3_reduce_bn is using CAFFE engine.
I0107 20:30:37.291173 14840 net.cpp:96] Creating Layer conv2/3x3_reduce_bn
I0107 20:30:37.291175 14840 net.cpp:459] conv2/3x3_reduce_bn <- conv2/3x3_reduce
I0107 20:30:37.291179 14840 net.cpp:415] conv2/3x3_reduce_bn -> conv2/3x3_reduce_bn
I0107 20:30:37.291187 14840 net.cpp:160] Setting up conv2/3x3_reduce_bn
I0107 20:30:37.291200 14840 net.cpp:167] Top shape: 1 64 56 56 (200704)
I0107 20:30:37.291206 14840 layer_factory.hpp:74] Creating layer conv2/relu_3x3_reduce
I0107 20:30:37.291210 14840 net.cpp:96] Creating Layer conv2/relu_3x3_reduce
I0107 20:30:37.291213 14840 net.cpp:459] conv2/relu_3x3_reduce <- conv2/3x3_reduce_bn
I0107 20:30:37.291216 14840 net.cpp:404] conv2/relu_3x3_reduce -> conv2/3x3_reduce_bn (in-place)
I0107 20:30:37.291219 14840 net.cpp:160] Setting up conv2/relu_3x3_reduce
I0107 20:30:37.291224 14840 net.cpp:167] Top shape: 1 64 56 56 (200704)
I0107 20:30:37.291225 14840 layer_factory.hpp:74] Creating layer conv2/3x3
I0107 20:30:37.291232 14840 net.cpp:96] Creating Layer conv2/3x3
I0107 20:30:37.291235 14840 net.cpp:459] conv2/3x3 <- conv2/3x3_reduce_bn
I0107 20:30:37.291239 14840 net.cpp:415] conv2/3x3 -> conv2/3x3
I0107 20:30:37.291244 14840 net.cpp:160] Setting up conv2/3x3
I0107 20:30:37.291730 14840 net.cpp:167] Top shape: 1 192 56 56 (602112)
I0107 20:30:37.291736 14840 layer_factory.hpp:74] Creating layer conv2/3x3_bn
I0107 20:30:37.291739 14840 layer_factory.cpp:177] Layer conv2/3x3_bn is using CAFFE engine.
I0107 20:30:37.291745 14840 net.cpp:96] Creating Layer conv2/3x3_bn
I0107 20:30:37.291748 14840 net.cpp:459] conv2/3x3_bn <- conv2/3x3
I0107 20:30:37.291751 14840 net.cpp:415] conv2/3x3_bn -> conv2/3x3_bn
I0107 20:30:37.291756 14840 net.cpp:160] Setting up conv2/3x3_bn
I0107 20:30:37.291769 14840 net.cpp:167] Top shape: 1 192 56 56 (602112)
I0107 20:30:37.291776 14840 layer_factory.hpp:74] Creating layer conv2/relu_3x3
I0107 20:30:37.291780 14840 net.cpp:96] Creating Layer conv2/relu_3x3
I0107 20:30:37.291784 14840 net.cpp:459] conv2/relu_3x3 <- conv2/3x3_bn
I0107 20:30:37.291786 14840 net.cpp:404] conv2/relu_3x3 -> conv2/3x3_bn (in-place)
I0107 20:30:37.291790 14840 net.cpp:160] Setting up conv2/relu_3x3
I0107 20:30:37.291793 14840 net.cpp:167] Top shape: 1 192 56 56 (602112)
I0107 20:30:37.291795 14840 layer_factory.hpp:74] Creating layer pool2/3x3_s2
I0107 20:30:37.291800 14840 net.cpp:96] Creating Layer pool2/3x3_s2
I0107 20:30:37.291801 14840 net.cpp:459] pool2/3x3_s2 <- conv2/3x3_bn
I0107 20:30:37.291806 14840 net.cpp:415] pool2/3x3_s2 -> pool2/3x3_s2
I0107 20:30:37.291811 14840 net.cpp:160] Setting up pool2/3x3_s2
I0107 20:30:37.291815 14840 net.cpp:167] Top shape: 1 192 28 28 (150528)
I0107 20:30:37.291818 14840 layer_factory.hpp:74] Creating layer pool2/3x3_s2_pool2/3x3_s2_0_split
I0107 20:30:37.291822 14840 net.cpp:96] Creating Layer pool2/3x3_s2_pool2/3x3_s2_0_split
I0107 20:30:37.291826 14840 net.cpp:459] pool2/3x3_s2_pool2/3x3_s2_0_split <- pool2/3x3_s2
I0107 20:30:37.291828 14840 net.cpp:415] pool2/3x3_s2_pool2/3x3_s2_0_split -> pool2/3x3_s2_pool2/3x3_s2_0_split_0
I0107 20:30:37.291832 14840 net.cpp:415] pool2/3x3_s2_pool2/3x3_s2_0_split -> pool2/3x3_s2_pool2/3x3_s2_0_split_1
I0107 20:30:37.291836 14840 net.cpp:415] pool2/3x3_s2_pool2/3x3_s2_0_split -> pool2/3x3_s2_pool2/3x3_s2_0_split_2
I0107 20:30:37.291841 14840 net.cpp:415] pool2/3x3_s2_pool2/3x3_s2_0_split -> pool2/3x3_s2_pool2/3x3_s2_0_split_3
I0107 20:30:37.291844 14840 net.cpp:160] Setting up pool2/3x3_s2_pool2/3x3_s2_0_split
I0107 20:30:37.291848 14840 net.cpp:167] Top shape: 1 192 28 28 (150528)
I0107 20:30:37.291852 14840 net.cpp:167] Top shape: 1 192 28 28 (150528)
I0107 20:30:37.291854 14840 net.cpp:167] Top shape: 1 192 28 28 (150528)
I0107 20:30:37.291857 14840 net.cpp:167] Top shape: 1 192 28 28 (150528)
I0107 20:30:37.291860 14840 layer_factory.hpp:74] Creating layer inception_3a/1x1
I0107 20:30:37.291865 14840 net.cpp:96] Creating Layer inception_3a/1x1
I0107 20:30:37.291868 14840 net.cpp:459] inception_3a/1x1 <- pool2/3x3_s2_pool2/3x3_s2_0_split_0
I0107 20:30:37.291872 14840 net.cpp:415] inception_3a/1x1 -> inception_3a/1x1
I0107 20:30:37.291877 14840 net.cpp:160] Setting up inception_3a/1x1
I0107 20:30:37.291937 14840 net.cpp:167] Top shape: 1 64 28 28 (50176)
I0107 20:30:37.291942 14840 layer_factory.hpp:74] Creating layer inception_3a/1x1_bn
I0107 20:30:37.291947 14840 layer_factory.cpp:177] Layer inception_3a/1x1_bn is using CAFFE engine.
I0107 20:30:37.291951 14840 net.cpp:96] Creating Layer inception_3a/1x1_bn
I0107 20:30:37.291954 14840 net.cpp:459] inception_3a/1x1_bn <- inception_3a/1x1
I0107 20:30:37.291961 14840 net.cpp:415] inception_3a/1x1_bn -> inception_3a/1x1_bn
I0107 20:30:37.291965 14840 net.cpp:160] Setting up inception_3a/1x1_bn
I0107 20:30:37.291977 14840 net.cpp:167] Top shape: 1 64 28 28 (50176)
I0107 20:30:37.291983 14840 layer_factory.hpp:74] Creating layer inception_3a/relu_1x1
I0107 20:30:37.291987 14840 net.cpp:96] Creating Layer inception_3a/relu_1x1
I0107 20:30:37.291990 14840 net.cpp:459] inception_3a/relu_1x1 <- inception_3a/1x1_bn
I0107 20:30:37.291993 14840 net.cpp:404] inception_3a/relu_1x1 -> inception_3a/1x1_bn (in-place)
I0107 20:30:37.291997 14840 net.cpp:160] Setting up inception_3a/relu_1x1
I0107 20:30:37.292001 14840 net.cpp:167] Top shape: 1 64 28 28 (50176)
I0107 20:30:37.292003 14840 layer_factory.hpp:74] Creating layer inception_3a/3x3_reduce
I0107 20:30:37.292008 14840 net.cpp:96] Creating Layer inception_3a/3x3_reduce
I0107 20:30:37.292011 14840 net.cpp:459] inception_3a/3x3_reduce <- pool2/3x3_s2_pool2/3x3_s2_0_split_1
I0107 20:30:37.292014 14840 net.cpp:415] inception_3a/3x3_reduce -> inception_3a/3x3_reduce
I0107 20:30:37.292018 14840 net.cpp:160] Setting up inception_3a/3x3_reduce
I0107 20:30:37.292078 14840 net.cpp:167] Top shape: 1 64 28 28 (50176)
I0107 20:30:37.292083 14840 layer_factory.hpp:74] Creating layer inception_3a/3x3_reduce_bn
I0107 20:30:37.292085 14840 layer_factory.cpp:177] Layer inception_3a/3x3_reduce_bn is using CAFFE engine.
I0107 20:30:37.292090 14840 net.cpp:96] Creating Layer inception_3a/3x3_reduce_bn
I0107 20:30:37.292093 14840 net.cpp:459] inception_3a/3x3_reduce_bn <- inception_3a/3x3_reduce
I0107 20:30:37.292098 14840 net.cpp:415] inception_3a/3x3_reduce_bn -> inception_3a/3x3_reduce_bn
I0107 20:30:37.292104 14840 net.cpp:160] Setting up inception_3a/3x3_reduce_bn
I0107 20:30:37.292114 14840 net.cpp:167] Top shape: 1 64 28 28 (50176)
I0107 20:30:37.292119 14840 layer_factory.hpp:74] Creating layer inception_3a/relu_3x3_reduce
I0107 20:30:37.292124 14840 net.cpp:96] Creating Layer inception_3a/relu_3x3_reduce
I0107 20:30:37.292125 14840 net.cpp:459] inception_3a/relu_3x3_reduce <- inception_3a/3x3_reduce_bn
I0107 20:30:37.292129 14840 net.cpp:404] inception_3a/relu_3x3_reduce -> inception_3a/3x3_reduce_bn (in-place)
I0107 20:30:37.292132 14840 net.cpp:160] Setting up inception_3a/relu_3x3_reduce
I0107 20:30:37.292135 14840 net.cpp:167] Top shape: 1 64 28 28 (50176)
I0107 20:30:37.292138 14840 layer_factory.hpp:74] Creating layer inception_3a/3x3
I0107 20:30:37.292142 14840 net.cpp:96] Creating Layer inception_3a/3x3
I0107 20:30:37.292145 14840 net.cpp:459] inception_3a/3x3 <- inception_3a/3x3_reduce_bn
I0107 20:30:37.292150 14840 net.cpp:415] inception_3a/3x3 -> inception_3a/3x3
I0107 20:30:37.292153 14840 net.cpp:160] Setting up inception_3a/3x3
I0107 20:30:37.292320 14840 net.cpp:167] Top shape: 1 64 28 28 (50176)
I0107 20:30:37.292325 14840 layer_factory.hpp:74] Creating layer inception_3a/3x3_bn
I0107 20:30:37.292327 14840 layer_factory.cpp:177] Layer inception_3a/3x3_bn is using CAFFE engine.
I0107 20:30:37.292331 14840 net.cpp:96] Creating Layer inception_3a/3x3_bn
I0107 20:30:37.292335 14840 net.cpp:459] inception_3a/3x3_bn <- inception_3a/3x3
I0107 20:30:37.292340 14840 net.cpp:415] inception_3a/3x3_bn -> inception_3a/3x3_bn
I0107 20:30:37.292343 14840 net.cpp:160] Setting up inception_3a/3x3_bn
I0107 20:30:37.292353 14840 net.cpp:167] Top shape: 1 64 28 28 (50176)
I0107 20:30:37.292361 14840 layer_factory.hpp:74] Creating layer inception_3a/relu_3x3
I0107 20:30:37.292366 14840 net.cpp:96] Creating Layer inception_3a/relu_3x3
I0107 20:30:37.292368 14840 net.cpp:459] inception_3a/relu_3x3 <- inception_3a/3x3_bn
I0107 20:30:37.292371 14840 net.cpp:404] inception_3a/relu_3x3 -> inception_3a/3x3_bn (in-place)
I0107 20:30:37.292376 14840 net.cpp:160] Setting up inception_3a/relu_3x3
I0107 20:30:37.292382 14840 net.cpp:167] Top shape: 1 64 28 28 (50176)
I0107 20:30:37.292385 14840 layer_factory.hpp:74] Creating layer inception_3a/double_3x3_reduce
I0107 20:30:37.292390 14840 net.cpp:96] Creating Layer inception_3a/double_3x3_reduce
I0107 20:30:37.292393 14840 net.cpp:459] inception_3a/double_3x3_reduce <- pool2/3x3_s2_pool2/3x3_s2_0_split_2
I0107 20:30:37.292397 14840 net.cpp:415] inception_3a/double_3x3_reduce -> inception_3a/double_3x3_reduce
I0107 20:30:37.292402 14840 net.cpp:160] Setting up inception_3a/double_3x3_reduce
I0107 20:30:37.292460 14840 net.cpp:167] Top shape: 1 64 28 28 (50176)
I0107 20:30:37.292465 14840 layer_factory.hpp:74] Creating layer inception_3a/double_3x3_reduce_bn
I0107 20:30:37.292469 14840 layer_factory.cpp:177] Layer inception_3a/double_3x3_reduce_bn is using CAFFE engine.
I0107 20:30:37.292472 14840 net.cpp:96] Creating Layer inception_3a/double_3x3_reduce_bn
I0107 20:30:37.292475 14840 net.cpp:459] inception_3a/double_3x3_reduce_bn <- inception_3a/double_3x3_reduce
I0107 20:30:37.292479 14840 net.cpp:415] inception_3a/double_3x3_reduce_bn -> inception_3a/double_3x3_reduce_bn
I0107 20:30:37.292484 14840 net.cpp:160] Setting up inception_3a/double_3x3_reduce_bn
I0107 20:30:37.292493 14840 net.cpp:167] Top shape: 1 64 28 28 (50176)
I0107 20:30:37.292498 14840 layer_factory.hpp:74] Creating layer inception_3a/relu_double_3x3_reduce
I0107 20:30:37.292502 14840 net.cpp:96] Creating Layer inception_3a/relu_double_3x3_reduce
I0107 20:30:37.292505 14840 net.cpp:459] inception_3a/relu_double_3x3_reduce <- inception_3a/double_3x3_reduce_bn
I0107 20:30:37.292508 14840 net.cpp:404] inception_3a/relu_double_3x3_reduce -> inception_3a/double_3x3_reduce_bn (in-place)
I0107 20:30:37.292512 14840 net.cpp:160] Setting up inception_3a/relu_double_3x3_reduce
I0107 20:30:37.292515 14840 net.cpp:167] Top shape: 1 64 28 28 (50176)
I0107 20:30:37.292518 14840 layer_factory.hpp:74] Creating layer inception_3a/double_3x3_1
I0107 20:30:37.292521 14840 net.cpp:96] Creating Layer inception_3a/double_3x3_1
I0107 20:30:37.292524 14840 net.cpp:459] inception_3a/double_3x3_1 <- inception_3a/double_3x3_reduce_bn
I0107 20:30:37.292528 14840 net.cpp:415] inception_3a/double_3x3_1 -> inception_3a/double_3x3_1
I0107 20:30:37.292532 14840 net.cpp:160] Setting up inception_3a/double_3x3_1
I0107 20:30:37.292780 14840 net.cpp:167] Top shape: 1 96 28 28 (75264)
I0107 20:30:37.292785 14840 layer_factory.hpp:74] Creating layer inception_3a/double_3x3_1_bn
I0107 20:30:37.292788 14840 layer_factory.cpp:177] Layer inception_3a/double_3x3_1_bn is using CAFFE engine.
I0107 20:30:37.292793 14840 net.cpp:96] Creating Layer inception_3a/double_3x3_1_bn
I0107 20:30:37.292795 14840 net.cpp:459] inception_3a/double_3x3_1_bn <- inception_3a/double_3x3_1
I0107 20:30:37.292799 14840 net.cpp:415] inception_3a/double_3x3_1_bn -> inception_3a/double_3x3_1_bn
I0107 20:30:37.292804 14840 net.cpp:160] Setting up inception_3a/double_3x3_1_bn
I0107 20:30:37.292814 14840 net.cpp:167] Top shape: 1 96 28 28 (75264)
I0107 20:30:37.292819 14840 layer_factory.hpp:74] Creating layer inception_3a/relu_double_3x3_1
I0107 20:30:37.292822 14840 net.cpp:96] Creating Layer inception_3a/relu_double_3x3_1
I0107 20:30:37.292825 14840 net.cpp:459] inception_3a/relu_double_3x3_1 <- inception_3a/double_3x3_1_bn
I0107 20:30:37.292829 14840 net.cpp:404] inception_3a/relu_double_3x3_1 -> inception_3a/double_3x3_1_bn (in-place)
I0107 20:30:37.292834 14840 net.cpp:160] Setting up inception_3a/relu_double_3x3_1
I0107 20:30:37.292836 14840 net.cpp:167] Top shape: 1 96 28 28 (75264)
I0107 20:30:37.292840 14840 layer_factory.hpp:74] Creating layer inception_3a/double_3x3_2
I0107 20:30:37.292842 14840 net.cpp:96] Creating Layer inception_3a/double_3x3_2
I0107 20:30:37.292845 14840 net.cpp:459] inception_3a/double_3x3_2 <- inception_3a/double_3x3_1_bn
I0107 20:30:37.292850 14840 net.cpp:415] inception_3a/double_3x3_2 -> inception_3a/double_3x3_2
I0107 20:30:37.292853 14840 net.cpp:160] Setting up inception_3a/double_3x3_2
I0107 20:30:37.293222 14840 net.cpp:167] Top shape: 1 96 28 28 (75264)
I0107 20:30:37.293227 14840 layer_factory.hpp:74] Creating layer inception_3a/double_3x3_2_bn
I0107 20:30:37.293231 14840 layer_factory.cpp:177] Layer inception_3a/double_3x3_2_bn is using CAFFE engine.
I0107 20:30:37.293234 14840 net.cpp:96] Creating Layer inception_3a/double_3x3_2_bn
I0107 20:30:37.293237 14840 net.cpp:459] inception_3a/double_3x3_2_bn <- inception_3a/double_3x3_2
I0107 20:30:37.293241 14840 net.cpp:415] inception_3a/double_3x3_2_bn -> inception_3a/double_3x3_2_bn
I0107 20:30:37.293246 14840 net.cpp:160] Setting up inception_3a/double_3x3_2_bn
I0107 20:30:37.293256 14840 net.cpp:167] Top shape: 1 96 28 28 (75264)
I0107 20:30:37.293262 14840 layer_factory.hpp:74] Creating layer inception_3a/relu_double_3x3_2
I0107 20:30:37.293265 14840 net.cpp:96] Creating Layer inception_3a/relu_double_3x3_2
I0107 20:30:37.293268 14840 net.cpp:459] inception_3a/relu_double_3x3_2 <- inception_3a/double_3x3_2_bn
I0107 20:30:37.293272 14840 net.cpp:404] inception_3a/relu_double_3x3_2 -> inception_3a/double_3x3_2_bn (in-place)
I0107 20:30:37.293275 14840 net.cpp:160] Setting up inception_3a/relu_double_3x3_2
I0107 20:30:37.293279 14840 net.cpp:167] Top shape: 1 96 28 28 (75264)
I0107 20:30:37.293282 14840 layer_factory.hpp:74] Creating layer inception_3a/pool
I0107 20:30:37.293285 14840 net.cpp:96] Creating Layer inception_3a/pool
I0107 20:30:37.293288 14840 net.cpp:459] inception_3a/pool <- pool2/3x3_s2_pool2/3x3_s2_0_split_3
I0107 20:30:37.293292 14840 net.cpp:415] inception_3a/pool -> inception_3a/pool
I0107 20:30:37.293295 14840 net.cpp:160] Setting up inception_3a/pool
I0107 20:30:37.293299 14840 net.cpp:167] Top shape: 1 192 28 28 (150528)
I0107 20:30:37.293303 14840 layer_factory.hpp:74] Creating layer inception_3a/pool_proj
I0107 20:30:37.293306 14840 net.cpp:96] Creating Layer inception_3a/pool_proj
I0107 20:30:37.293309 14840 net.cpp:459] inception_3a/pool_proj <- inception_3a/pool
I0107 20:30:37.293313 14840 net.cpp:415] inception_3a/pool_proj -> inception_3a/pool_proj
I0107 20:30:37.293318 14840 net.cpp:160] Setting up inception_3a/pool_proj
I0107 20:30:37.293350 14840 net.cpp:167] Top shape: 1 32 28 28 (25088)
I0107 20:30:37.293355 14840 layer_factory.hpp:74] Creating layer inception_3a/pool_proj_bn
I0107 20:30:37.293359 14840 layer_factory.cpp:177] Layer inception_3a/pool_proj_bn is using CAFFE engine.
I0107 20:30:37.293365 14840 net.cpp:96] Creating Layer inception_3a/pool_proj_bn
I0107 20:30:37.293366 14840 net.cpp:459] inception_3a/pool_proj_bn <- inception_3a/pool_proj
I0107 20:30:37.293370 14840 net.cpp:415] inception_3a/pool_proj_bn -> inception_3a/pool_proj_bn
I0107 20:30:37.293375 14840 net.cpp:160] Setting up inception_3a/pool_proj_bn
I0107 20:30:37.293385 14840 net.cpp:167] Top shape: 1 32 28 28 (25088)
I0107 20:30:37.293390 14840 layer_factory.hpp:74] Creating layer inception_3a/relu_pool_proj
I0107 20:30:37.293395 14840 net.cpp:96] Creating Layer inception_3a/relu_pool_proj
I0107 20:30:37.293397 14840 net.cpp:459] inception_3a/relu_pool_proj <- inception_3a/pool_proj_bn
I0107 20:30:37.293401 14840 net.cpp:404] inception_3a/relu_pool_proj -> inception_3a/pool_proj_bn (in-place)
I0107 20:30:37.293404 14840 net.cpp:160] Setting up inception_3a/relu_pool_proj
I0107 20:30:37.293407 14840 net.cpp:167] Top shape: 1 32 28 28 (25088)
I0107 20:30:37.293411 14840 layer_factory.hpp:74] Creating layer inception_3a/output
I0107 20:30:37.293414 14840 net.cpp:96] Creating Layer inception_3a/output
I0107 20:30:37.293417 14840 net.cpp:459] inception_3a/output <- inception_3a/1x1_bn
I0107 20:30:37.293421 14840 net.cpp:459] inception_3a/output <- inception_3a/3x3_bn
I0107 20:30:37.293423 14840 net.cpp:459] inception_3a/output <- inception_3a/double_3x3_2_bn
I0107 20:30:37.293426 14840 net.cpp:459] inception_3a/output <- inception_3a/pool_proj_bn
I0107 20:30:37.293429 14840 net.cpp:415] inception_3a/output -> inception_3a/output
I0107 20:30:37.293433 14840 net.cpp:160] Setting up inception_3a/output
I0107 20:30:37.293438 14840 net.cpp:167] Top shape: 1 256 28 28 (200704)
I0107 20:30:37.293443 14840 layer_factory.hpp:74] Creating layer inception_3a/output_inception_3a/output_0_split
I0107 20:30:37.293447 14840 net.cpp:96] Creating Layer inception_3a/output_inception_3a/output_0_split
I0107 20:30:37.293450 14840 net.cpp:459] inception_3a/output_inception_3a/output_0_split <- inception_3a/output
I0107 20:30:37.293454 14840 net.cpp:415] inception_3a/output_inception_3a/output_0_split -> inception_3a/output_inception_3a/output_0_split_0
I0107 20:30:37.293459 14840 net.cpp:415] inception_3a/output_inception_3a/output_0_split -> inception_3a/output_inception_3a/output_0_split_1
I0107 20:30:37.293463 14840 net.cpp:415] inception_3a/output_inception_3a/output_0_split -> inception_3a/output_inception_3a/output_0_split_2
I0107 20:30:37.293467 14840 net.cpp:415] inception_3a/output_inception_3a/output_0_split -> inception_3a/output_inception_3a/output_0_split_3
I0107 20:30:37.293473 14840 net.cpp:160] Setting up inception_3a/output_inception_3a/output_0_split
I0107 20:30:37.293478 14840 net.cpp:167] Top shape: 1 256 28 28 (200704)
I0107 20:30:37.293481 14840 net.cpp:167] Top shape: 1 256 28 28 (200704)
I0107 20:30:37.293484 14840 net.cpp:167] Top shape: 1 256 28 28 (200704)
I0107 20:30:37.293488 14840 net.cpp:167] Top shape: 1 256 28 28 (200704)
I0107 20:30:37.293490 14840 layer_factory.hpp:74] Creating layer inception_3b/1x1
I0107 20:30:37.293493 14840 net.cpp:96] Creating Layer inception_3b/1x1
I0107 20:30:37.293496 14840 net.cpp:459] inception_3b/1x1 <- inception_3a/output_inception_3a/output_0_split_0
I0107 20:30:37.293501 14840 net.cpp:415] inception_3b/1x1 -> inception_3b/1x1
I0107 20:30:37.293505 14840 net.cpp:160] Setting up inception_3b/1x1
I0107 20:30:37.293583 14840 net.cpp:167] Top shape: 1 64 28 28 (50176)
I0107 20:30:37.293588 14840 layer_factory.hpp:74] Creating layer inception_3b/1x1_bn
I0107 20:30:37.293591 14840 layer_factory.cpp:177] Layer inception_3b/1x1_bn is using CAFFE engine.
I0107 20:30:37.293596 14840 net.cpp:96] Creating Layer inception_3b/1x1_bn
I0107 20:30:37.293598 14840 net.cpp:459] inception_3b/1x1_bn <- inception_3b/1x1
I0107 20:30:37.293602 14840 net.cpp:415] inception_3b/1x1_bn -> inception_3b/1x1_bn
I0107 20:30:37.293606 14840 net.cpp:160] Setting up inception_3b/1x1_bn
I0107 20:30:37.293617 14840 net.cpp:167] Top shape: 1 64 28 28 (50176)
I0107 20:30:37.293627 14840 layer_factory.hpp:74] Creating layer inception_3b/relu_1x1
I0107 20:30:37.293632 14840 net.cpp:96] Creating Layer inception_3b/relu_1x1
I0107 20:30:37.293634 14840 net.cpp:459] inception_3b/relu_1x1 <- inception_3b/1x1_bn
I0107 20:30:37.293637 14840 net.cpp:404] inception_3b/relu_1x1 -> inception_3b/1x1_bn (in-place)
I0107 20:30:37.293642 14840 net.cpp:160] Setting up inception_3b/relu_1x1
I0107 20:30:37.293644 14840 net.cpp:167] Top shape: 1 64 28 28 (50176)
I0107 20:30:37.293648 14840 layer_factory.hpp:74] Creating layer inception_3b/3x3_reduce
I0107 20:30:37.293651 14840 net.cpp:96] Creating Layer inception_3b/3x3_reduce
I0107 20:30:37.293653 14840 net.cpp:459] inception_3b/3x3_reduce <- inception_3a/output_inception_3a/output_0_split_1
I0107 20:30:37.293658 14840 net.cpp:415] inception_3b/3x3_reduce -> inception_3b/3x3_reduce
I0107 20:30:37.293663 14840 net.cpp:160] Setting up inception_3b/3x3_reduce
I0107 20:30:37.293740 14840 net.cpp:167] Top shape: 1 64 28 28 (50176)
I0107 20:30:37.293745 14840 layer_factory.hpp:74] Creating layer inception_3b/3x3_reduce_bn
I0107 20:30:37.293747 14840 layer_factory.cpp:177] Layer inception_3b/3x3_reduce_bn is using CAFFE engine.
I0107 20:30:37.293752 14840 net.cpp:96] Creating Layer inception_3b/3x3_reduce_bn
I0107 20:30:37.293756 14840 net.cpp:459] inception_3b/3x3_reduce_bn <- inception_3b/3x3_reduce
I0107 20:30:37.293758 14840 net.cpp:415] inception_3b/3x3_reduce_bn -> inception_3b/3x3_reduce_bn
I0107 20:30:37.293762 14840 net.cpp:160] Setting up inception_3b/3x3_reduce_bn
I0107 20:30:37.293772 14840 net.cpp:167] Top shape: 1 64 28 28 (50176)
I0107 20:30:37.293781 14840 layer_factory.hpp:74] Creating layer inception_3b/relu_3x3_reduce
I0107 20:30:37.293787 14840 net.cpp:96] Creating Layer inception_3b/relu_3x3_reduce
I0107 20:30:37.293789 14840 net.cpp:459] inception_3b/relu_3x3_reduce <- inception_3b/3x3_reduce_bn
I0107 20:30:37.293792 14840 net.cpp:404] inception_3b/relu_3x3_reduce -> inception_3b/3x3_reduce_bn (in-place)
I0107 20:30:37.293797 14840 net.cpp:160] Setting up inception_3b/relu_3x3_reduce
I0107 20:30:37.293799 14840 net.cpp:167] Top shape: 1 64 28 28 (50176)
I0107 20:30:37.293802 14840 layer_factory.hpp:74] Creating layer inception_3b/3x3
I0107 20:30:37.293807 14840 net.cpp:96] Creating Layer inception_3b/3x3
I0107 20:30:37.293809 14840 net.cpp:459] inception_3b/3x3 <- inception_3b/3x3_reduce_bn
I0107 20:30:37.293813 14840 net.cpp:415] inception_3b/3x3 -> inception_3b/3x3
I0107 20:30:37.293817 14840 net.cpp:160] Setting up inception_3b/3x3
I0107 20:30:37.294071 14840 net.cpp:167] Top shape: 1 96 28 28 (75264)
I0107 20:30:37.294078 14840 layer_factory.hpp:74] Creating layer inception_3b/3x3_bn
I0107 20:30:37.294081 14840 layer_factory.cpp:177] Layer inception_3b/3x3_bn is using CAFFE engine.
I0107 20:30:37.294085 14840 net.cpp:96] Creating Layer inception_3b/3x3_bn
I0107 20:30:37.294087 14840 net.cpp:459] inception_3b/3x3_bn <- inception_3b/3x3
I0107 20:30:37.294093 14840 net.cpp:415] inception_3b/3x3_bn -> inception_3b/3x3_bn
I0107 20:30:37.294097 14840 net.cpp:160] Setting up inception_3b/3x3_bn
I0107 20:30:37.294108 14840 net.cpp:167] Top shape: 1 96 28 28 (75264)
I0107 20:30:37.294113 14840 layer_factory.hpp:74] Creating layer inception_3b/relu_3x3
I0107 20:30:37.294118 14840 net.cpp:96] Creating Layer inception_3b/relu_3x3
I0107 20:30:37.294121 14840 net.cpp:459] inception_3b/relu_3x3 <- inception_3b/3x3_bn
I0107 20:30:37.294124 14840 net.cpp:404] inception_3b/relu_3x3 -> inception_3b/3x3_bn (in-place)
I0107 20:30:37.294127 14840 net.cpp:160] Setting up inception_3b/relu_3x3
I0107 20:30:37.294131 14840 net.cpp:167] Top shape: 1 96 28 28 (75264)
I0107 20:30:37.294133 14840 layer_factory.hpp:74] Creating layer inception_3b/double_3x3_reduce
I0107 20:30:37.294138 14840 net.cpp:96] Creating Layer inception_3b/double_3x3_reduce
I0107 20:30:37.294140 14840 net.cpp:459] inception_3b/double_3x3_reduce <- inception_3a/output_inception_3a/output_0_split_2
I0107 20:30:37.294144 14840 net.cpp:415] inception_3b/double_3x3_reduce -> inception_3b/double_3x3_reduce
I0107 20:30:37.294148 14840 net.cpp:160] Setting up inception_3b/double_3x3_reduce
I0107 20:30:37.294226 14840 net.cpp:167] Top shape: 1 64 28 28 (50176)
I0107 20:30:37.294231 14840 layer_factory.hpp:74] Creating layer inception_3b/double_3x3_reduce_bn
I0107 20:30:37.294234 14840 layer_factory.cpp:177] Layer inception_3b/double_3x3_reduce_bn is using CAFFE engine.
I0107 20:30:37.294239 14840 net.cpp:96] Creating Layer inception_3b/double_3x3_reduce_bn
I0107 20:30:37.294241 14840 net.cpp:459] inception_3b/double_3x3_reduce_bn <- inception_3b/double_3x3_reduce
I0107 20:30:37.294246 14840 net.cpp:415] inception_3b/double_3x3_reduce_bn -> inception_3b/double_3x3_reduce_bn
I0107 20:30:37.294250 14840 net.cpp:160] Setting up inception_3b/double_3x3_reduce_bn
I0107 20:30:37.294260 14840 net.cpp:167] Top shape: 1 64 28 28 (50176)
I0107 20:30:37.294265 14840 layer_factory.hpp:74] Creating layer inception_3b/relu_double_3x3_reduce
I0107 20:30:37.294268 14840 net.cpp:96] Creating Layer inception_3b/relu_double_3x3_reduce
I0107 20:30:37.294271 14840 net.cpp:459] inception_3b/relu_double_3x3_reduce <- inception_3b/double_3x3_reduce_bn
I0107 20:30:37.294275 14840 net.cpp:404] inception_3b/relu_double_3x3_reduce -> inception_3b/double_3x3_reduce_bn (in-place)
I0107 20:30:37.294278 14840 net.cpp:160] Setting up inception_3b/relu_double_3x3_reduce
I0107 20:30:37.294282 14840 net.cpp:167] Top shape: 1 64 28 28 (50176)
I0107 20:30:37.294284 14840 layer_factory.hpp:74] Creating layer inception_3b/double_3x3_1
I0107 20:30:37.294288 14840 net.cpp:96] Creating Layer inception_3b/double_3x3_1
I0107 20:30:37.294291 14840 net.cpp:459] inception_3b/double_3x3_1 <- inception_3b/double_3x3_reduce_bn
I0107 20:30:37.294299 14840 net.cpp:415] inception_3b/double_3x3_1 -> inception_3b/double_3x3_1
I0107 20:30:37.294303 14840 net.cpp:160] Setting up inception_3b/double_3x3_1
I0107 20:30:37.294555 14840 net.cpp:167] Top shape: 1 96 28 28 (75264)
I0107 20:30:37.294561 14840 layer_factory.hpp:74] Creating layer inception_3b/double_3x3_1_bn
I0107 20:30:37.294564 14840 layer_factory.cpp:177] Layer inception_3b/double_3x3_1_bn is using CAFFE engine.
I0107 20:30:37.294569 14840 net.cpp:96] Creating Layer inception_3b/double_3x3_1_bn
I0107 20:30:37.294571 14840 net.cpp:459] inception_3b/double_3x3_1_bn <- inception_3b/double_3x3_1
I0107 20:30:37.294575 14840 net.cpp:415] inception_3b/double_3x3_1_bn -> inception_3b/double_3x3_1_bn
I0107 20:30:37.294579 14840 net.cpp:160] Setting up inception_3b/double_3x3_1_bn
I0107 20:30:37.294590 14840 net.cpp:167] Top shape: 1 96 28 28 (75264)
I0107 20:30:37.294595 14840 layer_factory.hpp:74] Creating layer inception_3b/relu_double_3x3_1
I0107 20:30:37.294598 14840 net.cpp:96] Creating Layer inception_3b/relu_double_3x3_1
I0107 20:30:37.294601 14840 net.cpp:459] inception_3b/relu_double_3x3_1 <- inception_3b/double_3x3_1_bn
I0107 20:30:37.294605 14840 net.cpp:404] inception_3b/relu_double_3x3_1 -> inception_3b/double_3x3_1_bn (in-place)
I0107 20:30:37.294607 14840 net.cpp:160] Setting up inception_3b/relu_double_3x3_1
I0107 20:30:37.294611 14840 net.cpp:167] Top shape: 1 96 28 28 (75264)
I0107 20:30:37.294613 14840 layer_factory.hpp:74] Creating layer inception_3b/double_3x3_2
I0107 20:30:37.294618 14840 net.cpp:96] Creating Layer inception_3b/double_3x3_2
I0107 20:30:37.294620 14840 net.cpp:459] inception_3b/double_3x3_2 <- inception_3b/double_3x3_1_bn
I0107 20:30:37.294625 14840 net.cpp:415] inception_3b/double_3x3_2 -> inception_3b/double_3x3_2
I0107 20:30:37.294630 14840 net.cpp:160] Setting up inception_3b/double_3x3_2
I0107 20:30:37.294993 14840 net.cpp:167] Top shape: 1 96 28 28 (75264)
I0107 20:30:37.294998 14840 layer_factory.hpp:74] Creating layer inception_3b/double_3x3_2_bn
I0107 20:30:37.295001 14840 layer_factory.cpp:177] Layer inception_3b/double_3x3_2_bn is using CAFFE engine.
I0107 20:30:37.295004 14840 net.cpp:96] Creating Layer inception_3b/double_3x3_2_bn
I0107 20:30:37.295007 14840 net.cpp:459] inception_3b/double_3x3_2_bn <- inception_3b/double_3x3_2
I0107 20:30:37.295012 14840 net.cpp:415] inception_3b/double_3x3_2_bn -> inception_3b/double_3x3_2_bn
I0107 20:30:37.295017 14840 net.cpp:160] Setting up inception_3b/double_3x3_2_bn
I0107 20:30:37.295027 14840 net.cpp:167] Top shape: 1 96 28 28 (75264)
I0107 20:30:37.295033 14840 layer_factory.hpp:74] Creating layer inception_3b/relu_double_3x3_2
I0107 20:30:37.295037 14840 net.cpp:96] Creating Layer inception_3b/relu_double_3x3_2
I0107 20:30:37.295039 14840 net.cpp:459] inception_3b/relu_double_3x3_2 <- inception_3b/double_3x3_2_bn
I0107 20:30:37.295043 14840 net.cpp:404] inception_3b/relu_double_3x3_2 -> inception_3b/double_3x3_2_bn (in-place)
I0107 20:30:37.295047 14840 net.cpp:160] Setting up inception_3b/relu_double_3x3_2
I0107 20:30:37.295049 14840 net.cpp:167] Top shape: 1 96 28 28 (75264)
I0107 20:30:37.295053 14840 layer_factory.hpp:74] Creating layer inception_3b/pool
I0107 20:30:37.295055 14840 net.cpp:96] Creating Layer inception_3b/pool
I0107 20:30:37.295058 14840 net.cpp:459] inception_3b/pool <- inception_3a/output_inception_3a/output_0_split_3
I0107 20:30:37.295063 14840 net.cpp:415] inception_3b/pool -> inception_3b/pool
I0107 20:30:37.295066 14840 net.cpp:160] Setting up inception_3b/pool
I0107 20:30:37.295070 14840 net.cpp:167] Top shape: 1 256 28 28 (200704)
I0107 20:30:37.295073 14840 layer_factory.hpp:74] Creating layer inception_3b/pool_proj
I0107 20:30:37.295078 14840 net.cpp:96] Creating Layer inception_3b/pool_proj
I0107 20:30:37.295080 14840 net.cpp:459] inception_3b/pool_proj <- inception_3b/pool
I0107 20:30:37.295084 14840 net.cpp:415] inception_3b/pool_proj -> inception_3b/pool_proj
I0107 20:30:37.295089 14840 net.cpp:160] Setting up inception_3b/pool_proj
I0107 20:30:37.295166 14840 net.cpp:167] Top shape: 1 64 28 28 (50176)
I0107 20:30:37.295173 14840 layer_factory.hpp:74] Creating layer inception_3b/pool_proj_bn
I0107 20:30:37.295176 14840 layer_factory.cpp:177] Layer inception_3b/pool_proj_bn is using CAFFE engine.
I0107 20:30:37.295179 14840 net.cpp:96] Creating Layer inception_3b/pool_proj_bn
I0107 20:30:37.295182 14840 net.cpp:459] inception_3b/pool_proj_bn <- inception_3b/pool_proj
I0107 20:30:37.295187 14840 net.cpp:415] inception_3b/pool_proj_bn -> inception_3b/pool_proj_bn
I0107 20:30:37.295192 14840 net.cpp:160] Setting up inception_3b/pool_proj_bn
I0107 20:30:37.295204 14840 net.cpp:167] Top shape: 1 64 28 28 (50176)
I0107 20:30:37.295209 14840 layer_factory.hpp:74] Creating layer inception_3b/relu_pool_proj
I0107 20:30:37.295212 14840 net.cpp:96] Creating Layer inception_3b/relu_pool_proj
I0107 20:30:37.295215 14840 net.cpp:459] inception_3b/relu_pool_proj <- inception_3b/pool_proj_bn
I0107 20:30:37.295219 14840 net.cpp:404] inception_3b/relu_pool_proj -> inception_3b/pool_proj_bn (in-place)
I0107 20:30:37.295223 14840 net.cpp:160] Setting up inception_3b/relu_pool_proj
I0107 20:30:37.295227 14840 net.cpp:167] Top shape: 1 64 28 28 (50176)
I0107 20:30:37.295229 14840 layer_factory.hpp:74] Creating layer inception_3b/output
I0107 20:30:37.295233 14840 net.cpp:96] Creating Layer inception_3b/output
I0107 20:30:37.295235 14840 net.cpp:459] inception_3b/output <- inception_3b/1x1_bn
I0107 20:30:37.295238 14840 net.cpp:459] inception_3b/output <- inception_3b/3x3_bn
I0107 20:30:37.295241 14840 net.cpp:459] inception_3b/output <- inception_3b/double_3x3_2_bn
I0107 20:30:37.295244 14840 net.cpp:459] inception_3b/output <- inception_3b/pool_proj_bn
I0107 20:30:37.295248 14840 net.cpp:415] inception_3b/output -> inception_3b/output
I0107 20:30:37.295253 14840 net.cpp:160] Setting up inception_3b/output
I0107 20:30:37.295258 14840 net.cpp:167] Top shape: 1 320 28 28 (250880)
I0107 20:30:37.295259 14840 layer_factory.hpp:74] Creating layer inception_3b/output_inception_3b/output_0_split
I0107 20:30:37.295264 14840 net.cpp:96] Creating Layer inception_3b/output_inception_3b/output_0_split
I0107 20:30:37.295265 14840 net.cpp:459] inception_3b/output_inception_3b/output_0_split <- inception_3b/output
I0107 20:30:37.295269 14840 net.cpp:415] inception_3b/output_inception_3b/output_0_split -> inception_3b/output_inception_3b/output_0_split_0
I0107 20:30:37.295274 14840 net.cpp:415] inception_3b/output_inception_3b/output_0_split -> inception_3b/output_inception_3b/output_0_split_1
I0107 20:30:37.295277 14840 net.cpp:415] inception_3b/output_inception_3b/output_0_split -> inception_3b/output_inception_3b/output_0_split_2
I0107 20:30:37.295281 14840 net.cpp:160] Setting up inception_3b/output_inception_3b/output_0_split
I0107 20:30:37.295285 14840 net.cpp:167] Top shape: 1 320 28 28 (250880)
I0107 20:30:37.295289 14840 net.cpp:167] Top shape: 1 320 28 28 (250880)
I0107 20:30:37.295291 14840 net.cpp:167] Top shape: 1 320 28 28 (250880)
I0107 20:30:37.295295 14840 layer_factory.hpp:74] Creating layer inception_3c/3x3_reduce
I0107 20:30:37.295300 14840 net.cpp:96] Creating Layer inception_3c/3x3_reduce
I0107 20:30:37.295302 14840 net.cpp:459] inception_3c/3x3_reduce <- inception_3b/output_inception_3b/output_0_split_0
I0107 20:30:37.295307 14840 net.cpp:415] inception_3c/3x3_reduce -> inception_3c/3x3_reduce
I0107 20:30:37.295311 14840 net.cpp:160] Setting up inception_3c/3x3_reduce
I0107 20:30:37.295495 14840 net.cpp:167] Top shape: 1 128 28 28 (100352)
I0107 20:30:37.295500 14840 layer_factory.hpp:74] Creating layer inception_3c/3x3_reduce_bn
I0107 20:30:37.295502 14840 layer_factory.cpp:177] Layer inception_3c/3x3_reduce_bn is using CAFFE engine.
I0107 20:30:37.295507 14840 net.cpp:96] Creating Layer inception_3c/3x3_reduce_bn
I0107 20:30:37.295511 14840 net.cpp:459] inception_3c/3x3_reduce_bn <- inception_3c/3x3_reduce
I0107 20:30:37.295514 14840 net.cpp:415] inception_3c/3x3_reduce_bn -> inception_3c/3x3_reduce_bn
I0107 20:30:37.295518 14840 net.cpp:160] Setting up inception_3c/3x3_reduce_bn
I0107 20:30:37.295528 14840 net.cpp:167] Top shape: 1 128 28 28 (100352)
I0107 20:30:37.295537 14840 layer_factory.hpp:74] Creating layer inception_3c/relu_3x3_reduce
I0107 20:30:37.295542 14840 net.cpp:96] Creating Layer inception_3c/relu_3x3_reduce
I0107 20:30:37.295544 14840 net.cpp:459] inception_3c/relu_3x3_reduce <- inception_3c/3x3_reduce_bn
I0107 20:30:37.295547 14840 net.cpp:404] inception_3c/relu_3x3_reduce -> inception_3c/3x3_reduce_bn (in-place)
I0107 20:30:37.295550 14840 net.cpp:160] Setting up inception_3c/relu_3x3_reduce
I0107 20:30:37.295553 14840 net.cpp:167] Top shape: 1 128 28 28 (100352)
I0107 20:30:37.295557 14840 layer_factory.hpp:74] Creating layer inception_3c/3x3
I0107 20:30:37.295560 14840 net.cpp:96] Creating Layer inception_3c/3x3
I0107 20:30:37.295562 14840 net.cpp:459] inception_3c/3x3 <- inception_3c/3x3_reduce_bn
I0107 20:30:37.295567 14840 net.cpp:415] inception_3c/3x3 -> inception_3c/3x3
I0107 20:30:37.295572 14840 net.cpp:160] Setting up inception_3c/3x3
I0107 20:30:37.296370 14840 net.cpp:167] Top shape: 1 160 14 14 (31360)
I0107 20:30:37.296376 14840 layer_factory.hpp:74] Creating layer inception_3c/3x3_bn
I0107 20:30:37.296378 14840 layer_factory.cpp:177] Layer inception_3c/3x3_bn is using CAFFE engine.
I0107 20:30:37.296386 14840 net.cpp:96] Creating Layer inception_3c/3x3_bn
I0107 20:30:37.296391 14840 net.cpp:459] inception_3c/3x3_bn <- inception_3c/3x3
I0107 20:30:37.296394 14840 net.cpp:415] inception_3c/3x3_bn -> inception_3c/3x3_bn
I0107 20:30:37.296398 14840 net.cpp:160] Setting up inception_3c/3x3_bn
I0107 20:30:37.296408 14840 net.cpp:167] Top shape: 1 160 14 14 (31360)
I0107 20:30:37.296414 14840 layer_factory.hpp:74] Creating layer inception_3c/relu_3x3
I0107 20:30:37.296418 14840 net.cpp:96] Creating Layer inception_3c/relu_3x3
I0107 20:30:37.296421 14840 net.cpp:459] inception_3c/relu_3x3 <- inception_3c/3x3_bn
I0107 20:30:37.296424 14840 net.cpp:404] inception_3c/relu_3x3 -> inception_3c/3x3_bn (in-place)
I0107 20:30:37.296427 14840 net.cpp:160] Setting up inception_3c/relu_3x3
I0107 20:30:37.296432 14840 net.cpp:167] Top shape: 1 160 14 14 (31360)
I0107 20:30:37.296433 14840 layer_factory.hpp:74] Creating layer inception_3c/double_3x3_reduce
I0107 20:30:37.296437 14840 net.cpp:96] Creating Layer inception_3c/double_3x3_reduce
I0107 20:30:37.296440 14840 net.cpp:459] inception_3c/double_3x3_reduce <- inception_3b/output_inception_3b/output_0_split_1
I0107 20:30:37.296444 14840 net.cpp:415] inception_3c/double_3x3_reduce -> inception_3c/double_3x3_reduce
I0107 20:30:37.296448 14840 net.cpp:160] Setting up inception_3c/double_3x3_reduce
I0107 20:30:37.296546 14840 net.cpp:167] Top shape: 1 64 28 28 (50176)
I0107 20:30:37.296552 14840 layer_factory.hpp:74] Creating layer inception_3c/double_3x3_reduce_bn
I0107 20:30:37.296555 14840 layer_factory.cpp:177] Layer inception_3c/double_3x3_reduce_bn is using CAFFE engine.
I0107 20:30:37.296560 14840 net.cpp:96] Creating Layer inception_3c/double_3x3_reduce_bn
I0107 20:30:37.296562 14840 net.cpp:459] inception_3c/double_3x3_reduce_bn <- inception_3c/double_3x3_reduce
I0107 20:30:37.296566 14840 net.cpp:415] inception_3c/double_3x3_reduce_bn -> inception_3c/double_3x3_reduce_bn
I0107 20:30:37.296571 14840 net.cpp:160] Setting up inception_3c/double_3x3_reduce_bn
I0107 20:30:37.296581 14840 net.cpp:167] Top shape: 1 64 28 28 (50176)
I0107 20:30:37.296586 14840 layer_factory.hpp:74] Creating layer inception_3c/relu_double_3x3_reduce
I0107 20:30:37.296589 14840 net.cpp:96] Creating Layer inception_3c/relu_double_3x3_reduce
I0107 20:30:37.296592 14840 net.cpp:459] inception_3c/relu_double_3x3_reduce <- inception_3c/double_3x3_reduce_bn
I0107 20:30:37.296596 14840 net.cpp:404] inception_3c/relu_double_3x3_reduce -> inception_3c/double_3x3_reduce_bn (in-place)
I0107 20:30:37.296598 14840 net.cpp:160] Setting up inception_3c/relu_double_3x3_reduce
I0107 20:30:37.296602 14840 net.cpp:167] Top shape: 1 64 28 28 (50176)
I0107 20:30:37.296604 14840 layer_factory.hpp:74] Creating layer inception_3c/double_3x3_1
I0107 20:30:37.296609 14840 net.cpp:96] Creating Layer inception_3c/double_3x3_1
I0107 20:30:37.296614 14840 net.cpp:459] inception_3c/double_3x3_1 <- inception_3c/double_3x3_reduce_bn
I0107 20:30:37.296618 14840 net.cpp:415] inception_3c/double_3x3_1 -> inception_3c/double_3x3_1
I0107 20:30:37.296622 14840 net.cpp:160] Setting up inception_3c/double_3x3_1
I0107 20:30:37.296869 14840 net.cpp:167] Top shape: 1 96 28 28 (75264)
I0107 20:30:37.296875 14840 layer_factory.hpp:74] Creating layer inception_3c/double_3x3_1_bn
I0107 20:30:37.296877 14840 layer_factory.cpp:177] Layer inception_3c/double_3x3_1_bn is using CAFFE engine.
I0107 20:30:37.296881 14840 net.cpp:96] Creating Layer inception_3c/double_3x3_1_bn
I0107 20:30:37.296885 14840 net.cpp:459] inception_3c/double_3x3_1_bn <- inception_3c/double_3x3_1
I0107 20:30:37.296888 14840 net.cpp:415] inception_3c/double_3x3_1_bn -> inception_3c/double_3x3_1_bn
I0107 20:30:37.296893 14840 net.cpp:160] Setting up inception_3c/double_3x3_1_bn
I0107 20:30:37.296903 14840 net.cpp:167] Top shape: 1 96 28 28 (75264)
I0107 20:30:37.296910 14840 layer_factory.hpp:74] Creating layer inception_3c/relu_double_3x3_1
I0107 20:30:37.296912 14840 net.cpp:96] Creating Layer inception_3c/relu_double_3x3_1
I0107 20:30:37.296916 14840 net.cpp:459] inception_3c/relu_double_3x3_1 <- inception_3c/double_3x3_1_bn
I0107 20:30:37.296919 14840 net.cpp:404] inception_3c/relu_double_3x3_1 -> inception_3c/double_3x3_1_bn (in-place)
I0107 20:30:37.296922 14840 net.cpp:160] Setting up inception_3c/relu_double_3x3_1
I0107 20:30:37.296926 14840 net.cpp:167] Top shape: 1 96 28 28 (75264)
I0107 20:30:37.296928 14840 layer_factory.hpp:74] Creating layer inception_3c/double_3x3_2
I0107 20:30:37.296932 14840 net.cpp:96] Creating Layer inception_3c/double_3x3_2
I0107 20:30:37.296934 14840 net.cpp:459] inception_3c/double_3x3_2 <- inception_3c/double_3x3_1_bn
I0107 20:30:37.296938 14840 net.cpp:415] inception_3c/double_3x3_2 -> inception_3c/double_3x3_2
I0107 20:30:37.296943 14840 net.cpp:160] Setting up inception_3c/double_3x3_2
I0107 20:30:37.297307 14840 net.cpp:167] Top shape: 1 96 14 14 (18816)
I0107 20:30:37.297312 14840 layer_factory.hpp:74] Creating layer inception_3c/double_3x3_2_bn
I0107 20:30:37.297314 14840 layer_factory.cpp:177] Layer inception_3c/double_3x3_2_bn is using CAFFE engine.
I0107 20:30:37.297317 14840 net.cpp:96] Creating Layer inception_3c/double_3x3_2_bn
I0107 20:30:37.297320 14840 net.cpp:459] inception_3c/double_3x3_2_bn <- inception_3c/double_3x3_2
I0107 20:30:37.297325 14840 net.cpp:415] inception_3c/double_3x3_2_bn -> inception_3c/double_3x3_2_bn
I0107 20:30:37.297329 14840 net.cpp:160] Setting up inception_3c/double_3x3_2_bn
I0107 20:30:37.297338 14840 net.cpp:167] Top shape: 1 96 14 14 (18816)
I0107 20:30:37.297353 14840 layer_factory.hpp:74] Creating layer inception_3c/relu_double_3x3_2
I0107 20:30:37.297356 14840 net.cpp:96] Creating Layer inception_3c/relu_double_3x3_2
I0107 20:30:37.297359 14840 net.cpp:459] inception_3c/relu_double_3x3_2 <- inception_3c/double_3x3_2_bn
I0107 20:30:37.297363 14840 net.cpp:404] inception_3c/relu_double_3x3_2 -> inception_3c/double_3x3_2_bn (in-place)
I0107 20:30:37.297366 14840 net.cpp:160] Setting up inception_3c/relu_double_3x3_2
I0107 20:30:37.297369 14840 net.cpp:167] Top shape: 1 96 14 14 (18816)
I0107 20:30:37.297372 14840 layer_factory.hpp:74] Creating layer inception_3c/pool
I0107 20:30:37.297376 14840 net.cpp:96] Creating Layer inception_3c/pool
I0107 20:30:37.297379 14840 net.cpp:459] inception_3c/pool <- inception_3b/output_inception_3b/output_0_split_2
I0107 20:30:37.297384 14840 net.cpp:415] inception_3c/pool -> inception_3c/pool
I0107 20:30:37.297387 14840 net.cpp:160] Setting up inception_3c/pool
I0107 20:30:37.297391 14840 net.cpp:167] Top shape: 1 320 14 14 (62720)
I0107 20:30:37.297394 14840 layer_factory.hpp:74] Creating layer inception_3c/output
I0107 20:30:37.297399 14840 net.cpp:96] Creating Layer inception_3c/output
I0107 20:30:37.297401 14840 net.cpp:459] inception_3c/output <- inception_3c/3x3_bn
I0107 20:30:37.297405 14840 net.cpp:459] inception_3c/output <- inception_3c/double_3x3_2_bn
I0107 20:30:37.297410 14840 net.cpp:459] inception_3c/output <- inception_3c/pool
I0107 20:30:37.297413 14840 net.cpp:415] inception_3c/output -> inception_3c/output
I0107 20:30:37.297417 14840 net.cpp:160] Setting up inception_3c/output
I0107 20:30:37.297421 14840 net.cpp:167] Top shape: 1 576 14 14 (112896)
I0107 20:30:37.297425 14840 layer_factory.hpp:74] Creating layer inception_3c/output_inception_3c/output_0_split
I0107 20:30:37.297428 14840 net.cpp:96] Creating Layer inception_3c/output_inception_3c/output_0_split
I0107 20:30:37.297430 14840 net.cpp:459] inception_3c/output_inception_3c/output_0_split <- inception_3c/output
I0107 20:30:37.297435 14840 net.cpp:415] inception_3c/output_inception_3c/output_0_split -> inception_3c/output_inception_3c/output_0_split_0
I0107 20:30:37.297443 14840 net.cpp:415] inception_3c/output_inception_3c/output_0_split -> inception_3c/output_inception_3c/output_0_split_1
I0107 20:30:37.297447 14840 net.cpp:415] inception_3c/output_inception_3c/output_0_split -> inception_3c/output_inception_3c/output_0_split_2
I0107 20:30:37.297452 14840 net.cpp:415] inception_3c/output_inception_3c/output_0_split -> inception_3c/output_inception_3c/output_0_split_3
I0107 20:30:37.297456 14840 net.cpp:160] Setting up inception_3c/output_inception_3c/output_0_split
I0107 20:30:37.297461 14840 net.cpp:167] Top shape: 1 576 14 14 (112896)
I0107 20:30:37.297463 14840 net.cpp:167] Top shape: 1 576 14 14 (112896)
I0107 20:30:37.297466 14840 net.cpp:167] Top shape: 1 576 14 14 (112896)
I0107 20:30:37.297469 14840 net.cpp:167] Top shape: 1 576 14 14 (112896)
I0107 20:30:37.297472 14840 layer_factory.hpp:74] Creating layer inception_4a/1x1
I0107 20:30:37.297477 14840 net.cpp:96] Creating Layer inception_4a/1x1
I0107 20:30:37.297480 14840 net.cpp:459] inception_4a/1x1 <- inception_3c/output_inception_3c/output_0_split_0
I0107 20:30:37.297484 14840 net.cpp:415] inception_4a/1x1 -> inception_4a/1x1
I0107 20:30:37.297489 14840 net.cpp:160] Setting up inception_4a/1x1
I0107 20:30:37.298058 14840 net.cpp:167] Top shape: 1 224 14 14 (43904)
I0107 20:30:37.298065 14840 layer_factory.hpp:74] Creating layer inception_4a/1x1_bn
I0107 20:30:37.298069 14840 layer_factory.cpp:177] Layer inception_4a/1x1_bn is using CAFFE engine.
I0107 20:30:37.298074 14840 net.cpp:96] Creating Layer inception_4a/1x1_bn
I0107 20:30:37.298076 14840 net.cpp:459] inception_4a/1x1_bn <- inception_4a/1x1
I0107 20:30:37.298080 14840 net.cpp:415] inception_4a/1x1_bn -> inception_4a/1x1_bn
I0107 20:30:37.298084 14840 net.cpp:160] Setting up inception_4a/1x1_bn
I0107 20:30:37.298096 14840 net.cpp:167] Top shape: 1 224 14 14 (43904)
I0107 20:30:37.298101 14840 layer_factory.hpp:74] Creating layer inception_4a/relu_1x1
I0107 20:30:37.298105 14840 net.cpp:96] Creating Layer inception_4a/relu_1x1
I0107 20:30:37.298108 14840 net.cpp:459] inception_4a/relu_1x1 <- inception_4a/1x1_bn
I0107 20:30:37.298111 14840 net.cpp:404] inception_4a/relu_1x1 -> inception_4a/1x1_bn (in-place)
I0107 20:30:37.298115 14840 net.cpp:160] Setting up inception_4a/relu_1x1
I0107 20:30:37.298118 14840 net.cpp:167] Top shape: 1 224 14 14 (43904)
I0107 20:30:37.298121 14840 layer_factory.hpp:74] Creating layer inception_4a/3x3_reduce
I0107 20:30:37.298126 14840 net.cpp:96] Creating Layer inception_4a/3x3_reduce
I0107 20:30:37.298128 14840 net.cpp:459] inception_4a/3x3_reduce <- inception_3c/output_inception_3c/output_0_split_1
I0107 20:30:37.298133 14840 net.cpp:415] inception_4a/3x3_reduce -> inception_4a/3x3_reduce
I0107 20:30:37.298137 14840 net.cpp:160] Setting up inception_4a/3x3_reduce
I0107 20:30:37.298302 14840 net.cpp:167] Top shape: 1 64 14 14 (12544)
I0107 20:30:37.298307 14840 layer_factory.hpp:74] Creating layer inception_4a/3x3_reduce_bn
I0107 20:30:37.298310 14840 layer_factory.cpp:177] Layer inception_4a/3x3_reduce_bn is using CAFFE engine.
I0107 20:30:37.298316 14840 net.cpp:96] Creating Layer inception_4a/3x3_reduce_bn
I0107 20:30:37.298318 14840 net.cpp:459] inception_4a/3x3_reduce_bn <- inception_4a/3x3_reduce
I0107 20:30:37.298322 14840 net.cpp:415] inception_4a/3x3_reduce_bn -> inception_4a/3x3_reduce_bn
I0107 20:30:37.298329 14840 net.cpp:160] Setting up inception_4a/3x3_reduce_bn
I0107 20:30:37.298339 14840 net.cpp:167] Top shape: 1 64 14 14 (12544)
I0107 20:30:37.298344 14840 layer_factory.hpp:74] Creating layer inception_4a/relu_3x3_reduce
I0107 20:30:37.298347 14840 net.cpp:96] Creating Layer inception_4a/relu_3x3_reduce
I0107 20:30:37.298351 14840 net.cpp:459] inception_4a/relu_3x3_reduce <- inception_4a/3x3_reduce_bn
I0107 20:30:37.298355 14840 net.cpp:404] inception_4a/relu_3x3_reduce -> inception_4a/3x3_reduce_bn (in-place)
I0107 20:30:37.298359 14840 net.cpp:160] Setting up inception_4a/relu_3x3_reduce
I0107 20:30:37.298362 14840 net.cpp:167] Top shape: 1 64 14 14 (12544)
I0107 20:30:37.298364 14840 layer_factory.hpp:74] Creating layer inception_4a/3x3
I0107 20:30:37.298368 14840 net.cpp:96] Creating Layer inception_4a/3x3
I0107 20:30:37.298372 14840 net.cpp:459] inception_4a/3x3 <- inception_4a/3x3_reduce_bn
I0107 20:30:37.298375 14840 net.cpp:415] inception_4a/3x3 -> inception_4a/3x3
I0107 20:30:37.298379 14840 net.cpp:160] Setting up inception_4a/3x3
I0107 20:30:37.298624 14840 net.cpp:167] Top shape: 1 96 14 14 (18816)
I0107 20:30:37.298630 14840 layer_factory.hpp:74] Creating layer inception_4a/3x3_bn
I0107 20:30:37.298633 14840 layer_factory.cpp:177] Layer inception_4a/3x3_bn is using CAFFE engine.
I0107 20:30:37.298638 14840 net.cpp:96] Creating Layer inception_4a/3x3_bn
I0107 20:30:37.298641 14840 net.cpp:459] inception_4a/3x3_bn <- inception_4a/3x3
I0107 20:30:37.298645 14840 net.cpp:415] inception_4a/3x3_bn -> inception_4a/3x3_bn
I0107 20:30:37.298650 14840 net.cpp:160] Setting up inception_4a/3x3_bn
I0107 20:30:37.298658 14840 net.cpp:167] Top shape: 1 96 14 14 (18816)
I0107 20:30:37.298665 14840 layer_factory.hpp:74] Creating layer inception_4a/relu_3x3
I0107 20:30:37.298668 14840 net.cpp:96] Creating Layer inception_4a/relu_3x3
I0107 20:30:37.298671 14840 net.cpp:459] inception_4a/relu_3x3 <- inception_4a/3x3_bn
I0107 20:30:37.298674 14840 net.cpp:404] inception_4a/relu_3x3 -> inception_4a/3x3_bn (in-place)
I0107 20:30:37.298677 14840 net.cpp:160] Setting up inception_4a/relu_3x3
I0107 20:30:37.298681 14840 net.cpp:167] Top shape: 1 96 14 14 (18816)
I0107 20:30:37.298683 14840 layer_factory.hpp:74] Creating layer inception_4a/double_3x3_reduce
I0107 20:30:37.298688 14840 net.cpp:96] Creating Layer inception_4a/double_3x3_reduce
I0107 20:30:37.298691 14840 net.cpp:459] inception_4a/double_3x3_reduce <- inception_3c/output_inception_3c/output_0_split_2
I0107 20:30:37.298694 14840 net.cpp:415] inception_4a/double_3x3_reduce -> inception_4a/double_3x3_reduce
I0107 20:30:37.298698 14840 net.cpp:160] Setting up inception_4a/double_3x3_reduce
I0107 20:30:37.298945 14840 net.cpp:167] Top shape: 1 96 14 14 (18816)
I0107 20:30:37.298950 14840 layer_factory.hpp:74] Creating layer inception_4a/double_3x3_reduce_bn
I0107 20:30:37.298954 14840 layer_factory.cpp:177] Layer inception_4a/double_3x3_reduce_bn is using CAFFE engine.
I0107 20:30:37.298957 14840 net.cpp:96] Creating Layer inception_4a/double_3x3_reduce_bn
I0107 20:30:37.298960 14840 net.cpp:459] inception_4a/double_3x3_reduce_bn <- inception_4a/double_3x3_reduce
I0107 20:30:37.298965 14840 net.cpp:415] inception_4a/double_3x3_reduce_bn -> inception_4a/double_3x3_reduce_bn
I0107 20:30:37.298970 14840 net.cpp:160] Setting up inception_4a/double_3x3_reduce_bn
I0107 20:30:37.298979 14840 net.cpp:167] Top shape: 1 96 14 14 (18816)
I0107 20:30:37.298985 14840 layer_factory.hpp:74] Creating layer inception_4a/relu_double_3x3_reduce
I0107 20:30:37.298988 14840 net.cpp:96] Creating Layer inception_4a/relu_double_3x3_reduce
I0107 20:30:37.298991 14840 net.cpp:459] inception_4a/relu_double_3x3_reduce <- inception_4a/double_3x3_reduce_bn
I0107 20:30:37.298995 14840 net.cpp:404] inception_4a/relu_double_3x3_reduce -> inception_4a/double_3x3_reduce_bn (in-place)
I0107 20:30:37.298998 14840 net.cpp:160] Setting up inception_4a/relu_double_3x3_reduce
I0107 20:30:37.299001 14840 net.cpp:167] Top shape: 1 96 14 14 (18816)
I0107 20:30:37.299006 14840 layer_factory.hpp:74] Creating layer inception_4a/double_3x3_1
I0107 20:30:37.299010 14840 net.cpp:96] Creating Layer inception_4a/double_3x3_1
I0107 20:30:37.299012 14840 net.cpp:459] inception_4a/double_3x3_1 <- inception_4a/double_3x3_reduce_bn
I0107 20:30:37.299017 14840 net.cpp:415] inception_4a/double_3x3_1 -> inception_4a/double_3x3_1
I0107 20:30:37.299021 14840 net.cpp:160] Setting up inception_4a/double_3x3_1
I0107 20:30:37.299505 14840 net.cpp:167] Top shape: 1 128 14 14 (25088)
I0107 20:30:37.299510 14840 layer_factory.hpp:74] Creating layer inception_4a/double_3x3_1_bn
I0107 20:30:37.299513 14840 layer_factory.cpp:177] Layer inception_4a/double_3x3_1_bn is using CAFFE engine.
I0107 20:30:37.299517 14840 net.cpp:96] Creating Layer inception_4a/double_3x3_1_bn
I0107 20:30:37.299520 14840 net.cpp:459] inception_4a/double_3x3_1_bn <- inception_4a/double_3x3_1
I0107 20:30:37.299525 14840 net.cpp:415] inception_4a/double_3x3_1_bn -> inception_4a/double_3x3_1_bn
I0107 20:30:37.299530 14840 net.cpp:160] Setting up inception_4a/double_3x3_1_bn
I0107 20:30:37.299541 14840 net.cpp:167] Top shape: 1 128 14 14 (25088)
I0107 20:30:37.299546 14840 layer_factory.hpp:74] Creating layer inception_4a/relu_double_3x3_1
I0107 20:30:37.299549 14840 net.cpp:96] Creating Layer inception_4a/relu_double_3x3_1
I0107 20:30:37.299552 14840 net.cpp:459] inception_4a/relu_double_3x3_1 <- inception_4a/double_3x3_1_bn
I0107 20:30:37.299556 14840 net.cpp:404] inception_4a/relu_double_3x3_1 -> inception_4a/double_3x3_1_bn (in-place)
I0107 20:30:37.299561 14840 net.cpp:160] Setting up inception_4a/relu_double_3x3_1
I0107 20:30:37.299563 14840 net.cpp:167] Top shape: 1 128 14 14 (25088)
I0107 20:30:37.299566 14840 layer_factory.hpp:74] Creating layer inception_4a/double_3x3_2
I0107 20:30:37.299571 14840 net.cpp:96] Creating Layer inception_4a/double_3x3_2
I0107 20:30:37.299572 14840 net.cpp:459] inception_4a/double_3x3_2 <- inception_4a/double_3x3_1_bn
I0107 20:30:37.299576 14840 net.cpp:415] inception_4a/double_3x3_2 -> inception_4a/double_3x3_2
I0107 20:30:37.299582 14840 net.cpp:160] Setting up inception_4a/double_3x3_2
I0107 20:30:37.300223 14840 net.cpp:167] Top shape: 1 128 14 14 (25088)
I0107 20:30:37.300230 14840 layer_factory.hpp:74] Creating layer inception_4a/double_3x3_2_bn
I0107 20:30:37.300231 14840 layer_factory.cpp:177] Layer inception_4a/double_3x3_2_bn is using CAFFE engine.
I0107 20:30:37.300236 14840 net.cpp:96] Creating Layer inception_4a/double_3x3_2_bn
I0107 20:30:37.300240 14840 net.cpp:459] inception_4a/double_3x3_2_bn <- inception_4a/double_3x3_2
I0107 20:30:37.300243 14840 net.cpp:415] inception_4a/double_3x3_2_bn -> inception_4a/double_3x3_2_bn
I0107 20:30:37.300247 14840 net.cpp:160] Setting up inception_4a/double_3x3_2_bn
I0107 20:30:37.300257 14840 net.cpp:167] Top shape: 1 128 14 14 (25088)
I0107 20:30:37.300262 14840 layer_factory.hpp:74] Creating layer inception_4a/relu_double_3x3_2
I0107 20:30:37.300266 14840 net.cpp:96] Creating Layer inception_4a/relu_double_3x3_2
I0107 20:30:37.300269 14840 net.cpp:459] inception_4a/relu_double_3x3_2 <- inception_4a/double_3x3_2_bn
I0107 20:30:37.300272 14840 net.cpp:404] inception_4a/relu_double_3x3_2 -> inception_4a/double_3x3_2_bn (in-place)
I0107 20:30:37.300276 14840 net.cpp:160] Setting up inception_4a/relu_double_3x3_2
I0107 20:30:37.300278 14840 net.cpp:167] Top shape: 1 128 14 14 (25088)
I0107 20:30:37.300282 14840 layer_factory.hpp:74] Creating layer inception_4a/pool
I0107 20:30:37.300284 14840 net.cpp:96] Creating Layer inception_4a/pool
I0107 20:30:37.300287 14840 net.cpp:459] inception_4a/pool <- inception_3c/output_inception_3c/output_0_split_3
I0107 20:30:37.300292 14840 net.cpp:415] inception_4a/pool -> inception_4a/pool
I0107 20:30:37.300294 14840 net.cpp:160] Setting up inception_4a/pool
I0107 20:30:37.300298 14840 net.cpp:167] Top shape: 1 576 14 14 (112896)
I0107 20:30:37.300302 14840 layer_factory.hpp:74] Creating layer inception_4a/pool_proj
I0107 20:30:37.300307 14840 net.cpp:96] Creating Layer inception_4a/pool_proj
I0107 20:30:37.300312 14840 net.cpp:459] inception_4a/pool_proj <- inception_4a/pool
I0107 20:30:37.300318 14840 net.cpp:415] inception_4a/pool_proj -> inception_4a/pool_proj
I0107 20:30:37.300321 14840 net.cpp:160] Setting up inception_4a/pool_proj
I0107 20:30:37.300647 14840 net.cpp:167] Top shape: 1 128 14 14 (25088)
I0107 20:30:37.300653 14840 layer_factory.hpp:74] Creating layer inception_4a/pool_proj_bn
I0107 20:30:37.300657 14840 layer_factory.cpp:177] Layer inception_4a/pool_proj_bn is using CAFFE engine.
I0107 20:30:37.300662 14840 net.cpp:96] Creating Layer inception_4a/pool_proj_bn
I0107 20:30:37.300664 14840 net.cpp:459] inception_4a/pool_proj_bn <- inception_4a/pool_proj
I0107 20:30:37.300668 14840 net.cpp:415] inception_4a/pool_proj_bn -> inception_4a/pool_proj_bn
I0107 20:30:37.300671 14840 net.cpp:160] Setting up inception_4a/pool_proj_bn
I0107 20:30:37.300681 14840 net.cpp:167] Top shape: 1 128 14 14 (25088)
I0107 20:30:37.300686 14840 layer_factory.hpp:74] Creating layer inception_4a/relu_pool_proj
I0107 20:30:37.300689 14840 net.cpp:96] Creating Layer inception_4a/relu_pool_proj
I0107 20:30:37.300693 14840 net.cpp:459] inception_4a/relu_pool_proj <- inception_4a/pool_proj_bn
I0107 20:30:37.300696 14840 net.cpp:404] inception_4a/relu_pool_proj -> inception_4a/pool_proj_bn (in-place)
I0107 20:30:37.300700 14840 net.cpp:160] Setting up inception_4a/relu_pool_proj
I0107 20:30:37.300704 14840 net.cpp:167] Top shape: 1 128 14 14 (25088)
I0107 20:30:37.300706 14840 layer_factory.hpp:74] Creating layer inception_4a/output
I0107 20:30:37.300709 14840 net.cpp:96] Creating Layer inception_4a/output
I0107 20:30:37.300712 14840 net.cpp:459] inception_4a/output <- inception_4a/1x1_bn
I0107 20:30:37.300715 14840 net.cpp:459] inception_4a/output <- inception_4a/3x3_bn
I0107 20:30:37.300719 14840 net.cpp:459] inception_4a/output <- inception_4a/double_3x3_2_bn
I0107 20:30:37.300721 14840 net.cpp:459] inception_4a/output <- inception_4a/pool_proj_bn
I0107 20:30:37.300725 14840 net.cpp:415] inception_4a/output -> inception_4a/output
I0107 20:30:37.300729 14840 net.cpp:160] Setting up inception_4a/output
I0107 20:30:37.300732 14840 net.cpp:167] Top shape: 1 576 14 14 (112896)
I0107 20:30:37.300735 14840 layer_factory.hpp:74] Creating layer inception_4a/output_inception_4a/output_0_split
I0107 20:30:37.300740 14840 net.cpp:96] Creating Layer inception_4a/output_inception_4a/output_0_split
I0107 20:30:37.300741 14840 net.cpp:459] inception_4a/output_inception_4a/output_0_split <- inception_4a/output
I0107 20:30:37.300746 14840 net.cpp:415] inception_4a/output_inception_4a/output_0_split -> inception_4a/output_inception_4a/output_0_split_0
I0107 20:30:37.300750 14840 net.cpp:415] inception_4a/output_inception_4a/output_0_split -> inception_4a/output_inception_4a/output_0_split_1
I0107 20:30:37.300755 14840 net.cpp:415] inception_4a/output_inception_4a/output_0_split -> inception_4a/output_inception_4a/output_0_split_2
I0107 20:30:37.300760 14840 net.cpp:415] inception_4a/output_inception_4a/output_0_split -> inception_4a/output_inception_4a/output_0_split_3
I0107 20:30:37.300763 14840 net.cpp:160] Setting up inception_4a/output_inception_4a/output_0_split
I0107 20:30:37.300768 14840 net.cpp:167] Top shape: 1 576 14 14 (112896)
I0107 20:30:37.300771 14840 net.cpp:167] Top shape: 1 576 14 14 (112896)
I0107 20:30:37.300775 14840 net.cpp:167] Top shape: 1 576 14 14 (112896)
I0107 20:30:37.300777 14840 net.cpp:167] Top shape: 1 576 14 14 (112896)
I0107 20:30:37.300779 14840 layer_factory.hpp:74] Creating layer inception_4b/1x1
I0107 20:30:37.300783 14840 net.cpp:96] Creating Layer inception_4b/1x1
I0107 20:30:37.300786 14840 net.cpp:459] inception_4b/1x1 <- inception_4a/output_inception_4a/output_0_split_0
I0107 20:30:37.300791 14840 net.cpp:415] inception_4b/1x1 -> inception_4b/1x1
I0107 20:30:37.300796 14840 net.cpp:160] Setting up inception_4b/1x1
I0107 20:30:37.301270 14840 net.cpp:167] Top shape: 1 192 14 14 (37632)
I0107 20:30:37.301275 14840 layer_factory.hpp:74] Creating layer inception_4b/1x1_bn
I0107 20:30:37.301277 14840 layer_factory.cpp:177] Layer inception_4b/1x1_bn is using CAFFE engine.
I0107 20:30:37.301283 14840 net.cpp:96] Creating Layer inception_4b/1x1_bn
I0107 20:30:37.301287 14840 net.cpp:459] inception_4b/1x1_bn <- inception_4b/1x1
I0107 20:30:37.301291 14840 net.cpp:415] inception_4b/1x1_bn -> inception_4b/1x1_bn
I0107 20:30:37.301296 14840 net.cpp:160] Setting up inception_4b/1x1_bn
I0107 20:30:37.301306 14840 net.cpp:167] Top shape: 1 192 14 14 (37632)
I0107 20:30:37.301311 14840 layer_factory.hpp:74] Creating layer inception_4b/relu_1x1
I0107 20:30:37.301316 14840 net.cpp:96] Creating Layer inception_4b/relu_1x1
I0107 20:30:37.301318 14840 net.cpp:459] inception_4b/relu_1x1 <- inception_4b/1x1_bn
I0107 20:30:37.301321 14840 net.cpp:404] inception_4b/relu_1x1 -> inception_4b/1x1_bn (in-place)
I0107 20:30:37.301326 14840 net.cpp:160] Setting up inception_4b/relu_1x1
I0107 20:30:37.301328 14840 net.cpp:167] Top shape: 1 192 14 14 (37632)
I0107 20:30:37.301331 14840 layer_factory.hpp:74] Creating layer inception_4b/3x3_reduce
I0107 20:30:37.301336 14840 net.cpp:96] Creating Layer inception_4b/3x3_reduce
I0107 20:30:37.301338 14840 net.cpp:459] inception_4b/3x3_reduce <- inception_4a/output_inception_4a/output_0_split_1
I0107 20:30:37.301342 14840 net.cpp:415] inception_4b/3x3_reduce -> inception_4b/3x3_reduce
I0107 20:30:37.301347 14840 net.cpp:160] Setting up inception_4b/3x3_reduce
I0107 20:30:37.301587 14840 net.cpp:167] Top shape: 1 96 14 14 (18816)
I0107 20:30:37.301592 14840 layer_factory.hpp:74] Creating layer inception_4b/3x3_reduce_bn
I0107 20:30:37.301595 14840 layer_factory.cpp:177] Layer inception_4b/3x3_reduce_bn is using CAFFE engine.
I0107 20:30:37.301601 14840 net.cpp:96] Creating Layer inception_4b/3x3_reduce_bn
I0107 20:30:37.301604 14840 net.cpp:459] inception_4b/3x3_reduce_bn <- inception_4b/3x3_reduce
I0107 20:30:37.301609 14840 net.cpp:415] inception_4b/3x3_reduce_bn -> inception_4b/3x3_reduce_bn
I0107 20:30:37.301614 14840 net.cpp:160] Setting up inception_4b/3x3_reduce_bn
I0107 20:30:37.301622 14840 net.cpp:167] Top shape: 1 96 14 14 (18816)
I0107 20:30:37.301628 14840 layer_factory.hpp:74] Creating layer inception_4b/relu_3x3_reduce
I0107 20:30:37.301631 14840 net.cpp:96] Creating Layer inception_4b/relu_3x3_reduce
I0107 20:30:37.301635 14840 net.cpp:459] inception_4b/relu_3x3_reduce <- inception_4b/3x3_reduce_bn
I0107 20:30:37.301638 14840 net.cpp:404] inception_4b/relu_3x3_reduce -> inception_4b/3x3_reduce_bn (in-place)
I0107 20:30:37.301642 14840 net.cpp:160] Setting up inception_4b/relu_3x3_reduce
I0107 20:30:37.301645 14840 net.cpp:167] Top shape: 1 96 14 14 (18816)
I0107 20:30:37.301647 14840 layer_factory.hpp:74] Creating layer inception_4b/3x3
I0107 20:30:37.301652 14840 net.cpp:96] Creating Layer inception_4b/3x3
I0107 20:30:37.301654 14840 net.cpp:459] inception_4b/3x3 <- inception_4b/3x3_reduce_bn
I0107 20:30:37.301659 14840 net.cpp:415] inception_4b/3x3 -> inception_4b/3x3
I0107 20:30:37.301663 14840 net.cpp:160] Setting up inception_4b/3x3
I0107 20:30:37.302144 14840 net.cpp:167] Top shape: 1 128 14 14 (25088)
I0107 20:30:37.302150 14840 layer_factory.hpp:74] Creating layer inception_4b/3x3_bn
I0107 20:30:37.302152 14840 layer_factory.cpp:177] Layer inception_4b/3x3_bn is using CAFFE engine.
I0107 20:30:37.302157 14840 net.cpp:96] Creating Layer inception_4b/3x3_bn
I0107 20:30:37.302160 14840 net.cpp:459] inception_4b/3x3_bn <- inception_4b/3x3
I0107 20:30:37.302165 14840 net.cpp:415] inception_4b/3x3_bn -> inception_4b/3x3_bn
I0107 20:30:37.302168 14840 net.cpp:160] Setting up inception_4b/3x3_bn
I0107 20:30:37.302178 14840 net.cpp:167] Top shape: 1 128 14 14 (25088)
I0107 20:30:37.302183 14840 layer_factory.hpp:74] Creating layer inception_4b/relu_3x3
I0107 20:30:37.302187 14840 net.cpp:96] Creating Layer inception_4b/relu_3x3
I0107 20:30:37.302189 14840 net.cpp:459] inception_4b/relu_3x3 <- inception_4b/3x3_bn
I0107 20:30:37.302193 14840 net.cpp:404] inception_4b/relu_3x3 -> inception_4b/3x3_bn (in-place)
I0107 20:30:37.302197 14840 net.cpp:160] Setting up inception_4b/relu_3x3
I0107 20:30:37.302203 14840 net.cpp:167] Top shape: 1 128 14 14 (25088)
I0107 20:30:37.302206 14840 layer_factory.hpp:74] Creating layer inception_4b/double_3x3_reduce
I0107 20:30:37.302211 14840 net.cpp:96] Creating Layer inception_4b/double_3x3_reduce
I0107 20:30:37.302212 14840 net.cpp:459] inception_4b/double_3x3_reduce <- inception_4a/output_inception_4a/output_0_split_2
I0107 20:30:37.302217 14840 net.cpp:415] inception_4b/double_3x3_reduce -> inception_4b/double_3x3_reduce
I0107 20:30:37.302222 14840 net.cpp:160] Setting up inception_4b/double_3x3_reduce
I0107 20:30:37.302464 14840 net.cpp:167] Top shape: 1 96 14 14 (18816)
I0107 20:30:37.302469 14840 layer_factory.hpp:74] Creating layer inception_4b/double_3x3_reduce_bn
I0107 20:30:37.302472 14840 layer_factory.cpp:177] Layer inception_4b/double_3x3_reduce_bn is using CAFFE engine.
I0107 20:30:37.302476 14840 net.cpp:96] Creating Layer inception_4b/double_3x3_reduce_bn
I0107 20:30:37.302479 14840 net.cpp:459] inception_4b/double_3x3_reduce_bn <- inception_4b/double_3x3_reduce
I0107 20:30:37.302484 14840 net.cpp:415] inception_4b/double_3x3_reduce_bn -> inception_4b/double_3x3_reduce_bn
I0107 20:30:37.302487 14840 net.cpp:160] Setting up inception_4b/double_3x3_reduce_bn
I0107 20:30:37.302497 14840 net.cpp:167] Top shape: 1 96 14 14 (18816)
I0107 20:30:37.302502 14840 layer_factory.hpp:74] Creating layer inception_4b/relu_double_3x3_reduce
I0107 20:30:37.302506 14840 net.cpp:96] Creating Layer inception_4b/relu_double_3x3_reduce
I0107 20:30:37.302510 14840 net.cpp:459] inception_4b/relu_double_3x3_reduce <- inception_4b/double_3x3_reduce_bn
I0107 20:30:37.302512 14840 net.cpp:404] inception_4b/relu_double_3x3_reduce -> inception_4b/double_3x3_reduce_bn (in-place)
I0107 20:30:37.302516 14840 net.cpp:160] Setting up inception_4b/relu_double_3x3_reduce
I0107 20:30:37.302520 14840 net.cpp:167] Top shape: 1 96 14 14 (18816)
I0107 20:30:37.302522 14840 layer_factory.hpp:74] Creating layer inception_4b/double_3x3_1
I0107 20:30:37.302527 14840 net.cpp:96] Creating Layer inception_4b/double_3x3_1
I0107 20:30:37.302531 14840 net.cpp:459] inception_4b/double_3x3_1 <- inception_4b/double_3x3_reduce_bn
I0107 20:30:37.302534 14840 net.cpp:415] inception_4b/double_3x3_1 -> inception_4b/double_3x3_1
I0107 20:30:37.302538 14840 net.cpp:160] Setting up inception_4b/double_3x3_1
I0107 20:30:37.303014 14840 net.cpp:167] Top shape: 1 128 14 14 (25088)
I0107 20:30:37.303020 14840 layer_factory.hpp:74] Creating layer inception_4b/double_3x3_1_bn
I0107 20:30:37.303022 14840 layer_factory.cpp:177] Layer inception_4b/double_3x3_1_bn is using CAFFE engine.
I0107 20:30:37.303026 14840 net.cpp:96] Creating Layer inception_4b/double_3x3_1_bn
I0107 20:30:37.303030 14840 net.cpp:459] inception_4b/double_3x3_1_bn <- inception_4b/double_3x3_1
I0107 20:30:37.303035 14840 net.cpp:415] inception_4b/double_3x3_1_bn -> inception_4b/double_3x3_1_bn
I0107 20:30:37.303038 14840 net.cpp:160] Setting up inception_4b/double_3x3_1_bn
I0107 20:30:37.303048 14840 net.cpp:167] Top shape: 1 128 14 14 (25088)
I0107 20:30:37.303053 14840 layer_factory.hpp:74] Creating layer inception_4b/relu_double_3x3_1
I0107 20:30:37.303057 14840 net.cpp:96] Creating Layer inception_4b/relu_double_3x3_1
I0107 20:30:37.303061 14840 net.cpp:459] inception_4b/relu_double_3x3_1 <- inception_4b/double_3x3_1_bn
I0107 20:30:37.303063 14840 net.cpp:404] inception_4b/relu_double_3x3_1 -> inception_4b/double_3x3_1_bn (in-place)
I0107 20:30:37.303067 14840 net.cpp:160] Setting up inception_4b/relu_double_3x3_1
I0107 20:30:37.303071 14840 net.cpp:167] Top shape: 1 128 14 14 (25088)
I0107 20:30:37.303072 14840 layer_factory.hpp:74] Creating layer inception_4b/double_3x3_2
I0107 20:30:37.303077 14840 net.cpp:96] Creating Layer inception_4b/double_3x3_2
I0107 20:30:37.303081 14840 net.cpp:459] inception_4b/double_3x3_2 <- inception_4b/double_3x3_1_bn
I0107 20:30:37.303084 14840 net.cpp:415] inception_4b/double_3x3_2 -> inception_4b/double_3x3_2
I0107 20:30:37.303088 14840 net.cpp:160] Setting up inception_4b/double_3x3_2
I0107 20:30:37.303716 14840 net.cpp:167] Top shape: 1 128 14 14 (25088)
I0107 20:30:37.303725 14840 layer_factory.hpp:74] Creating layer inception_4b/double_3x3_2_bn
I0107 20:30:37.303727 14840 layer_factory.cpp:177] Layer inception_4b/double_3x3_2_bn is using CAFFE engine.
I0107 20:30:37.303732 14840 net.cpp:96] Creating Layer inception_4b/double_3x3_2_bn
I0107 20:30:37.303735 14840 net.cpp:459] inception_4b/double_3x3_2_bn <- inception_4b/double_3x3_2
I0107 20:30:37.303740 14840 net.cpp:415] inception_4b/double_3x3_2_bn -> inception_4b/double_3x3_2_bn
I0107 20:30:37.303745 14840 net.cpp:160] Setting up inception_4b/double_3x3_2_bn
I0107 20:30:37.303755 14840 net.cpp:167] Top shape: 1 128 14 14 (25088)
I0107 20:30:37.303760 14840 layer_factory.hpp:74] Creating layer inception_4b/relu_double_3x3_2
I0107 20:30:37.303764 14840 net.cpp:96] Creating Layer inception_4b/relu_double_3x3_2
I0107 20:30:37.303766 14840 net.cpp:459] inception_4b/relu_double_3x3_2 <- inception_4b/double_3x3_2_bn
I0107 20:30:37.303771 14840 net.cpp:404] inception_4b/relu_double_3x3_2 -> inception_4b/double_3x3_2_bn (in-place)
I0107 20:30:37.303773 14840 net.cpp:160] Setting up inception_4b/relu_double_3x3_2
I0107 20:30:37.303776 14840 net.cpp:167] Top shape: 1 128 14 14 (25088)
I0107 20:30:37.303779 14840 layer_factory.hpp:74] Creating layer inception_4b/pool
I0107 20:30:37.303783 14840 net.cpp:96] Creating Layer inception_4b/pool
I0107 20:30:37.303786 14840 net.cpp:459] inception_4b/pool <- inception_4a/output_inception_4a/output_0_split_3
I0107 20:30:37.303791 14840 net.cpp:415] inception_4b/pool -> inception_4b/pool
I0107 20:30:37.303794 14840 net.cpp:160] Setting up inception_4b/pool
I0107 20:30:37.303798 14840 net.cpp:167] Top shape: 1 576 14 14 (112896)
I0107 20:30:37.303802 14840 layer_factory.hpp:74] Creating layer inception_4b/pool_proj
I0107 20:30:37.303805 14840 net.cpp:96] Creating Layer inception_4b/pool_proj
I0107 20:30:37.303808 14840 net.cpp:459] inception_4b/pool_proj <- inception_4b/pool
I0107 20:30:37.303812 14840 net.cpp:415] inception_4b/pool_proj -> inception_4b/pool_proj
I0107 20:30:37.303817 14840 net.cpp:160] Setting up inception_4b/pool_proj
I0107 20:30:37.304136 14840 net.cpp:167] Top shape: 1 128 14 14 (25088)
I0107 20:30:37.304141 14840 layer_factory.hpp:74] Creating layer inception_4b/pool_proj_bn
I0107 20:30:37.304144 14840 layer_factory.cpp:177] Layer inception_4b/pool_proj_bn is using CAFFE engine.
I0107 20:30:37.304149 14840 net.cpp:96] Creating Layer inception_4b/pool_proj_bn
I0107 20:30:37.304152 14840 net.cpp:459] inception_4b/pool_proj_bn <- inception_4b/pool_proj
I0107 20:30:37.304157 14840 net.cpp:415] inception_4b/pool_proj_bn -> inception_4b/pool_proj_bn
I0107 20:30:37.304162 14840 net.cpp:160] Setting up inception_4b/pool_proj_bn
I0107 20:30:37.304172 14840 net.cpp:167] Top shape: 1 128 14 14 (25088)
I0107 20:30:37.304177 14840 layer_factory.hpp:74] Creating layer inception_4b/relu_pool_proj
I0107 20:30:37.304179 14840 net.cpp:96] Creating Layer inception_4b/relu_pool_proj
I0107 20:30:37.304183 14840 net.cpp:459] inception_4b/relu_pool_proj <- inception_4b/pool_proj_bn
I0107 20:30:37.304186 14840 net.cpp:404] inception_4b/relu_pool_proj -> inception_4b/pool_proj_bn (in-place)
I0107 20:30:37.304190 14840 net.cpp:160] Setting up inception_4b/relu_pool_proj
I0107 20:30:37.304193 14840 net.cpp:167] Top shape: 1 128 14 14 (25088)
I0107 20:30:37.304196 14840 layer_factory.hpp:74] Creating layer inception_4b/output
I0107 20:30:37.304199 14840 net.cpp:96] Creating Layer inception_4b/output
I0107 20:30:37.304203 14840 net.cpp:459] inception_4b/output <- inception_4b/1x1_bn
I0107 20:30:37.304205 14840 net.cpp:459] inception_4b/output <- inception_4b/3x3_bn
I0107 20:30:37.304208 14840 net.cpp:459] inception_4b/output <- inception_4b/double_3x3_2_bn
I0107 20:30:37.304211 14840 net.cpp:459] inception_4b/output <- inception_4b/pool_proj_bn
I0107 20:30:37.304215 14840 net.cpp:415] inception_4b/output -> inception_4b/output
I0107 20:30:37.304219 14840 net.cpp:160] Setting up inception_4b/output
I0107 20:30:37.304224 14840 net.cpp:167] Top shape: 1 576 14 14 (112896)
I0107 20:30:37.304229 14840 layer_factory.hpp:74] Creating layer inception_4b/output_inception_4b/output_0_split
I0107 20:30:37.304232 14840 net.cpp:96] Creating Layer inception_4b/output_inception_4b/output_0_split
I0107 20:30:37.304235 14840 net.cpp:459] inception_4b/output_inception_4b/output_0_split <- inception_4b/output
I0107 20:30:37.304239 14840 net.cpp:415] inception_4b/output_inception_4b/output_0_split -> inception_4b/output_inception_4b/output_0_split_0
I0107 20:30:37.304244 14840 net.cpp:415] inception_4b/output_inception_4b/output_0_split -> inception_4b/output_inception_4b/output_0_split_1
I0107 20:30:37.304247 14840 net.cpp:415] inception_4b/output_inception_4b/output_0_split -> inception_4b/output_inception_4b/output_0_split_2
I0107 20:30:37.304252 14840 net.cpp:415] inception_4b/output_inception_4b/output_0_split -> inception_4b/output_inception_4b/output_0_split_3
I0107 20:30:37.304256 14840 net.cpp:160] Setting up inception_4b/output_inception_4b/output_0_split
I0107 20:30:37.304260 14840 net.cpp:167] Top shape: 1 576 14 14 (112896)
I0107 20:30:37.304263 14840 net.cpp:167] Top shape: 1 576 14 14 (112896)
I0107 20:30:37.304266 14840 net.cpp:167] Top shape: 1 576 14 14 (112896)
I0107 20:30:37.304270 14840 net.cpp:167] Top shape: 1 576 14 14 (112896)
I0107 20:30:37.304272 14840 layer_factory.hpp:74] Creating layer inception_4c/1x1
I0107 20:30:37.304277 14840 net.cpp:96] Creating Layer inception_4c/1x1
I0107 20:30:37.304280 14840 net.cpp:459] inception_4c/1x1 <- inception_4b/output_inception_4b/output_0_split_0
I0107 20:30:37.304283 14840 net.cpp:415] inception_4c/1x1 -> inception_4c/1x1
I0107 20:30:37.304287 14840 net.cpp:160] Setting up inception_4c/1x1
I0107 20:30:37.304683 14840 net.cpp:167] Top shape: 1 160 14 14 (31360)
I0107 20:30:37.304688 14840 layer_factory.hpp:74] Creating layer inception_4c/1x1_bn
I0107 20:30:37.304692 14840 layer_factory.cpp:177] Layer inception_4c/1x1_bn is using CAFFE engine.
I0107 20:30:37.304697 14840 net.cpp:96] Creating Layer inception_4c/1x1_bn
I0107 20:30:37.304699 14840 net.cpp:459] inception_4c/1x1_bn <- inception_4c/1x1
I0107 20:30:37.304703 14840 net.cpp:415] inception_4c/1x1_bn -> inception_4c/1x1_bn
I0107 20:30:37.304708 14840 net.cpp:160] Setting up inception_4c/1x1_bn
I0107 20:30:37.304718 14840 net.cpp:167] Top shape: 1 160 14 14 (31360)
I0107 20:30:37.304723 14840 layer_factory.hpp:74] Creating layer inception_4c/relu_1x1
I0107 20:30:37.304733 14840 net.cpp:96] Creating Layer inception_4c/relu_1x1
I0107 20:30:37.304736 14840 net.cpp:459] inception_4c/relu_1x1 <- inception_4c/1x1_bn
I0107 20:30:37.304740 14840 net.cpp:404] inception_4c/relu_1x1 -> inception_4c/1x1_bn (in-place)
I0107 20:30:37.304744 14840 net.cpp:160] Setting up inception_4c/relu_1x1
I0107 20:30:37.304747 14840 net.cpp:167] Top shape: 1 160 14 14 (31360)
I0107 20:30:37.304750 14840 layer_factory.hpp:74] Creating layer inception_4c/3x3_reduce
I0107 20:30:37.304754 14840 net.cpp:96] Creating Layer inception_4c/3x3_reduce
I0107 20:30:37.304757 14840 net.cpp:459] inception_4c/3x3_reduce <- inception_4b/output_inception_4b/output_0_split_1
I0107 20:30:37.304761 14840 net.cpp:415] inception_4c/3x3_reduce -> inception_4c/3x3_reduce
I0107 20:30:37.304766 14840 net.cpp:160] Setting up inception_4c/3x3_reduce
I0107 20:30:37.305090 14840 net.cpp:167] Top shape: 1 128 14 14 (25088)
I0107 20:30:37.305095 14840 layer_factory.hpp:74] Creating layer inception_4c/3x3_reduce_bn
I0107 20:30:37.305099 14840 layer_factory.cpp:177] Layer inception_4c/3x3_reduce_bn is using CAFFE engine.
I0107 20:30:37.305102 14840 net.cpp:96] Creating Layer inception_4c/3x3_reduce_bn
I0107 20:30:37.305105 14840 net.cpp:459] inception_4c/3x3_reduce_bn <- inception_4c/3x3_reduce
I0107 20:30:37.305109 14840 net.cpp:415] inception_4c/3x3_reduce_bn -> inception_4c/3x3_reduce_bn
I0107 20:30:37.305114 14840 net.cpp:160] Setting up inception_4c/3x3_reduce_bn
I0107 20:30:37.305126 14840 net.cpp:167] Top shape: 1 128 14 14 (25088)
I0107 20:30:37.305131 14840 layer_factory.hpp:74] Creating layer inception_4c/relu_3x3_reduce
I0107 20:30:37.305137 14840 net.cpp:96] Creating Layer inception_4c/relu_3x3_reduce
I0107 20:30:37.305140 14840 net.cpp:459] inception_4c/relu_3x3_reduce <- inception_4c/3x3_reduce_bn
I0107 20:30:37.305145 14840 net.cpp:404] inception_4c/relu_3x3_reduce -> inception_4c/3x3_reduce_bn (in-place)
I0107 20:30:37.305148 14840 net.cpp:160] Setting up inception_4c/relu_3x3_reduce
I0107 20:30:37.305151 14840 net.cpp:167] Top shape: 1 128 14 14 (25088)
I0107 20:30:37.305155 14840 layer_factory.hpp:74] Creating layer inception_4c/3x3
I0107 20:30:37.305158 14840 net.cpp:96] Creating Layer inception_4c/3x3
I0107 20:30:37.305160 14840 net.cpp:459] inception_4c/3x3 <- inception_4c/3x3_reduce_bn
I0107 20:30:37.305166 14840 net.cpp:415] inception_4c/3x3 -> inception_4c/3x3
I0107 20:30:37.305169 14840 net.cpp:160] Setting up inception_4c/3x3
I0107 20:30:37.305979 14840 net.cpp:167] Top shape: 1 160 14 14 (31360)
I0107 20:30:37.305985 14840 layer_factory.hpp:74] Creating layer inception_4c/3x3_bn
I0107 20:30:37.305989 14840 layer_factory.cpp:177] Layer inception_4c/3x3_bn is using CAFFE engine.
I0107 20:30:37.305994 14840 net.cpp:96] Creating Layer inception_4c/3x3_bn
I0107 20:30:37.305996 14840 net.cpp:459] inception_4c/3x3_bn <- inception_4c/3x3
I0107 20:30:37.306000 14840 net.cpp:415] inception_4c/3x3_bn -> inception_4c/3x3_bn
I0107 20:30:37.306005 14840 net.cpp:160] Setting up inception_4c/3x3_bn
I0107 20:30:37.306016 14840 net.cpp:167] Top shape: 1 160 14 14 (31360)
I0107 20:30:37.306021 14840 layer_factory.hpp:74] Creating layer inception_4c/relu_3x3
I0107 20:30:37.306025 14840 net.cpp:96] Creating Layer inception_4c/relu_3x3
I0107 20:30:37.306028 14840 net.cpp:459] inception_4c/relu_3x3 <- inception_4c/3x3_bn
I0107 20:30:37.306031 14840 net.cpp:404] inception_4c/relu_3x3 -> inception_4c/3x3_bn (in-place)
I0107 20:30:37.306035 14840 net.cpp:160] Setting up inception_4c/relu_3x3
I0107 20:30:37.306038 14840 net.cpp:167] Top shape: 1 160 14 14 (31360)
I0107 20:30:37.306041 14840 layer_factory.hpp:74] Creating layer inception_4c/double_3x3_reduce
I0107 20:30:37.306046 14840 net.cpp:96] Creating Layer inception_4c/double_3x3_reduce
I0107 20:30:37.306048 14840 net.cpp:459] inception_4c/double_3x3_reduce <- inception_4b/output_inception_4b/output_0_split_2
I0107 20:30:37.306052 14840 net.cpp:415] inception_4c/double_3x3_reduce -> inception_4c/double_3x3_reduce
I0107 20:30:37.306057 14840 net.cpp:160] Setting up inception_4c/double_3x3_reduce
I0107 20:30:37.306381 14840 net.cpp:167] Top shape: 1 128 14 14 (25088)
I0107 20:30:37.306386 14840 layer_factory.hpp:74] Creating layer inception_4c/double_3x3_reduce_bn
I0107 20:30:37.306390 14840 layer_factory.cpp:177] Layer inception_4c/double_3x3_reduce_bn is using CAFFE engine.
I0107 20:30:37.306394 14840 net.cpp:96] Creating Layer inception_4c/double_3x3_reduce_bn
I0107 20:30:37.306397 14840 net.cpp:459] inception_4c/double_3x3_reduce_bn <- inception_4c/double_3x3_reduce
I0107 20:30:37.306401 14840 net.cpp:415] inception_4c/double_3x3_reduce_bn -> inception_4c/double_3x3_reduce_bn
I0107 20:30:37.306406 14840 net.cpp:160] Setting up inception_4c/double_3x3_reduce_bn
I0107 20:30:37.306416 14840 net.cpp:167] Top shape: 1 128 14 14 (25088)
I0107 20:30:37.306421 14840 layer_factory.hpp:74] Creating layer inception_4c/relu_double_3x3_reduce
I0107 20:30:37.306424 14840 net.cpp:96] Creating Layer inception_4c/relu_double_3x3_reduce
I0107 20:30:37.306427 14840 net.cpp:459] inception_4c/relu_double_3x3_reduce <- inception_4c/double_3x3_reduce_bn
I0107 20:30:37.306432 14840 net.cpp:404] inception_4c/relu_double_3x3_reduce -> inception_4c/double_3x3_reduce_bn (in-place)
I0107 20:30:37.306435 14840 net.cpp:160] Setting up inception_4c/relu_double_3x3_reduce
I0107 20:30:37.306438 14840 net.cpp:167] Top shape: 1 128 14 14 (25088)
I0107 20:30:37.306440 14840 layer_factory.hpp:74] Creating layer inception_4c/double_3x3_1
I0107 20:30:37.306444 14840 net.cpp:96] Creating Layer inception_4c/double_3x3_1
I0107 20:30:37.306447 14840 net.cpp:459] inception_4c/double_3x3_1 <- inception_4c/double_3x3_reduce_bn
I0107 20:30:37.306454 14840 net.cpp:415] inception_4c/double_3x3_1 -> inception_4c/double_3x3_1
I0107 20:30:37.306458 14840 net.cpp:160] Setting up inception_4c/double_3x3_1
I0107 20:30:37.307261 14840 net.cpp:167] Top shape: 1 160 14 14 (31360)
I0107 20:30:37.307267 14840 layer_factory.hpp:74] Creating layer inception_4c/double_3x3_1_bn
I0107 20:30:37.307271 14840 layer_factory.cpp:177] Layer inception_4c/double_3x3_1_bn is using CAFFE engine.
I0107 20:30:37.307276 14840 net.cpp:96] Creating Layer inception_4c/double_3x3_1_bn
I0107 20:30:37.307278 14840 net.cpp:459] inception_4c/double_3x3_1_bn <- inception_4c/double_3x3_1
I0107 20:30:37.307282 14840 net.cpp:415] inception_4c/double_3x3_1_bn -> inception_4c/double_3x3_1_bn
I0107 20:30:37.307286 14840 net.cpp:160] Setting up inception_4c/double_3x3_1_bn
I0107 20:30:37.307296 14840 net.cpp:167] Top shape: 1 160 14 14 (31360)
I0107 20:30:37.307301 14840 layer_factory.hpp:74] Creating layer inception_4c/relu_double_3x3_1
I0107 20:30:37.307306 14840 net.cpp:96] Creating Layer inception_4c/relu_double_3x3_1
I0107 20:30:37.307307 14840 net.cpp:459] inception_4c/relu_double_3x3_1 <- inception_4c/double_3x3_1_bn
I0107 20:30:37.307312 14840 net.cpp:404] inception_4c/relu_double_3x3_1 -> inception_4c/double_3x3_1_bn (in-place)
I0107 20:30:37.307314 14840 net.cpp:160] Setting up inception_4c/relu_double_3x3_1
I0107 20:30:37.307317 14840 net.cpp:167] Top shape: 1 160 14 14 (31360)
I0107 20:30:37.307320 14840 layer_factory.hpp:74] Creating layer inception_4c/double_3x3_2
I0107 20:30:37.307324 14840 net.cpp:96] Creating Layer inception_4c/double_3x3_2
I0107 20:30:37.307327 14840 net.cpp:459] inception_4c/double_3x3_2 <- inception_4c/double_3x3_1_bn
I0107 20:30:37.307332 14840 net.cpp:415] inception_4c/double_3x3_2 -> inception_4c/double_3x3_2
I0107 20:30:37.307335 14840 net.cpp:160] Setting up inception_4c/double_3x3_2
I0107 20:30:37.308333 14840 net.cpp:167] Top shape: 1 160 14 14 (31360)
I0107 20:30:37.308339 14840 layer_factory.hpp:74] Creating layer inception_4c/double_3x3_2_bn
I0107 20:30:37.308342 14840 layer_factory.cpp:177] Layer inception_4c/double_3x3_2_bn is using CAFFE engine.
I0107 20:30:37.308347 14840 net.cpp:96] Creating Layer inception_4c/double_3x3_2_bn
I0107 20:30:37.308349 14840 net.cpp:459] inception_4c/double_3x3_2_bn <- inception_4c/double_3x3_2
I0107 20:30:37.308354 14840 net.cpp:415] inception_4c/double_3x3_2_bn -> inception_4c/double_3x3_2_bn
I0107 20:30:37.308358 14840 net.cpp:160] Setting up inception_4c/double_3x3_2_bn
I0107 20:30:37.308367 14840 net.cpp:167] Top shape: 1 160 14 14 (31360)
I0107 20:30:37.308373 14840 layer_factory.hpp:74] Creating layer inception_4c/relu_double_3x3_2
I0107 20:30:37.308378 14840 net.cpp:96] Creating Layer inception_4c/relu_double_3x3_2
I0107 20:30:37.308380 14840 net.cpp:459] inception_4c/relu_double_3x3_2 <- inception_4c/double_3x3_2_bn
I0107 20:30:37.308384 14840 net.cpp:404] inception_4c/relu_double_3x3_2 -> inception_4c/double_3x3_2_bn (in-place)
I0107 20:30:37.308387 14840 net.cpp:160] Setting up inception_4c/relu_double_3x3_2
I0107 20:30:37.308390 14840 net.cpp:167] Top shape: 1 160 14 14 (31360)
I0107 20:30:37.308393 14840 layer_factory.hpp:74] Creating layer inception_4c/pool
I0107 20:30:37.308398 14840 net.cpp:96] Creating Layer inception_4c/pool
I0107 20:30:37.308400 14840 net.cpp:459] inception_4c/pool <- inception_4b/output_inception_4b/output_0_split_3
I0107 20:30:37.308404 14840 net.cpp:415] inception_4c/pool -> inception_4c/pool
I0107 20:30:37.308408 14840 net.cpp:160] Setting up inception_4c/pool
I0107 20:30:37.308413 14840 net.cpp:167] Top shape: 1 576 14 14 (112896)
I0107 20:30:37.308414 14840 layer_factory.hpp:74] Creating layer inception_4c/pool_proj
I0107 20:30:37.308419 14840 net.cpp:96] Creating Layer inception_4c/pool_proj
I0107 20:30:37.308423 14840 net.cpp:459] inception_4c/pool_proj <- inception_4c/pool
I0107 20:30:37.308429 14840 net.cpp:415] inception_4c/pool_proj -> inception_4c/pool_proj
I0107 20:30:37.308432 14840 net.cpp:160] Setting up inception_4c/pool_proj
I0107 20:30:37.308758 14840 net.cpp:167] Top shape: 1 128 14 14 (25088)
I0107 20:30:37.308764 14840 layer_factory.hpp:74] Creating layer inception_4c/pool_proj_bn
I0107 20:30:37.308768 14840 layer_factory.cpp:177] Layer inception_4c/pool_proj_bn is using CAFFE engine.
I0107 20:30:37.308773 14840 net.cpp:96] Creating Layer inception_4c/pool_proj_bn
I0107 20:30:37.308775 14840 net.cpp:459] inception_4c/pool_proj_bn <- inception_4c/pool_proj
I0107 20:30:37.308780 14840 net.cpp:415] inception_4c/pool_proj_bn -> inception_4c/pool_proj_bn
I0107 20:30:37.308784 14840 net.cpp:160] Setting up inception_4c/pool_proj_bn
I0107 20:30:37.308794 14840 net.cpp:167] Top shape: 1 128 14 14 (25088)
I0107 20:30:37.308815 14840 layer_factory.hpp:74] Creating layer inception_4c/relu_pool_proj
I0107 20:30:37.308820 14840 net.cpp:96] Creating Layer inception_4c/relu_pool_proj
I0107 20:30:37.308823 14840 net.cpp:459] inception_4c/relu_pool_proj <- inception_4c/pool_proj_bn
I0107 20:30:37.308826 14840 net.cpp:404] inception_4c/relu_pool_proj -> inception_4c/pool_proj_bn (in-place)
I0107 20:30:37.308830 14840 net.cpp:160] Setting up inception_4c/relu_pool_proj
I0107 20:30:37.308835 14840 net.cpp:167] Top shape: 1 128 14 14 (25088)
I0107 20:30:37.308836 14840 layer_factory.hpp:74] Creating layer inception_4c/output
I0107 20:30:37.308840 14840 net.cpp:96] Creating Layer inception_4c/output
I0107 20:30:37.308843 14840 net.cpp:459] inception_4c/output <- inception_4c/1x1_bn
I0107 20:30:37.308846 14840 net.cpp:459] inception_4c/output <- inception_4c/3x3_bn
I0107 20:30:37.308850 14840 net.cpp:459] inception_4c/output <- inception_4c/double_3x3_2_bn
I0107 20:30:37.308852 14840 net.cpp:459] inception_4c/output <- inception_4c/pool_proj_bn
I0107 20:30:37.308856 14840 net.cpp:415] inception_4c/output -> inception_4c/output
I0107 20:30:37.308861 14840 net.cpp:160] Setting up inception_4c/output
I0107 20:30:37.308864 14840 net.cpp:167] Top shape: 1 608 14 14 (119168)
I0107 20:30:37.308867 14840 layer_factory.hpp:74] Creating layer inception_4c/output_inception_4c/output_0_split
I0107 20:30:37.308871 14840 net.cpp:96] Creating Layer inception_4c/output_inception_4c/output_0_split
I0107 20:30:37.308873 14840 net.cpp:459] inception_4c/output_inception_4c/output_0_split <- inception_4c/output
I0107 20:30:37.308878 14840 net.cpp:415] inception_4c/output_inception_4c/output_0_split -> inception_4c/output_inception_4c/output_0_split_0
I0107 20:30:37.308882 14840 net.cpp:415] inception_4c/output_inception_4c/output_0_split -> inception_4c/output_inception_4c/output_0_split_1
I0107 20:30:37.308887 14840 net.cpp:415] inception_4c/output_inception_4c/output_0_split -> inception_4c/output_inception_4c/output_0_split_2
I0107 20:30:37.308892 14840 net.cpp:415] inception_4c/output_inception_4c/output_0_split -> inception_4c/output_inception_4c/output_0_split_3
I0107 20:30:37.308895 14840 net.cpp:160] Setting up inception_4c/output_inception_4c/output_0_split
I0107 20:30:37.308900 14840 net.cpp:167] Top shape: 1 608 14 14 (119168)
I0107 20:30:37.308903 14840 net.cpp:167] Top shape: 1 608 14 14 (119168)
I0107 20:30:37.308907 14840 net.cpp:167] Top shape: 1 608 14 14 (119168)
I0107 20:30:37.308909 14840 net.cpp:167] Top shape: 1 608 14 14 (119168)
I0107 20:30:37.308912 14840 layer_factory.hpp:74] Creating layer inception_4d/1x1
I0107 20:30:37.308917 14840 net.cpp:96] Creating Layer inception_4d/1x1
I0107 20:30:37.308919 14840 net.cpp:459] inception_4d/1x1 <- inception_4c/output_inception_4c/output_0_split_0
I0107 20:30:37.308924 14840 net.cpp:415] inception_4d/1x1 -> inception_4d/1x1
I0107 20:30:37.308935 14840 net.cpp:160] Setting up inception_4d/1x1
I0107 20:30:37.309195 14840 net.cpp:167] Top shape: 1 96 14 14 (18816)
I0107 20:30:37.309201 14840 layer_factory.hpp:74] Creating layer inception_4d/1x1_bn
I0107 20:30:37.309203 14840 layer_factory.cpp:177] Layer inception_4d/1x1_bn is using CAFFE engine.
I0107 20:30:37.309208 14840 net.cpp:96] Creating Layer inception_4d/1x1_bn
I0107 20:30:37.309211 14840 net.cpp:459] inception_4d/1x1_bn <- inception_4d/1x1
I0107 20:30:37.309216 14840 net.cpp:415] inception_4d/1x1_bn -> inception_4d/1x1_bn
I0107 20:30:37.309222 14840 net.cpp:160] Setting up inception_4d/1x1_bn
I0107 20:30:37.309233 14840 net.cpp:167] Top shape: 1 96 14 14 (18816)
I0107 20:30:37.309238 14840 layer_factory.hpp:74] Creating layer inception_4d/relu_1x1
I0107 20:30:37.309242 14840 net.cpp:96] Creating Layer inception_4d/relu_1x1
I0107 20:30:37.309245 14840 net.cpp:459] inception_4d/relu_1x1 <- inception_4d/1x1_bn
I0107 20:30:37.309248 14840 net.cpp:404] inception_4d/relu_1x1 -> inception_4d/1x1_bn (in-place)
I0107 20:30:37.309252 14840 net.cpp:160] Setting up inception_4d/relu_1x1
I0107 20:30:37.309255 14840 net.cpp:167] Top shape: 1 96 14 14 (18816)
I0107 20:30:37.309257 14840 layer_factory.hpp:74] Creating layer inception_4d/3x3_reduce
I0107 20:30:37.309262 14840 net.cpp:96] Creating Layer inception_4d/3x3_reduce
I0107 20:30:37.309265 14840 net.cpp:459] inception_4d/3x3_reduce <- inception_4c/output_inception_4c/output_0_split_1
I0107 20:30:37.309270 14840 net.cpp:415] inception_4d/3x3_reduce -> inception_4d/3x3_reduce
I0107 20:30:37.309274 14840 net.cpp:160] Setting up inception_4d/3x3_reduce
I0107 20:30:37.309619 14840 net.cpp:167] Top shape: 1 128 14 14 (25088)
I0107 20:30:37.309624 14840 layer_factory.hpp:74] Creating layer inception_4d/3x3_reduce_bn
I0107 20:30:37.309628 14840 layer_factory.cpp:177] Layer inception_4d/3x3_reduce_bn is using CAFFE engine.
I0107 20:30:37.309633 14840 net.cpp:96] Creating Layer inception_4d/3x3_reduce_bn
I0107 20:30:37.309635 14840 net.cpp:459] inception_4d/3x3_reduce_bn <- inception_4d/3x3_reduce
I0107 20:30:37.309640 14840 net.cpp:415] inception_4d/3x3_reduce_bn -> inception_4d/3x3_reduce_bn
I0107 20:30:37.309644 14840 net.cpp:160] Setting up inception_4d/3x3_reduce_bn
I0107 20:30:37.309654 14840 net.cpp:167] Top shape: 1 128 14 14 (25088)
I0107 20:30:37.309659 14840 layer_factory.hpp:74] Creating layer inception_4d/relu_3x3_reduce
I0107 20:30:37.309664 14840 net.cpp:96] Creating Layer inception_4d/relu_3x3_reduce
I0107 20:30:37.309667 14840 net.cpp:459] inception_4d/relu_3x3_reduce <- inception_4d/3x3_reduce_bn
I0107 20:30:37.309671 14840 net.cpp:404] inception_4d/relu_3x3_reduce -> inception_4d/3x3_reduce_bn (in-place)
I0107 20:30:37.309674 14840 net.cpp:160] Setting up inception_4d/relu_3x3_reduce
I0107 20:30:37.309679 14840 net.cpp:167] Top shape: 1 128 14 14 (25088)
I0107 20:30:37.309680 14840 layer_factory.hpp:74] Creating layer inception_4d/3x3
I0107 20:30:37.309685 14840 net.cpp:96] Creating Layer inception_4d/3x3
I0107 20:30:37.309687 14840 net.cpp:459] inception_4d/3x3 <- inception_4d/3x3_reduce_bn
I0107 20:30:37.309691 14840 net.cpp:415] inception_4d/3x3 -> inception_4d/3x3
I0107 20:30:37.309695 14840 net.cpp:160] Setting up inception_4d/3x3
I0107 20:30:37.310660 14840 net.cpp:167] Top shape: 1 192 14 14 (37632)
I0107 20:30:37.310667 14840 layer_factory.hpp:74] Creating layer inception_4d/3x3_bn
I0107 20:30:37.310669 14840 layer_factory.cpp:177] Layer inception_4d/3x3_bn is using CAFFE engine.
I0107 20:30:37.310673 14840 net.cpp:96] Creating Layer inception_4d/3x3_bn
I0107 20:30:37.310677 14840 net.cpp:459] inception_4d/3x3_bn <- inception_4d/3x3
I0107 20:30:37.310681 14840 net.cpp:415] inception_4d/3x3_bn -> inception_4d/3x3_bn
I0107 20:30:37.310686 14840 net.cpp:160] Setting up inception_4d/3x3_bn
I0107 20:30:37.310696 14840 net.cpp:167] Top shape: 1 192 14 14 (37632)
I0107 20:30:37.310701 14840 layer_factory.hpp:74] Creating layer inception_4d/relu_3x3
I0107 20:30:37.310706 14840 net.cpp:96] Creating Layer inception_4d/relu_3x3
I0107 20:30:37.310709 14840 net.cpp:459] inception_4d/relu_3x3 <- inception_4d/3x3_bn
I0107 20:30:37.310712 14840 net.cpp:404] inception_4d/relu_3x3 -> inception_4d/3x3_bn (in-place)
I0107 20:30:37.310715 14840 net.cpp:160] Setting up inception_4d/relu_3x3
I0107 20:30:37.310719 14840 net.cpp:167] Top shape: 1 192 14 14 (37632)
I0107 20:30:37.310721 14840 layer_factory.hpp:74] Creating layer inception_4d/double_3x3_reduce
I0107 20:30:37.310726 14840 net.cpp:96] Creating Layer inception_4d/double_3x3_reduce
I0107 20:30:37.310729 14840 net.cpp:459] inception_4d/double_3x3_reduce <- inception_4c/output_inception_4c/output_0_split_2
I0107 20:30:37.310736 14840 net.cpp:415] inception_4d/double_3x3_reduce -> inception_4d/double_3x3_reduce
I0107 20:30:37.310740 14840 net.cpp:160] Setting up inception_4d/double_3x3_reduce
I0107 20:30:37.311167 14840 net.cpp:167] Top shape: 1 160 14 14 (31360)
I0107 20:30:37.311173 14840 layer_factory.hpp:74] Creating layer inception_4d/double_3x3_reduce_bn
I0107 20:30:37.311177 14840 layer_factory.cpp:177] Layer inception_4d/double_3x3_reduce_bn is using CAFFE engine.
I0107 20:30:37.311182 14840 net.cpp:96] Creating Layer inception_4d/double_3x3_reduce_bn
I0107 20:30:37.311184 14840 net.cpp:459] inception_4d/double_3x3_reduce_bn <- inception_4d/double_3x3_reduce
I0107 20:30:37.311187 14840 net.cpp:415] inception_4d/double_3x3_reduce_bn -> inception_4d/double_3x3_reduce_bn
I0107 20:30:37.311192 14840 net.cpp:160] Setting up inception_4d/double_3x3_reduce_bn
I0107 20:30:37.311203 14840 net.cpp:167] Top shape: 1 160 14 14 (31360)
I0107 20:30:37.311208 14840 layer_factory.hpp:74] Creating layer inception_4d/relu_double_3x3_reduce
I0107 20:30:37.311210 14840 net.cpp:96] Creating Layer inception_4d/relu_double_3x3_reduce
I0107 20:30:37.311213 14840 net.cpp:459] inception_4d/relu_double_3x3_reduce <- inception_4d/double_3x3_reduce_bn
I0107 20:30:37.311216 14840 net.cpp:404] inception_4d/relu_double_3x3_reduce -> inception_4d/double_3x3_reduce_bn (in-place)
I0107 20:30:37.311220 14840 net.cpp:160] Setting up inception_4d/relu_double_3x3_reduce
I0107 20:30:37.311223 14840 net.cpp:167] Top shape: 1 160 14 14 (31360)
I0107 20:30:37.311226 14840 layer_factory.hpp:74] Creating layer inception_4d/double_3x3_1
I0107 20:30:37.311233 14840 net.cpp:96] Creating Layer inception_4d/double_3x3_1
I0107 20:30:37.311234 14840 net.cpp:459] inception_4d/double_3x3_1 <- inception_4d/double_3x3_reduce_bn
I0107 20:30:37.311239 14840 net.cpp:415] inception_4d/double_3x3_1 -> inception_4d/double_3x3_1
I0107 20:30:37.311242 14840 net.cpp:160] Setting up inception_4d/double_3x3_1
I0107 20:30:37.312440 14840 net.cpp:167] Top shape: 1 192 14 14 (37632)
I0107 20:30:37.312445 14840 layer_factory.hpp:74] Creating layer inception_4d/double_3x3_1_bn
I0107 20:30:37.312448 14840 layer_factory.cpp:177] Layer inception_4d/double_3x3_1_bn is using CAFFE engine.
I0107 20:30:37.312453 14840 net.cpp:96] Creating Layer inception_4d/double_3x3_1_bn
I0107 20:30:37.312456 14840 net.cpp:459] inception_4d/double_3x3_1_bn <- inception_4d/double_3x3_1
I0107 20:30:37.312461 14840 net.cpp:415] inception_4d/double_3x3_1_bn -> inception_4d/double_3x3_1_bn
I0107 20:30:37.312465 14840 net.cpp:160] Setting up inception_4d/double_3x3_1_bn
I0107 20:30:37.312475 14840 net.cpp:167] Top shape: 1 192 14 14 (37632)
I0107 20:30:37.312480 14840 layer_factory.hpp:74] Creating layer inception_4d/relu_double_3x3_1
I0107 20:30:37.312484 14840 net.cpp:96] Creating Layer inception_4d/relu_double_3x3_1
I0107 20:30:37.312487 14840 net.cpp:459] inception_4d/relu_double_3x3_1 <- inception_4d/double_3x3_1_bn
I0107 20:30:37.312490 14840 net.cpp:404] inception_4d/relu_double_3x3_1 -> inception_4d/double_3x3_1_bn (in-place)
I0107 20:30:37.312494 14840 net.cpp:160] Setting up inception_4d/relu_double_3x3_1
I0107 20:30:37.312497 14840 net.cpp:167] Top shape: 1 192 14 14 (37632)
I0107 20:30:37.312500 14840 layer_factory.hpp:74] Creating layer inception_4d/double_3x3_2
I0107 20:30:37.312505 14840 net.cpp:96] Creating Layer inception_4d/double_3x3_2
I0107 20:30:37.312506 14840 net.cpp:459] inception_4d/double_3x3_2 <- inception_4d/double_3x3_1_bn
I0107 20:30:37.312511 14840 net.cpp:415] inception_4d/double_3x3_2 -> inception_4d/double_3x3_2
I0107 20:30:37.312515 14840 net.cpp:160] Setting up inception_4d/double_3x3_2
I0107 20:30:37.313952 14840 net.cpp:167] Top shape: 1 192 14 14 (37632)
I0107 20:30:37.313959 14840 layer_factory.hpp:74] Creating layer inception_4d/double_3x3_2_bn
I0107 20:30:37.313962 14840 layer_factory.cpp:177] Layer inception_4d/double_3x3_2_bn is using CAFFE engine.
I0107 20:30:37.313967 14840 net.cpp:96] Creating Layer inception_4d/double_3x3_2_bn
I0107 20:30:37.313976 14840 net.cpp:459] inception_4d/double_3x3_2_bn <- inception_4d/double_3x3_2
I0107 20:30:37.313979 14840 net.cpp:415] inception_4d/double_3x3_2_bn -> inception_4d/double_3x3_2_bn
I0107 20:30:37.313984 14840 net.cpp:160] Setting up inception_4d/double_3x3_2_bn
I0107 20:30:37.313994 14840 net.cpp:167] Top shape: 1 192 14 14 (37632)
I0107 20:30:37.313999 14840 layer_factory.hpp:74] Creating layer inception_4d/relu_double_3x3_2
I0107 20:30:37.314004 14840 net.cpp:96] Creating Layer inception_4d/relu_double_3x3_2
I0107 20:30:37.314007 14840 net.cpp:459] inception_4d/relu_double_3x3_2 <- inception_4d/double_3x3_2_bn
I0107 20:30:37.314010 14840 net.cpp:404] inception_4d/relu_double_3x3_2 -> inception_4d/double_3x3_2_bn (in-place)
I0107 20:30:37.314014 14840 net.cpp:160] Setting up inception_4d/relu_double_3x3_2
I0107 20:30:37.314018 14840 net.cpp:167] Top shape: 1 192 14 14 (37632)
I0107 20:30:37.314020 14840 layer_factory.hpp:74] Creating layer inception_4d/pool
I0107 20:30:37.314024 14840 net.cpp:96] Creating Layer inception_4d/pool
I0107 20:30:37.314028 14840 net.cpp:459] inception_4d/pool <- inception_4c/output_inception_4c/output_0_split_3
I0107 20:30:37.314030 14840 net.cpp:415] inception_4d/pool -> inception_4d/pool
I0107 20:30:37.314034 14840 net.cpp:160] Setting up inception_4d/pool
I0107 20:30:37.314038 14840 net.cpp:167] Top shape: 1 608 14 14 (119168)
I0107 20:30:37.314041 14840 layer_factory.hpp:74] Creating layer inception_4d/pool_proj
I0107 20:30:37.314046 14840 net.cpp:96] Creating Layer inception_4d/pool_proj
I0107 20:30:37.314049 14840 net.cpp:459] inception_4d/pool_proj <- inception_4d/pool
I0107 20:30:37.314054 14840 net.cpp:415] inception_4d/pool_proj -> inception_4d/pool_proj
I0107 20:30:37.314057 14840 net.cpp:160] Setting up inception_4d/pool_proj
I0107 20:30:37.314399 14840 net.cpp:167] Top shape: 1 128 14 14 (25088)
I0107 20:30:37.314404 14840 layer_factory.hpp:74] Creating layer inception_4d/pool_proj_bn
I0107 20:30:37.314407 14840 layer_factory.cpp:177] Layer inception_4d/pool_proj_bn is using CAFFE engine.
I0107 20:30:37.314412 14840 net.cpp:96] Creating Layer inception_4d/pool_proj_bn
I0107 20:30:37.314415 14840 net.cpp:459] inception_4d/pool_proj_bn <- inception_4d/pool_proj
I0107 20:30:37.314419 14840 net.cpp:415] inception_4d/pool_proj_bn -> inception_4d/pool_proj_bn
I0107 20:30:37.314424 14840 net.cpp:160] Setting up inception_4d/pool_proj_bn
I0107 20:30:37.314435 14840 net.cpp:167] Top shape: 1 128 14 14 (25088)
I0107 20:30:37.314440 14840 layer_factory.hpp:74] Creating layer inception_4d/relu_pool_proj
I0107 20:30:37.314443 14840 net.cpp:96] Creating Layer inception_4d/relu_pool_proj
I0107 20:30:37.314446 14840 net.cpp:459] inception_4d/relu_pool_proj <- inception_4d/pool_proj_bn
I0107 20:30:37.314450 14840 net.cpp:404] inception_4d/relu_pool_proj -> inception_4d/pool_proj_bn (in-place)
I0107 20:30:37.314453 14840 net.cpp:160] Setting up inception_4d/relu_pool_proj
I0107 20:30:37.314457 14840 net.cpp:167] Top shape: 1 128 14 14 (25088)
I0107 20:30:37.314460 14840 layer_factory.hpp:74] Creating layer inception_4d/output
I0107 20:30:37.314463 14840 net.cpp:96] Creating Layer inception_4d/output
I0107 20:30:37.314466 14840 net.cpp:459] inception_4d/output <- inception_4d/1x1_bn
I0107 20:30:37.314469 14840 net.cpp:459] inception_4d/output <- inception_4d/3x3_bn
I0107 20:30:37.314472 14840 net.cpp:459] inception_4d/output <- inception_4d/double_3x3_2_bn
I0107 20:30:37.314476 14840 net.cpp:459] inception_4d/output <- inception_4d/pool_proj_bn
I0107 20:30:37.314479 14840 net.cpp:415] inception_4d/output -> inception_4d/output
I0107 20:30:37.314483 14840 net.cpp:160] Setting up inception_4d/output
I0107 20:30:37.314488 14840 net.cpp:167] Top shape: 1 608 14 14 (119168)
I0107 20:30:37.314491 14840 layer_factory.hpp:74] Creating layer inception_4d/output_inception_4d/output_0_split
I0107 20:30:37.314494 14840 net.cpp:96] Creating Layer inception_4d/output_inception_4d/output_0_split
I0107 20:30:37.314497 14840 net.cpp:459] inception_4d/output_inception_4d/output_0_split <- inception_4d/output
I0107 20:30:37.314502 14840 net.cpp:415] inception_4d/output_inception_4d/output_0_split -> inception_4d/output_inception_4d/output_0_split_0
I0107 20:30:37.314507 14840 net.cpp:415] inception_4d/output_inception_4d/output_0_split -> inception_4d/output_inception_4d/output_0_split_1
I0107 20:30:37.314512 14840 net.cpp:415] inception_4d/output_inception_4d/output_0_split -> inception_4d/output_inception_4d/output_0_split_2
I0107 20:30:37.314517 14840 net.cpp:160] Setting up inception_4d/output_inception_4d/output_0_split
I0107 20:30:37.314520 14840 net.cpp:167] Top shape: 1 608 14 14 (119168)
I0107 20:30:37.314524 14840 net.cpp:167] Top shape: 1 608 14 14 (119168)
I0107 20:30:37.314527 14840 net.cpp:167] Top shape: 1 608 14 14 (119168)
I0107 20:30:37.314529 14840 layer_factory.hpp:74] Creating layer inception_4e/3x3_reduce
I0107 20:30:37.314534 14840 net.cpp:96] Creating Layer inception_4e/3x3_reduce
I0107 20:30:37.314538 14840 net.cpp:459] inception_4e/3x3_reduce <- inception_4d/output_inception_4d/output_0_split_0
I0107 20:30:37.314541 14840 net.cpp:415] inception_4e/3x3_reduce -> inception_4e/3x3_reduce
I0107 20:30:37.314545 14840 net.cpp:160] Setting up inception_4e/3x3_reduce
I0107 20:30:37.314888 14840 net.cpp:167] Top shape: 1 128 14 14 (25088)
I0107 20:30:37.314893 14840 layer_factory.hpp:74] Creating layer inception_4e/3x3_reduce_bn
I0107 20:30:37.314896 14840 layer_factory.cpp:177] Layer inception_4e/3x3_reduce_bn is using CAFFE engine.
I0107 20:30:37.314901 14840 net.cpp:96] Creating Layer inception_4e/3x3_reduce_bn
I0107 20:30:37.314904 14840 net.cpp:459] inception_4e/3x3_reduce_bn <- inception_4e/3x3_reduce
I0107 20:30:37.314908 14840 net.cpp:415] inception_4e/3x3_reduce_bn -> inception_4e/3x3_reduce_bn
I0107 20:30:37.314913 14840 net.cpp:160] Setting up inception_4e/3x3_reduce_bn
I0107 20:30:37.314923 14840 net.cpp:167] Top shape: 1 128 14 14 (25088)
I0107 20:30:37.314927 14840 layer_factory.hpp:74] Creating layer inception_4e/relu_3x3_reduce
I0107 20:30:37.314931 14840 net.cpp:96] Creating Layer inception_4e/relu_3x3_reduce
I0107 20:30:37.314934 14840 net.cpp:459] inception_4e/relu_3x3_reduce <- inception_4e/3x3_reduce_bn
I0107 20:30:37.314939 14840 net.cpp:404] inception_4e/relu_3x3_reduce -> inception_4e/3x3_reduce_bn (in-place)
I0107 20:30:37.314941 14840 net.cpp:160] Setting up inception_4e/relu_3x3_reduce
I0107 20:30:37.314944 14840 net.cpp:167] Top shape: 1 128 14 14 (25088)
I0107 20:30:37.314947 14840 layer_factory.hpp:74] Creating layer inception_4e/3x3
I0107 20:30:37.314951 14840 net.cpp:96] Creating Layer inception_4e/3x3
I0107 20:30:37.314954 14840 net.cpp:459] inception_4e/3x3 <- inception_4e/3x3_reduce_bn
I0107 20:30:37.314960 14840 net.cpp:415] inception_4e/3x3 -> inception_4e/3x3
I0107 20:30:37.314963 14840 net.cpp:160] Setting up inception_4e/3x3
I0107 20:30:37.315923 14840 net.cpp:167] Top shape: 1 192 7 7 (9408)
I0107 20:30:37.315929 14840 layer_factory.hpp:74] Creating layer inception_4e/3x3_bn
I0107 20:30:37.315932 14840 layer_factory.cpp:177] Layer inception_4e/3x3_bn is using CAFFE engine.
I0107 20:30:37.315937 14840 net.cpp:96] Creating Layer inception_4e/3x3_bn
I0107 20:30:37.315939 14840 net.cpp:459] inception_4e/3x3_bn <- inception_4e/3x3
I0107 20:30:37.315943 14840 net.cpp:415] inception_4e/3x3_bn -> inception_4e/3x3_bn
I0107 20:30:37.315948 14840 net.cpp:160] Setting up inception_4e/3x3_bn
I0107 20:30:37.315958 14840 net.cpp:167] Top shape: 1 192 7 7 (9408)
I0107 20:30:37.315963 14840 layer_factory.hpp:74] Creating layer inception_4e/relu_3x3
I0107 20:30:37.315968 14840 net.cpp:96] Creating Layer inception_4e/relu_3x3
I0107 20:30:37.315969 14840 net.cpp:459] inception_4e/relu_3x3 <- inception_4e/3x3_bn
I0107 20:30:37.315973 14840 net.cpp:404] inception_4e/relu_3x3 -> inception_4e/3x3_bn (in-place)
I0107 20:30:37.315978 14840 net.cpp:160] Setting up inception_4e/relu_3x3
I0107 20:30:37.315980 14840 net.cpp:167] Top shape: 1 192 7 7 (9408)
I0107 20:30:37.315984 14840 layer_factory.hpp:74] Creating layer inception_4e/double_3x3_reduce
I0107 20:30:37.315990 14840 net.cpp:96] Creating Layer inception_4e/double_3x3_reduce
I0107 20:30:37.315994 14840 net.cpp:459] inception_4e/double_3x3_reduce <- inception_4d/output_inception_4d/output_0_split_1
I0107 20:30:37.315997 14840 net.cpp:415] inception_4e/double_3x3_reduce -> inception_4e/double_3x3_reduce
I0107 20:30:37.316001 14840 net.cpp:160] Setting up inception_4e/double_3x3_reduce
I0107 20:30:37.316512 14840 net.cpp:167] Top shape: 1 192 14 14 (37632)
I0107 20:30:37.316519 14840 layer_factory.hpp:74] Creating layer inception_4e/double_3x3_reduce_bn
I0107 20:30:37.316520 14840 layer_factory.cpp:177] Layer inception_4e/double_3x3_reduce_bn is using CAFFE engine.
I0107 20:30:37.316526 14840 net.cpp:96] Creating Layer inception_4e/double_3x3_reduce_bn
I0107 20:30:37.316529 14840 net.cpp:459] inception_4e/double_3x3_reduce_bn <- inception_4e/double_3x3_reduce
I0107 20:30:37.316532 14840 net.cpp:415] inception_4e/double_3x3_reduce_bn -> inception_4e/double_3x3_reduce_bn
I0107 20:30:37.316537 14840 net.cpp:160] Setting up inception_4e/double_3x3_reduce_bn
I0107 20:30:37.316547 14840 net.cpp:167] Top shape: 1 192 14 14 (37632)
I0107 20:30:37.316552 14840 layer_factory.hpp:74] Creating layer inception_4e/relu_double_3x3_reduce
I0107 20:30:37.316556 14840 net.cpp:96] Creating Layer inception_4e/relu_double_3x3_reduce
I0107 20:30:37.316558 14840 net.cpp:459] inception_4e/relu_double_3x3_reduce <- inception_4e/double_3x3_reduce_bn
I0107 20:30:37.316562 14840 net.cpp:404] inception_4e/relu_double_3x3_reduce -> inception_4e/double_3x3_reduce_bn (in-place)
I0107 20:30:37.316565 14840 net.cpp:160] Setting up inception_4e/relu_double_3x3_reduce
I0107 20:30:37.316570 14840 net.cpp:167] Top shape: 1 192 14 14 (37632)
I0107 20:30:37.316571 14840 layer_factory.hpp:74] Creating layer inception_4e/double_3x3_1
I0107 20:30:37.316576 14840 net.cpp:96] Creating Layer inception_4e/double_3x3_1
I0107 20:30:37.316579 14840 net.cpp:459] inception_4e/double_3x3_1 <- inception_4e/double_3x3_reduce_bn
I0107 20:30:37.316584 14840 net.cpp:415] inception_4e/double_3x3_1 -> inception_4e/double_3x3_1
I0107 20:30:37.316588 14840 net.cpp:160] Setting up inception_4e/double_3x3_1
I0107 20:30:37.318500 14840 net.cpp:167] Top shape: 1 256 14 14 (50176)
I0107 20:30:37.318507 14840 layer_factory.hpp:74] Creating layer inception_4e/double_3x3_1_bn
I0107 20:30:37.318511 14840 layer_factory.cpp:177] Layer inception_4e/double_3x3_1_bn is using CAFFE engine.
I0107 20:30:37.318516 14840 net.cpp:96] Creating Layer inception_4e/double_3x3_1_bn
I0107 20:30:37.318518 14840 net.cpp:459] inception_4e/double_3x3_1_bn <- inception_4e/double_3x3_1
I0107 20:30:37.318522 14840 net.cpp:415] inception_4e/double_3x3_1_bn -> inception_4e/double_3x3_1_bn
I0107 20:30:37.318527 14840 net.cpp:160] Setting up inception_4e/double_3x3_1_bn
I0107 20:30:37.318537 14840 net.cpp:167] Top shape: 1 256 14 14 (50176)
I0107 20:30:37.318543 14840 layer_factory.hpp:74] Creating layer inception_4e/relu_double_3x3_1
I0107 20:30:37.318547 14840 net.cpp:96] Creating Layer inception_4e/relu_double_3x3_1
I0107 20:30:37.318549 14840 net.cpp:459] inception_4e/relu_double_3x3_1 <- inception_4e/double_3x3_1_bn
I0107 20:30:37.318553 14840 net.cpp:404] inception_4e/relu_double_3x3_1 -> inception_4e/double_3x3_1_bn (in-place)
I0107 20:30:37.318557 14840 net.cpp:160] Setting up inception_4e/relu_double_3x3_1
I0107 20:30:37.318560 14840 net.cpp:167] Top shape: 1 256 14 14 (50176)
I0107 20:30:37.318563 14840 layer_factory.hpp:74] Creating layer inception_4e/double_3x3_2
I0107 20:30:37.318567 14840 net.cpp:96] Creating Layer inception_4e/double_3x3_2
I0107 20:30:37.318569 14840 net.cpp:459] inception_4e/double_3x3_2 <- inception_4e/double_3x3_1_bn
I0107 20:30:37.318574 14840 net.cpp:415] inception_4e/double_3x3_2 -> inception_4e/double_3x3_2
I0107 20:30:37.318578 14840 net.cpp:160] Setting up inception_4e/double_3x3_2
I0107 20:30:37.321116 14840 net.cpp:167] Top shape: 1 256 7 7 (12544)
I0107 20:30:37.321125 14840 layer_factory.hpp:74] Creating layer inception_4e/double_3x3_2_bn
I0107 20:30:37.321130 14840 layer_factory.cpp:177] Layer inception_4e/double_3x3_2_bn is using CAFFE engine.
I0107 20:30:37.321135 14840 net.cpp:96] Creating Layer inception_4e/double_3x3_2_bn
I0107 20:30:37.321138 14840 net.cpp:459] inception_4e/double_3x3_2_bn <- inception_4e/double_3x3_2
I0107 20:30:37.321142 14840 net.cpp:415] inception_4e/double_3x3_2_bn -> inception_4e/double_3x3_2_bn
I0107 20:30:37.321147 14840 net.cpp:160] Setting up inception_4e/double_3x3_2_bn
I0107 20:30:37.321157 14840 net.cpp:167] Top shape: 1 256 7 7 (12544)
I0107 20:30:37.321162 14840 layer_factory.hpp:74] Creating layer inception_4e/relu_double_3x3_2
I0107 20:30:37.321166 14840 net.cpp:96] Creating Layer inception_4e/relu_double_3x3_2
I0107 20:30:37.321169 14840 net.cpp:459] inception_4e/relu_double_3x3_2 <- inception_4e/double_3x3_2_bn
I0107 20:30:37.321172 14840 net.cpp:404] inception_4e/relu_double_3x3_2 -> inception_4e/double_3x3_2_bn (in-place)
I0107 20:30:37.321175 14840 net.cpp:160] Setting up inception_4e/relu_double_3x3_2
I0107 20:30:37.321179 14840 net.cpp:167] Top shape: 1 256 7 7 (12544)
I0107 20:30:37.321182 14840 layer_factory.hpp:74] Creating layer inception_4e/pool
I0107 20:30:37.321185 14840 net.cpp:96] Creating Layer inception_4e/pool
I0107 20:30:37.321188 14840 net.cpp:459] inception_4e/pool <- inception_4d/output_inception_4d/output_0_split_2
I0107 20:30:37.321192 14840 net.cpp:415] inception_4e/pool -> inception_4e/pool
I0107 20:30:37.321197 14840 net.cpp:160] Setting up inception_4e/pool
I0107 20:30:37.321202 14840 net.cpp:167] Top shape: 1 608 7 7 (29792)
I0107 20:30:37.321205 14840 layer_factory.hpp:74] Creating layer inception_4e/output
I0107 20:30:37.321209 14840 net.cpp:96] Creating Layer inception_4e/output
I0107 20:30:37.321213 14840 net.cpp:459] inception_4e/output <- inception_4e/3x3_bn
I0107 20:30:37.321215 14840 net.cpp:459] inception_4e/output <- inception_4e/double_3x3_2_bn
I0107 20:30:37.321218 14840 net.cpp:459] inception_4e/output <- inception_4e/pool
I0107 20:30:37.321223 14840 net.cpp:415] inception_4e/output -> inception_4e/output
I0107 20:30:37.321226 14840 net.cpp:160] Setting up inception_4e/output
I0107 20:30:37.321231 14840 net.cpp:167] Top shape: 1 1056 7 7 (51744)
I0107 20:30:37.321233 14840 layer_factory.hpp:74] Creating layer inception_4e/output_inception_4e/output_0_split
I0107 20:30:37.321238 14840 net.cpp:96] Creating Layer inception_4e/output_inception_4e/output_0_split
I0107 20:30:37.321240 14840 net.cpp:459] inception_4e/output_inception_4e/output_0_split <- inception_4e/output
I0107 20:30:37.321244 14840 net.cpp:415] inception_4e/output_inception_4e/output_0_split -> inception_4e/output_inception_4e/output_0_split_0
I0107 20:30:37.321249 14840 net.cpp:415] inception_4e/output_inception_4e/output_0_split -> inception_4e/output_inception_4e/output_0_split_1
I0107 20:30:37.321254 14840 net.cpp:415] inception_4e/output_inception_4e/output_0_split -> inception_4e/output_inception_4e/output_0_split_2
I0107 20:30:37.321259 14840 net.cpp:415] inception_4e/output_inception_4e/output_0_split -> inception_4e/output_inception_4e/output_0_split_3
I0107 20:30:37.321261 14840 net.cpp:160] Setting up inception_4e/output_inception_4e/output_0_split
I0107 20:30:37.321266 14840 net.cpp:167] Top shape: 1 1056 7 7 (51744)
I0107 20:30:37.321269 14840 net.cpp:167] Top shape: 1 1056 7 7 (51744)
I0107 20:30:37.321272 14840 net.cpp:167] Top shape: 1 1056 7 7 (51744)
I0107 20:30:37.321274 14840 net.cpp:167] Top shape: 1 1056 7 7 (51744)
I0107 20:30:37.321277 14840 layer_factory.hpp:74] Creating layer inception_5a/1x1
I0107 20:30:37.321282 14840 net.cpp:96] Creating Layer inception_5a/1x1
I0107 20:30:37.321285 14840 net.cpp:459] inception_5a/1x1 <- inception_4e/output_inception_4e/output_0_split_0
I0107 20:30:37.321290 14840 net.cpp:415] inception_5a/1x1 -> inception_5a/1x1
I0107 20:30:37.321293 14840 net.cpp:160] Setting up inception_5a/1x1
I0107 20:30:37.322873 14840 net.cpp:167] Top shape: 1 352 7 7 (17248)
I0107 20:30:37.322880 14840 layer_factory.hpp:74] Creating layer inception_5a/1x1_bn
I0107 20:30:37.322883 14840 layer_factory.cpp:177] Layer inception_5a/1x1_bn is using CAFFE engine.
I0107 20:30:37.322890 14840 net.cpp:96] Creating Layer inception_5a/1x1_bn
I0107 20:30:37.322892 14840 net.cpp:459] inception_5a/1x1_bn <- inception_5a/1x1
I0107 20:30:37.322897 14840 net.cpp:415] inception_5a/1x1_bn -> inception_5a/1x1_bn
I0107 20:30:37.322902 14840 net.cpp:160] Setting up inception_5a/1x1_bn
I0107 20:30:37.322913 14840 net.cpp:167] Top shape: 1 352 7 7 (17248)
I0107 20:30:37.322918 14840 layer_factory.hpp:74] Creating layer inception_5a/relu_1x1
I0107 20:30:37.322922 14840 net.cpp:96] Creating Layer inception_5a/relu_1x1
I0107 20:30:37.322926 14840 net.cpp:459] inception_5a/relu_1x1 <- inception_5a/1x1_bn
I0107 20:30:37.322928 14840 net.cpp:404] inception_5a/relu_1x1 -> inception_5a/1x1_bn (in-place)
I0107 20:30:37.322932 14840 net.cpp:160] Setting up inception_5a/relu_1x1
I0107 20:30:37.322935 14840 net.cpp:167] Top shape: 1 352 7 7 (17248)
I0107 20:30:37.322938 14840 layer_factory.hpp:74] Creating layer inception_5a/3x3_reduce
I0107 20:30:37.322942 14840 net.cpp:96] Creating Layer inception_5a/3x3_reduce
I0107 20:30:37.322945 14840 net.cpp:459] inception_5a/3x3_reduce <- inception_4e/output_inception_4e/output_0_split_1
I0107 20:30:37.322949 14840 net.cpp:415] inception_5a/3x3_reduce -> inception_5a/3x3_reduce
I0107 20:30:37.322954 14840 net.cpp:160] Setting up inception_5a/3x3_reduce
I0107 20:30:37.323817 14840 net.cpp:167] Top shape: 1 192 7 7 (9408)
I0107 20:30:37.323822 14840 layer_factory.hpp:74] Creating layer inception_5a/3x3_reduce_bn
I0107 20:30:37.323825 14840 layer_factory.cpp:177] Layer inception_5a/3x3_reduce_bn is using CAFFE engine.
I0107 20:30:37.323829 14840 net.cpp:96] Creating Layer inception_5a/3x3_reduce_bn
I0107 20:30:37.323832 14840 net.cpp:459] inception_5a/3x3_reduce_bn <- inception_5a/3x3_reduce
I0107 20:30:37.323837 14840 net.cpp:415] inception_5a/3x3_reduce_bn -> inception_5a/3x3_reduce_bn
I0107 20:30:37.323842 14840 net.cpp:160] Setting up inception_5a/3x3_reduce_bn
I0107 20:30:37.323851 14840 net.cpp:167] Top shape: 1 192 7 7 (9408)
I0107 20:30:37.323856 14840 layer_factory.hpp:74] Creating layer inception_5a/relu_3x3_reduce
I0107 20:30:37.323860 14840 net.cpp:96] Creating Layer inception_5a/relu_3x3_reduce
I0107 20:30:37.323863 14840 net.cpp:459] inception_5a/relu_3x3_reduce <- inception_5a/3x3_reduce_bn
I0107 20:30:37.323866 14840 net.cpp:404] inception_5a/relu_3x3_reduce -> inception_5a/3x3_reduce_bn (in-place)
I0107 20:30:37.323870 14840 net.cpp:160] Setting up inception_5a/relu_3x3_reduce
I0107 20:30:37.323873 14840 net.cpp:167] Top shape: 1 192 7 7 (9408)
I0107 20:30:37.323876 14840 layer_factory.hpp:74] Creating layer inception_5a/3x3
I0107 20:30:37.323880 14840 net.cpp:96] Creating Layer inception_5a/3x3
I0107 20:30:37.323884 14840 net.cpp:459] inception_5a/3x3 <- inception_5a/3x3_reduce_bn
I0107 20:30:37.323887 14840 net.cpp:415] inception_5a/3x3 -> inception_5a/3x3
I0107 20:30:37.323891 14840 net.cpp:160] Setting up inception_5a/3x3
I0107 20:30:37.326261 14840 net.cpp:167] Top shape: 1 320 7 7 (15680)
I0107 20:30:37.326268 14840 layer_factory.hpp:74] Creating layer inception_5a/3x3_bn
I0107 20:30:37.326272 14840 layer_factory.cpp:177] Layer inception_5a/3x3_bn is using CAFFE engine.
I0107 20:30:37.326277 14840 net.cpp:96] Creating Layer inception_5a/3x3_bn
I0107 20:30:37.326280 14840 net.cpp:459] inception_5a/3x3_bn <- inception_5a/3x3
I0107 20:30:37.326284 14840 net.cpp:415] inception_5a/3x3_bn -> inception_5a/3x3_bn
I0107 20:30:37.326288 14840 net.cpp:160] Setting up inception_5a/3x3_bn
I0107 20:30:37.326299 14840 net.cpp:167] Top shape: 1 320 7 7 (15680)
I0107 20:30:37.326304 14840 layer_factory.hpp:74] Creating layer inception_5a/relu_3x3
I0107 20:30:37.326308 14840 net.cpp:96] Creating Layer inception_5a/relu_3x3
I0107 20:30:37.326311 14840 net.cpp:459] inception_5a/relu_3x3 <- inception_5a/3x3_bn
I0107 20:30:37.326315 14840 net.cpp:404] inception_5a/relu_3x3 -> inception_5a/3x3_bn (in-place)
I0107 20:30:37.326318 14840 net.cpp:160] Setting up inception_5a/relu_3x3
I0107 20:30:37.326324 14840 net.cpp:167] Top shape: 1 320 7 7 (15680)
I0107 20:30:37.326328 14840 layer_factory.hpp:74] Creating layer inception_5a/double_3x3_reduce
I0107 20:30:37.326331 14840 net.cpp:96] Creating Layer inception_5a/double_3x3_reduce
I0107 20:30:37.326336 14840 net.cpp:459] inception_5a/double_3x3_reduce <- inception_4e/output_inception_4e/output_0_split_2
I0107 20:30:37.326340 14840 net.cpp:415] inception_5a/double_3x3_reduce -> inception_5a/double_3x3_reduce
I0107 20:30:37.326344 14840 net.cpp:160] Setting up inception_5a/double_3x3_reduce
I0107 20:30:37.327082 14840 net.cpp:167] Top shape: 1 160 7 7 (7840)
I0107 20:30:37.327088 14840 layer_factory.hpp:74] Creating layer inception_5a/double_3x3_reduce_bn
I0107 20:30:37.327091 14840 layer_factory.cpp:177] Layer inception_5a/double_3x3_reduce_bn is using CAFFE engine.
I0107 20:30:37.327097 14840 net.cpp:96] Creating Layer inception_5a/double_3x3_reduce_bn
I0107 20:30:37.327100 14840 net.cpp:459] inception_5a/double_3x3_reduce_bn <- inception_5a/double_3x3_reduce
I0107 20:30:37.327105 14840 net.cpp:415] inception_5a/double_3x3_reduce_bn -> inception_5a/double_3x3_reduce_bn
I0107 20:30:37.327108 14840 net.cpp:160] Setting up inception_5a/double_3x3_reduce_bn
I0107 20:30:37.327118 14840 net.cpp:167] Top shape: 1 160 7 7 (7840)
I0107 20:30:37.327123 14840 layer_factory.hpp:74] Creating layer inception_5a/relu_double_3x3_reduce
I0107 20:30:37.327127 14840 net.cpp:96] Creating Layer inception_5a/relu_double_3x3_reduce
I0107 20:30:37.327129 14840 net.cpp:459] inception_5a/relu_double_3x3_reduce <- inception_5a/double_3x3_reduce_bn
I0107 20:30:37.327134 14840 net.cpp:404] inception_5a/relu_double_3x3_reduce -> inception_5a/double_3x3_reduce_bn (in-place)
I0107 20:30:37.327138 14840 net.cpp:160] Setting up inception_5a/relu_double_3x3_reduce
I0107 20:30:37.327142 14840 net.cpp:167] Top shape: 1 160 7 7 (7840)
I0107 20:30:37.327144 14840 layer_factory.hpp:74] Creating layer inception_5a/double_3x3_1
I0107 20:30:37.327148 14840 net.cpp:96] Creating Layer inception_5a/double_3x3_1
I0107 20:30:37.327150 14840 net.cpp:459] inception_5a/double_3x3_1 <- inception_5a/double_3x3_reduce_bn
I0107 20:30:37.327155 14840 net.cpp:415] inception_5a/double_3x3_1 -> inception_5a/double_3x3_1
I0107 20:30:37.327159 14840 net.cpp:160] Setting up inception_5a/double_3x3_1
I0107 20:30:37.328557 14840 net.cpp:167] Top shape: 1 224 7 7 (10976)
I0107 20:30:37.328562 14840 layer_factory.hpp:74] Creating layer inception_5a/double_3x3_1_bn
I0107 20:30:37.328565 14840 layer_factory.cpp:177] Layer inception_5a/double_3x3_1_bn is using CAFFE engine.
I0107 20:30:37.328569 14840 net.cpp:96] Creating Layer inception_5a/double_3x3_1_bn
I0107 20:30:37.328572 14840 net.cpp:459] inception_5a/double_3x3_1_bn <- inception_5a/double_3x3_1
I0107 20:30:37.328577 14840 net.cpp:415] inception_5a/double_3x3_1_bn -> inception_5a/double_3x3_1_bn
I0107 20:30:37.328582 14840 net.cpp:160] Setting up inception_5a/double_3x3_1_bn
I0107 20:30:37.328591 14840 net.cpp:167] Top shape: 1 224 7 7 (10976)
I0107 20:30:37.328598 14840 layer_factory.hpp:74] Creating layer inception_5a/relu_double_3x3_1
I0107 20:30:37.328600 14840 net.cpp:96] Creating Layer inception_5a/relu_double_3x3_1
I0107 20:30:37.328603 14840 net.cpp:459] inception_5a/relu_double_3x3_1 <- inception_5a/double_3x3_1_bn
I0107 20:30:37.328608 14840 net.cpp:404] inception_5a/relu_double_3x3_1 -> inception_5a/double_3x3_1_bn (in-place)
I0107 20:30:37.328611 14840 net.cpp:160] Setting up inception_5a/relu_double_3x3_1
I0107 20:30:37.328614 14840 net.cpp:167] Top shape: 1 224 7 7 (10976)
I0107 20:30:37.328618 14840 layer_factory.hpp:74] Creating layer inception_5a/double_3x3_2
I0107 20:30:37.328621 14840 net.cpp:96] Creating Layer inception_5a/double_3x3_2
I0107 20:30:37.328624 14840 net.cpp:459] inception_5a/double_3x3_2 <- inception_5a/double_3x3_1_bn
I0107 20:30:37.328629 14840 net.cpp:415] inception_5a/double_3x3_2 -> inception_5a/double_3x3_2
I0107 20:30:37.328632 14840 net.cpp:160] Setting up inception_5a/double_3x3_2
I0107 20:30:37.330590 14840 net.cpp:167] Top shape: 1 224 7 7 (10976)
I0107 20:30:37.330600 14840 layer_factory.hpp:74] Creating layer inception_5a/double_3x3_2_bn
I0107 20:30:37.330603 14840 layer_factory.cpp:177] Layer inception_5a/double_3x3_2_bn is using CAFFE engine.
I0107 20:30:37.330608 14840 net.cpp:96] Creating Layer inception_5a/double_3x3_2_bn
I0107 20:30:37.330611 14840 net.cpp:459] inception_5a/double_3x3_2_bn <- inception_5a/double_3x3_2
I0107 20:30:37.330615 14840 net.cpp:415] inception_5a/double_3x3_2_bn -> inception_5a/double_3x3_2_bn
I0107 20:30:37.330621 14840 net.cpp:160] Setting up inception_5a/double_3x3_2_bn
I0107 20:30:37.330631 14840 net.cpp:167] Top shape: 1 224 7 7 (10976)
I0107 20:30:37.330636 14840 layer_factory.hpp:74] Creating layer inception_5a/relu_double_3x3_2
I0107 20:30:37.330639 14840 net.cpp:96] Creating Layer inception_5a/relu_double_3x3_2
I0107 20:30:37.330642 14840 net.cpp:459] inception_5a/relu_double_3x3_2 <- inception_5a/double_3x3_2_bn
I0107 20:30:37.330646 14840 net.cpp:404] inception_5a/relu_double_3x3_2 -> inception_5a/double_3x3_2_bn (in-place)
I0107 20:30:37.330649 14840 net.cpp:160] Setting up inception_5a/relu_double_3x3_2
I0107 20:30:37.330652 14840 net.cpp:167] Top shape: 1 224 7 7 (10976)
I0107 20:30:37.330656 14840 layer_factory.hpp:74] Creating layer inception_5a/pool
I0107 20:30:37.330659 14840 net.cpp:96] Creating Layer inception_5a/pool
I0107 20:30:37.330662 14840 net.cpp:459] inception_5a/pool <- inception_4e/output_inception_4e/output_0_split_3
I0107 20:30:37.330667 14840 net.cpp:415] inception_5a/pool -> inception_5a/pool
I0107 20:30:37.330670 14840 net.cpp:160] Setting up inception_5a/pool
I0107 20:30:37.330675 14840 net.cpp:167] Top shape: 1 1056 7 7 (51744)
I0107 20:30:37.330678 14840 layer_factory.hpp:74] Creating layer inception_5a/pool_proj
I0107 20:30:37.330683 14840 net.cpp:96] Creating Layer inception_5a/pool_proj
I0107 20:30:37.330687 14840 net.cpp:459] inception_5a/pool_proj <- inception_5a/pool
I0107 20:30:37.330690 14840 net.cpp:415] inception_5a/pool_proj -> inception_5a/pool_proj
I0107 20:30:37.330694 14840 net.cpp:160] Setting up inception_5a/pool_proj
I0107 20:30:37.331282 14840 net.cpp:167] Top shape: 1 128 7 7 (6272)
I0107 20:30:37.331290 14840 layer_factory.hpp:74] Creating layer inception_5a/pool_proj_bn
I0107 20:30:37.331292 14840 layer_factory.cpp:177] Layer inception_5a/pool_proj_bn is using CAFFE engine.
I0107 20:30:37.331297 14840 net.cpp:96] Creating Layer inception_5a/pool_proj_bn
I0107 20:30:37.331300 14840 net.cpp:459] inception_5a/pool_proj_bn <- inception_5a/pool_proj
I0107 20:30:37.331305 14840 net.cpp:415] inception_5a/pool_proj_bn -> inception_5a/pool_proj_bn
I0107 20:30:37.331308 14840 net.cpp:160] Setting up inception_5a/pool_proj_bn
I0107 20:30:37.331317 14840 net.cpp:167] Top shape: 1 128 7 7 (6272)
I0107 20:30:37.331322 14840 layer_factory.hpp:74] Creating layer inception_5a/relu_pool_proj
I0107 20:30:37.331326 14840 net.cpp:96] Creating Layer inception_5a/relu_pool_proj
I0107 20:30:37.331329 14840 net.cpp:459] inception_5a/relu_pool_proj <- inception_5a/pool_proj_bn
I0107 20:30:37.331333 14840 net.cpp:404] inception_5a/relu_pool_proj -> inception_5a/pool_proj_bn (in-place)
I0107 20:30:37.331337 14840 net.cpp:160] Setting up inception_5a/relu_pool_proj
I0107 20:30:37.331341 14840 net.cpp:167] Top shape: 1 128 7 7 (6272)
I0107 20:30:37.331343 14840 layer_factory.hpp:74] Creating layer inception_5a/output
I0107 20:30:37.331347 14840 net.cpp:96] Creating Layer inception_5a/output
I0107 20:30:37.331351 14840 net.cpp:459] inception_5a/output <- inception_5a/1x1_bn
I0107 20:30:37.331353 14840 net.cpp:459] inception_5a/output <- inception_5a/3x3_bn
I0107 20:30:37.331357 14840 net.cpp:459] inception_5a/output <- inception_5a/double_3x3_2_bn
I0107 20:30:37.331360 14840 net.cpp:459] inception_5a/output <- inception_5a/pool_proj_bn
I0107 20:30:37.331363 14840 net.cpp:415] inception_5a/output -> inception_5a/output
I0107 20:30:37.331367 14840 net.cpp:160] Setting up inception_5a/output
I0107 20:30:37.331372 14840 net.cpp:167] Top shape: 1 1024 7 7 (50176)
I0107 20:30:37.331374 14840 layer_factory.hpp:74] Creating layer inception_5a/output_inception_5a/output_0_split
I0107 20:30:37.331382 14840 net.cpp:96] Creating Layer inception_5a/output_inception_5a/output_0_split
I0107 20:30:37.331385 14840 net.cpp:459] inception_5a/output_inception_5a/output_0_split <- inception_5a/output
I0107 20:30:37.331390 14840 net.cpp:415] inception_5a/output_inception_5a/output_0_split -> inception_5a/output_inception_5a/output_0_split_0
I0107 20:30:37.331394 14840 net.cpp:415] inception_5a/output_inception_5a/output_0_split -> inception_5a/output_inception_5a/output_0_split_1
I0107 20:30:37.331399 14840 net.cpp:415] inception_5a/output_inception_5a/output_0_split -> inception_5a/output_inception_5a/output_0_split_2
I0107 20:30:37.331403 14840 net.cpp:415] inception_5a/output_inception_5a/output_0_split -> inception_5a/output_inception_5a/output_0_split_3
I0107 20:30:37.331406 14840 net.cpp:160] Setting up inception_5a/output_inception_5a/output_0_split
I0107 20:30:37.331411 14840 net.cpp:167] Top shape: 1 1024 7 7 (50176)
I0107 20:30:37.331414 14840 net.cpp:167] Top shape: 1 1024 7 7 (50176)
I0107 20:30:37.331418 14840 net.cpp:167] Top shape: 1 1024 7 7 (50176)
I0107 20:30:37.331420 14840 net.cpp:167] Top shape: 1 1024 7 7 (50176)
I0107 20:30:37.331423 14840 layer_factory.hpp:74] Creating layer inception_5b/1x1
I0107 20:30:37.331428 14840 net.cpp:96] Creating Layer inception_5b/1x1
I0107 20:30:37.331430 14840 net.cpp:459] inception_5b/1x1 <- inception_5a/output_inception_5a/output_0_split_0
I0107 20:30:37.331434 14840 net.cpp:415] inception_5b/1x1 -> inception_5b/1x1
I0107 20:30:37.331439 14840 net.cpp:160] Setting up inception_5b/1x1
I0107 20:30:37.332998 14840 net.cpp:167] Top shape: 1 352 7 7 (17248)
I0107 20:30:37.333003 14840 layer_factory.hpp:74] Creating layer inception_5b/1x1_bn
I0107 20:30:37.333006 14840 layer_factory.cpp:177] Layer inception_5b/1x1_bn is using CAFFE engine.
I0107 20:30:37.333010 14840 net.cpp:96] Creating Layer inception_5b/1x1_bn
I0107 20:30:37.333014 14840 net.cpp:459] inception_5b/1x1_bn <- inception_5b/1x1
I0107 20:30:37.333019 14840 net.cpp:415] inception_5b/1x1_bn -> inception_5b/1x1_bn
I0107 20:30:37.333024 14840 net.cpp:160] Setting up inception_5b/1x1_bn
I0107 20:30:37.333034 14840 net.cpp:167] Top shape: 1 352 7 7 (17248)
I0107 20:30:37.333039 14840 layer_factory.hpp:74] Creating layer inception_5b/relu_1x1
I0107 20:30:37.333043 14840 net.cpp:96] Creating Layer inception_5b/relu_1x1
I0107 20:30:37.333046 14840 net.cpp:459] inception_5b/relu_1x1 <- inception_5b/1x1_bn
I0107 20:30:37.333050 14840 net.cpp:404] inception_5b/relu_1x1 -> inception_5b/1x1_bn (in-place)
I0107 20:30:37.333053 14840 net.cpp:160] Setting up inception_5b/relu_1x1
I0107 20:30:37.333056 14840 net.cpp:167] Top shape: 1 352 7 7 (17248)
I0107 20:30:37.333060 14840 layer_factory.hpp:74] Creating layer inception_5b/3x3_reduce
I0107 20:30:37.333063 14840 net.cpp:96] Creating Layer inception_5b/3x3_reduce
I0107 20:30:37.333066 14840 net.cpp:459] inception_5b/3x3_reduce <- inception_5a/output_inception_5a/output_0_split_1
I0107 20:30:37.333070 14840 net.cpp:415] inception_5b/3x3_reduce -> inception_5b/3x3_reduce
I0107 20:30:37.333076 14840 net.cpp:160] Setting up inception_5b/3x3_reduce
I0107 20:30:37.333931 14840 net.cpp:167] Top shape: 1 192 7 7 (9408)
I0107 20:30:37.333937 14840 layer_factory.hpp:74] Creating layer inception_5b/3x3_reduce_bn
I0107 20:30:37.333940 14840 layer_factory.cpp:177] Layer inception_5b/3x3_reduce_bn is using CAFFE engine.
I0107 20:30:37.333945 14840 net.cpp:96] Creating Layer inception_5b/3x3_reduce_bn
I0107 20:30:37.333948 14840 net.cpp:459] inception_5b/3x3_reduce_bn <- inception_5b/3x3_reduce
I0107 20:30:37.333952 14840 net.cpp:415] inception_5b/3x3_reduce_bn -> inception_5b/3x3_reduce_bn
I0107 20:30:37.333956 14840 net.cpp:160] Setting up inception_5b/3x3_reduce_bn
I0107 20:30:37.333967 14840 net.cpp:167] Top shape: 1 192 7 7 (9408)
I0107 20:30:37.333972 14840 layer_factory.hpp:74] Creating layer inception_5b/relu_3x3_reduce
I0107 20:30:37.333976 14840 net.cpp:96] Creating Layer inception_5b/relu_3x3_reduce
I0107 20:30:37.333981 14840 net.cpp:459] inception_5b/relu_3x3_reduce <- inception_5b/3x3_reduce_bn
I0107 20:30:37.333986 14840 net.cpp:404] inception_5b/relu_3x3_reduce -> inception_5b/3x3_reduce_bn (in-place)
I0107 20:30:37.333989 14840 net.cpp:160] Setting up inception_5b/relu_3x3_reduce
I0107 20:30:37.333992 14840 net.cpp:167] Top shape: 1 192 7 7 (9408)
I0107 20:30:37.333995 14840 layer_factory.hpp:74] Creating layer inception_5b/3x3
I0107 20:30:37.333999 14840 net.cpp:96] Creating Layer inception_5b/3x3
I0107 20:30:37.334002 14840 net.cpp:459] inception_5b/3x3 <- inception_5b/3x3_reduce_bn
I0107 20:30:37.334007 14840 net.cpp:415] inception_5b/3x3 -> inception_5b/3x3
I0107 20:30:37.334012 14840 net.cpp:160] Setting up inception_5b/3x3
I0107 20:30:37.336395 14840 net.cpp:167] Top shape: 1 320 7 7 (15680)
I0107 20:30:37.336402 14840 layer_factory.hpp:74] Creating layer inception_5b/3x3_bn
I0107 20:30:37.336405 14840 layer_factory.cpp:177] Layer inception_5b/3x3_bn is using CAFFE engine.
I0107 20:30:37.336410 14840 net.cpp:96] Creating Layer inception_5b/3x3_bn
I0107 20:30:37.336413 14840 net.cpp:459] inception_5b/3x3_bn <- inception_5b/3x3
I0107 20:30:37.336417 14840 net.cpp:415] inception_5b/3x3_bn -> inception_5b/3x3_bn
I0107 20:30:37.336421 14840 net.cpp:160] Setting up inception_5b/3x3_bn
I0107 20:30:37.336431 14840 net.cpp:167] Top shape: 1 320 7 7 (15680)
I0107 20:30:37.336437 14840 layer_factory.hpp:74] Creating layer inception_5b/relu_3x3
I0107 20:30:37.336441 14840 net.cpp:96] Creating Layer inception_5b/relu_3x3
I0107 20:30:37.336444 14840 net.cpp:459] inception_5b/relu_3x3 <- inception_5b/3x3_bn
I0107 20:30:37.336447 14840 net.cpp:404] inception_5b/relu_3x3 -> inception_5b/3x3_bn (in-place)
I0107 20:30:37.336450 14840 net.cpp:160] Setting up inception_5b/relu_3x3
I0107 20:30:37.336454 14840 net.cpp:167] Top shape: 1 320 7 7 (15680)
I0107 20:30:37.336457 14840 layer_factory.hpp:74] Creating layer inception_5b/double_3x3_reduce
I0107 20:30:37.336462 14840 net.cpp:96] Creating Layer inception_5b/double_3x3_reduce
I0107 20:30:37.336464 14840 net.cpp:459] inception_5b/double_3x3_reduce <- inception_5a/output_inception_5a/output_0_split_2
I0107 20:30:37.336468 14840 net.cpp:415] inception_5b/double_3x3_reduce -> inception_5b/double_3x3_reduce
I0107 20:30:37.336472 14840 net.cpp:160] Setting up inception_5b/double_3x3_reduce
I0107 20:30:37.337324 14840 net.cpp:167] Top shape: 1 192 7 7 (9408)
I0107 20:30:37.337330 14840 layer_factory.hpp:74] Creating layer inception_5b/double_3x3_reduce_bn
I0107 20:30:37.337332 14840 layer_factory.cpp:177] Layer inception_5b/double_3x3_reduce_bn is using CAFFE engine.
I0107 20:30:37.337337 14840 net.cpp:96] Creating Layer inception_5b/double_3x3_reduce_bn
I0107 20:30:37.337340 14840 net.cpp:459] inception_5b/double_3x3_reduce_bn <- inception_5b/double_3x3_reduce
I0107 20:30:37.337344 14840 net.cpp:415] inception_5b/double_3x3_reduce_bn -> inception_5b/double_3x3_reduce_bn
I0107 20:30:37.337349 14840 net.cpp:160] Setting up inception_5b/double_3x3_reduce_bn
I0107 20:30:37.337358 14840 net.cpp:167] Top shape: 1 192 7 7 (9408)
I0107 20:30:37.337364 14840 layer_factory.hpp:74] Creating layer inception_5b/relu_double_3x3_reduce
I0107 20:30:37.337368 14840 net.cpp:96] Creating Layer inception_5b/relu_double_3x3_reduce
I0107 20:30:37.337370 14840 net.cpp:459] inception_5b/relu_double_3x3_reduce <- inception_5b/double_3x3_reduce_bn
I0107 20:30:37.337374 14840 net.cpp:404] inception_5b/relu_double_3x3_reduce -> inception_5b/double_3x3_reduce_bn (in-place)
I0107 20:30:37.337378 14840 net.cpp:160] Setting up inception_5b/relu_double_3x3_reduce
I0107 20:30:37.337380 14840 net.cpp:167] Top shape: 1 192 7 7 (9408)
I0107 20:30:37.337383 14840 layer_factory.hpp:74] Creating layer inception_5b/double_3x3_1
I0107 20:30:37.337388 14840 net.cpp:96] Creating Layer inception_5b/double_3x3_1
I0107 20:30:37.337391 14840 net.cpp:459] inception_5b/double_3x3_1 <- inception_5b/double_3x3_reduce_bn
I0107 20:30:37.337395 14840 net.cpp:415] inception_5b/double_3x3_1 -> inception_5b/double_3x3_1
I0107 20:30:37.337402 14840 net.cpp:160] Setting up inception_5b/double_3x3_1
I0107 20:30:37.339082 14840 net.cpp:167] Top shape: 1 224 7 7 (10976)
I0107 20:30:37.339088 14840 layer_factory.hpp:74] Creating layer inception_5b/double_3x3_1_bn
I0107 20:30:37.339092 14840 layer_factory.cpp:177] Layer inception_5b/double_3x3_1_bn is using CAFFE engine.
I0107 20:30:37.339098 14840 net.cpp:96] Creating Layer inception_5b/double_3x3_1_bn
I0107 20:30:37.339102 14840 net.cpp:459] inception_5b/double_3x3_1_bn <- inception_5b/double_3x3_1
I0107 20:30:37.339107 14840 net.cpp:415] inception_5b/double_3x3_1_bn -> inception_5b/double_3x3_1_bn
I0107 20:30:37.339112 14840 net.cpp:160] Setting up inception_5b/double_3x3_1_bn
I0107 20:30:37.339120 14840 net.cpp:167] Top shape: 1 224 7 7 (10976)
I0107 20:30:37.339125 14840 layer_factory.hpp:74] Creating layer inception_5b/relu_double_3x3_1
I0107 20:30:37.339129 14840 net.cpp:96] Creating Layer inception_5b/relu_double_3x3_1
I0107 20:30:37.339133 14840 net.cpp:459] inception_5b/relu_double_3x3_1 <- inception_5b/double_3x3_1_bn
I0107 20:30:37.339136 14840 net.cpp:404] inception_5b/relu_double_3x3_1 -> inception_5b/double_3x3_1_bn (in-place)
I0107 20:30:37.339140 14840 net.cpp:160] Setting up inception_5b/relu_double_3x3_1
I0107 20:30:37.339143 14840 net.cpp:167] Top shape: 1 224 7 7 (10976)
I0107 20:30:37.339146 14840 layer_factory.hpp:74] Creating layer inception_5b/double_3x3_2
I0107 20:30:37.339150 14840 net.cpp:96] Creating Layer inception_5b/double_3x3_2
I0107 20:30:37.339154 14840 net.cpp:459] inception_5b/double_3x3_2 <- inception_5b/double_3x3_1_bn
I0107 20:30:37.339156 14840 net.cpp:415] inception_5b/double_3x3_2 -> inception_5b/double_3x3_2
I0107 20:30:37.339160 14840 net.cpp:160] Setting up inception_5b/double_3x3_2
I0107 20:30:37.341105 14840 net.cpp:167] Top shape: 1 224 7 7 (10976)
I0107 20:30:37.341112 14840 layer_factory.hpp:74] Creating layer inception_5b/double_3x3_2_bn
I0107 20:30:37.341115 14840 layer_factory.cpp:177] Layer inception_5b/double_3x3_2_bn is using CAFFE engine.
I0107 20:30:37.341120 14840 net.cpp:96] Creating Layer inception_5b/double_3x3_2_bn
I0107 20:30:37.341122 14840 net.cpp:459] inception_5b/double_3x3_2_bn <- inception_5b/double_3x3_2
I0107 20:30:37.341127 14840 net.cpp:415] inception_5b/double_3x3_2_bn -> inception_5b/double_3x3_2_bn
I0107 20:30:37.341131 14840 net.cpp:160] Setting up inception_5b/double_3x3_2_bn
I0107 20:30:37.341141 14840 net.cpp:167] Top shape: 1 224 7 7 (10976)
I0107 20:30:37.341146 14840 layer_factory.hpp:74] Creating layer inception_5b/relu_double_3x3_2
I0107 20:30:37.341150 14840 net.cpp:96] Creating Layer inception_5b/relu_double_3x3_2
I0107 20:30:37.341152 14840 net.cpp:459] inception_5b/relu_double_3x3_2 <- inception_5b/double_3x3_2_bn
I0107 20:30:37.341156 14840 net.cpp:404] inception_5b/relu_double_3x3_2 -> inception_5b/double_3x3_2_bn (in-place)
I0107 20:30:37.341161 14840 net.cpp:160] Setting up inception_5b/relu_double_3x3_2
I0107 20:30:37.341163 14840 net.cpp:167] Top shape: 1 224 7 7 (10976)
I0107 20:30:37.341166 14840 layer_factory.hpp:74] Creating layer inception_5b/pool
I0107 20:30:37.341171 14840 net.cpp:96] Creating Layer inception_5b/pool
I0107 20:30:37.341173 14840 net.cpp:459] inception_5b/pool <- inception_5a/output_inception_5a/output_0_split_3
I0107 20:30:37.341177 14840 net.cpp:415] inception_5b/pool -> inception_5b/pool
I0107 20:30:37.341181 14840 net.cpp:160] Setting up inception_5b/pool
I0107 20:30:37.341187 14840 net.cpp:167] Top shape: 1 1024 7 7 (50176)
I0107 20:30:37.341190 14840 layer_factory.hpp:74] Creating layer inception_5b/pool_proj
I0107 20:30:37.341194 14840 net.cpp:96] Creating Layer inception_5b/pool_proj
I0107 20:30:37.341197 14840 net.cpp:459] inception_5b/pool_proj <- inception_5b/pool
I0107 20:30:37.341202 14840 net.cpp:415] inception_5b/pool_proj -> inception_5b/pool_proj
I0107 20:30:37.341207 14840 net.cpp:160] Setting up inception_5b/pool_proj
I0107 20:30:37.341766 14840 net.cpp:167] Top shape: 1 128 7 7 (6272)
I0107 20:30:37.341771 14840 layer_factory.hpp:74] Creating layer inception_5b/pool_proj_bn
I0107 20:30:37.341778 14840 layer_factory.cpp:177] Layer inception_5b/pool_proj_bn is using CAFFE engine.
I0107 20:30:37.341781 14840 net.cpp:96] Creating Layer inception_5b/pool_proj_bn
I0107 20:30:37.341784 14840 net.cpp:459] inception_5b/pool_proj_bn <- inception_5b/pool_proj
I0107 20:30:37.341789 14840 net.cpp:415] inception_5b/pool_proj_bn -> inception_5b/pool_proj_bn
I0107 20:30:37.341794 14840 net.cpp:160] Setting up inception_5b/pool_proj_bn
I0107 20:30:37.341804 14840 net.cpp:167] Top shape: 1 128 7 7 (6272)
I0107 20:30:37.341809 14840 layer_factory.hpp:74] Creating layer inception_5b/relu_pool_proj
I0107 20:30:37.341814 14840 net.cpp:96] Creating Layer inception_5b/relu_pool_proj
I0107 20:30:37.341816 14840 net.cpp:459] inception_5b/relu_pool_proj <- inception_5b/pool_proj_bn
I0107 20:30:37.341820 14840 net.cpp:404] inception_5b/relu_pool_proj -> inception_5b/pool_proj_bn (in-place)
I0107 20:30:37.341823 14840 net.cpp:160] Setting up inception_5b/relu_pool_proj
I0107 20:30:37.341827 14840 net.cpp:167] Top shape: 1 128 7 7 (6272)
I0107 20:30:37.341830 14840 layer_factory.hpp:74] Creating layer inception_5b/output
I0107 20:30:37.341838 14840 net.cpp:96] Creating Layer inception_5b/output
I0107 20:30:37.341841 14840 net.cpp:459] inception_5b/output <- inception_5b/1x1_bn
I0107 20:30:37.341845 14840 net.cpp:459] inception_5b/output <- inception_5b/3x3_bn
I0107 20:30:37.341847 14840 net.cpp:459] inception_5b/output <- inception_5b/double_3x3_2_bn
I0107 20:30:37.341850 14840 net.cpp:459] inception_5b/output <- inception_5b/pool_proj_bn
I0107 20:30:37.341853 14840 net.cpp:415] inception_5b/output -> inception_5b/output
I0107 20:30:37.341857 14840 net.cpp:160] Setting up inception_5b/output
I0107 20:30:37.341862 14840 net.cpp:167] Top shape: 1 1024 7 7 (50176)
I0107 20:30:37.341866 14840 layer_factory.hpp:74] Creating layer global_pool
I0107 20:30:37.341871 14840 net.cpp:96] Creating Layer global_pool
I0107 20:30:37.341873 14840 net.cpp:459] global_pool <- inception_5b/output
I0107 20:30:37.341877 14840 net.cpp:415] global_pool -> global_pool
I0107 20:30:37.341881 14840 net.cpp:160] Setting up global_pool
I0107 20:30:37.341886 14840 net.cpp:167] Top shape: 1 1024 1 1 (1024)
I0107 20:30:37.341888 14840 layer_factory.hpp:74] Creating layer dropout
I0107 20:30:37.341893 14840 net.cpp:96] Creating Layer dropout
I0107 20:30:37.341895 14840 net.cpp:459] dropout <- global_pool
I0107 20:30:37.341899 14840 net.cpp:404] dropout -> global_pool (in-place)
I0107 20:30:37.341902 14840 net.cpp:160] Setting up dropout
I0107 20:30:37.341907 14840 net.cpp:167] Top shape: 1 1024 1 1 (1024)
I0107 20:30:37.341909 14840 layer_factory.hpp:74] Creating layer fc-action
I0107 20:30:37.341914 14840 net.cpp:96] Creating Layer fc-action
I0107 20:30:37.341917 14840 net.cpp:459] fc-action <- global_pool
I0107 20:30:37.341922 14840 net.cpp:415] fc-action -> fc-action
I0107 20:30:37.341927 14840 net.cpp:160] Setting up fc-action
I0107 20:30:37.343719 14840 net.cpp:167] Top shape: 1 101 (101)
I0107 20:30:37.343725 14840 net.cpp:241] fc-action does not need backward computation.
I0107 20:30:37.343729 14840 net.cpp:241] dropout does not need backward computation.
I0107 20:30:37.343731 14840 net.cpp:241] global_pool does not need backward computation.
I0107 20:30:37.343734 14840 net.cpp:241] inception_5b/output does not need backward computation.
I0107 20:30:37.343737 14840 net.cpp:241] inception_5b/relu_pool_proj does not need backward computation.
…
